NN Real data/K models/93F1_4layerDeep_K.pth (torch, 56231 bytes, 10 tensors)

weight f4 [60, 20]
-0.20879571 0.107693054 -0.17865485 0.22367829 0.74636745 0.0058528106 0.032573078 0.0017440991
0.1064298 0.27373588 0.047730673 -0.26356274 -0.35648027 -0.29589254 0.25378677 0.24088828
-0.30599698 -0.42269456 -0.41229972 0.06573178 0.09455629 0.22017074 -0.27125522 -0.23624454
-0.0676998 -0.0057336376 -0.034227557 0.0041992944 -0.23341142 0.1743135 0.21689953 -0.23635608
-0.1516522 -0.36254144 -0.1601447 0.084999524 -0.2746132 -0.23491031 -0.16004369 -0.31917143
0.66779697 -0.18973804 -0.116035126 -0.16780864 0.5017799 0.1255948 -0.35846907 0.24037997
-0.045258727 0.01564359 0.08048571 0.012445106 0.40119824 -0.3874155 -0.08755369 -0.0316838
-0.22997601 0.5803813 -0.161015 -0.15856923 0.015126722 -0.31920514 -0.30779058 -0.37014386
-0.26920223 -0.19599278 -0.14116384 0.26551414 -0.25433823 -0.027883446 0.026643 0.36958757
0.24818851 -0.048677247 0.2726845 -0.3426597 0.20694183 0.066560596 -0.09395383 0.44783556
-0.3798016 0.41628346 0.2488457 0.16157195 0.51540244 -0.16162315 -0.09102593 0.11865216
-0.34458596 0.17800425 0.112437 -0.19048212 -0.3401925 -0.17682697 0.11335388 0.03348483
-0.49109462 -0.12565115 -0.33982313 0.012072277 0.03976262 -0.29142654 0.5089728 -0.18379594
-0.6867646 -0.27352214 -0.19627324 -0.003963985 -0.036247414 -0.4975739 0.030819807 0.15580285
0.045937113 -0.2073733 -0.28380218 -0.30678734 0.0735375 -0.25832236 -0.05543398 -0.31345177
-0.40804204 0.31070393 0.04820889 0.08085957 0.32276034 -0.08851743 0.23856758 0.25300136
-0.2369093 0.14685282 -0.21206574 -0.16546962 -0.17837869 -0.15450275 0.30656663 -0.067026936
-0.23836489 0.123329766 0.0699504 0.24180056 0.109620616 0.2400711 -0.21615455 -0.13124299
-0.9551327 -0.0398275 0.38907495 -0.21243404 -0.11209562 -0.38205954 -0.02282614 0.22247866
-0.037752844 -0.13291705 -0.31286806 -0.07748937 0.2673678 0.32887813 0.37080196 -0.09257824
0.38410324 -0.015647037 0.16928528 -0.33686864 0.20680335 0.5726133 -0.4283236 -0.15721792
0.46528837 -0.27615705 0.31232682 -0.20314956 -0.01935013 0.38183865 0.1719598 0.5147324
-0.3048057 -0.36189008 0.69191855 0.15134925 -0.06911147 -0.34300452 -0.06842722 -0.33073306
-0.505896 0.23065652 0.114544995 0.03288578 -0.39358875 -0.22091164 0.23311703 0.18396303
-0.34401646 0.074915595 0.041020826 -0.15702565 0.076145515 -0.3643187 0.13625893 -0.0027840144
0.07473157 -0.47215453 -0.0043741455 -0.120192625 -0.47315553 -0.15272784 -0.24938752 -0.06297154
-0.23853156 -0.21383794 0.25350136 0.19069743 -0.22708066 -0.0446546 -0.18885432 0.25773495
-0.10160906 -0.009353543 0.079527915 0.020460956 0.37219182 -0.030640857 -0.4964572 0.33628708
0.05618258 -0.0528691 0.01098831 0.03631699 0.035923887 0.14239731 -0.06665089 0.06576101
0.16741548 0.00744943 0.33659482 -0.14988245 -0.2130436 0.2625848 -0.07129608 0.075969785
-0.17943686 -0.42271286 -0.012628926 -0.5117726 -0.37790662 -0.115735866 0.02679913 -0.11555959
-0.17518045 -0.3794418 -0.04579369 0.14417598 -0.05599036 -0.039874326 -0.20124324 0.011947965
00000000: 8bce 55be 2d8e dc3d 4cf1 36be ec0b 653e
00000010: f011 3f3f efc8 bf3b 596b 053d 419a e43a
00000020: def7 d93d 1c27 8c3e 3d81 433d b2f1 86be
00000030: 9584 b6be 3a7f 97be 57f0 813e 6bab 763e
00000040: a3ab 9cbe 6c6b d8be f318 d3be 629e 863d
00000050: baa6 c13d 7074 613e f7e1 8abe 17ea 71be
00000060: 31a6 8abd 3de1 bbbb 3232 0cbd 3c9a 893b
00000070: 6703 6fbe 3d7f 323e e91a 5e3e 5407 72be
00000080: b74a 1bbe 089f b9be f9fc 23be 3b14 ae3d
00000090: 1a9a 8cbe 548c 70be 7ee2 23be 706a a3be
000000a0: bef4 2a3f b04a 42be d3a3 edbd 07d6 2bbe
000000b0: a674 003f ec9b 003e 4289 b7be 2b26 763e
000000c0: 3761 39bd fc26 803c b1d5 a43d 8fe6 4b3c
000000d0: db69 cd3e 535b c6be 594f b3bd dfc6 01bd
000000e0: d57e 6bbe de93 143f 1ee1 24be f95f 22be
000000f0: 12d6 773c db6e a3be ba96 9dbe 7f83 bdbe
00000100: e0d4 89be 55b2 48be 418d 10be 78f1 873e
00000110: 9f38 82be d36b e4bc 6c42 da3c 953a bd3e
00000120: 2125 7e3e cb61 47bd 4e9d 8b3e 1871 afbe
00000130: 8fe8 533e ec50 883d de6a c0bd b44a e53e
00000140: 5b75 c2be 1b23 d53e 68d1 7e3e 1e73 253e
00000150: 6af1 033f 8a80 25be ce6b babd e7ff f23d
00000160: 926d b0be bf46 363e 5f45 e63d bf0d 43be
00000170: b62d aebe 2112 35be 1426 e83d 6427 093d
00000180: c170 fbbe b2aa 00be 4cfd adbe cdca 453c
00000190: 21de 223d dc35 95be 0b4c 023f 0135 3cbe
000001a0: cecf 2fbf 180b 8cbe dafb 48be 51e4 81bb
000001b0: 2b78 14bd 02c2 febe d279 fc3c c88a 1f3e
000001c0: 8e28 3c3d ab59 54be 854e 91be 3b13 9dbe
000001d0: d49a 963d d442 84be be0e 63bd c07c a0be
000001e0: e3ea d0be 9614 9f3e af76 453d b499 a53d
000001f0: d840 a53e a048 b5bd 0f4b 743e 6589 813e
00000200: 5a98 72be 9660 163e c327 59be de70 29be
00000210: e7a8 36be f835 1ebe 4df6 9c3e 6b45 89bd
00000220: ed15 74be 5194 fc3d 2842 8f3d 919a 773e
00000230: c680 e03d 33d5 753e 9e57 5dbe 9064 06be
00000240: 9483 74bf 2922 23bd d534 c73e 4f88 59be
00000250: 6392 e5bd 4f9d c3be e3fd babc 72d1 633e
00000260: baa2 1abd 681b 08be 3e30 a0be bfb2 9ebd
00000270: 6fe4 883e b762 a83e c1d9 bd3e a999 bdbd
00000280: 2ea9 c43e 372e 80bc 1f59 2d3e 0c7a acbe
00000290: 42c4 533e c996 123f 3b4d dbbe bcfd 20be
000002a0: 473a ee3e 7564 8dbe 4de9 9f3e 7006 50be
000002b0: 2a84 9ebc 5b80 c33e 3b16 303e 81c5 033f
000002c0: 7e0f 9cbe a849 b9be 9321 313f 4cfb 1a3e
000002d0: 508a 8dbd 4a9e afbe 9223 8cbd d855 a9be
000002e0: 6682 01bf 3931 6c3e 9196 ea3d 3db3 063d
000002f0: 7784 c9be a936 62be 3bb6 6e3e ce60 3c3e
00000300: ed22 b0be 596d 993d 7405 283d 55cb 20be
00000310: 2ef2 9b3d fb87 babe 7687 0b3e 0374 36bb
00000320: de0c 993d 3dbe f1be fe54 8fbb 8d27 f6bd
00000330: 7141 f2be b064 1cbe 715f 7fbe 39f7 80bd
00000340: 9e41 74be 55f8 5abe eeca 813e 3046 433e
00000350: d587 68be bee7 36bd 0763 41be d6f5 833e
00000360: 6918 d0bd 9a3f 19bc 88df a23d bc9d a73c
00000370: ed8f be3e 8902 fbbc a32f febe d22d ac3e
00000380: b41f 663d 458d 58bd 5008 343c 20c1 143d
00000390: ed24 133d 9ad0 113e 4380 88bd b5ad 863d
000003a0: f76e 2b3e 591a f43b 2856 ac3e c97a 19be
000003b0: 1a28 5abe 8471 863e ae03 92bd 0c96 9b3d
000003c0: 4cbe 37be d26d d8be 8ee9 4ebc 8703 03bf
000003d0: fa7c c1be ed06 edbd d989 db3c 82aa ecbd
000003e0: 8162 33be 3246 c2be 2a92 3bbd dea2 133e
000003f0: 2656 65bd 4353 23bd b512 4ebe 66c1 433c

bias f4 [60]
0.07734887 -0.06921523 0.2153961 -0.066804685 0.10208689 0.101743706 -0.006751457 0.04205174
0.016036356 0.21736264 0.26303172 0.22088224 0.2636446 0.028842924 0.00468455 0.15985008
0.17439349 0.1085216 0.18960854 0.07268556 -0.023743019 0.18845226 -0.0419779 -0.17610456
0.08370307 0.08101599 0.030364156 -0.104951374 0.0069070784 0.15036426 0.10270908 0.3201451
0.21359669 0.14129567 -0.0024150352 0.12980646 0.09082348 -0.019036176 -0.078726344 0.06677018
0.048374183 0.15702428 -0.16442525 0.18039005 0.04086754 0.13424699 0.09449787 0.18411209
0.19239396 -0.04562736 0.2031645 0.24735217 0.004653988 0.1729908 0.089225955 -0.015555949
0.29499024 -0.096180186 0.14314255 0.079841174
00000000: 1669 9e3d b7c0 8dbd cc90 5c3e e5d0 88bd
00000010: ee12 d13d 015f d03d 543b ddbb 723e 2c3d
00000020: ad5e 833c 5094 5e3e 18ac 863e f42e 623e
00000030: 6dfc 863e ff47 ec3c db80 993b bdaf 233e
00000040: 3594 323e 9340 de3d be28 423e 2bdc 943d
00000050: b880 c2bc a1f9 403e 05f1 2bbd c154 34be
00000060: 846c ab3d b6eb a53d 40be f83c bff0 d6bd
00000070: c654 e23b 17f9 193e 2359 d23d 0fea a33e
00000080: 17b9 5a3e d0af 103e 9145 1ebb fceb 043e
00000090: a901 ba3d c1f1 9bbc 473b a1bd cebe 883d
000000a0: 0224 463d f9ca 203e 185f 28be 2bb8 383e
000000b0: b964 273d 0b78 093e 1988 c13d e187 3c3e
000000c0: ec02 453e c1e3 3abd 5b0a 503e e349 7d3e
000000d0: 7b80 983b 8024 313e 19bc b63d 61de 7ebc
000000e0: f608 973e 1efa c4bd f693 123e c583 a33d

weight f4 [60, 60]
0.0012019528 -0.0779103 -0.052552212 0.25386408 -0.17177257 -0.05733116 -0.1689508 0.8159708
-0.24738912 0.05297848 0.2807325 -0.06607446 0.11779617 0.13706371 0.11220151 0.0062712515
-0.22419958 0.26500002 0.3078971 0.19730665 0.17922787 -0.05032591 0.087349966 -0.19511907
-0.45774576 -0.08612032 0.40568677 0.20806481 0.32386255 -0.1500322 0.5101193 -0.07926753
-0.16371365 0.17811748 0.016977102 -0.099596076 -0.053667523 -0.26641157 0.22954689 -0.63354737
-0.008122836 -0.07646241 0.2719813 -0.0981536 0.34328794 -0.057566274 0.30835468 0.20121726
0.06869351 0.11858788 0.06106941 0.22823861 -0.124728 0.0017383829 0.30311948 0.07007864
0.19554782 0.08557597 0.13780776 -0.48510155 0.002918245 0.100464106 0.27946642 0.3459784
-0.17232724 0.068400554 -0.03794224 0.7893624 -0.484255 -0.21803957 0.008702104 0.20107257
0.12823385 0.37464377 0.13930994 -0.076561734 0.02874185 0.18940993 0.22003147 0.01084893
0.30182102 0.085192434 0.030083308 -0.055751808 -0.40853468 -0.15784357 0.16440675 0.3331426
0.46370193 -0.0006534398 0.4312919 -0.1878709 0.098528646 0.348942 0.21762073 0.16583392
-0.08601847 0.039557427 0.21789739 0.12570675 0.26043856 -0.102925025 0.12251541 -0.32835418
-0.016492385 0.23699704 0.4704963 0.1338271 -0.08608041 0.15655564 -0.18907884 0.15266809
-0.20221889 -0.036554284 0.18686092 0.368171 -0.020463062 0.09059137 0.12419653 -0.39662126
0.01605888 0.0772413 0.13029762 0.19202262 -0.29402342 -0.089675434 -0.18663663 0.6154089
-0.20964581 -0.038497947 0.16040686 0.11749614 0.1402616 0.2167923 -0.061829984 -0.019912267
-0.23226324 0.19230214 0.25279897 0.12250438 0.06908262 -0.063663304 -0.036695193 -0.010946628
-0.44138217 -0.06620659 0.21005882 0.08257804 0.09363805 -0.11822357 0.3426165 -0.113502614
-0.10029355 0.30269673 0.12395255 -0.100325294 -0.2222614 -0.056824587 0.19131516 -0.5056314
0.023348944 0.086042196 0.19725446 -0.11886698 0.32309496 -0.031147907 0.43109924 0.018618694
0.047032636 0.0871335 -0.09231665 0.13029337 -0.16845974 0.14664537 0.23617813 0.04184551
0.029015474 0.006907761 0.21775198 -0.53254056 -0.12384275 -0.22744833 0.16025145 0.2951862
-0.2159397 -0.04927608 -0.06340692 0.3715453 -0.11627345 -0.034298074 0.020470468 0.08026731
0.058280785 0.25714436 0.18235655 -0.035664503 -0.1881109 0.07237788 0.18330462 0.09893802
-0.06914179 -0.013026403 -0.11667941 -0.79582065 -0.3162306 -0.08494161 0.10472074 0.26893714
0.17929812 0.012224503 0.28660983 0.043288883 0.16894498 0.18870114 0.076163545 -0.0052552735
-0.086027175 -0.14625493 0.088728406 -0.13988762 0.45207125 0.014984497 0.14725576 -0.11413366
-0.019401114 0.001331292 0.17928714 0.14866498 0.044540152 -0.28400075 0.031114547 0.0074970094
-0.034112014 0.076400876 0.17093863 0.086920895 -0.088085756 -0.059109256 -0.024886219 -0.24602173
-0.006448709 -0.045527227 -0.03879266 0.23078667 -0.19781272 0.20569935 -0.0757111 0.67333716
0.1591019 0.06835689 0.2493473 -0.10376872 0.01731717 -0.05990639 -0.041511673 -0.038745902
00000000: d88a 9d3a 6f8f 9fbd fd40 57bd 79fa 813e
00000010: 26e5 2fbe 14d4 6abd 7001 2dbe 76e3 503f
00000020: 9353 7dbe f6ff 583d 2cbc 8f3e 0c52 87bd
00000030: 1e3f f13d 6e5a 0c3e e8c9 e53d 127f cd3b
00000040: 9394 65be 15ae 873e b0a4 9d3e c10a 4a3e
00000050: 8387 373e 8b22 4ebd 8ae4 b23d 4bcd 47be
00000060: a75d eabe da5f b0bd 2db6 cf3e f10e 553e
00000070: 50d1 a53e 0ba2 19be 2e97 023f 0457 a2bd
00000080: 8da4 27be 6e64 363e 9013 8b3c 07f9 cbbd
00000090: 7ad2 5bbd 1967 88be 570e 6b3e 2930 22bf
000000a0: a515 05bc 5398 9cbd 2241 8b3e c104 c9bd
000000b0: 70c3 af3e 9dca 6bbd aae0 9d3e e60b 4e3e
000000c0: 2faf 8c3d 34de f23d eb23 7a3d 62b7 693e
000000d0: 6571 ffbd 73da e33a 7a32 9b3e 6485 8f3d
000000e0: b03d 483e 7442 af3d 7a1d 0d3e 3b5f f8be
000000f0: 0740 3f3b 20c0 cd3d 3916 8f3e 1524 b13e
00000100: 8d76 30be 9715 8c3d 5269 1bbd a713 4a3f
00000110: 45f0 f7be c445 5fbe 4593 0e3c f8e5 4d3e
00000120: bc4f 033e 4fd1 bf3e 44a7 0e3e 66cc 9cbd
00000130: 0774 eb3c adf4 413e ee4f 613e b6bf 313c
00000140: 4988 9a3e 5f79 ae3d 4571 f63c 025c 64bd
00000150: 752b d1be bfa1 21be 3e5a 283e ab91 aa3e
00000160: 576a ed3e 9a4b 2bba 4bd2 dc3e 3b61 40be
00000170: 63c9 c93d 87a8 b23e f8d7 5e3e 5ed0 293e
00000180: 742a b0bd f806 223d 7e20 5f3e 45b9 003e
00000190: 3458 853e 5bca d2bd 5ce9 fa3d 0a1e a8be
000001a0: 0a1b 87bc 5aaf 723e e4e4 f03e f909 093e
000001b0: ed4a b0bd 1f50 203e e29d 41be 0655 1c3e
000001c0: 7812 4fbe f2b9 15bd 7858 3f3e e980 bc3e
000001d0: 27a2 a7bc f887 b93d c05a fe3d f111 cbbe
000001e0: ea8d 833c b030 9e3d bd6c 053e 94a1 443e
000001f0: 3d8a 96be c1a7 b7bd ac1d 3fbe 708b 1d3f
00000200: 64ad 56be 06b0 1dbd b241 243e d1a1 f03d
00000210: bda0 0f3e cdfe 5d3e 7041 7dbd 0d1f a3bc
00000220: 6ad6 6dbe daea 443e de6e 813e 94e3 fa3d
00000230: 307b 8d3d e861 82bd b34d 16bd 7c59 33bc
00000240: d8fc e1be 5297 87bd a919 573e ad1e a93d
00000250: 4ec5 bf3d 331f f2bd 6e6b af3e 0f74 e8bd
00000260: b466 cdbd 11fb 9a3e d6da fd3d 5977 cdbd
00000270: 7e98 63be e6c0 68bd 1fe8 433e 0f71 01bf
00000280: 4946 bf3c e436 b03d 13fd 493e 8870 f3bd
00000290: b46c a53e e529 ffbc 0ab9 dc3e 3b86 983c
000002a0: 4ba5 403d 0c73 b23d 8310 bdbd a06b 053e
000002b0: b680 2cbe 342a 163e aed8 713e 3366 2b3d
000002c0: dcb1 ed3c 805a e23b 60fa 5e3e 9454 08bf
000002d0: 45a1 fdbd 37e8 68be f518 243e a522 973e
000002e0: 4c1f 5dbe b7d5 49bd 7ddb 81bd 303b be3e
000002f0: c620 eebd 237c 0cbd afb1 a73c 3063 a43d
00000300: d5b7 6e3d 6da8 833e adbb 3a3e f114 12bd
00000310: 25a0 40be db3a 943d 35b4 3b3e 04a0 ca3d
00000320: 369a 8dbd b26c 55bc 9df5 eebd e7ba 4bbf
00000330: fae8 a1be def5 adbd d477 d63d 21b2 893e
00000340: ed99 373e 4849 483c 86be 923e af4f 313d
00000350: eaff 2c3e df3a 413e a2fb 9b3d 6e34 acbb
00000360: 042f b0bd dac3 15be 3db7 b53d b33e 0fbe
00000370: e275 e73e 8981 753c 37ca 163e e9be e9bd
00000380: 16ef 9ebc bf7e ae3a 0c97 373e a23b 183e
00000390: bc6f 363d 8c68 91be efe3 fe3c 79a9 f53b
000003a0: 0ab9 0bbd 1078 9c3d 890a 2f3e 9503 b23d
000003b0: 4e66 b4bd 8c1c 72bd 2fde cbbc 1fed 7bbe
000003c0: b14f d3bb c27a 3abd 0de5 1ebd 5753 6c3e
000003d0: 6b8f 4abe daa2 523e 6c0e 9bbd d35f 2c3f
000003e0: 9ceb 223e b2fe 8b3d e654 7f3e b284 d4bd
000003f0: bddc 8d3c 6760 75bd 2508 2abd 06b4 1ebd

bias f4 [60]
-0.07654716 0.032983895 0.12035859 -0.045288716 0.1332219 0.14863333 0.16023222 0.16603503
0.17423867 -0.07112331 0.09622986 -0.07108132 -0.108197905 -0.019497667 -0.026527712 -0.05142908
0.15690467 0.026205407 -0.021587986 -0.008394373 0.20368305 -0.022181345 -0.07946635 -0.10695468
-0.039627742 -0.029411225 -0.05214495 0.002227552 -0.027042197 0.037566114 0.17385918 0.11787746
-0.0061342716 -0.093004525 -0.011432805 0.08048299 0.0075750877 0.014515845 -0.03216786 0.07919882
0.07844153 0.022097679 -0.14199665 -0.06440311 -0.027254716 -0.22032931 -0.072672315 0.08325308
-0.024627978 0.10381884 0.1226571 0.13894853 -0.016941153 0.026025292 -0.20081541 0.101594575
0.19291441 -0.1098969 -0.023612311 0.0071649402
00000000: c2c4 9cbd 1f1a 073d 907e f63d a980 39bd
00000010: 526b 083e 5633 183e ea13 243e 1605 2a3e
00000020: 9f6b 323e 19a9 91bd 2914 c53d 1593 91bd
00000030: dd96 ddbd 92b9 9fbc a550 d9bc 4da7 52bd
00000040: 9eab 203e b9ac d63c 4ad9 b0bc 8d88 09bc
00000050: 4a92 503e a7b5 b5bc 41bf a2bd 0e0b dbbd
00000060: b350 22bd cfef f0bc f195 55bd 1ffc 113b
00000070: 9987 ddbc edde 193d 2408 323e bd69 f13d
00000080: 0002 c9bb 2879 bebd a950 3bbc 44d4 a43d
00000090: 7138 f83b ded3 6d3c 72c2 03bd fe32 a23d
000000a0: f4a5 a03d 3106 b53c 9267 11be c7e5 83bd
000000b0: 4845 dfbc 029e 61be 39d5 94bd 9780 aa3d
000000c0: 9dc0 c9bc f99e d43d a533 fb3d 8648 0e3e
000000d0: 2cc8 8abc fe32 d53c 8ea2 4dbe d110 d03d
000000e0: 5b8b 453e a011 e1bd 9b6e c1bc e0c7 ea3b

weight f4 [60, 60]
0.10241358 -0.02803685 0.091270685 -0.4637464 -0.14098164 0.08047424 -0.22922386 0.011046128
-0.16597816 0.14612353 -0.0029844157 -0.09798494 0.119550474 0.15241371 0.35936305 0.028635664
0.1711231 -0.5776564 -0.043201584 0.67404604 0.09609869 -0.08869633 -0.7617788 0.016657777
-0.08331086 0.04529321 -0.11394649 0.050600376 -0.050410226 0.13942398 -0.17103866 -0.2182306
-0.14793839 -0.07306624 0.20308785 -0.030501563 0.16818729 0.08022001 0.13955447 0.18481645
0.19019787 0.48458165 0.09318747 -0.08159799 -0.23067261 0.050140902 0.10588995 0.07967965
0.11534172 0.10322636 -0.01128065 -0.09011538 -0.051151223 -0.14851671 -0.34847867 0.13419244
0.07497241 0.15662956 0.062370647 0.038771614 -0.09956043 0.14451712 0.1492318 0.3022277
0.09080814 0.33496135 0.48106137 0.004032402 0.17496587 -0.25056523 0.26528117 0.09940407
-0.20588169 0.1762352 -0.29392076 -0.19207388 -0.10048048 0.053575885 0.016010782 -0.38563475
-0.19653197 0.1593133 0.20194463 -0.05685405 0.10811763 0.055509545 -0.053935245 0.0902222
0.25794137 0.026053527 0.1308893 0.32811233 0.3171619 -0.08392213 -0.2067755 0.34788015
0.12452328 -0.056796715 0.22165515 -0.14327718 -0.31353575 -0.323216 -0.068193145 0.20229633
0.13834728 -0.3828484 0.23003112 -0.17411368 0.22311544 0.2570335 0.11963857 0.21329741
-0.012039187 0.008691593 0.14128415 0.004225416 0.17857608 0.16978185 0.039111108 0.12231906
0.3097017 0.029945137 0.25523847 0.0030360739 0.16124772 0.034237277 -0.066428 0.050187323
0.01342327 0.34998786 0.102271885 0.06787428 -0.19438156 0.16017528 -0.15474637 0.15559363
-0.81636715 -0.5779847 -0.05237074 0.14532517 -1.166531 -0.06753245 -0.36670136 0.10867817
0.05175949 0.19193545 -0.036751553 0.050915916 0.020161666 0.33610192 0.00045603994 0.008523082
0.27063292 0.21468376 -0.09898936 -0.0055104042 0.054981533 -0.121843085 0.21456338 -0.007745555
0.2860637 -0.20030661 0.09882742 0.06707348 0.10312979 -0.06422226 0.31526026 -0.04473357
0.1501712 -0.06652161 -0.11118218 -0.15182106 -0.41878992 -0.28328803 -0.0043334034 -0.0027441185
0.07869887 0.19083646 0.2816502 -0.10420385 0.2257778 0.10034459 0.28577614 0.18295318
0.09095237 -0.3306425 -0.07570197 0.057750814 -0.2034771 0.09294428 0.15224789 0.13071045
-0.0012391518 0.05555791 0.05656586 0.1358277 -0.4026893 0.11315534 0.40256873 -0.0844299
-0.6391881 0.16821942 -0.015701063 0.2869216 0.09135171 0.1278584 -0.091079615 0.14410877
-0.045715008 0.0020163031 0.119481646 -0.095327154 0.14231588 0.3374764 0.16293298 -0.10358415
-0.09863706 0.043937065 0.13659605 -0.00856418 0.10660826 -0.2259916 0.21994811 0.12013983
-0.21829809 0.05254759 0.21727934 0.16195321 0.19874611 -0.123035625 -0.03872836 0.019912122
0.018899132 0.12003264 0.42794988 0.312328 -0.15506141 0.16057321 0.12119743 0.014257416
-0.009700178 -0.12190732 -0.04551101 -0.24211265 0.13914071 -0.09934506 -0.092942245 0.04335412
0.019463705 0.16954027 -0.02695032 -0.04469638 0.18970928 0.22713105 0.2384404 0.15425287
00000000: 36be d13d 89ad e5bc 20ec ba3d 2b70 edbe
00000010: 7e5d 10be aecf a43d a9b9 6abe d2fa 343c
00000020: 2ef6 29be 68a1 153e 3096 43bb 54ac c8bd
00000030: e1d6 f43d 5712 1c3e 6ffe b73e 5795 ea3c
00000040: e53a 2f3e 4ae1 13bf 25f4 30bd 488e 2c3f
00000050: 64cf c43d 6ca6 b5bd ef03 43bf e475 883c
00000060: e29e aabd 5f85 393d c75c e9bd 5742 4f3d
00000070: f47a 4ebd 29c5 0e3e c224 2fbe d877 5fbe
00000080: 297d 17be c1a3 95bd 43f6 4f3e 6ade f9bc
00000090: 4a39 2c3e 634a a43d 5ee7 0e3e 8640 3d3e
000000a0: 3bc3 423e 161b f83e 13d9 be3d d91c a7bd
000000b0: 7135 6cbe 8c60 4d3d d5dc d83d 162f a33d
000000c0: 4838 ec3d 5868 d33d 7ad2 38bc 6a8e b8bd
000000d0: f283 51bd c414 18be cc6b b2be be69 093e
000000e0: 238b 993d 8063 203e 5d78 7f3d fcce 1e3d
000000f0: 57e6 cbbd 4cfc 133e 39d0 183e 97bd 9a3e
00000100: 9ef9 b93d 0e80 ab3e ad4d f63e 3d22 843b
00000110: 412a 333e 164a 80be efd2 873e 5c94 cb3d
00000120: a6d2 52be 0077 343e c87c 96be 04af 44be
00000130: b6c8 cdbd 6372 5b3d 0b29 833c eb71 c5be
00000140: ad3f 49be 0723 233e 93ca 4e3e cbdf 68bd
00000150: c76c dd3d fa5d 633d 34eb 5cbd 6bc6 b83d
00000160: e410 843e 356e d53c d807 063e 57fe a73e
00000170: 0b63 a23e 5edf abbd f5bc 53be 591d b23e
00000180: 1006 ff3d aca3 68bd 91f9 623e 41b7 12be
00000190: c287 a0be 917c a5be d9a8 8bbd c526 4f3e
000001a0: e9aa 0d3e b504 c4be 478d 6b3e db4a 32be
000001b0: 6078 643e e599 833e 1105 f53d a36a 5a3e
000001c0: 0340 45bc 2f67 0e3c cbac 103e 5c75 8a3b
000001d0: a6dc 363e 4bdb 2d3e f832 203d 6a82 fa3d
000001e0: 3991 9e3e 814f f53c 9eae 823e def8 463b
000001f0: 1f1e 253e 633c 0c3d 670b 88bd 3991 4d3d
00000200: 46ed 5b3c 9c31 b33e ec73 d13d ac01 8b3d
00000210: f60b 47be fd04 243e d575 1ebe f053 1f3e
00000220: 70fd 50bf cef6 13bf b382 56bd 1fd0 143e
00000230: e350 95bf 744e 8abd 48c0 bbbe a992 de3d
00000240: c201 543d ba8a 443e cc88 16bd 358d 503d
00000250: 142a a53c 8d15 ac3e a518 ef39 66a4 0b3c
00000260: 6690 8a3e 0fd6 5b3e efba cabd 9f90 b4bb
00000270: 5134 613d de88 f9bd 81b6 5b3e 6dce fdbb
00000280: f176 923e 2d1d 4dbe 0866 ca3d d25d 893d
00000290: b635 d33d f686 83bd cb69 a13e 8c3a 37bd
000002a0: 7bc6 193e 7b3c 88bd 7cb3 e3bd fb76 1bbe
000002b0: a26b d6be 210b 91be 39ff 8dbb abd6 33bb
000002c0: e02c a13d a26a 433e 7434 903e d468 d5bd
000002d0: 4c32 673e 7781 cd3d 4051 923e 1458 3b3e
000002e0: 3c45 ba3d f949 a9be a209 9bbd 1e8c 6c3d
000002f0: 4d5c 50be 9259 be3d dfe6 1b3e f6d8 053e
00000300: 096b a2ba b190 633d 9ab1 673d 6b16 0b3e
00000310: 4b2d cebe fdbd e73d 7d1d ce3e 95e9 acbd
00000320: d5a1 23bf b641 2c3e 849f 80bc 63e7 923e
00000330: 9b16 bb3d 50ed 023e f387 babd 4091 133e
00000340: a93f 3bbd f423 043b cbb2 f43d e23a c3bd
00000350: 41bb 113e b5c9 ac3e e7d7 263e ed23 d4bd
00000360: 3a02 cabd 5af7 333d d6df 0b3e c650 0cbc
00000370: 6e55 da3d 586a 67be 143a 613e df0b f63d
00000380: 8989 5fbe 243c 573d 7a7e 5e3e 10d7 253e
00000390: 1a84 4b3e 1afa fbbd a1a1 1ebd bf1e a33c
000003a0: 5ad2 9a3c acd3 f53d 3f1c db3e 75e9 9f3e
000003b0: 6bc8 1ebe 4e6d 243e 5c36 f83d f097 693c
000003c0: 7fed 1ebc 8caa f9bd c169 3abd 61ec 77be
000003d0: e77a 0e3e 6c75 cbbd 8158 bebd 1794 313d
000003e0: 5972 9f3c f79b 2d3e ebc6 dcbc 8d13 37bd
000003f0: 2643 423e 0b95 683e b829 743e 77f4 1d3e

bias f4 [60]
0.06427557 0.11728336 -0.1869666 -0.095284425 -0.09719893 -0.099386305 -0.12659894 -0.11206152
0.029142937 -0.055504896 -0.029132115 -0.045223996 -0.116190895 -0.022999303 -0.07717939 -0.03065572
-0.10804446 0.038730137 0.06773011 0.13276699 -0.02575009 0.08162646 -0.032335475 -0.06854263
-0.08718705 0.20554951 0.01747927 -0.032222874 -0.09523182 -0.092421144 -0.06860584 0.055896454
0.097202055 -0.07173151 -0.089071386 -0.11572381 -0.030777548 -0.04066027 0.12338809 0.09770355
0.023751292 -0.12484104 0.11234711 -0.13495548 -0.057371996 -0.032763038 -0.12807627 -0.055159986
-0.10669034 -0.039728854 -0.04885505 -0.060755577 -0.025878536 0.14908752 0.12144653 0.18730849
-0.059090856 0.08336556 0.045406327 0.10360172
00000000: e9a2 833d 4232 f03d 2c74 3fbe 7b24 c3bd
00000010: 3c10 c7bd 0c8b cbbd 27a3 01be 8380 e5bd
00000020: 2bbd ee3c 1a59 63bd 79a6 eebc cc3c 39bd
00000030: 7ef5 edbd 0969 bcbc 3a10 9ebd b421 fbbc
00000040: 6a46 ddbd 7ea3 1e3d 15b6 8a3d 12f4 073e
00000050: daf1 d2bc c62b a73d 3472 04bd 1460 8cbd
00000060: 208f b2bd 927b 523e b030 8f3c 22fc 03bd
00000070: e708 c3bd 4c47 bdbd 3881 8cbd aef3 643d
00000080: df11 c73d f8e7 92bd 0f6b b6bd 9b00 edbd
00000090: 3221 fcbc 628b 26bd e5b2 fc3d cc18 c83d
000000a0: 1292 c23c a9ac ffbd 3e16 e63d c531 0abe
000000b0: e6fe 6abd 8932 06bd 6d26 03be 70ef 61bd
000000c0: 7780 dabd b9ba 22bd 3c1c 48bd d7da 78bd
000000d0: 39ff d3bc 66aa 183e f5b8 f83d cccd 3f3e
000000e0: 4109 72bd 90bb aa3d fcfb 393d 232d d43d

weight f4 [60, 60]
0.064749114 -0.06303744 -0.19849254 -0.10276281 -0.15589888 -0.042909063 -0.10764259 0.20411125
0.070601925 0.3084064 -0.19412464 0.08066809 -0.071872935 0.2693933 -0.2870146 -0.35637343
0.0588319 0.45104957 -0.327946 -0.16704379 0.15140052 -0.24629857 0.16360775 -0.0453405
-0.010940527 -0.16725008 0.030366791 -0.30817235 0.078647375 0.051138163 0.08864805 -0.1670372
0.082353964 -0.042581037 -0.031221975 0.38988903 0.21123736 0.1554832 0.17622207 -0.300837
0.25594854 -0.015222378 -0.42648578 -0.10843002 0.06720278 0.10800416 -0.011881906 -0.022714524
0.053064078 0.25189313 0.29310864 0.0053743725 0.05090198 -0.0046734214 0.24326771 0.044817213
0.08507589 0.16399397 -0.035688188 -0.1440483 0.005540857 0.05793763 -0.008789601 -0.07773854
0.038216773 -0.094248116 -0.12590855 -0.08502722 -0.07729428 0.07547836 -0.14018132 0.037381023
0.07493992 -0.09945044 0.025246032 0.027635887 0.027184084 0.09514533 -0.1263556 -0.11582133
-0.08384968 -0.063809425 0.026364848 -0.020132462 -0.007843778 0.031052217 -0.021267781 -0.022024313
0.043075964 0.055196226 0.032162875 0.04247928 -0.074510984 0.07843534 -0.058334854 -0.04016798
0.030990914 0.009929224 -0.11626478 0.06598539 -0.10024519 0.042882904 -0.031461697 0.07825632
-0.018081062 0.06545333 0.10023472 0.046889964 0.058753148 0.015343621 -0.036185607 -0.0025712585
0.0452814 -0.06872317 -0.047472846 -0.107798636 0.10816447 -0.08712333 -0.067573704 0.053123742
0.03472257 0.041503277 0.30560833 0.1874273 -0.07687391 -0.0131660625 0.06075817 -0.107480876
0.17124908 -0.25677478 -0.1508787 0.031766463 -0.00652688 0.21033697 0.15983969 -0.14286852
-0.07103061 -0.014785854 -0.11312885 0.047621533 0.07670682 -0.32536867 -0.05802098 0.0027516158
-0.065441445 0.12580507 -0.03557995 0.11511881 -0.03978686 0.02836369 0.056058343 0.10355758
0.03595351 -0.0050784755 -0.004768839 0.011501326 0.13677755 0.077258036 -0.009945675 0.04846319
0.13281623 0.065516815 -0.008716457 0.15159513 -0.061415803 0.036260333 0.054096766 0.22468749
-0.08994432 -0.27354538 -0.01807967 -0.0141882785 -0.003944807 0.084336236 -0.23179607 0.11021048
-0.104302995 -0.003452025 -0.008152996 -0.073471986 -0.220981 0.0484304 -0.07791042 0.08373698
0.009701209 0.030486211 -0.05474276 -0.19982551 -0.09805043 0.26639524 0.0829214 -0.008441592
-0.08997662 -0.2643627 -0.025021305 0.22155651 -0.056061246 -0.06399814 -0.16669144 0.08011924
0.22463492 0.050865702 -0.37263995 -0.17394055 -0.04843852 0.18221028 -0.013262702 0.102213874
-0.02339875 -0.10400458 -0.043336995 0.10148857 -0.12119478 0.07704984 -0.025669549 -0.059015654
0.095617115 0.014184459 -0.047431223 0.19159251 -0.13150449 0.112550706 0.14471094 0.047451086
0.23025514 -0.049321298 0.09994848 0.034126278 -0.06306302 0.2486968 -0.18637721 -0.012365506
0.114048034 -0.07183194 0.23097931 0.023102686 0.08066933 -0.25074 -0.016399372 0.04139973
-0.10115569 -0.116598114 -0.3644489 -0.12800749 0.29645064 -0.08436259 0.0029817491 -0.10069909
0.094027005 0.5212973 0.16204697 0.02244861 -0.048860386 0.11286291 -0.31553596 -0.19644417
00000000: 2f9b 843d c619 81bd a141 4bbe 4f75 d2bd
00000010: f5a3 1fbe 6ac1 2fbd b873 dcbd 8a02 513e
00000020: be97 903d 72e7 9d3e 9cc8 46be 5035 a53d
00000030: 1e32 93bd ebed 893e 94f3 92be 9476 b6be
00000040: b8f9 703d f8ef e63e 8ae8 a7be 870d 2bbe
00000050: bd08 1b3e b135 7cbe ca88 273e f6b6 39bd
00000060: e53f 33bc 9b43 2bbe c7c3 f83c c4c8 9dbe
00000070: e011 a13d 4076 513d 1c8d b53d cd0b 2bbe
00000080: 32a9 a83d 7469 2ebd 3ac5 ffbc 899f c73e
00000090: 9b4e 583e fd36 1f3e 8f73 343e 4f07 9abe
000000a0: b00b 833e 4867 79bc 585c dabe 8f10 debd
000000b0: 9ca1 893d 4931 dd3d 53ac 42bc cf13 babc
000000c0: b859 593d 23f8 803e 5612 963e 811b b03b
000000d0: 987e 503d 8023 99bb 2c1b 793e 4192 373d
000000e0: 453c ae3d 09ee 273e c72d 12bd 6681 13be
000000f0: 1490 b53b 0250 6d3d 4202 10bc 6235 9fbd
00000100: 3189 1c3d 2805 c1bd 2cee 00be c022 aebd
00000110: 774c 9ebd 6694 9a3d b18b 0fbe d81c 193d
00000120: 1a7a 993d acac cbbd c4d0 ce3c a864 e23c
00000130: 28b1 de3c 8edb c23d 5d63 01be bc33 edbd
00000140: 62b9 abbd 84ae 82bd 18fb d73c d5ec a4bc
00000150: 3083 00bc 3861 fe3c c539 aebc 556c b4bc
00000160: 6c70 303d 7015 623d 38bd 033d c1fe 2d3d
00000170: 3799 98bd b5a2 a03d 87f0 6ebd 2e87 24bd
00000180: a8e0 fd3c 2fae 223c 3b1c eebd 5923 873d
00000190: 5a4d cdbd fca5 2f3d fbdd 00bd d944 a03d
000001a0: bc1e 94bc 650c 863d dc47 cd3d b10f 403d
000001b0: 24a7 703d d063 7b3c 5c37 14bd 8f82 28bb
000001c0: fd78 393d bcbe 8cbd e372 42bd 88c5 dcbd
000001d0: 5585 dd3d b76d b2bd 1564 8abd 4898 593d
000001e0: 4139 0e3d 57ff 293d b278 9c3e f1ec 3f3e
000001f0: 1270 9dbd 78b6 57bc 8fdd 783d ef1e dcbd
00000200: eb5b 2f3e fc77 83be f27f 1abe 8d1d 023d
00000210: 70df d5bb 9362 573e 04ad 233e 204c 12be
00000220: 7f78 91bd 5e40 72bc 19b0 e7bd cc0e 433d
00000230: 7718 9d3d b996 a6be 68a7 6dbd 7454 343b
00000240: 2a06 86bd 0bd3 003e 48bc 11bd 69c3 eb3d
00000250: 8cf7 22bd f85a e83c 6f9d 653d ff15 d43d
00000260: fd43 133d 5769 a6bb ec43 9cbb 0f70 3c3c
00000270: 6a0f 0c3e 7639 9e3d 2ff3 22bc 5781 463d
00000280: fa00 083e ae2d 863d 78cf 0ebc c13b 1b3e
00000290: 238f 7bbd b785 143d 9294 5d3d 7a14 663e
000002a0: ba34 b8bd 240e 8cbe d11b 94bc f475 68bc
000002b0: 7143 81bb 7ab8 ac3d f35b 6dbe 08b6 e13d
000002c0: cf9c d5bd 5e3b 62bb 2594 05bc 7b78 96bd
000002d0: d848 62be f55e 463d 808f 9fbd 4b7e ab3d
000002e0: d2f1 1e3c 38be f93c f239 60bd 0f9f 4cbe
000002f0: aace c8bd f564 883e b2d2 a93d 9a4e 0abc
00000300: aa45 b8bd 8c5a 87be 7bf9 ccbc b6df 623e
00000310: 7aa0 65bd 7511 83bd 29b1 2abe 8e15 a43d
00000320: b206 663e 8e58 503d aaca bebe 791d 32be
00000330: 7867 46bd 5595 3a3e ce4b 59bc 8255 d13d
00000340: bcae bfbc 5a00 d5bd 2282 31bd 3dd9 cf3d
00000350: f834 f8bd 4ecc 9d3d f248 d2bc 66ba 71bd
00000360: e8d2 c33d ef65 683c 3e47 42bd d430 443e
00000370: 1da9 06be fc80 e63d 1b2f 143e 125c 423d
00000380: 01c8 6b3e 2105 4abd cab1 cc3d ffc7 0b3d
00000390: 2f27 81bd 60aa 7e3e abd9 3ebe b198 4abc
000003a0: 0492 e93d a01c 93bd d785 6c3e d841 bd3c
000003b0: f635 a53d fe60 80be fa57 86bc c392 293d
000003c0: b72a cfbd feca eebd 0c99 babe 6514 03be
000003d0: 61c8 973e 4bc6 acbd 7369 433b 533b cebd
000003e0: 3b91 c03d bd73 053f a4ef 253e 26e6 b73c
000003f0: d421 48bd ab24 e73d ee8d a1be a928 49be

bias f4 [60]
-0.095059514 -0.026167693 -0.06283907 -0.09556302 0.1877656 -0.089586355 0.19425556 -0.06426039
-0.13469855 -0.050391637 -0.085908726 -0.34901685 -0.3523252 -0.0739078 0.085679114 -0.058036737
-0.14316742 -0.07460237 -0.23505569 0.05373946 0.24011943 -0.181017 -0.24235618 -0.030822346
-0.19379415 0.19636835 0.24668847 -0.39125538 -0.06467674 -0.30290216 0.017647153 0.048631765
-0.078832865 0.050573524 0.051777877 -0.021689214 -0.08829332 -0.15531193 0.04390505 -0.03648776
0.22841327 0.014328186 0.06811324 0.020576065 -0.11369369 -0.0053728097 -0.029603804 0.16012067
-0.13625145 0.0490927 -0.0066677537 0.17420365 0.04996285 -0.08989909 0.20587374 0.12237016
-0.031608313 -0.08283193 0.14726397 -0.12459979
00000000: 90ae c2bd a15d d6bc c5b1 80bd 8bb6 c3bd
00000010: a045 403e 0d79 b7bd eeea 463e f49a 83bd
00000020: 6bee 09be 7667 4ebd eaf0 afbd 56b2 b2be
00000030: f863 b4be f95c 97bd 8878 af3d eeb7 6dbd
00000040: 7b9a 12be 21c9 98bd 70b2 70be e81d 5c3d
00000050: dee1 753e 855c 39be 382c 78be 257f fcbc
00000060: f971 46be c914 493e e79b 7c3e a052 c8be
00000070: 3d75 84bd fe15 9bbe c390 903c 1a32 473d
00000080: 2073 a1bd 2f26 4f3d 0a15 543d 94ad b1bc
00000090: 21d3 b4bd 170a 1fbe c8d5 333d 3074 15bd
000000a0: 2be5 693e c5c0 6a3c f47e 8b3d 238f a83c
000000b0: 3dd8 e8bd 650e b0bb ad83 f2bc acf6 233e
000000c0: 8085 0bbe 6d15 493d 2c7d dabb 7162 323e
000000d0: d8a5 4c3d 041d b8bd 91d0 523e 359d fa3d
000000e0: b877 01bd c9a3 a9bd 5ecc 163e 2d2e ffbd

weight f4 [10, 60]
0.0075043845 0.019131897 -0.015752684 -0.016201308 0.10912002 0.060708817 -0.0545227 0.11241363
0.2807626 -0.003994294 -0.15511575 0.23828274 0.14006548 0.026794553 0.018105948 -0.18510082
0.035263643 -0.054019537 -0.083923265 -0.06951455 -0.10276605 0.026769556 -0.07094652 0.013386731
0.17172669 -0.06770222 0.019243967 -0.077490404 0.06412159 0.07308238 0.032045208 0.120544
0.10974285 0.1535873 0.24406084 -0.021511192 0.15582722 -0.08142303 -0.10234394 -0.09082917
-0.030236032 -0.09647933 -0.0096290335 -0.031674128 -0.017537871 0.10403436 -0.09916773 0.04901547
-0.1266824 0.21624845 0.035821293 0.017711772 0.044300266 -0.056696776 0.061793342 -0.06657863
0.10734615 0.1671558 -0.07273525 0.017963886 0.21237034 0.031399384 -0.13396324 -1.0238085
0.33918086 -0.56489134 0.1259921 0.22573595 -1.1739262 0.010653557 -0.4725102 -0.28429154
-0.83957434 -1.4014254 -0.40175754 -0.02648859 -0.6049576 -0.5968317 -0.34407124 -0.040553913
0.08368579 -0.5083457 -0.9291975 0.19696741 -0.037414003 0.065409824 0.06296729 0.13779235
-0.10244045 -0.026474772 0.17852609 -0.050659582 0.020517185 0.13667552 0.17230682 0.06355936
0.22347848 -0.07899974 0.04830567 0.078312546 0.18820438 0.129637 -0.27964893 0.12339023
0.18326075 -0.047988128 0.06556599 -1.3725709 -0.12840736 0.1815954 -3.4978821 -1.1921825
0.06012478 -0.099804915 0.19868237 -3.4294431 -0.02539632 -0.037887212 -0.22971213 -0.014912933
-0.21682394 0.07858578 -0.01150021 -0.5219867 0.12835805 -0.034769755 -0.07630236 0.046574146
0.025293786 -0.06988861 -0.964382 -1.7260017 -1.4875216 0.07786946 -0.93792385 -0.08221902
0.17301305 0.17965391 -0.29331446 -0.017340956 0.047541454 0.14509924 0.07395211 -0.28652096
-0.29038545 -0.07704897 -0.20812014 0.13932976 0.036927123 -1.1778429 0.17068133 0.1324898
-0.03526722 -0.26991394 -0.02220735 -0.3578794 -1.6274182 -1.3306515 -0.18281846 0.10050456
-0.6705017 -1.538936 0.025856983 -1.4685518 0.37861538 -2.065291 -0.10795472 0.15129371
0.18756665 -1.7919871 0.25467646 0.1193973 -1.0869412 0.07325838 0.007718605 0.18979047
-0.7744583 -0.18333264 -0.18466042 -0.04521522 0.014147291 0.052599974 0.07104071 -0.43477228
0.13818486 -0.18954039 -2.1527684 0.036660526 -0.02954447 -0.09470645 -2.071616 -0.39177245
-0.090157606 0.1182867 -1.2245268 0.092648335 -0.24280144 0.0034632627 -0.64632666 -0.14622538
-0.95542437 -0.09195704 0.0384431 0.19104673 -0.0562116 0.18307178 -2.0966833 0.15961124
0.010449393 -0.2086846 0.06987829 0.0008821488 0.037937135 -0.0036267047 0.11109409 -0.13461572
-1.2517949 -0.33461905 0.13418965 -0.043688886 -0.062330015 -0.19714427 -0.87414426 -0.16502102
0.034378566 -1.2114024 -0.090828285 0.10470533 0.13537976 -1.0564706 -0.08214613 0.03087749
-0.13271892 -0.10758803 0.14664294 -0.35394996 0.0049505164 -1.8692105 -2.0168192 0.08935429
-0.06075342 -0.010024094 0.19429569 -0.41286266 -0.2281959 0.010346133 -0.6507596 -0.109323375
-1.0147681 0.024823045 0.21273266 -2.22357 -2.6298432 0.049759902 -0.15778919 0.21938916
00000000: 57e7 f53b 7fba 9c3c c60b 81bc 9bb8 84bc
00000010: 517a df3d cfa9 783d 3253 5fbd 1e39 e63d
00000020: 1ec0 8f3e 91e2 82bb aad6 1ebe 6400 743e
00000030: 536d 0f3e 4080 db3c ed52 943c 128b 3dbe
00000040: 9c70 103d 9743 5dbd f6df abbd a55d 8ebd
00000050: 0277 d2bd d44b db3c 694c 91bd 0554 5b3c
00000060: 1fd9 2f3e 76a7 8abd 86a5 9d3c 4ab3 9ebd
00000070: 2e52 833d 37ac 953d d641 033d c6df f63d
00000080: dcc0 e03d fd45 1d3e 16eb 793e 3d38 b0bc
00000090: 2c91 1f3e 1ec1 a6bd b399 d1bd a504 babd
000000a0: 8eb1 f7bc f496 c5bd 18c3 1dbc bbbc 01bd
000000b0: 95ab 8fbc f70f d53d 7318 cbbd 72c4 483d
000000c0: 08b9 01be 3c70 5d3e 59b9 123d 4718 913c
000000d0: 3274 353d e13a 68bd 041b 7d3d 605a 88bd
000000e0: 4cd8 db3d e42a 2b3e 38f6 94bd 0029 933c
000000f0: 9c77 593e a49c 003d a92d 09be 280c 83bf
00000100: 1da9 ad3e b89c 10bf 1304 013e 5327 673e
00000110: 3743 96bf 428c 2e3c dbec f1be a98e 91be
00000120: 58ee 56bf e861 b3bf 2ab3 cdbe 99fe d8bc
00000130: 80de 1abf f6c9 18bf 1b2a b0be dc1b 26bd
00000140: 7563 ab3d f222 02bf e3df 6dbf d3b1 493e
00000150: 6d3f 19bd 96f5 853d fff4 803d 7019 0d3e
00000160: 4ccc d1bd 9fe1 d8bc 8bcf 363e 6c80 4fbd
00000170: a813 a83c abf4 0b3e 3371 303e 692b 823d
00000180: 8bd7 643e 9eca a1bd 2bdc 453d 5462 a03d
00000190: a6b8 403e 90bf 043e 252e 8fbe 04b4 fc3d
000001a0: b5a8 3b3e 338f 44bd 7647 863d 67b0 afbf
000001b0: 387d 03be 25f4 393e 4ddd 5fc0 7099 98bf
000001c0: 6745 763d 8566 ccbd 6473 4b3e ff7b 5bc0
000001d0: f10b d0bc 9f2f 1bbd a839 6bbe 6055 74bc
000001e0: 1807 5ebe 95f1 a03d 606b 3cbc eca0 05bf
000001f0: 4b70 033e bb6a 0ebd 6944 9cbd 88c4 3e3d
00000200: ea34 cf3c c221 8fbd bde1 76bf a0ed dcbf
00000210: 1c67 bebf 067a 9f3d c71b 70bf 7262 a8bd
00000220: 552a 313e 32f7 373e 502d 96be 9f0e 8ebc
00000230: d4ba 423d e594 143e 3474 973d e0b2 92be
00000240: 67ad 94be dacb 9dbd 721d 55be 76ac 0e3e
00000250: e540 173d 8ec3 96bf 16c7 2e3e 68ab 073e
00000260: 5c74 10bd 2932 8abe 30ec b5bc f83b b7be
00000270: 3d4f d0bf ca52 aabf c334 3bbe 56d5 cd3d
00000280: 00a6 2bbf dbfb c4bf 06d2 d33c 81f9 bbbf
00000290: e0d9 c13e ba2d 04c0 5d17 ddbd bdec 1a3e
000002a0: 7911 403e d55f e5bf f464 823e 9286 f43d
000002b0: e420 8bbf 7d08 963d 5aec fc3b 6f58 423e
000002c0: e642 46bf 8dbb 3bbe 9f17 3dbe 9833 39bd
000002d0: 0aca 673c 1273 573d cb7d 913d 799a debe
000002e0: 5580 0d3e e016 42be f5c6 09c0 5929 163d
000002f0: 3f07 f2bc 75f5 c1bd 5b95 04c0 6696 c8be
00000300: 8da4 b8bd 4c40 f23d 4bbd 9cbf 69be bd3d
00000310: f1a0 78be e8f7 623b aa75 25bf 1bbc 15be
00000320: b196 74bf f953 bcbd 8376 1d3d c1a1 433e
00000330: 223e 66bd 2b77 3b3e 0f30 06c0 2171 233e
00000340: ee33 2b3c 6ab1 55be 591c 8f3d 0140 673a
00000350: f863 1b3d 02ae 6dbb 4c85 e33d b4d8 09be
00000360: d13a a0bf 3053 abbe 0369 093e 1ef3 32bd
00000370: c24d 7fbd 30e0 49be ebc7 5fbf 45fb 28be
00000380: 8ad0 0c3d 3c0f 9bbf 2e04 babd c06f d63d
00000390: fea0 0a3e 6e3a 87bf 3b3c a8bd caf2 fc3c
000003a0: 78e7 07be 1d57 dcbd 9129 163e ee38 b5be
000003b0: f137 a23b 4a42 efbf 9113 01c0 62ff b63d
000003c0: 94d8 78bd 193c 24bc 73f5 463e bc62 d3be
000003d0: 30ac 69be d482 293c 2e98 26bf efe4 dfbd
000003e0: ece3 81bf b359 cb3c 97d6 593e f94e 0ec0
000003f0: 5a4f 28c0 0ad1 4b3d 7d93 21be 8da7 603e

bias f4 [10]
-0.023134781 0.19680068 0.14803454 0.042080827 -0.20178095 0.052993584 0.1425353 0.18541639
0.03683154 -0.26305395
00000000: 2785 bdbc 1e86 493e 5e96 173e f25c 2c3d
00000010: aa9f 4ebe cd0f 593d c6f4 113e cbdd 3d3e
00000020: abdc 163d 02af 86be
