NN Real data/K models/94F1_4layerDeep.pth (torch, 56872 bytes, 10 tensors)

weight f4 [60, 20]
-0.53032786 0.76883477 -0.3078563 -0.10718219 -0.20967546 0.3277436 -0.34710467 -0.2596513
0.23166496 -0.1397597 0.13841683 -0.47066423 -0.38307607 0.16805902 -0.23436338 -0.20210592
-0.6261052 -0.5043586 0.22364442 -0.02470252 0.39620054 0.033375867 0.021915264 0.38067564
0.42505622 -0.09666209 -0.004632455 -0.16211344 0.19884787 0.3009372 0.1836297 -0.16757216
-0.37129053 0.03592187 -0.15225239 -0.13905649 -0.038243685 -0.12624353 -0.10404608 -0.09427048
-0.37513202 0.526331 0.55893445 0.040137842 0.30715707 0.096230045 0.29551464 0.83242875
0.10390691 0.076554336 -0.17010933 -0.25739783 0.21994904 0.19103423 0.21313208 -0.0412336
-0.28500286 0.05785819 -0.232394 0.11891927 -0.2760499 0.18300885 0.2838687 0.4968997
-0.3030341 -0.27190927 0.2637077 -0.010593398 0.13176039 0.31590587 -0.13014202 -0.043211486
-0.040394254 0.17276815 0.3078777 -0.14723547 -0.2533503 -0.27836296 -0.3065627 0.17086673
0.58563817 0.14238697 0.35390022 -0.26135054 0.6574021 0.041476768 0.13499133 -0.045766667
-0.24400936 0.033279497 0.24678935 0.09915819 -0.45454982 -0.00991034 -0.17945486 0.124941215
0.036091655 -0.1577518 0.06732124 -0.02793932 0.2090089 -0.65490025 -0.50926983 0.43317774
0.51051253 -0.17704578 0.020077363 -0.41463026 0.43478438 -0.190242 -0.065730356 0.08443901
0.10110416 0.014513742 -0.026535492 -0.20351094 0.023316555 0.16611663 -0.028953822 -0.2121912
-0.188509 -0.2769443 -0.34748605 -0.52441174 -0.34616733 -0.1709182 -0.032638814 -0.52331954
-0.19261394 -0.4186162 -0.17259242 -0.09743136 -0.14073896 0.18064244 0.0019878147 -0.020921899
-0.18708919 -0.27558455 0.32764524 0.13027914 -0.3139157 0.3185497 0.12548009 -0.088490695
-0.21503928 0.10013582 0.09084693 0.22548027 -0.080459945 0.07748581 0.025575954 -0.44566718
0.0163891 -0.33504888 0.21473022 -0.27428794 -0.33922127 -0.3918522 0.0067909197 0.07399271
0.35784075 0.04909952 0.14043409 0.34400326 0.61978495 0.112604946 0.09590785 -0.09864561
0.040514465 0.18541749 -0.17437644 0.027336119 -0.45897835 0.070442714 0.18006596 -0.11146858
-0.036552124 -0.2800002 0.39991313 -0.02757227 0.22725119 -0.37752238 -0.35087988 -0.24384037
-0.11606895 -0.19961376 -0.22082813 -0.27814445 -0.109514594 -0.24521795 0.016967272 0.32111913
-0.3236493 0.06894791 0.1832751 -0.03375294 0.07171859 -0.121514216 -0.077254064 0.08014834
-0.3884651 0.52695495 0.49321505 0.23779574 -0.1695893 0.07632015 0.041769054 0.34627855
0.3825197 0.115613036 0.05004477 -0.18190433 0.16702655 0.06283589 0.21213095 -0.050989345
-0.32640567 0.08277384 0.14413098 0.47239947 -0.52070975 0.5995918 -0.32994813 -0.17957613
-0.43081972 -0.033056594 -0.18471175 -0.06561357 0.038140193 0.088244714 0.086373895 0.103081666
-0.3403715 -0.06579559 0.1894852 0.028085558 0.16337487 -0.3527246 0.1946756 0.6164067
0.32178122 0.07583976 -0.28297964 0.49365222 0.6698189 -0.15935192 -0.1541112 0.09736983
0.13185859 -0.09912805 -0.1955252 -0.25282472 -0.1803118 -0.09096628 0.004108609 -0.03194712
00000000: 91c3 07bf 5bd2 443f 579f 9dbe 5682 dbbd
00000010: 2ab5 56be 02ce a73e b4b7 b1be 04f1 84be
00000020: 9439 6d3e 2b1d 0fbe 24bd 0d3e e7fa f0be
00000030: 8c22 c4be aa17 2c3e f4fc 6fbe dbf4 4ebe
00000040: 6e48 20bf a51d 01bf 0b03 653e f05c cabc
00000050: ccda ca3e 22b5 083d a487 b33c ebe7 c23e
00000060: f8a0 d93e c6f6 c5bd d9cb 97bb 1101 26be
00000070: c79e 4b3e 7114 9a3e 6d09 3c3e 0998 2bbe
00000080: cb19 bebe d022 133d 0de8 1bbe d364 0ebe
00000090: 69a5 1cbd fc45 01be 1c16 d5bd e210 c1bd
000000a0: 4e11 c0be a1bd 063f 5416 0f3f 9467 243d
000000b0: b143 9d3e 4214 c53d b24d 973e 0d1a 553f
000000c0: 25cd d43d 85c8 9c3d 2431 2ebe a6c9 83be
000000d0: 523a 613e 7a9e 433e 4c3f 5a3e 90e4 28bd
000000e0: e5eb 91be b6fc 6c3d b1f8 6dbe f28b f33d
000000f0: 6a56 8dbe ac66 3b3e 3d57 913e a369 fe3e
00000100: 4927 9bbe b137 8bbe b204 873e ee8f 2dbc
00000110: 32ec 063e 6abe a13e f343 05be 87fe 30bd
00000120: 7274 25bd 22ea 303e 25a2 9d3e e5c4 16be
00000130: 21b7 81be 9785 8ebe c9f5 9cbe b0f7 2e3e
00000140: 62ec 153f e4cd 113e 6932 b53e bdcf 85be
00000150: 814b 283f 8be3 293d 2b3b 0a3e d475 3bbd
00000160: 97dd 79be 1550 083d 59b6 7c3e 7313 cb3d
00000170: c1ba e8be fb5e 22bc 04c3 37be 2ee1 ff3d
00000180: d8d4 133d b089 21be b8df 893d 00e1 e4bc
00000190: 6e06 563e 8ba7 27bf 825f 02bf 79c9 dd3e
000001a0: f3b0 023f 7d4b 35be 4879 a43c 6b4a d4be
000001b0: 0f9c de3e cdce 42be a39d 86bd 5cee ac3d
000001c0: b30f cf3d 0ccb 6d3c f660 d9bc 2c65 50be
000001d0: 5c02 bf3c 7a1a 2a3e 9130 edbc a648 59be
000001e0: 8108 41be a5cb 8dbe b1e9 b1be d93f 06bf
000001f0: d83c b1be 2e05 2fbe 47b0 05bd 45f8 05bf
00000200: 973c 45be dd54 d6be 11bc 30be 188a c7bd
00000210: e01d 10be 55fa 383e ff45 023b 6764 abbc
00000220: 4f94 3fbe 6b19 8dbe 1ec1 a73e e567 053e
00000230: 8fb9 a0be f218 a33e da7d 003e 9c3a b5bd
00000240: 4233 5cbe 0214 cd3d f50d ba3d 4de4 663e
00000250: 2fc8 a4bd e1b0 9e3d aa84 d13c 7d2e e4be
00000260: 6f42 863c 878b abbe 3de2 5b3e 786f 8cbe
00000270: 69ae adbe daa0 c8be 5d86 de3b 7d89 973d
00000280: e736 b73e 941c 493d f4cd 0f3e 3221 b03e
00000290: 3aaa 1e3f 6c9d e63d 566b c43d b606 cabd
000002a0: 7ff2 253d 15de 3d3e bd8f 32be ffef df3c
000002b0: 36ff eabe 4544 903d 3663 383e a449 e4bd
000002c0: aeb7 15bd 305c 8fbe 6ac1 cc3e 3edf e1bc
000002d0: 89b4 683e 9d4a c1be 87a6 b3be 4ab1 79be
000002e0: 8fb5 edbd 8d67 4cbe c520 62be f368 8ebe
000002f0: 3049 e0bd 6a1a 7bbe f3fe 8a3c ba69 a43e
00000300: 5cb5 a5be 9034 8d3d 78ac 3b3e 8640 0abd
00000310: 32e1 923d 72dc f8bd 6137 9ebd d024 a43d
00000320: e6e4 c6be 85e6 063f af86 fc3e ba80 733e
00000330: d1a8 2dbe bd4d 9c3d 0716 2b3d 6c4b b13e
00000340: 9fd9 c33e 87c6 ec3d bffb 4c3d 2145 3abe
00000350: 0209 2b3e 1ab0 803d db38 593e 34da 50bd
00000360: a51e a7be 5585 a93d 1297 133e 58de f13e
00000370: 3c4d 05bf d97e 193f f6ee a8be cee2 37be
00000380: 6794 dcbe 5a66 07bd 1425 3dbe 6860 86bd
00000390: e438 1c3d a5b9 b43d cce4 b03d 7b1c d33d
000003a0: 2c45 aebe d7bf 86bd 6908 423e af13 e63c
000003b0: be4b 273e 5298 b4be 0a59 473e d4cc 1d3f
000003c0: 82c0 a43e e051 9b3d b5e2 90be fcbf fc3e
000003d0: 4079 2b3f 262d 23be 54cf 1dbe d569 c73d
000003e0: f005 073e a603 cbbd c237 48be 3e72 81be
000003f0: a8a3 38be 874c babd 83a1 863b fcda 02bd

bias f4 [60]
0.0785155 -0.22514223 0.21716765 0.16637382 0.164416 0.09530091 0.06928185 0.17814821
0.07881869 0.052068174 0.27490202 0.057802137 0.15275218 -0.21853141 -0.012282183 0.07476991
-0.0037616913 0.08422747 0.28243905 0.16454722 -0.051285848 0.082839 0.15107968 -0.09398078
-0.22249639 0.18609329 0.21745898 0.07040551 -0.019222511 -0.0007503435 0.30761093 0.056442603
0.10773162 0.0016408283 0.21926707 0.22457251 -0.0025950428 0.04597564 0.26500186 -0.041640025
0.058262855 0.2743422 0.04781319 0.015689095 0.14868371 0.20884612 0.185301 0.12401408
0.08725181 0.02513941 0.07273982 0.05415321 0.018165717 -0.1457404 0.17456672 0.16627169
0.07474304 -0.12929513 0.08440393 0.100974075
00000000: bccc a03d af8b 66be 3261 5e3e e65d 2a3e
00000010: ab5c 283e 202d c33d a4e3 8d3d 7c6c 363e
00000020: b16b a13d 7045 553d f5bf 8c3e efc1 6c3d
00000030: 116b 1c3e b3c6 5fbe 363b 49bc f720 993d
00000040: b586 76bb 747f ac3d da9b 903e 117f 283e
00000050: 1c11 52bd 7ea7 a93d a2b4 1a3e ff78 c0bd
00000060: 18d6 63be 3d8f 3e3e 91ad 5e3e c430 903d
00000070: 8778 9dbc b3b2 44ba 2e7f 9d3e 5c30 673d
00000080: 65a2 dc3d 1011 d73a 8c87 603e 56f6 653e
00000090: 9811 2abb f450 3c3d 53ae 873e bb8e 2abd
000000a0: 08a5 6e3d 9576 8c3e c3d7 433d 6b86 803c
000000b0: 8b40 183e c2db 553e 8cbf 3d3e 18fb fd3d
000000c0: 14b1 b23d 2af1 cd3c 9df8 943d c2cf 5d3d
000000d0: 45d0 943c f93c 15be 9ec1 323e 2043 2a3e
000000e0: e112 993d f165 04be f8db ac3d 7fcb ce3d

weight f4 [60, 60]
-0.0075734556 -0.05684039 0.09028286 -0.074087754 0.034049302 -0.022263728 -0.023116589 0.078265175
-0.081668496 0.09942816 -0.06763826 0.08961129 -0.12859972 0.08012751 -0.09400003 -0.014395133
-0.074378036 -0.033798426 -0.03525798 -0.06966614 0.06303711 -0.075855866 -0.019972444 -0.06304895
-0.030764222 0.09865624 0.08653794 -0.04765009 0.09760693 0.022169486 -0.073384605 -0.11862211
0.019350052 -0.07745501 0.04742436 -0.046798453 -0.12869865 -0.0973136 -0.03750804 0.07420549
-0.05270338 0.044397697 -0.046210542 -0.11279899 -0.114152715 -0.012557119 -0.099881716 0.056922346
0.09408823 -0.056093797 -0.072173744 -0.07482688 -0.04173357 -0.08272317 -0.1262779 -0.038322367
-0.016772218 0.086760044 0.084604725 0.079384655 -0.10530504 -0.49109787 -0.14589801 -0.17815125
-0.48317748 0.26773125 0.0632855 -0.0006888248 -0.0763853 0.34893718 -0.09087239 0.15700668
-0.132063 -0.12050897 -0.20370018 0.018207178 -0.11988768 -0.14902769 0.17577429 0.16219084
-0.4629151 1.0181398 0.22669584 0.37424377 -1.6957521e-05 0.34713635 0.30419502 -0.1429178
0.14677152 -0.085145205 0.055166252 -0.19029078 0.24540453 -0.47865778 0.09373638 0.057285737
-0.29425317 0.004981468 0.40536106 0.21152684 -0.15243754 0.22079788 0.16124526 0.22871971
-0.23094316 0.078610815 0.31390387 0.15194887 0.08097125 -0.09596963 0.14020173 0.22201781
-0.0725536 0.3310391 0.11756943 0.2242948 -0.05331967 0.012479261 0.11911716 -0.07117799
0.41054702 0.07624031 0.32049304 0.105281435 0.17394532 -0.40825295 -0.026179979 0.1966937
0.16184153 -0.14174582 0.29176593 0.012125869 -0.0900862 0.10003382 0.03203188 0.098096795
0.1969489 0.24937016 -0.0057241307 -0.25889462 0.42978597 -0.53566694 -0.20700797 -0.1084179
-0.12746122 -0.14763305 -0.19147348 0.29989144 -0.012320467 0.32174903 -0.026250826 -0.023118554
-0.037990123 0.19274902 -0.0104479715 0.24301818 0.30534503 0.15258831 -0.20838423 -0.08024518
0.18613985 0.08901165 -0.14104478 -0.08486477 0.23515362 0.08314999 -0.115264565 0.007917203
0.19329433 -0.120138235 -0.013803359 -0.2147647 0.16672952 -0.07699215 -0.112546556 -0.24588963
0.22609507 -0.12174543 -0.23275042 0.43263972 0.63262755 -0.2936324 0.116035946 0.003660281
-0.27033773 -0.25035483 0.26885435 0.076983824 -0.18951485 -0.21758446 0.1852008 0.35107812
-0.12836239 -0.005515769 0.07181824 -0.28456077 0.06935011 -0.1470955 -0.32145736 -0.15932184
-0.006521102 0.12304394 -0.07667917 -0.15934035 0.10785636 0.016483085 -0.08196908 0.34850678
0.15720291 0.33312747 -0.364113 -0.14325413 0.078144774 -0.23036975 0.027973006 0.068344906
0.027656153 -0.3933588 0.40843093 -0.3551194 -0.15395597 0.23247331 0.15086547 -0.104833916
0.25745037 0.016071826 -0.078549 0.09490682 0.0070168134 -0.27886906 -0.0822663 -0.31813136
0.47892624 0.16013578 0.0075149783 0.025937289 0.12835687 0.023450375 -0.43731678 0.45299113
-0.40903032 0.48483256 0.03643915 -0.029764365 0.20138924 0.26367003 0.12336088 -0.103304006
0.23900628 0.14685534 0.008330978 -0.042256176 0.10236088 0.08224802 0.22147481 0.029012911
00000000: c02a f8bb 78d1 68bd 38e6 b83d 52bb 97bd
00000010: 4877 0b3d 6c62 b6bc 005f bdbc 7e49 a03d
00000020: d041 a7bd fea0 cb3d ee85 8abd 2086 b73d
00000030: a5af 03be e419 a43d 1683 c0bd 90d9 6bbc
00000040: 8353 98bd 3870 0abd ac6a 10bd 1fad 8ebd
00000050: 9a19 813d 525a 9bbd 409d a3bc cf1f 81bd
00000060: 4005 fcbc 480c ca3d ce3a b13d be2c 43bd
00000070: 24e6 c73d c89c b53c ab4a 96bd 26f0 f2bd
00000080: 0084 9e3c bba0 9ebd 0c40 423d bcaf 3fbd
00000090: 94c9 03be 5a4c c7bd 08a2 19bd 0cf9 973d
000000a0: 80df 57bd 5cda 353d 4447 3dbd 2803 e7bd
000000b0: e6c8 e9bd 60bc 4dbc c98e ccbd 6827 693d
000000c0: 54b1 c03d 9cc2 65bd d4cf 93bd d63e 99bd
000000d0: d2f0 2abd c46a a9bd fe4e 01be eaf7 1cbd
000000e0: e465 89bc 40af b13d 3e45 ad3d 6c94 a23d
000000f0: 2baa d7bd 2e71 fbbe 4a66 15be 486d 36be
00000100: 0a63 f7be 1214 893e d49b 813d 4092 34ba
00000110: e56f 9cbd e5a7 b23e 4e1b babd 5cc6 203e
00000120: 863b 07be 68cd f6bd c896 50be 3827 953c
00000130: ac87 f5bd b79a 18be 2dfe 333e 5b15 263e
00000140: 3503 edbe 6852 823f f422 683e e19c bf3e
00000150: 0040 8eb7 dbbb b13e 73bf 9b3e 0b59 12be
00000160: 464b 163e 9c60 aebd 02f6 613d 96db 42be
00000170: 534b 7b3e a212 f5be dcf8 bf3d 73a4 6a3d
00000180: 5aa8 96be 953b a33b 7c8b cf3e 7e9a 583e
00000190: 9618 1cbe d718 623e 7a1d 253e 8035 6a3e
000001a0: 5d7c 6cbe b5fe a03d 02b8 a03e 7c98 1b3e
000001b0: 41d4 a53d ba8b c4bd 0b91 0f3e a358 633e
000001c0: fb96 94bd f57d a93e 3ec8 f03d 89ad 653e
000001d0: ba65 5abd d075 4c3c b3f3 f33d c4c5 91bd
000001e0: 3833 d23e e123 9c3d aa17 a43e cb9d d73d
000001f0: b91e 323e 8806 d1be 6577 d6bc 136a 493e
00000200: c9b9 253e d125 11be 5862 953e 95ab 463c
00000210: 1d7f b8bd 88de cc3d dc33 033d f9e6 c83d
00000220: f9ac 493e e45a 7f3e 7d91 bbbb d68d 84be
00000230: e80c dc3e 7821 09bf e6f9 53be 340a debd
00000240: 3285 02be 1e2d 17be a011 44be 5f8b 993e
00000250: c9db 49bc 4abc a43e f90b d7bc 1f63 bdbc
00000260: 889b 1bbd 0060 453e f82d 2bbc c2d9 783e
00000270: 2f56 9c3e 1c40 1c3e ad62 55be 9657 a4bd
00000280: 729b 3e3e bd4b b63d 0b6e 10be 95cd adbd
00000290: 1ccc 703e 8b4a aa3d d40f ecbd 28b7 013c
000002a0: f3ee 453e 090b f6bd 7c27 62bc 47eb 5bbe
000002b0: 25bb 2a3e 0fae 9dbd cf7e e6bd 7eca 7bbe
000002c0: 7785 673e ab55 f9bd 2056 6ebe f482 dd3e
000002d0: e1f3 213f fc56 96be 41a4 ed3d 53e1 6f3b
000002e0: b569 8abe 822e 80be 47a7 893e b2a9 9d3d
000002f0: 2e10 42be 76ce 5ebe 47a5 3d3e 83c0 b33e
00000300: 6e71 03be a0bd b4bb 7115 933d f3b1 91be
00000310: 6e07 8e3d 34a0 16be 0f96 a4be 4425 23be
00000320: f8ae d5bb 76fe fb3d f809 9dbd 1e2a 23be
00000330: cce3 dc3d 8907 873c 68df a7bd 7b6f b23e
00000340: cdf9 203e af8f aa3e 056d babe 36b1 12be
00000350: 5e0a a03d 0ce6 6bbe a527 e53c 6af8 8b3d
00000360: 288f e23c 5366 c9be dc1d d13e 36d2 b5be
00000370: a2a6 1dbe 7c0d 6e3e 7a7c 1a3e 2ab3 d6bd
00000380: 89d0 833e 10a9 833c 4cde a0bd 825e c23d
00000390: 4ced e53b edc7 8ebe 3c7b a8bd 1de2 a2be
000003a0: d235 f53e a2fa 233e 3540 f63b 707a d43c
000003b0: fc6f 033e 001b c03c fce7 dfbe 74ee e73e
000003c0: 6c6c d1be f93b f83e 3841 153d 66d4 f3bc
000003d0: fb38 4e3e c2ff 863e a1a4 fc3d 0d91 d3bd
000003e0: 10be 743e 3f61 163e a87e 083c d014 2dbd
000003f0: 95a2 d13d a671 a83d 4bca 623e 7cac ed3c

bias f4 [60]
-0.10361466 -0.0632634 0.053507864 0.12620847 0.1388398 -0.035790693 0.23185617 0.0045959777
-0.066039495 0.0151799265 0.1401175 0.058665693 -0.14157069 0.04630178 0.080373466 -0.0641866
-0.062380668 0.07953516 0.1498183 0.13631792 0.06933409 0.10183323 -0.10245265 0.11988088
0.19159125 0.031049123 0.11110795 0.020965505 -0.06944903 0.0044415286 0.15448223 0.02793327
0.027453326 -0.0020344658 0.06339921 -0.14776763 -0.061657958 -0.046215646 -0.0633317 0.16346131
-0.015024422 0.030910127 -0.17837425 0.1553998 0.16638596 0.07051786 0.049273446 -0.029988576
-0.18198828 -0.121981226 -0.02862274 0.014672982 -0.09109612 -0.057758074 -0.051874172 0.13605477
0.11312736 0.09526552 -0.09052892 -0.073037274
00000000: ec33 d4bd 3e90 81bd 102b 5b3d cb3c 013e
00000010: 052c 0e3e 4399 12bd b46b 6d3e db99 963b
00000020: b73f 87bd 3ab5 783c f67a 0f3e 704b 703d
00000030: e8f7 10be efa6 3d3d d89a a43d 4474 83bd
00000040: df82 7fbd 54e3 a23d f869 193e ed96 0b3e
00000050: 08ff 8d3d f18d d03d b2d2 d1bd 1b84 f53d
00000060: 7f30 443e bb5a fe3c 918c e33d dabf ab3c
00000070: 4b3b 8ebd 3e8a 913b 9730 1e3e 50d4 e43c
00000080: cce5 e03c ac54 05bb 72d7 813d 6650 17be
00000090: 0e8d 7cbd 9e4c 3dbd 0db4 81bd 6762 273e
000000a0: fe28 76bc 3c37 fd3c bda7 36be 2021 1f3e
000000b0: 1561 2a3e ab6b 903d f4d2 493d 9aaa f5bc
000000c0: 235b 3abe 4bd1 f9bd 3d7a eabc f266 703c
000000d0: 9a90 babd bb93 6cbd 037a 54bd f151 0b3e
000000e0: 51af e73d 921a c33d 3a67 b9bd 9194 95bd

weight f4 [60, 60]
0.12573232 -0.14610003 0.08922107 -0.1067608 0.08187855 0.029061625 0.3369497 -0.28838956
0.08377686 -0.22322364 -0.022887101 0.19641335 0.002619555 0.18738137 0.16959566 -0.63216096
0.20341648 0.25466257 -0.12680091 0.2830427 -0.027412578 -0.17572051 0.10979091 -0.017667806
0.53188556 0.75811255 0.16397668 -0.07143661 0.07894354 -0.08305724 0.26711273 0.24586451
-0.017641524 0.17947252 0.4844816 -0.41923934 -0.05851958 0.12582393 -0.0917711 -0.06084251
-0.40497106 0.31606117 0.075758055 -0.30191872 -0.07044643 0.09252213 -0.23487303 0.16442125
0.077940464 0.035051607 -0.22623888 -0.26781353 0.37007403 0.5168749 0.29599446 0.25476947
0.30629 -0.24853621 -0.097672544 -0.09041995 0.12060635 -0.017164595 -0.109020315 0.02010724
-0.006390743 0.083134055 -0.0946496 -0.11172033 -0.09828399 0.025962457 0.11096035 0.04787834
0.010456577 0.011170611 -0.09183752 -0.02586779 0.0069684535 -0.06735042 0.097871125 -0.12668927
-0.034767106 -0.049718075 0.093115985 0.053652838 -0.033137508 0.036165982 0.124151096 -0.07018041
-0.107705444 0.07267994 0.11899337 -0.01634416 0.07535757 0.055693313 0.10410656 -0.063516155
0.10400206 -0.022870094 0.11825241 -0.032716148 0.08842003 0.069150284 0.026492119 -0.0033337772
0.040095538 -0.04015097 -0.07106899 0.012110576 -0.02584301 -0.07960296 -0.10009824 0.010607749
-0.026761584 0.060177773 -0.035916053 -0.1029267 0.016406283 -0.04970167 -0.0018941164 0.112451464
0.061785445 -0.06452211 0.042783786 0.16850448 -0.13370192 -0.038680445 -0.20116074 0.3362084
0.05508895 -0.22317687 -0.1182193 0.0041438695 0.0766559 0.47307962 -0.30365732 -0.8159102
0.16452427 -0.21324667 -0.231473 -0.09228253 0.0125866 0.53173095 0.048783522 0.054079633
0.40482235 -1.1265476 0.09655483 -0.11031286 0.14024964 -0.1984047 -0.16212913 -0.14671631
0.02866103 -0.38255212 0.14682896 0.6976587 0.07668247 0.19601963 0.09391355 0.10879343
0.93644524 0.030920053 0.23643681 0.16659869 0.05188022 0.18178807 -0.10777642 -0.1350138
0.43063536 0.22379747 -0.011779235 -0.005723956 -0.09109845 0.17281073 0.17591125 -0.019143587
0.10220044 0.32727528 -0.04847491 -0.07408818 -0.08732092 -0.35929507 0.2315999 -0.35705662
0.26141575 -0.003545493 0.08272277 -0.49889252 -0.049040686 -0.0038613596 -0.10772944 0.15561663
-0.1145166 -0.0556898 0.2609198 -0.08872978 0.21693039 0.26217422 0.25048155 0.19454497
-0.029526511 -0.25227055 0.11046631 -0.09824428 -0.038776163 1.8226643 -0.099768326 0.16826932
-0.014728366 0.21828628 0.33791888 0.22290553 -0.14373076 0.22669014 0.14761528 -0.8321088
0.057155177 0.1994591 0.07746298 -0.21239546 -0.3527173 0.080620036 0.025990665 -0.20744096
-0.26284984 0.27792975 0.00499887 0.3855325 0.011767375 -0.13738547 -0.28955537 -0.3052029
0.50291723 0.18333787 0.32171002 0.23196173 0.012876918 -0.42567077 -0.11715315 0.012573456
0.10641575 0.016841084 0.1474415 0.20044337 0.12100557 -0.089023985 -0.2009929 0.07264093
-0.02499263 0.4174043 0.25742713 -0.07963844 -0.011168424 -0.07887226 0.21946044 0.7362098
00000000: f9bf 003e 3f9b 15be 89b9 b63d 68a5 dabd
00000010: f1af a73d a512 ee3c ac84 ac3e cca7 93be
00000020: 3493 ab3d bd94 64be bb7d bbbc 9520 493e
00000030: d7ac 2b3b e7e0 3f3e 7caa 2d3e 4dd5 21bf
00000040: 694c 503e 2263 823e 19d8 01be f9ea 903e
00000050: 5890 e0bc 14f0 33be 0eda e03d 13bc 90bc
00000060: a729 083f aa13 423f 81e9 273e 5b4d 92bd
00000070: 27ad a13d ea19 aabd 00c3 883e e8c3 7b3e
00000080: f584 90bc a5c7 373e f90d f83e 8aa6 d6be
00000090: 3ab2 6fbd fdd7 003e 7df2 bbbd ff35 79bd
000000a0: 5e58 cfbe c5d2 a13e 0a27 9b3d 1795 9abe
000000b0: 3846 90bd 3e7c bd3d 8e82 70be 0b5e 283e
000000c0: 409f 9f3d 4692 0f3d 2aab 67be db1e 89be
000000d0: 587a bd3e ea51 043f 968c 973e 2571 823e
000000e0: 0bd2 9c3e 4780 7ebe 8b08 c8bd 182e b9bd
000000f0: 7600 f73d c49c 8cbc 0b46 dfbd f0b7 a43c
00000100: 7069 d1bb 3042 aa3d a6d7 c1bd a1cd e4bd
00000110: 1e49 c9bd 38af d43c 2e3f e33d 141c 443d
00000120: 1052 2b3c f004 373c 4f15 bcbd b0e8 d3bc
00000130: a057 e43b 04ef 89bd a870 c83d d5ba 01be
00000140: f467 0ebd 2ea5 4bbd 98b3 be3d 14c3 5b3d
00000150: 32bb 07bd c822 143d ee42 fe3d bfba 8fbd
00000160: ac94 dcbd 38d9 943d ccb2 f33d 30e4 85bc
00000170: 1255 9a3d ac1e 643d d235 d53d c214 82bd
00000180: 08ff d43d 105a bbbc 522e f23d 5e01 06bd
00000190: 9015 b53d aa9e 8d3d 0006 d93c 807b 5abb
000001a0: 383b 243d 5875 24bd 9e8c 91bd 706b 463c
000001b0: b8b4 d3bc e006 a3bd 4e00 cdbd 20cc 2d3c
000001c0: 1c3b dbbc f87c 763d b61c 13bd 3ccb d2bd
000001d0: 7866 863c fa93 4bbd 0044 f8ba f44c e63d
000001e0: bc12 7d3d 2b24 84bd 0d3e 2f3d 708c 2c3e
000001f0: 28e9 08be 636f 1ebd 15fd 4dbe 8223 ac3e
00000200: f3a4 613d 7a88 64be f61c f2bd 4cc9 873b
00000210: c5fd 9c3d 7e37 f23e f978 9bbe 7edf 50bf
00000220: 0d79 283e 565d 5abe 4207 6dbe a0fe bcbd
00000230: 0738 4e3c 851f 083f 3bd1 473d 9b82 5d3d
00000240: e044 cf3e b632 90bf 8abe c53d b5eb e1bd
00000250: 9a9d 0f3e 9a2a 4bbe 2e05 26be cd3c 16be
00000260: 89ca ea3c dfdd c3be 555a 163e c399 323f
00000270: b30b 9d3d 5fb9 483e bf55 c03d 17cf de3d
00000280: e0ba 6f3f 0d4c fd3c 7e1c 723e d998 2a3e
00000290: 5b80 543d a726 3a3e e2b9 dcbd 0f41 0abe
000002a0: 3d7c dc3e 2a2b 653e b1fd 40bc 0690 bbbb
000002b0: d391 babd 4cf5 303e 1422 343e 03d3 9cbc
000002c0: 774e d13d a090 a73e a18d 46bd 8bbb 97bd
000002d0: 4fd5 b2bd 86f5 b7be 8628 6d3e 20d0 b6be
000002e0: 49d8 853e 805b 68bb 8e6a a93d d76e ffbe
000002f0: e3de 48bd dd0e 7dbb 41a1 dcbd f759 1f3e
00000300: ae87 eabd fd1a 64bd 4897 853e f5b7 b5bd
00000310: 0023 5e3e b33b 863e 1e3f 803e cc36 473e
00000320: 95e1 f1bc 9b29 81be 293c e23d 4c34 c9bd
00000330: c1d3 1ebd 104d e93f 5653 ccbd cb4e 2c3e
00000340: 3f4f 71bc 7086 5f3e b403 ad3e 5941 643e
00000350: 282e 13be 7621 683e 7628 173e 1505 55bf
00000360: 8c1b 6a3d 023f 4c3e e9a4 9e3d 327e 59be
00000370: 5d97 b4be 1e1c a53d 60ea d43c 676b 54be
00000380: 4194 86be cf4c 8e3e 90cd a33b 8464 c53e
00000390: f3cb 403c c7ae 0cbe 9a40 94be 8e43 9cbe
000003a0: 2fbf 003f ecbc 3b3e 2db7 a43e 6087 6d3e
000003b0: b5f9 523c 85f1 d9be feed efbd e600 4e3c
000003c0: 80f0 d93d 50f6 893c e8fa 163e 0741 4d3e
000003d0: c5d1 f73d 3552 b6bd 15d1 4dbe c5c4 943d
000003e0: 58bd ccbc 04b6 d53e 7dcd 833e 7a19 a3bd
000003f0: c4fb 36bc c887 a1bd 3dba 603e 3f78 3c3f

bias f4 [60]
0.09409595 -0.049162656 0.11092943 -0.16466905 0.008250212 -0.03441416 0.11185392 0.05531111
-0.100066386 -0.074116975 -0.14262237 -0.10407799 -0.07466879 0.15659733 -0.037773963 0.2634147
-0.04024982 0.05117083 0.051297482 0.08921607 0.09329103 -0.045974836 0.04409773 0.028710345
0.007918989 0.09813387 -0.021615459 0.023479963 -0.12598948 0.060980108 -0.071661636 0.0417216
0.007544825 -0.035191774 0.109114 0.15527461 -0.123867005 0.04986422 0.08659903 -0.029721832
0.094962865 -0.011048131 -0.049269743 -0.013519183 -0.36580253 0.08453773 -0.051959746 0.16357626
-0.06636463 -0.015213379 -0.09721431 -0.15470825 -0.042154152 0.021409953 -0.03510964 0.022235498
0.063137025 -0.12515448 0.017842613 0.028822608
00000000: 61b5 c03d c85e 49bd f82e e33d 019f 28be
00000010: e62b 073c ddf5 0cbd ab13 e53d e78d 623d
00000020: 9bef ccbd a4ca 97bd 990b 12be d726 d5bd
00000030: f3eb 98bd 0d5b 203e dfb8 1abd 4bde 863e
00000040: ffdc 24bd 8198 513d 4f1d 523d eab6 b63d
00000050: 5e0f bf3d 1c50 3cbd d29f 343d f531 eb3c
00000060: a6be 013c 69fa c83d e712 b1bc 0d59 c03c
00000070: 6303 01be 47c6 793d 56c3 92bd 45e4 2a3d
00000080: 943a f73b 4025 10bd 2977 df3d 4f00 1f3e
00000090: fcad fdbd 6d3e 4c3d d55a b13d 337b f3bc
000000a0: e47b c23d 3803 35bc 12cf 49bd 907f 5dbc
000000b0: 784a bbbe 1e22 ad3d bed3 54bd 8980 273e
000000c0: 2eea 87bd 8941 79bc 4c18 c7bd d76b 1ebe
000000d0: d5a9 2cbd ed63 af3c 20cf 0fbd 3827 b63c
000000e0: fc4d 813d 7f28 00be ac2a 923c 641d ec3c

weight f4 [60, 60]
0.05604371 0.005554974 0.020430665 0.762478 0.02170135 -0.09683139 0.17120615 -0.19032457
0.3052246 0.070154816 0.055519234 0.48624554 -0.1285314 0.10523543 0.31006932 0.27398536
0.05799443 0.33958513 -0.44564214 -0.06534949 -0.1837723 -0.45610487 0.2846965 0.24223582
0.1984887 -0.13902156 0.5693364 -0.22751404 -0.16810589 0.24051127 0.24554168 -0.14996499
0.30761707 0.20850751 0.42535058 0.015523888 0.114395425 0.01330443 -0.30382875 -0.11408922
0.27546972 -0.07581246 -0.3111203 0.11019266 -0.16056399 -0.40655145 -0.25757724 0.0706422
-0.13008054 0.1894745 -0.12907812 -0.0045401845 0.060598247 -0.22540827 0.22331695 -0.26181817
0.3495097 -0.084029496 -0.16602165 -0.05241841 -0.36367723 0.10210729 -0.2662723 -0.32776636
0.25718507 -0.07495774 0.07350822 0.21848778 -0.29228252 0.08905673 -0.14021927 -0.070260264
0.29216453 0.23565483 -0.18081474 -0.03909141 -0.041324914 -0.25614318 0.35130507 -0.18908301
0.23599717 0.2819844 -0.006451807 0.054485034 0.13551307 -0.3863306 0.10239292 0.26806128
0.20809853 0.24349964 0.17217688 0.26385537 0.11533314 0.16213855 -0.06731814 -0.065000825
0.03307359 0.19690071 0.26095077 0.23450452 -0.28253955 -0.0037175417 0.1437313 0.0982492
0.26358342 0.42398125 0.35694298 -0.27409548 -0.30616695 0.15359591 0.010461718 0.24593084
-0.25795636 -0.12326823 0.0503797 -0.1639892 -0.5637502 -0.016350418 -0.14981867 0.010014363
-0.07737339 0.041673973 0.13340448 -0.18770136 0.08452636 -0.12620082 0.008303064 0.47333363
0.06681027 -0.03231404 0.12489004 -0.049005095 0.13280919 0.045164123 0.1443306 -0.05216139
0.0898776 -0.06675283 0.18624559 0.045621693 0.078251384 0.0153712835 0.14465617 -0.34122926
0.30218044 -0.15463282 0.38791254 0.16352375 0.11452872 0.1600131 0.26100174 -0.011065422
0.25556552 0.016264126 0.054355986 -0.11019913 0.08248961 -0.121052876 -0.1002229 0.45347705
0.054937843 -0.037714325 -0.018457426 -0.07159522 0.16343261 0.09600055 0.07751221 -0.14883676
0.047610667 0.35312477 0.095928654 0.17253247 0.12894908 0.039911155 -0.016525274 0.8651625
-0.08040564 0.009906498 -0.12597972 -0.060155496 0.39258817 0.09376033 0.15638392 0.06738273
0.09228583 -0.084627904 -0.013444314 -0.20643596 -0.3129236 0.12895747 -0.024113338 0.21117121
0.07953531 0.1215683 0.11521909 -0.04110803 0.14049195 -0.014775993 0.064087085 0.22656515
0.12265356 -0.07295503 0.03541641 0.17557558 -0.1355182 0.3389937 -0.12912336 0.12258047
0.10469942 0.08625553 0.001817963 0.009697827 -0.1419586 -0.018592427 0.19549133 0.11272866
-0.047493704 0.03383837 0.124019176 -0.10824823 0.20588729 0.05238454 0.175842 0.1268344
0.22161344 0.0505303 0.12037001 0.27859452 0.30785072 -0.1483236 0.1271493 -0.027799338
0.19599615 0.08346273 0.06669402 0.2490702 0.40800953 0.27404058 0.23850149 -0.017642781
0.26117685 -6.9245696e-05 0.5972992 0.012866197 -0.19499403 0.009534441 -0.30230504 0.44293
0.71979034 -0.040070064 -0.116993636 0.0013047653 0.095661744 -0.28628445 0.18968867 -0.42408755
00000000: 178e 653d 8006 b63b 365e a73c c231 433f
00000010: 08c7 b13c 894f c6bd aa50 2f3e 72e4 42be
00000020: 6646 9c3e 54ad 8f3d 2368 633d 2df5 f83e
00000030: bc9d 03be ac85 d73d 68c1 9e3e cf47 8c3e
00000040: 918b 6d3d 1ade ad3e 352b e4be f4d5 85bd
00000050: ce2e 3cbe 9486 e9be bdc3 913e ab0c 783e
00000060: 9f40 4b3e ab5b 0ebe 08c0 113f 71f9 68be
00000070: f323 2cbe 9648 763e 476f 7b3e 6c90 19be
00000080: fc7f 9d3e fe82 553e 8dc7 d93e e857 7e3c
00000090: 2648 ea3d d3fa 593c 718f 9bbe 9ca7 e9bd
000000a0: 5e0a 8d3e 9043 9bbd 294b 9fbe b0ac e13d
000000b0: e36a 24be 8327 d0be 2ae1 83be dcac 903d
000000c0: d533 05be 9a05 423e 0e2d 04be d4c5 94bb
000000d0: de35 783d 6dd1 66be 33ad 643e 080d 86be
000000e0: eff2 b23e a817 acbd 9401 2abe b0b4 56bd
000000f0: e733 babe a01d d13d d854 88be fed0 a7be
00000100: c3ad 833e 7283 99bd 7a8b 963d 43bb 5f3e
00000110: 0ea6 95be 6063 b63d a495 0fbe 9de4 8fbd
00000120: 9796 953e 804f 713e 8027 39be 501e 20bd
00000130: 5044 29bd 3325 83be 42de b33e fa9e 41be
00000140: 3ea9 713e 4260 903e ae69 d3bb b32b 5f3d
00000150: f0c3 0a3e 20cd c5be 61b3 d13d 543f 893e
00000160: c817 553e f857 793e 234f 303e 0d18 873e
00000170: c833 ec3d a607 263e 18de 89bd 271f 85bd
00000180: 2c78 073d 57a0 493e 579b 853e f421 703e
00000190: 06a9 90be 00a2 73bb 4c2e 133e e036 c93d
000001a0: 68f4 863e 1214 d93e 3bc1 b63e 3e56 8cbe
000001b0: eac1 9cbe 3f48 1d3e a067 2b3c 4bd5 7b3e
000001c0: db12 84be 0e74 fcbd f25a 4e3d c9ec 27be
000001d0: ef51 10bf 50f1 85bc 116a 19be 4813 243c
000001e0: f175 9ebd 54b2 2a3d 2f9b 083e c934 40be
000001f0: 281c ad3d ca3a 01be 9309 083c c958 f23e
00000200: d3d3 883d ba5b 04bd 59c6 ff3d 91b9 48bd
00000210: 22ff 073e 04fe 383d 67cb 133e 2fa7 55bd
00000220: bf11 b83d b5b5 88bd 2ab7 3e3e d0dd 3a3d
00000230: 4342 a03d d6d7 7b3c bf20 143e 9ab5 aebe
00000240: 65b7 9a3e 1158 1ebe 799c c63e c572 273e
00000250: 098e ea3d 79da 233e 05a2 853e be4b 35bc
00000260: 7cd9 823e 583c 853c 62a4 5e3d 15b0 e1bd
00000270: 50f0 a83d 92ea f7bd aa41 cdbd 252e e83e
00000280: 8106 613d 567a 1abd 0734 97bc 84a0 92bd
00000290: e15a 273e f09b c43d b9be 9e3d aa68 18be
000002a0: 6703 433d c5cc b43e 3e76 c43d 5aac 303e
000002b0: 3a0b 043e e179 233d 0360 87bc 4a7b 5d3f
000002c0: b6ab a4bd dd4e 223c d400 01be 9c65 76bd
000002d0: 5101 c93e 6a05 c03d 1b23 203e f5ff 893d
000002e0: 5a00 bd3d 6551 adbd 8a45 5cbc f363 53be
000002f0: 8637 a0be 6d0d 043e 5689 c5bc 443d 583e
00000300: 69e3 a23d cdf8 f83d fcf7 eb3d e560 28bd
00000310: 1fdd 0f3e 0217 72bc 1740 833d b200 683e
00000320: ca31 fb3d 7269 95bd cc10 113d 16ca 333e
00000330: 48c5 0abe 9590 ad3e ea38 04be 780b fb3d
00000340: a66c d63d bda6 b03d b748 ee3a a2e3 1e3c
00000350: 985d 11be 254f 98bc e12e 483e 49de e63d
00000360: c288 42bd 1a9a 0a3d c4fd fd3d 3fb1 ddbd
00000370: 1ed4 523e 2c91 563d ed0f 343e e1e0 013e
00000380: a2ee 623e dcf8 4e3d 8d84 f63d f1a3 8e3e
00000390: 9c9e 9d3e 24e2 17be 6d33 023e 70bb e3bc
000003a0: 37b3 483e 82ee aa3d e096 883d 420c 7f3e
000003b0: a0e6 d03e 0c4f 8c3e bc39 743e 9887 90bc
000003c0: f9b8 853e 0038 91b8 9ae8 183f becc 523c
000003d0: 84ac 47be 5836 1c3c bac7 9abe b9c7 e23e
000003e0: 2e44 383f 8220 24bd 5c9a efbd a904 ab3a
000003f0: 4eea c33d e093 92be bf3d 423e 0122 d9be

bias f4 [60]
-0.2039057 0.025944728 -0.0911444 0.032330055 -0.13231277 0.22847523 -0.043759238 0.010498087
-0.38080794 -0.18164621 -0.10133949 -0.017700328 0.2674373 0.24474208 0.104882084 0.06479908
0.17000495 -0.063306 -0.16564526 -0.037163604 0.26509 0.11843059 -0.027023235 0.021457138
-0.031446826 0.38826606 -0.024048256 -0.08319253 -0.09149272 -0.24583532 0.01055602 0.016522402
-0.078860246 -0.19458836 -0.09085917 0.23716483 -0.20054354 -0.035262555 0.116425544 0.3912957
-0.058257572 -0.029245699 0.0021586379 0.07618296 0.23144686 -0.08578778 0.17190367 0.09305056
0.2457264 -0.2336803 -0.25836816 -0.11956835 0.09873417 -0.031066358 -0.10827643 -0.046964522
0.16988792 0.42564526 0.062484335 -0.19811846
00000000: a8cc 50be 0a8a d43c eaa9 babd 856c 043d
00000010: 007d 07be 69f5 693e e33c 33bd 2b00 2c3c
00000020: 42f9 c2be 7701 3abe 148b cfbd 4700 91bc
00000030: 8bed 883e ab9d 7a3e 6bcc d63d 61b5 843d
00000040: c715 2e3e 93a6 81bd e99e 29be dd38 18bd
00000050: e0b9 873e bd8b f23d d55f ddbc e1c6 af3c
00000060: 63ce 00bd cfca c63e d900 c5bc d860 aabd
00000070: 8960 bbbd 41bc 7bbe 28f3 2c3c fd59 873c
00000080: 7b81 a1bd 2c42 47be 5f14 babd 56db 723e
00000090: 495b 4dbe 786f 10bd 8470 ee3d e957 c83e
000000a0: 7e9f 6ebd ad94 efbc ef77 0d3b d005 9c3d
000000b0: 6800 6d3e 81b1 afbd 8407 303e 4b91 be3d
000000c0: b49f 7b3e e349 6fbe d548 84be 40e0 f4bd
000000d0: 2435 ca3d e07e febc 08c0 ddbd df5d 40bd
000000e0: 19f7 2d3e 2dee d93e 93ef 7f3d 91df 4abe

weight f4 [10, 60]
0.03994483 -0.31751728 -0.07849747 0.03903956 0.0040456885 0.016327845 0.12080151 0.08724101
0.34777725 -0.09590757 -0.065425634 0.060695805 -0.1977533 -0.14383698 -0.05520205 0.16955866
0.016947076 -0.12141107 0.11185919 -0.08851684 -0.07429429 -0.09857753 -0.028626401 0.0582639
-0.018818468 0.07806501 0.08294042 0.04160012 0.08984743 0.052328598 -0.058248457 0.058576662
0.008478928 -0.0576063 -0.12689021 0.05282915 0.061895635 0.089956805 0.005589721 -0.09820555
-0.5132708 0.1463473 0.023993509 -0.16338518 -0.14370607 0.042227134 -0.0072337505 -0.1149493
-0.27888793 -0.0017257796 0.15080781 0.003610887 -0.09385474 0.015863001 0.010314099 0.021417562
-0.11939029 -0.16685778 -0.17848742 0.3819194 0.35320175 0.22499575 -0.42042518 0.005710885
0.3452233 0.20214444 0.11680198 0.07710919 -1.5939028 0.09371396 0.09389533 0.00423876
-0.5984861 -2.3519018 -0.25858018 -1.5506003 0.026387196 -0.0463608 0.13664773 -0.098526046
-0.25089943 -0.0009818252 -0.05451615 0.17978063 0.08992923 -6.4034677 0.005861865 0.03763251
-0.35725424 -0.13551219 0.013093575 -0.004745571 -0.62432176 0.15680756 -0.06413295 0.80182713
0.10629457 0.20552723 0.025957357 0.19953646 0.64291507 0.24598509 -0.049035676 -0.4647655
-0.2637722 -0.0754733 -1.5634503 0.2026412 -1.9987435 -0.14404325 -2.3968468 -0.07675397
0.00815973 0.09372811 0.052837253 -0.056316063 0.119046435 -3.4006286 -0.031181311 -0.041656896
0.1528158 -2.467307 -0.013632325 -0.01587967 0.083432324 -0.121767946 -0.2414703 -0.05367665
-1.331053 0.14517316 -0.084552094 0.19984055 -5.088576 0.025827257 0.25222257 -0.8285169
0.070510946 -0.08380525 -0.6475915 0.067601636 -3.3045151 -2.826265 0.08953055 0.075646624
0.027847107 0.20325321 0.091906935 0.055238124 0.042160753 -3.2193031 0.057933494 -0.61938995
-0.08101062 -0.021007584 0.09152068 -0.40372562 -0.09579753 -0.15036912 -0.3988974 0.054074615
-0.039726503 0.054002143 0.1031674 0.24651778 -0.6717154 -0.12165357 -1.8858197 -0.79480094
0.19824855 0.142188 0.1495022 -0.046825893 0.0638683 0.09579925 -0.39438388 -0.71080744
-0.35204312 0.16104248 -0.037815858 -0.94653684 1.0659983 -2.9040368 -1.2549167 0.05692432
0.116308406 0.07902969 -0.1736958 0.10845048 0.18187726 -0.027925052 0.09185515 -0.08950035
-1.6385494 0.26942167 0.2701533 0.10953181 0.24487057 -0.13810322 -0.2193513 0.060459144
0.34302968 -1.4489946 0.06273479 0.060117003 -0.095784046 -1.7677308 0.12733708 -0.12543635
0.46231383 0.19463661 -0.10995011 -0.34253365 -2.6100242 0.14282112 -0.044099383 0.028289827
0.0012742659 0.16121973 -0.46002525 0.12808134 -0.59501475 0.041298185 0.039945647 -1.3829123
-1.460527 0.12569575 -4.4910703 0.35588115 -0.03944402 -0.032530818 -1.55743 -0.11964328
-0.03149433 0.059988365 -0.5393592 -0.08260432 -0.30451337 0.23216642 -0.2555864 -0.1864017
-2.959062 0.1833884 0.1620483 0.085402004 -0.032240286 -0.15912753 0.056852207 -0.18333699
-2.111764 0.010650121 -0.057932377 0.11472894 0.11203924 0.30473742 -0.27115774 -1.4670082
00000000: 319d 233d a091 a2be 48c3 a0bd f2e7 1f3d
00000010: b291 843b f9c1 853c c866 f73d 6aab b23d
00000020: dc0f b23e 306b c4bd e0fd 85bd 2a9c 783d
00000030: d77f 4abe 004a 13be 8b1b 62bd c9a0 2d3e
00000040: 98d4 8a3c 5ea6 f8bd 6e16 e53d 5148 b5bd
00000050: 9b27 98bd 04e3 c9bd ea81 eabc 21a6 6e3d
00000060: 3029 9abc 8ce0 9f3d abdc a93d e364 2a3d
00000070: ee01 b83d 8356 563d ef95 6ebd 15ee 6f3d
00000080: 34eb 0a3c 95f4 6bbd 82ef 01be 6163 583d
00000090: 4786 7d3d 463b b83d fa29 b73b fe1f c9bd
000000a0: b765 03bf 11dc 153e 098e c43c 724e 27be
000000b0: af27 13be 5cf6 2c3d 1909 edbb 8a6a ebbd
000000c0: 66ca 8ebe 8e33 e2ba 5d6d 1a3e a2a4 6c3b
000000d0: ea36 c0bd 20f3 813c 77fc 283c e273 af3c
000000e0: e582 f4bd c4dc 2abe 68c5 36be f18a c33e
000000f0: dcd6 b43e 4965 663e f841 d7be 6022 bb3b
00000100: 1cc1 b03e f4fe 4e3e e035 ef3d 6ceb 9d3d
00000110: 0205 ccbf 1bed bf3d 324c c03d 4ce5 8a3b
00000120: 6336 19bf 8f85 16c0 9f64 84be 127a c6bf
00000130: f629 d83c d2e4 3dbd 62ed 0b3e 06c8 c9bd
00000140: e475 80be 96b0 80ba 544c 5fbd 6a18 383e
00000150: d12c b83d 35e9 ccc0 e314 c03b 8c24 1a3d
00000160: 07ea b6be b5c3 0abe 6f86 563c bc80 9bbb
00000170: 8dd3 1fbf 2992 203e 2358 83bd 8b44 4d3f
00000180: f8b0 d93d bb75 523e 86a4 d43c 4953 4c3e
00000190: 1596 243f 84e3 7b3e a2d9 48bd bef5 edbe
000001a0: 260d 87be bf91 9abd 241f c8bf 2d81 4f3e
000001b0: d4d6 ffbf 1380 13be f065 19c0 2f31 9dbd
000001c0: 63b0 053c 86f4 bf3d e06b 583d acab 66bd
000001d0: 9ece f33d e6a3 59c0 f36f ffbc 6ca0 2abd
000001e0: bf7b 1c3e 5ce8 1dc0 1e5a 5fbc 1516 82bc
000001f0: 91de aa3d 7961 f9bd fe43 77be 0cdc 5bbd
00000200: f25f aabf 46a8 143e a629 adbd 00a3 4c3e
00000210: 9dd5 a2c0 af93 d33c 5123 813e af19 54bf
00000220: 0b68 903d 16a2 abbd 8ec8 25bf ba72 8a3d
00000230: 2d7d 53c0 87e1 34c0 cb5b b73d 9eec 9a3d
00000240: 9e1f e43c 9c21 503e b439 bc3d 5f41 623d
00000250: c1b0 2c3d 1009 4ec0 ac4b 6d3d 5790 1ebf
00000260: e5e8 a5bd 1918 acbc 326f bb3d 20b5 cebe
00000270: 7f31 c4bd 5dfa 19be 483c ccbe 587d 5d3d
00000280: 42b8 22bd 5a31 5d3d 6e49 d33d 286f 7c3e
00000290: 8af5 2bbf 8225 f9bd 8a62 f1bf 1378 4bbf
000002a0: ab01 4b3e bb99 113e 1b17 193e 82cc 3fbd
000002b0: 62cd 823d 6632 c43d afec c9be 7af7 35bf
000002c0: ff3e b4be 52e8 243e cde4 1abd 3d50 72bf
000002d0: a272 883f bddb 39c0 1ca1 a0bf 7a29 693d
000002e0: 1a33 ee3d 51da a13d 50dd 31be 491b de3d
000002f0: 083e 3a3e 14c3 e4bc 8e1e bc3d f64b b7bd
00000300: fdbb d1bf a3f1 893e 8951 8a3e 3752 e03d
00000310: 5abf 7a3e ee6a 0dbe a19d 60be 02a4 773d
00000320: 96a1 af3e a878 b9bf 197b 803d 3f3d 763d
00000330: 6d2a c4bd 0145 e2bf a764 023e 6372 00be
00000340: 66b4 ec3e d24e 473e 862d e1bd 9260 afbe
00000350: a30a 27c0 b33f 123e 8ea1 34bd 11c0 e73c
00000360: 4505 a73a c916 253e 6e88 ebbe c127 033e
00000370: e352 18bf 4928 293d 0c9e 233d 4503 b1bf
00000380: 8cf2 babf 63b6 003e d9b6 8fc0 0e36 b63e
00000390: 0d90 21bd 093f 05bd de59 c7bf 8907 f5bd
000003a0: 3300 01bd 5cb6 753d 7213 0abf 742c a9bd
000003b0: 2de9 9bbe 09bd 6d3e 38dc 82be 16e0 3ebe
000003c0: 4661 3dc0 2bca 3b3e fdef 253e 3fe7 ae3d
000003d0: 640e 04bd 54f2 22be dcdd 683d b1bc 3bbe
000003e0: 2427 07c0 d87d 2e3c 804a 6dbd 02f7 ea3d
000003f0: d474 e53d 8b06 9c3e 30d5 8abe edc6 bbbf

bias f4 [10]
-0.4682596 0.117583 0.008638565 0.18904246 0.04577716 0.37286204 -0.3846355 0.30892286
0.14856085 -0.46930298
00000000: b9bf efbe 5bcf f03d c588 0d3c 5994 413e
00000010: d580 3b3d c6e7 be3e f2ee c4be 232b 9e3e
00000020: 5620 183e 7b48 f0be
