NN Real data/final_trained_models/TPSM/TPSM1.pth (torch, 55855 bytes, 10 tensors)

weight f4 [60, 20]
000000 5f 7c 87 be af 97 25 bf 73 0a 19 3f 14 5a 10 be
       -0.26462075 -0.64684576 0.5978157 -0.14096862
000010 0c b2 a9 3e 89 a0 92 3d 40 af ed 3d 0b c4 b0 be
       0.3314365 0.07159526 0.11605692 -0.3452457
000020 af 18 c5 3e f2 69 50 bf 4d 88 9d bd 67 ba 9d 3e
       0.38495395 -0.8141166 -0.07692013 0.30806276
000030 19 3b 70 3e 45 30 21 3f 6e 45 84 bf 2d 27 fe 3e
       0.23460044 0.6296428 -1.0333688 0.49639264
000040 68 17 f0 be 54 54 24 be 85 ff 8d 3f 97 af a6 be
       -0.46892858 -0.16047794 1.1093603 -0.3255584
000050 da 45 35 3f 1e 32 3f 40 a1 7d 85 bf a3 19 a4 3e
       0.7080971 2.987434 -1.0428964 0.3205081
000060 4c 91 41 3f 8c 6e 81 3d 3f 46 58 3f 95 01 a7 be
       0.7561233 0.06319913 0.8448219 -0.32618394
000070 06 5e 5d 3e c4 5b d0 be cc 3b 81 bd c8 b6 0a 3f
       0.21617898 -0.40695012 -0.063102335 0.5418515
000080 af 3c 0d be 33 68 30 3e c4 07 5c bd 6a 4e ba be
       -0.1379268 0.17227249 -0.053718343 -0.3638795
000090 3b 71 fb 3e 67 95 3b 3e df a5 0e bf 97 54 f0 3d
       0.49109825 0.18318711 -0.5572185 0.11734884
0000a0 d4 f6 95 be 72 dc 64 bf ba aa f6 bf 80 97 fa bd
       -0.29289877 -0.8939887 -1.9270852 -0.122359276
0000b0 d9 1b 93 3e 0f ff 3b bf 99 fb 05 3f cf a4 44 bd
       0.28732184 -0.73436064 0.5233703 -0.048008736
0000c0 b5 33 99 be 1a db 1f bf 33 4c 94 3d a3 85 30 be
       -0.29922262 -0.624437 0.07241096 -0.17238478
0000d0 ac d4 24 3e 5a ae 25 3f c6 9a 4a be 33 84 00 3f
       0.16096753 0.64719164 -0.19785604 0.5020172
0000e0 31 47 e1 bf e4 9a 9f 3f 35 44 eb 3e 77 fd 37 3f
       -1.7599851 1.2469144 0.45950475 0.7187113
0000f0 8e a9 04 40 88 db 5a c0 d9 11 6e 3f 00 78 55 bf
       2.0728488 -3.4196491 0.92995983 -0.8338623
000100 04 24 1d bb 85 14 fa 3f a9 fc 26 c0 1b 07 7d 3e
       -0.0023977766 1.9537512 -2.6091712 0.24709742
000110 79 f4 94 bd c4 65 e4 bd 9f 66 16 40 7f cb ed bf
       -0.07273192 -0.11152223 2.3500135 -1.8577727
000120 3d 97 2e 3e fe 36 e5 3d e3 6e 2e be 9b b5 14 40
       0.1704988 0.111921296 -0.17034487 2.3235843
000130 67 d8 04 c0 1d 52 a1 3e da cc 8a 3f 3e ed da be
       -2.0757082 0.3150796 1.0843766 -0.42759126
000140 93 38 9d 3e 24 a5 0e 40 58 38 8f bf 63 b0 f4 3e
       0.30707225 2.2288294 -1.118907 0.47790822
000150 69 06 85 be 23 8c cc be c4 79 1e 3e 65 86 a1 be
       -0.25981453 -0.39950666 0.15476137 -0.31547847
000160 93 23 e5 3d 55 4e 11 3e 66 9f f5 3d 26 7c 3d be
       0.11188426 0.14190038 0.119932935 -0.1850439
000170 37 73 16 3d dc 93 00 bf 21 85 e7 bc d1 70 3f 3e
       0.03673097 -0.50225616 -0.028261723 0.1869538
000180 54 da fa bd bb d6 50 3f 43 e7 a7 be f6 61 a5 3d
       -0.12248674 0.8157765 -0.32793626 0.08075325
000190 9c a9 83 bf ed 00 96 bf 13 ba 11 3f 01 0e a8 3e
       -1.0286136 -1.1719033 0.5692455 0.32823184
0001a0 87 94 73 bf 67 7f 16 3f b0 be ef 3e a2 60 30 be
       -0.9514851 0.5878815 0.4682517 -0.17224362
0001b0 0b 08 38 3e ae 52 b7 3e fa c4 e8 bb 75 40 0f 3f
       0.17971818 0.35805267 -0.0071035596 0.5595773
0001c0 eb fc e2 be 62 4f 85 bf 55 b6 d2 3f 13 90 6f 3e
       -0.44333586 -1.0414851 1.6461893 0.23394804
0001d0 b4 f3 34 3f 28 87 3d bf bd d8 85 3f 06 e7 16 bf
       0.7068436 -0.7403436 1.0456768 -0.58946264
0001e0 20 47 70 3f 1d 1c 2a 40 b3 af dd bf 29 3d c2 bf
       0.9385853 2.657966 -1.7319244 -1.5174915
0001f0 fb 61 2e 3e c1 67 b7 3c 74 d2 38 3f 1d 00 99 be
       0.17029564 0.02238834 0.72196126 -0.298829
000200 95 e9 25 bf 3c 14 10 3f 66 75 93 bd b9 40 95 bd
       -0.6480954 0.56280875 -0.07200126 -0.072877355
000210 d7 a3 18 bf b0 78 70 3f aa 1a 2f 3e a8 ba 4d be
       -0.59625 0.93934155 0.17100015 -0.20090735
000220 a1 46 da bd fc a0 05 3e 0e 31 8b be f6 df 31 3f
       -0.10658003 0.13049692 -0.27185863 0.6948236
000230 b7 ce 00 40 da 7b 98 bf 58 cd 9c 3f a0 ac 1d 3f
       2.0126169 -1.1912796 1.2250166 0.6159153
000240 64 de 90 be 0f b3 cc 3e e6 f0 1e 3f 28 6e 67 3e
       -0.2829467 0.3998036 0.6208633 0.22600615
000250 db fe 09 3f f9 2c 08 3f 3d 82 f5 bd c9 87 34 3f
       0.53904504 0.5319362 -0.119877316 0.7051969
000260 16 0e b9 3e 3f 52 a5 3e df a3 90 3e 90 4f 6c be
       0.3614356 0.3228931 0.28250024 -0.23077226
000270 d5 ba d2 3e d2 79 81 bf c6 9a 8e 3b 0f c7 24 3f
       0.41158167 -1.0115302 0.0043519465 0.6436624
000280 39 e6 54 3f 4d 9d c4 3f b6 eb 0f c0 3c 65 c0 bf
       0.8316379 1.5360504 -2.2487617 -1.5030894
000290 44 d1 14 bf b0 44 30 be 6d cf 04 3f fe 5b 4d 3e
       -0.58131814 -0.17213702 0.51879007 0.20054623
0002a0 0b 54 6c be cf d3 0a 3f 3e 86 7f bd f5 7a c8 3e
       -0.23078935 0.54229444 -0.062383883 0.3915631
0002b0 97 af cf be 58 97 4d 3f 39 13 98 3e 05 19 02 bf
       -0.40563652 0.8030906 0.29702166 -0.50819427
0002c0 63 13 e7 bd 59 e3 d2 3e f9 00 8a bf 4c 8a 7b 3f
       -0.112829946 0.41189077 -1.0781547 0.982579
0002d0 70 af cb 3e e4 3c 74 bf 57 94 8c 3f 7b 74 c5 be
       0.39782286 -0.9540541 1.098277 -0.3856543
0002e0 55 84 6e 3f 46 00 da 3e e0 bd 69 3f 38 0d 2b 3e
       0.9317067 0.42578334 0.9130535 0.16704261
0002f0 bc 9e 3a 3e ca 1c be bd b8 dd 38 3e a5 51 22 3f
       0.18224615 -0.09282835 0.18053329 0.6340583
000300 fa e9 56 3e f2 b8 0e 3f b8 62 90 3e a5 ba b8 3f
       0.20987692 0.55750954 0.28200316 1.4431959
000310 71 a4 82 3e 5c 90 37 be 87 88 7c 3e 7f 0a 17 3e
       0.25516084 -0.17926162 0.24661456 0.14750098
000320 a9 3d d8 bf cc 4c cc 3e 5f a4 89 3f 14 a4 69 3f
       -1.6893817 0.3990234 1.0753287 0.9126599
000330 96 e7 40 bf d8 75 34 bf 12 ab 92 be 5c 95 98 3e
       -0.7535337 -0.70492315 -0.2864614 0.29801452
000340 48 31 ff 3e f8 1e 09 3f c4 02 7e bf 41 eb 25 3f
       0.49842286 0.5356288 -0.9922297 0.64812094
000350 78 83 ef bc 85 b4 5c 3f d6 df 9a 3e 0d 47 6e bf
       -0.029237494 0.8621295 0.30248898 -0.93077165
000360 a2 b8 de 3e 56 bc 2c 3e 60 41 85 3e ec b2 11 be
       0.4350024 0.1686872 0.2602644 -0.1422841
000370 25 68 30 bf 0d 61 52 bf d9 dc aa bf 4d 54 ef bb
       -0.6890891 -0.8217934 -1.3348647 -0.0073037506
000380 6b 7b 6e 3f bc ca 10 bf 3b 33 d8 be 56 51 e0 be
       0.9315707 -0.5655935 -0.42226586 -0.43812054
000390 cc d4 6b be 36 62 ad 3e 8b 1e a5 3e 67 70 8e be
       -0.23030394 0.33863991 0.32249865 -0.2782013
0003a0 8a 7e a5 be 85 79 5a 3f e8 26 67 3e ba 03 52 40
       -0.32323104 0.85341674 0.22573435 3.2814775
0003b0 e7 2f 36 3f ce d9 3b 3c cf 84 1b 3e 3a b1 04 bf
       0.71166843 0.011465503 0.15187381 -0.51832926
0003c0 a0 e7 21 3e 7b 93 ef 3f 96 ea 0d c0 cd 75 80 bf
       0.15811014 1.8716882 -2.217443 -1.003595
0003d0 75 a2 86 3f b8 19 89 be ac 58 8f 3e c2 bb 15 bf
       1.0518328 -0.26777434 0.2799734 -0.5848962
0003e0 51 9a 1c 3f 79 00 94 be 1f d7 90 be a3 50 93 be
       0.6117297 -0.2890661 -0.28289124 -0.28772458
0003f0 73 23 11 bf 8f 7e 57 3e 44 f0 5e 3c 5f 9d 3e bf
       -0.56694716 0.21044372 0.0136070885 -0.7445888

bias f4 [60]
000000 46 e5 1d be b6 41 d4 bd 14 aa ae 3c 6c 4d c5 3b
       -0.15419492 -0.10364096 0.021321334 0.0060211923
000010 e2 3f a4 be e4 90 42 bb 2d ba 8a 3e 4f 8d 25 3d
       -0.3207999 -0.0029688412 0.27095166 0.040417966
000020 3c 91 f2 3d 20 2f aa be 87 ff 2b bf 17 91 d6 3d
       0.118441075 -0.3323908 -0.6718678 0.104768924
000030 b9 23 3d bd 90 8f 76 be cf f0 b7 bc b0 16 75 3e
       -0.046176646 -0.24078202 -0.022453694 0.23934436
000040 60 98 2a be 92 43 4c 3d d8 12 11 3e 9a ca 38 be
       -0.16659689 0.049869128 0.14167345 -0.18046036
000050 f3 ea 2a 3d bf a6 92 be 4e d7 ab be 18 02 50 be
       0.04172797 -0.28642842 -0.33562702 -0.20313299
000060 9d 0d fe bd 9d 91 6c bc db 8a 9b 3e b3 65 d9 3e
       -0.1240494 -0.014439014 0.30379376 0.42460403
000070 f9 6e bd be 61 56 79 3c c1 ca b1 3e 57 39 e2 be
       -0.36998728 0.015218348 0.34725 -0.44184372
000080 a6 fe 6f 3d 0c 4a c0 bb 0d f3 43 bd 48 31 71 be
       0.05859246 -0.005868202 -0.047839213 -0.23553956
000090 1b 5a 18 3d 39 a4 8b 3d a6 22 47 bd 60 14 92 3d
       0.037195306 0.06818432 -0.048617028 0.071327925
0000a0 5f d0 83 bc ff 0c 41 3e c0 88 57 be 47 1b bc 3e
       -0.01609057 0.18852614 -0.2104826 0.3673956
0000b0 a6 90 89 3e 76 11 97 3d 18 44 87 3d 7e 51 d8 3d
       0.2686817 0.07376377 0.06604785 0.105624184
0000c0 f4 e2 5b bd 1a 25 1b 3e 09 0b 9e 3e 4c 5f 7d 3e
       -0.053683236 0.15150872 0.30867794 0.24743384
0000d0 58 6e ef bd 84 5a 7d be 07 19 ee bc 0e 32 9c 3d
       -0.11690968 -0.2474156 -0.029064668 0.07626735
0000e0 5f 8f c1 bd aa 8b fd 3d fd 13 53 bd 65 ef 28 be
       -0.09451174 0.123801544 -0.051532734 -0.16497572

weight f4 [60, 60]
000000 42 0b 27 3e c0 94 cc 3d 67 cb 77 be 0f 0d 5d bf
       0.16312888 0.09989309 -0.24198686 -0.8634805
000010 79 24 07 be d2 5d 96 bd 5a 9d 43 be bd d4 05 3d
       -0.13197507 -0.073421136 -0.19102994 0.032673586
000020 e6 1e 87 3e a3 72 cb be 53 76 cf be fa 58 80 3f
       0.2639076 -0.39735898 -0.40519962 1.0027153
000030 57 ef 0f 3f 15 ef a8 3d 7f f0 0b 3f 67 33 0e 3f
       0.5622458 0.08248726 0.5466384 0.55547184
000040 c4 5b 20 3e 46 5b 09 3f dd 83 bf bf 2f 85 98 be
       0.15660006 0.536549 -1.4962116 -0.2978911
000050 83 fb c2 3e 6a 83 7b bf 84 12 16 bf 28 64 d4 3d
       0.38082513 -0.98247397 -0.58622 0.10370666
000060 10 31 b1 3e ce 96 9a 3e 3b af 55 bf 3c 32 33 bf
       0.34607744 0.3019318 -0.83470505 -0.69998527
000070 f7 34 f0 3e 1f 36 d8 bd 07 1d 16 3e 0b ef 58 be
       0.4691541 -0.10557198 0.1465951 -0.21184938
000080 bb 2e 27 bd fe 8b cb 3d ed 04 3b 3b fc 8f d3 3d
       -0.04081605 0.09938811 0.0028536872 0.10330197
000090 83 f6 d7 3e 70 21 b1 bd af 33 9b 3e 1d 46 59 3e
       0.4218026 -0.08648956 0.3031287 0.21218152
0000a0 1e 15 af 3e 67 38 9e bf 4e 43 a9 bf cb 26 b3 be
       0.341958 -1.2360963 -1.3223665 -0.34990534
0000b0 a2 26 76 bf 46 6b 16 3f 21 15 bb be 14 54 f2 3e
       -0.961527 0.58757436 -0.36539558 0.47329772
0000c0 0b c4 f9 3e 0c 7a 9d 3e 9d 8a 14 bf c4 91 d6 be
       0.4878238 0.30757177 -0.5802401 -0.41908085
0000d0 29 89 07 3e 55 9c 85 3f 66 3a 16 3f 67 e1 c9 3e
       0.13235916 1.0438334 0.5868286 0.3942978
0000e0 9e c5 53 3f 7b 88 c4 bd 7a 46 8f 3f 23 f4 18 3c
       0.82723415 -0.09596344 1.1193383 0.0093355505
0000f0 ce ae b0 3e 5e ea 8f bf 67 99 67 be b6 bf 8e be
       0.34508365 -1.1243398 -0.22617112 -0.2788064
000100 19 a0 20 bf 41 0b be bf f1 25 0f 3f 07 5d 7d 3e
       -0.6274429 -1.4847184 0.5591727 0.24742518
000110 37 ae 52 3f 40 90 55 bf bd 55 c9 3e 87 3c 19 3f
       0.8229708 -0.83423233 0.39323226 0.5985798
000120 dd bf c3 be 34 cd eb bc 2c f3 5c 3f 77 02 66 3f
       -0.38232318 -0.028784372 0.8630855 0.8984751
000130 bb 2e 8e bf 81 45 b9 3e de ca be be 3d 2c 12 3e
       -1.1108011 0.3618584 -0.3726415 0.14274688
000140 0e 92 a6 bf e1 58 6a bf ef 7c f8 bd fc b6 ce bd
       -1.3013322 -0.9154187 -0.12133204 -0.10093495
000150 3c 8e c6 be 3d ae be 3e 84 54 81 3f 66 94 01 3f
       -0.3878039 0.37242308 1.0103917 0.50617063
000160 28 59 4a bf e6 7e 23 bf a6 29 62 bf f2 bf 2a bf
       -0.7904229 -0.63865507 -0.883448 -0.66699135
000170 73 9a 0a bf 0c ec b7 3e 45 61 b0 bf b0 c1 e7 3b
       -0.5414192 0.35922277 -1.3779684 0.00707265
000180 e4 5e 8b 3f f9 f0 17 3f 92 b0 5e be 98 72 9a 3f
       1.0888333 0.5935207 -0.21747044 1.2066221
000190 c9 cc 95 bf b3 6b 94 3e 39 07 9f bf f6 a1 37 3f
       -1.170312 0.28988418 -1.2424079 0.7173151
0001a0 72 da c3 3d de e6 d8 3e 06 48 86 be 7a b3 10 3f
       0.095631495 0.42363638 -0.26226825 0.5652386
0001b0 8e 3d 76 bf b8 fc 40 3d 8c de 82 3f f7 81 24 be
       -0.96187675 0.04711601 1.0224166 -0.16065203
0001c0 c8 0d 03 bf 7b 43 d9 3e 42 82 20 bf 8d d8 ab be
       -0.51192904 0.42434296 -0.6269876 -0.33563653
0001d0 f0 5d 4f 3f f9 d0 0c be 7d ae 5e 3f 70 d2 39 be
       0.8100271 -0.13751592 0.86985 -0.18146682
0001e0 b3 78 f1 3e d8 72 ce 3d a1 ac b8 be ee fd 05 bf
       0.471624 0.100804985 -0.36069205 -0.5234059
0001f0 d9 ab 2c ba de 86 9b be cf 11 4b 3e 6e 94 3f 3f
       -0.00065868866 -0.30376333 0.19831012 0.7483586
000200 8a 79 f6 bd 70 01 79 3e 76 09 f3 bf 7c 5f ae be
       -0.120349005 0.24316955 -1.8987262 -0.34057224
000210 dd 86 e8 be 31 29 9b bd 5b db 97 3e 53 3f e3 3e
       -0.45415393 -0.07576216 0.29659542 0.4438425
000220 c2 9b 14 bf 03 17 46 3e 12 2a 29 3f 4e 13 2f 3f
       -0.5805017 0.19344716 0.6607982 0.6838883
000230 73 32 e3 bd 3c 08 33 be 53 e3 b7 be 51 30 ed bd
       -0.11093607 -0.1748361 -0.35915622 -0.11581481
000240 27 a5 43 be ec 90 ad be 9c 3e 8b bf e2 90 98 bf
       -0.1910597 -0.3389963 -1.0878482 -1.1919215
000250 cf 4d f2 be 8f 2e 2e be f7 e7 11 3e 0e 3a 1c 3d
       -0.47324988 -0.17009948 0.14248644 0.038141303
000260 79 8f 75 bf 8f 99 07 3e 2b 7e e0 be c9 6d 08 3e
       -0.95922047 0.13242172 -0.4384626 0.1332313
000270 40 97 80 3f bf 9b 69 bc 08 73 22 3e 3e 96 b9 3e
       1.0046158 -0.014258324 0.15864193 0.36247438
000280 f1 b9 d4 be d4 33 17 bf c1 0d fb be 52 33 38 3e
       -0.41548112 -0.5906346 -0.4903393 0.17988327
000290 aa e8 a7 be d3 14 4f 3e 37 4d 75 3f 0e 0e 98 3f
       -0.32794696 0.20222788 0.95820946 1.1879289
0002a0 f4 39 0a 3f 9a a2 73 3f 85 52 d6 be 45 69 0e bd
       0.5399468 0.95169985 -0.41859832 -0.03476836
0002b0 42 1b 1e bf 2f 96 09 bf 90 15 89 be 97 43 55 be
       -0.6176034 -0.53744787 -0.26774263 -0.20826565
0002c0 62 1a 15 3f fe 79 62 be f1 57 af 3f a2 9d 15 3e
       0.5824338 -0.22116849 1.3698713 0.14610913
0002d0 52 67 6a 3d f0 10 ca bd 0b ff c5 3d 45 a4 b0 bd
       0.05722744 -0.09866512 0.09667786 -0.08625082
0002e0 1c 2b 02 be a4 6d 10 bd ad e5 e8 bd 27 d4 53 3c
       -0.12711757 -0.03526081 -0.11371932 0.012928999
0002f0 10 bd dc bc 9c 75 11 be ec e6 18 be 6b 5c f7 bc
       -0.02694562 -0.1420502 -0.1493184 -0.030195436
000300 db b2 b0 bd c0 b6 a3 3c 63 f1 be bb 57 b2 19 3d
       -0.08627864 0.019984603 -0.0058271154 0.037523594
000310 99 80 8c 3c a6 aa 2f bd 86 01 c5 bd 6b 2c 1c be
       0.017151164 -0.042887352 -0.09619431 -0.15251319
000320 6e 9c 0c be ae 90 e4 bc e1 5b 67 bc e6 fb a2 3d
       -0.13731548 -0.02790102 -0.014121027 0.07958202
000330 1e 9c 0f be 4e 9c 38 be e7 f7 be bd 06 fc 9e bd
       -0.14024398 -0.18028376 -0.09324627 -0.077629134
000340 55 0b 7b 3b a7 f2 09 bd 48 0f 05 3a 13 6e 19 bc
       0.0038306315 -0.033678677 0.00050758244 -0.009364623
000350 ab 76 d6 bd 21 0f 32 be 0c 62 43 be 4a b5 7f bd
       -0.10471853 -0.17388584 -0.1908037 -0.06242875
000360 b3 92 2e bd c3 cf c1 3c 75 7a 07 bd 0c e7 b6 bd
       -0.042620372 0.023658639 -0.03307577 -0.089307874
000370 b2 23 0c bd 36 11 f0 3c c5 b9 22 39 d6 0e 8b bd
       -0.03421373 0.029305082 0.00015518728 -0.06789939
000380 54 65 c8 bc ed d2 04 bd 2c 42 9b 3c 06 08 3f be
       -0.02446238 -0.032427717 0.018952452 -0.18655404
000390 2f e3 86 bd 09 ee dc bc c7 7d f5 bc 99 5b 3d 3d
       -0.065863006 -0.026968973 -0.029967202 0.046229932
0003a0 49 95 16 be 64 d8 d5 bd 23 39 4b bb 86 e2 00 be
       -0.14705385 -0.10441664 -0.0031009398 -0.12586412
0003b0 ed 07 91 bc ed b6 a2 bd 1c a2 1a be 61 db 40 3d
       -0.017703975 -0.079450466 -0.15100902 0.047084216
0003c0 1e 5f 03 3f b1 4c b0 be cf 3d fd bf 4f dc 02 bf
       0.5131701 -0.3443351 -1.9784487 -0.51117414
0003d0 fd aa 18 be 2e 37 c1 be a7 67 e6 bd ae 0b f6 3e
       -0.14908977 -0.3773741 -0.11250239 0.48055786
0003e0 49 c0 13 bf 13 ea be be bb 2e 2e 3e b9 2b cf be
       -0.5771528 -0.3728796 0.17010014 -0.40463045
0003f0 f5 c1 1e 3b 76 e8 2c bd 9b 0f b2 3d f6 7c 25 be
       0.0024224494 -0.04221388 0.08694383 -0.1616095

bias f4 [60]
000000 7e 4c 50 be 8a ba f8 be fc d6 48 3e 12 7d 22 be
       -0.2034168 -0.48579818 0.1961326 -0.15868023
000010 6d f3 d0 3e d4 5c f9 bd a6 bf 73 3e 36 62 c3 bd
       0.4081072 -0.12175909 0.23803577 -0.095402166
000020 40 e2 ce 3c 89 40 09 3e 3a a3 5a 3e 87 f0 2e 3e
       0.025254369 0.13403524 0.21351328 0.17083941
000030 8c 11 08 3e c6 03 19 3e ab 3d e0 bd a8 4b 99 be
       0.13287944 0.14942846 -0.10949262 -0.29940534
000040 39 c1 80 be 51 cd 6b 3e e9 b9 10 be 21 19 82 bd
       -0.25147417 0.2302754 -0.14133419 -0.06352449
000050 37 cc 1c be 8b 62 f4 3d f2 f9 40 3c f6 ef 26 bc
       -0.15312277 0.11932858 0.011778342 -0.010189047
000060 72 17 1c 3f 36 92 b7 bc e5 bd 31 be 72 3a 6c 3e
       0.60973275 -0.022408586 -0.17357595 0.2306917
000070 f1 a4 45 3d 73 8b 7e 3d 2f c6 aa bd 9c 16 f1 bb
       0.048253004 0.062144708 -0.08338582 -0.0073574316
000080 8b f6 33 3d 78 40 bc 3e 51 21 ac 3e 22 3f b4 bd
       0.043936294 0.36767936 0.33619168 -0.08801104
000090 c1 aa 26 3f 1a 75 e4 be 6a 1d fd bd e9 31 0a 3f
       0.651043 -0.4462059 -0.12359126 0.53982407
0000a0 5a 0c 3e be f6 01 44 3b 2a 01 5a 3d 15 b8 16 be
       -0.18559399 0.0029908395 0.053223766 -0.14718659
0000b0 41 14 47 3e 6e 0d 37 be 3b 05 bc bd e9 8d 96 3e
       0.1944132 -0.17876217 -0.09180685 0.29405144
0000c0 62 4e f2 3d b7 ba 0d be 8f b3 8c be d7 c6 82 3d
       0.118313566 -0.13840757 -0.27480742 0.06385582
0000d0 31 c4 dc be eb 2f 52 3e ce 8d 5e be ca d3 32 be
       -0.43118432 0.20526092 -0.21733782 -0.17463604
0000e0 c1 34 9a 3e 97 9e b9 3e ed ec aa 3e d5 95 ea 3e
       0.30118373 0.36253807 0.33383885 0.45817438

weight f4 [60, 60]
000000 3b 55 52 be 48 da 8b 3d cf 0a 06 3f 44 64 bf bd
       -0.20540325 0.06828743 0.5236024 -0.09345296
000010 30 a4 2a bb 97 ad 1d bf 57 67 2f bf da 33 28 3f
       -0.0026037805 -0.61593 -0.6851706 0.6570412
000020 b3 f5 44 bf ac d3 46 3f 69 43 50 3f 66 5e d5 bf
       -0.7693741 0.77666736 0.8135286 -1.6669433
000030 d0 4d 70 3f c6 25 0a 3d 01 73 1b bf 4d 1b ec 3c
       0.9386873 0.03372743 -0.6072236 0.028821612
000040 d3 b1 89 be 21 87 08 3f dc 18 48 3d fe c5 eb bc
       -0.26893482 0.5333119 0.048851833 -0.028780933
000050 ac 17 07 bf 17 63 94 3e d0 ed 42 3e fe df 9b be
       -0.52770495 0.2898185 0.19036031 -0.3044433
000060 d1 92 6d bf bc 7e 7b 3f 93 02 97 3d ec d1 60 3d
       -0.9280215 0.98240256 0.07373538 0.054887697
000070 c6 f8 59 3f 8d 3e 0c bf 00 d0 29 b8 a8 1a e2 bd
       0.85145223 -0.54782945 -4.0486455e-05 -0.110402405
000080 e7 e6 1a be c0 e3 ad 3e 61 59 0f bd 1a 31 29 3d
       -0.15127145 0.33962822 -0.034997348 0.041306593
000090 fe 0f 4b 3e e3 11 70 be 49 a9 19 bf 08 c8 ac be
       0.1983032 -0.23444323 -0.60023934 -0.33746362
0000a0 45 8b 62 bf 00 fd ba be a9 db 99 3e a2 e4 b7 3c
       -0.8849376 -0.3652115 0.300504 0.022447888
0000b0 3e fe 54 bf cc da 0f 3d 26 52 23 3f af c5 c5 3e
       -0.8320044 0.03512077 0.63797224 0.38627383
0000c0 8d c7 94 3e 28 f8 fb bd 61 b7 ec bd 0c 18 87 3d
       0.29058495 -0.123031914 -0.11558414 0.065963835
0000d0 d8 cc 25 bf fc f6 da 3f 36 45 4c 3e 5d 55 15 3d
       -0.6476569 1.7106624 0.19948277 0.036458362
0000e0 8c da 6f bd d3 3d 20 bd 93 24 d1 bd 57 54 68 3f
       -0.058558032 -0.03912146 -0.10212054 0.9075369
0000f0 a5 7b 38 3f a1 12 5e bd fc 0b ab be 5a 03 0b 3d
       0.72063667 -0.054216985 -0.3340758 0.033938743
000100 fd 41 14 c0 a8 74 87 3e b0 e2 e4 3d e8 98 aa bb
       -2.3165276 0.2645619 0.1117605 -0.005206216
000110 59 66 4f 3e 6f fa 18 bf e1 68 24 3f ca 25 ec bd
       0.20253886 -0.5975713 0.6422253 -0.11530645
000120 29 de 39 bf d5 e5 e9 3d 6d cf 24 bf 81 8d 21 3f
       -0.72604614 0.1142079 -0.64379007 0.6310654
000130 1c 8d 05 3f bc da 29 3c 60 04 ad bc c6 b7 d0 bd
       0.5216844 0.010367092 -0.02112025 -0.10191302
000140 0b 36 3a 3e 29 47 e7 be bb 7d 43 3f b8 ad 50 3e
       0.18184678 -0.45171478 0.76363724 0.20378768
000150 71 e8 a7 3e 83 22 d0 bd 62 dd 02 3d cb cd 0d 3f
       0.32794526 -0.101628326 0.03194941 0.5539214
000160 f7 13 a0 3e db af b2 be be 53 0b 3e 64 03 78 3e
       0.31265232 -0.34899792 0.13606164 0.24220043
000170 60 49 78 3e 58 86 0a 3f 54 4c d5 3e bf 98 f5 3d
       0.2424674 0.5411124 0.41659796 0.11992025
000180 74 e8 b3 3e fa a2 86 bf 39 39 e9 bd b7 bd db be
       0.35138285 -1.0518486 -0.113878675 -0.42918178
000190 bb a7 d1 be e4 8c 9d 3d 50 64 2c bf 6d c5 d9 bb
       -0.4094828 0.076928884 -0.67340565 -0.0066458494
0001a0 fc 8a a7 be 8f 9b 6d 3d e4 ea 15 bf 19 77 9e 3e
       -0.32723224 0.05800968 -0.5856154 0.3095024
0001b0 a6 13 81 bf 5c 92 e7 bd 52 1d 24 bf 74 bf 53 bc
       -1.0084121 -0.11307213 -0.6410724 -0.012924064
0001c0 1a d6 92 3e ee 6f 0d 3f 34 85 bb 3e 9b 72 01 bd
       0.28678972 0.55248916 0.36625063 -0.031603437
0001d0 3a 73 11 3e 17 a2 9e 3c 8a da 9a be 0b 1d 46 3f
       0.14204112 0.0193644 -0.30244857 0.77388066
0001e0 ed 5d 12 3f 14 5a e6 be a1 91 5f be 22 a7 99 3c
       0.5717457 -0.449906 -0.21832897 0.018756453
0001f0 4d 72 ac bf 02 21 ca bd 2f 98 89 be c4 6b d6 be
       -1.3472382 -0.09869577 -0.2687392 -0.41879094
000200 e9 3a 7a be f4 41 97 3e 9b 59 ab 3e 7b 86 dc be
       -0.24436535 0.29542506 0.334668 -0.4307135
000210 73 67 ad be 42 4f 96 3e 4a 5b 11 3f 71 37 2f 3f
       -0.33867988 0.29357344 0.5677992 0.6844397
000220 c4 1e fc 3e 30 1a ee 3c 1c 9d de bc f4 47 30 3e
       0.49242222 0.029065222 -0.027174525 0.17214948
000230 1d 9a 3f 3e 96 b6 9d 3d de 56 a4 3f 74 53 a9 3e
       0.18711133 0.07700841 1.283901 0.33071482
000240 4d d8 ab bf ed 47 eb be 8f 3e a1 3d e5 d5 99 3d
       -1.3425385 -0.45953313 0.0787326 0.075115
000250 eb a5 d9 3e 2f 6b 6f bf 66 93 96 bd 16 66 90 3e
       0.42509398 -0.93522924 -0.07352333 0.28202885
000260 51 ae 2c 3e e9 2d 71 3e c9 00 63 be 8d 28 6a 3e
       0.16863371 0.2355267 -0.22168268 0.22867031
000270 d8 e7 3d 3f f7 a8 99 bd a7 48 43 bf ba e6 bb bf
       0.7418189 -0.075029306 -0.76282734 -1.4679787
000280 76 46 15 3f 67 c0 35 3f 44 9c 85 3e b2 5f 74 3c
       0.5831064 0.7099671 0.26095784 0.014915394
000290 33 3b 3c 3f ea e6 b2 bd df 9d 33 be 4e 80 3d 3d
       0.7352783 -0.087354496 -0.17540692 0.04626494
0002a0 07 45 8e bf 40 16 92 3b a8 67 50 3f f6 29 03 bf
       -1.1114815 0.004458219 0.81408167 -0.512359
0002b0 92 44 ae 3e 1f ee 8c be 24 94 02 bf 75 96 f2 bd
       0.3403669 -0.27525422 -0.51007295 -0.11845104
0002c0 93 04 92 bd 42 f6 ac 3d 65 c5 25 3e 56 2a 5b 3f
       -0.07129779 0.084454075 0.16188581 0.85611475
0002d0 81 f3 5e 3e 2c d5 85 bd 68 ea 81 3e a1 19 dc 3d
       0.21772577 -0.065348 0.2537415 0.10747076
0002e0 1b 43 4f bf be 12 6b 3e f9 94 84 3e b9 19 c3 3e
       -0.8096177 0.22956368 0.25894907 0.38105562
0002f0 a2 75 7e bf 88 7b 51 bf 61 82 94 bf 21 7e 83 bf
       -0.99398243 -0.8182912 -1.1602288 -1.0272866
000300 0f d4 c8 3e 5d 69 33 3f bc c7 ee bd 55 d6 93 be
       0.39224288 0.70082647 -0.1165919 -0.2887446
000310 7a 4a c5 bd a0 c1 d5 bd 93 ec 25 bc 6f ac 32 3b
       -0.09633346 -0.10437322 -0.0101272045 0.0027263423
000320 d2 7d 36 bf f5 05 0f bc 35 44 1a 3e f9 2b 8f be
       -0.71285737 -0.008729448 0.15065081 -0.27963236
000330 dd 63 e5 bf 4d 66 bf 3e 2c 47 98 3d 31 de f4 be
       -1.7921101 0.37382737 0.0743545 -0.4782577
000340 19 47 07 c0 7c b3 4a 3f ad cf 80 bd 18 1c 1f 3e
       -2.1137145 0.7918012 -0.06289611 0.1553806
000350 67 19 79 bf a1 c1 98 3e 32 6d 61 c0 ae 21 8e 3e
       -0.97304386 0.29835227 -3.5222898 0.2776007
000360 5d 36 1e 3f fc dc bf bd 79 b3 73 3f e5 af 34 be
       0.618017 -0.09368321 0.9519573 -0.17645223
000370 7f 1b 6f 3e ff 61 9e bf 16 c3 ad 3e eb fa 0d 3e
       0.23350333 -1.2373656 0.339379 0.13865249
000380 c8 ed 05 bf d0 b7 f6 3d 56 0a b1 3d 79 3a 01 be
       -0.5231595 0.12046778 0.086445495 -0.12619962
000390 00 1e 86 be 20 67 00 3c 5e 18 e1 bd a3 5b b9 3d
       -0.26194763 0.007837087 -0.10990976 0.090506814
0003a0 9e fd 09 3e f9 05 43 bf 80 80 6c 3c 82 00 8f bd
       0.13475654 -0.7618099 0.014434934 -0.06982519
0003b0 5d 89 5c bf a2 ba d0 be 5f 03 43 3e 65 70 5f be
       -0.861471 -0.4076739 0.19044255 -0.21820219
0003c0 1c 70 10 bf 83 d5 ad 3e 5a c9 1b bf 40 1b 01 bc
       -0.56421065 0.3395196 -0.60854113 -0.007880032
0003d0 0c 03 a8 bd 66 0e 9e 3d 3a 32 ed 3e 42 39 fd bf
       -0.08203706 0.0771759 0.46327382 -1.9783099
0003e0 90 24 9e 3d 98 75 70 bf 72 3d de be 27 73 0b 3e
       0.077218175 -0.93929434 -0.43406254 0.13618146
0003f0 bb 71 1f bf d7 2d cd be e5 96 8c be 06 ad 85 3f
       -0.62282914 -0.40074036 -0.27458873 1.0443428

bias f4 [60]
000000 1a a7 38 3e 99 0a 2a 3e 78 68 18 bf 42 ec 6c 3d
       0.18032494 0.16605605 -0.59534407 0.0578425
000010 e6 9c ce be 5e 7f 91 be f8 0e 3a bf 99 23 11 bf
       -0.4035408 -0.28417486 -0.7267909 -0.5669494
000020 65 bd 43 be ed 79 1b 3f 73 6e 21 bf 2a d4 8b 3e
       -0.19115217 0.6073292 -0.6305916 0.27310306
000030 30 52 13 be a1 d0 82 3f d9 d2 fc bd e6 43 71 be
       -0.14386821 1.0219918 -0.123449035 -0.23561057
000040 0a 29 1b bf 92 71 ca 3e fe de 4d be 9c 22 ad 3c
       -0.60609496 0.39539772 -0.20104596 0.021134667
000050 81 3d 8a bc 72 a3 c8 be 03 25 e8 be da 64 47 bf
       -0.01687503 -0.391872 -0.45340738 -0.7788826
000060 b1 f8 37 be b3 5c aa bf 84 cf 14 3f 5f 31 d9 be
       -0.17965962 -1.330954 0.58129144 -0.4242048
000070 5b c1 84 be 0d 73 85 be c0 aa 26 3e 28 ee 38 be
       -0.2592877 -0.2606434 0.16276073 -0.180596
000080 3b 8d 2a be 64 d9 34 be 40 30 a8 bd ae 07 8a be
       -0.16655438 -0.17661053 -0.08212328 -0.26958984
000090 56 2e 53 3f 27 3c 0f 3f bb 2c 23 bd df 1f 3c 3f
       0.8249258 0.5595116 -0.03983758 0.7348613
0000a0 5a de 67 be 94 0a d4 bd 89 3e 1a 3e f5 70 5c be
       -0.22643414 -0.1035358 0.15062918 -0.21527465
0000b0 d8 0b 2b bf 7b c7 7b 3e ac 1f bb bc 30 88 9b bd
       -0.6681495 0.24587815 -0.02284225 -0.07594335
0000c0 4e fa fc 3d 8f b3 22 3f 3f 3a 2c be 0b 9f 75 be
       0.12352429 0.63555235 -0.16819094 -0.23986451
0000d0 40 db 4c be 06 d9 a1 3e 26 ad 41 3c f3 3f 2f bf
       -0.20005512 0.31610888 0.011821067 -0.68456954
0000e0 e0 d4 2c 3e 53 1b 60 be d8 49 63 3c bd c6 87 bf
       0.1687808 -0.21885423 0.013872586 -1.0607525

weight f4 [60, 60]
000000 b4 bd b3 bc 51 82 56 3f 13 ee 1e 3d 87 5f bb bf
       -0.021941043 0.837926 0.038801264 -1.4638528
000010 f8 fd a4 bf 70 1a 44 3f bd ec dc be 71 7c 55 bf
       -1.2890005 0.7660284 -0.43149367 -0.8339301
000020 10 5a 36 bf f5 ac 20 3e 3f c8 d3 be 1e 06 4f 3f
       -0.71231174 0.15690978 -0.41363713 0.8086871
000030 dd 7e 3c 3f ee 29 39 3e ab ee 71 3f eb 18 1f 3e
       0.7363108 0.18082401 0.94504803 0.15536849
000040 bf 2e 2c 3f a1 00 45 3e b1 d4 10 3d a3 ec f3 be
       0.6725883 0.19238521 0.03535909 -0.47641477
000050 38 2d 1a 3e fc 19 8e 3e 73 91 14 be 53 c2 6d 3e
       0.15056312 0.277542 -0.1450861 0.2321866
000060 4d f0 4b bd 43 ec 94 3f e4 24 78 bf 2b f2 31 3f
       -0.049789716 1.1634601 -0.9693129 0.69510144
000070 47 e1 53 bc 00 5e 32 3f 68 e3 36 bf e4 a6 9b bb
       -0.012932128 0.6967468 -0.71440744 -0.0047501195
000080 dd 67 5f 3f 57 75 b6 3d 17 2e b0 bd 1a 83 cb bb
       0.8726786 0.089090995 -0.08602541 -0.006210697
000090 97 1f 0b 3d c4 10 11 bf 36 28 d4 bd d8 cc 57 be
       0.033965673 -0.5666621 -0.10359232 -0.21074235
0000a0 cf e9 2c 3f ca 3d b9 3e 20 6e 4d bf e0 1e cd 3e
       0.67544264 0.36179954 -0.8024616 0.40062618
0000b0 57 40 1c 3f b4 9c 10 be 7a 05 33 bf c7 9b 8b 3e
       0.61035675 -0.14122277 -0.6993023 0.27267286
0000c0 bf 6d 1b 3f 89 a4 0d bf 67 39 e4 bd 30 54 05 3e
       0.60714334 -0.55329186 -0.11143761 0.13020396
0000d0 9c ce ae 3d d0 70 21 be a9 2e 20 3d 54 4a a6 3f
       0.08535501 -0.15765691 0.039107 1.2991433
0000e0 01 9a fe 3e 69 7f 09 3f 7f 0d c2 be 8f 3e 99 3f
       0.4972687 0.5371004 -0.37900922 1.1972216
0000f0 76 d9 4a 3d 02 48 cd be f1 7d 79 3e df e0 82 bf
       0.049523793 -0.40094 0.24364449 -1.0224875
000100 d0 a9 82 bf a1 64 fe bd 61 d5 3c bb 40 60 e7 3e
       -1.0208073 -0.12421537 -0.0028813707 0.4519062
000110 94 e8 06 3f e4 00 03 3e f5 df 94 bf 53 c1 0c 3f
       0.52698636 0.12793308 -1.1630846 0.5498249
000120 20 3d 9c 3f 42 65 cc bd 57 35 3a 3f 19 3a 8c 3e
       1.2206154 -0.09980251 0.7273764 0.27388075
000130 e0 32 9a be f2 a0 c2 3e a1 97 5b bd ab 12 3f be
       -0.3011694 0.38013417 -0.0536114 -0.18659465
000140 07 e6 82 bd b5 45 07 be f0 ff 18 3e e5 22 90 3e
       -0.063915305 -0.13210185 0.14941382 0.28151622
000150 d0 e1 69 3c 91 92 f2 bf 2f 08 05 3f fd a6 87 bd
       0.014275029 -1.8950979 0.5196561 -0.06623647
000160 25 5f 0c 3e 37 d9 96 3f 75 64 6d 3e 3e f5 f0 bb
       0.1370817 1.1785039 0.23182853 -0.007353454
000170 8a 3a 5b 3f 8d 70 04 3f f9 08 a6 bd 10 87 06 bf
       0.856362 0.5173424 -0.0810718 -0.5254984
000180 f3 0c 0e be ba b5 c4 3e 0f 75 d5 3d ba 09 b6 3e
       -0.13872127 0.38419896 0.10422718 0.35554296
000190 dd 88 e6 be 75 a7 a2 bd df 5b 64 bf 09 97 1e be
       -0.45026293 -0.07942096 -0.89202684 -0.15487303
0001a0 1f 8d 37 3f 95 ed f8 be cd 52 a0 bf d4 52 8f be
       0.7169971 -0.4861876 -1.2525269 -0.2799288
0001b0 f2 d1 3f be 29 71 f2 be 15 ee c3 3b 37 e4 08 3e
       -0.18732432 -0.4735196 0.0059793093 0.13368307
0001c0 f5 59 9e bc 29 ce 7b 3f ff 7a 36 3f 43 5e 8e 3e
       -0.019330004 0.9836145 0.7128143 0.2780629
0001d0 cf 67 33 3e a1 b2 b6 3e fd e4 58 3f fb e3 86 3e
       0.17520069 0.35683158 0.8472441 0.2634581
0001e0 96 f5 d9 bd 51 37 cc bd 6c 9e 39 3e ae 1b 82 3e
       -0.10642545 -0.09971488 0.1812684 0.25411743
0001f0 e2 49 45 3c 80 51 83 3f 1a 47 b8 3e 2a e5 aa 3e
       0.012041541 1.0259247 0.35991746 0.33377963
000200 03 ce 06 3e 02 f3 45 be 1c 28 cf 3f db b3 96 bd
       0.13164525 -0.19330981 1.6184115 -0.073585235
000210 3e e0 26 bf 2b 8e d3 bd 5c f3 19 bf 45 27 81 3f
       -0.65185916 -0.10329851 -0.6013696 1.0090109
000220 56 20 a7 3e ec f2 e8 be 90 82 67 3d 9f 04 67 bf
       0.32641858 -0.45497835 0.056521 -0.90241426
000230 4f 83 2f bd b1 0b 30 3f f8 08 0a be c8 c8 08 3f
       -0.042849835 0.6876784 -0.13479984 0.5343137
000240 da 0e b0 3d d6 75 b2 3e b7 e7 bc 3e 5d 35 5e be
       0.08596583 0.34855527 0.36895534 -0.21700044
000250 f9 c2 ab 3d e6 dd 8b 3e 1b 34 76 bf fe 92 6e bd
       0.083867975 0.27317733 -0.96173257 -0.05824565
000260 3d ff 22 3e b4 87 4d 3f b1 ab 0d 3e 09 5a c5 3e
       0.15917678 0.8028519 0.13835026 0.38545254
000270 0a f5 a1 bf 8d 84 c7 3d c8 08 a7 3d 9a 48 7f bf
       -1.2652905 0.09742079 0.08155972 -0.99720156
000280 e8 90 1f 3f c3 5c 47 3f 3d 83 9c 3e e3 04 3e bd
       0.62330484 0.7787592 0.30568877 -0.04639138
000290 f7 e1 e6 3e 2d 01 a0 3f 5b 6b 56 bf 0c 8c a8 be
       0.45094272 1.2500359 -0.8375756 -0.32919347
0002a0 df fb e7 be 9a cd 56 3e 09 4a d5 bd dc 59 94 bc
       -0.4530935 0.20976868 -0.10414512 -0.018109255
0002b0 3b 8a a6 3d cc 8e 59 3e 12 94 0e 3c 3e 66 12 3e
       0.08131834 0.21245879 0.008702295 0.14296815
0002c0 0b 25 e0 3d 34 3c 6d be a4 e7 05 bb fe 66 de 3e
       0.109445654 -0.23167497 -0.0020432258 0.43437952
0002d0 5d 4f 96 be e6 ca 91 bd 0b c4 16 be 8b 98 e0 bd
       -0.29357424 -0.07118778 -0.14723222 -0.10966595
0002e0 8b 1c 20 3d 68 a7 1e bd 85 19 d5 bd 73 54 0e be
       0.03908972 -0.03873387 -0.10405258 -0.13899402
0002f0 fc cf 00 be d1 04 84 bd 82 bc 62 bd f9 92 09 be
       -0.1257934 -0.06446231 -0.055355556 -0.13434972
000300 8f 57 84 3c 90 da c6 bd 98 fb 8e be fc cf a4 bd
       0.016155032 -0.09709656 -0.27926326 -0.08047482
000310 15 3f 37 be e2 77 de bc 93 b4 ea bc 52 4a 1b 3c
       -0.17895158 -0.027156774 -0.028650558 0.009478169
000320 3a ad cc bc 31 25 fe 3d 0c 28 71 3d 2a 86 36 bc
       -0.024984945 0.124094374 0.058876082 -0.011140386
000330 c4 4a 77 bd 5a 22 85 bd 9b 20 b0 bd 88 39 16 be
       -0.060374036 -0.06500693 -0.08599969 -0.14670384
000340 3e b1 36 bd 11 f8 3b bd d9 02 15 be 29 76 e7 bd
       -0.044602625 -0.04589087 -0.14551868 -0.11301834
000350 83 bd 87 bb 9e ca 95 3d 2a ca af 3d ba cb 39 bd
       -0.0041424646 0.07314037 0.085834816 -0.045360304
000360 98 59 98 bd 3f b8 ed bc ce f6 a0 bd 96 fb 01 bd
       -0.07438964 -0.02901852 -0.07859574 -0.03173407
000370 8e 0a 13 be a3 18 39 3d be 51 e3 bd 07 4a 07 be
       -0.14359495 0.04518951 -0.110995755 -0.13211833
000380 2d a7 1d be 90 f9 c6 3b e0 fc 30 3d 85 3f e1 bd
       -0.15395804 0.0060722306 0.04320991 -0.109984435
000390 5c 53 91 3d 7e 24 4a bd d4 c2 53 bd cc 06 e6 bd
       0.07095978 -0.049351208 -0.051699474 -0.11231765
0003a0 34 ff 48 3d 3c 9b 13 be 0b fe 50 bd 34 df 02 be
       0.049071506 -0.14414686 -0.051023524 -0.12780458
0003b0 a7 1d 39 3c 49 69 2b bc bd 7e 25 be 2f b6 e6 bc
       0.011298574 -0.010462114 -0.16161628 -0.028163044
0003c0 47 09 32 bd 77 0e 19 3f ce 46 d3 3e 89 e7 65 bc
       -0.04346588 0.59787697 0.41264957 -0.014032253
0003d0 bc 03 3c 3e d8 96 f6 3e 3e 6f 00 3f 06 a6 1b be
       0.183608 0.4816196 0.5016974 -0.15200052
0003e0 29 2b 5e bf 2c 6e 10 3f 52 0e bd 3f c7 62 b0 be
       -0.8678461 0.5641811 1.4769995 -0.3445036
0003f0 bb df 33 3f ed fc 51 3e 35 3d 4a bf 63 dd 4e 3f
       0.7026326 0.2050664 -0.78999645 0.8080656

bias f4 [60]
000000 49 79 47 bf 64 8c 4b 3d 99 34 9f bf 52 84 11 bd
       -0.7791944 0.049694434 -1.2437927 -0.03552658
000010 b9 d9 37 3e 8a 14 2e be 65 7f 86 be 54 d3 fc be
       0.17954148 -0.17000023 -0.2626907 -0.4937998
000020 d3 ed ba bd e9 fb ed bd 91 c9 c1 be 49 68 14 3f
       -0.091273926 -0.11620314 -0.37849095 0.57971627
000030 0f 7e 34 bf 12 0e 90 bf e9 cb 50 bf 8a 09 c9 3e
       -0.7050485 -1.1254294 -0.8156114 0.3926509
000040 3a 3d 31 3e ca ec 12 bf 62 9d 17 bf 45 ba eb bc
       0.17308512 -0.5739256 -0.5922452 -0.028775344
000050 eb 41 30 be 2f 13 03 bf a4 cf f4 be 35 ae 30 bf
       -0.17212646 -0.51201147 -0.47814667 -0.6901582
000060 d1 51 e4 3e ea 67 57 bf 64 e2 af bc 07 3e 01 3f
       0.4459367 -0.84142935 -0.021470256 0.5048527
000070 d5 e8 80 bd e0 d5 22 3f fa 2c 00 be 22 67 79 bf
       -0.06294409 0.636076 -0.12517157 -0.97422993
000080 29 6c cb be a9 a1 d2 be 66 26 20 be 0a 9b 0a bf
       -0.39730957 -0.41138962 -0.15639648 -0.5414282
000090 af a2 6c bf 6c 4e 82 bf 3f 1b cc be 27 64 d2 be
       -0.92435735 -1.0180182 -0.39864537 -0.41092035
0000a0 f6 3b e8 be de ce d4 bc 61 4c 3b be 72 27 4b be
       -0.45358247 -0.025977548 -0.18290855 -0.19839266
0000b0 33 6a d8 bd c9 80 02 bf 1a 8e da 3d f4 9a a6 3d
       -0.10567131 -0.5097776 0.10671635 0.08135024
0000c0 c7 71 c7 be 56 ad dc bf 21 2e 85 3e 35 93 22 bd
       -0.38953993 -1.7240398 0.26011756 -0.03969117
0000d0 d7 37 8f 3e 54 8e 22 3d 02 5c 0a 3e 4b ae 32 bf
       0.2797229 0.039686516 0.1351166 -0.697972
0000e0 e0 df 35 be 84 97 aa 3e 0f c6 05 bf 43 41 83 bf
       -0.17761183 0.33318722 -0.5225534 -1.0254291

weight f4 [10, 60]
000000 7e 3c 58 bf f7 6d e8 be 67 ae e8 be 75 04 d6 bb
       -0.84467304 -0.45396397 -0.45445558 -0.006531293
000010 c8 1b 10 bf 6b 31 a3 be 69 06 a0 be c7 85 25 bf
       -0.5629239 -0.3187364 -0.3125489 -0.64657253
000020 b1 79 97 bd 21 4a 96 be 1e 95 20 bf 55 05 81 be
       -0.07396258 -0.2935343 -0.62727535 -0.2519938
000030 e3 88 41 bf 9a 9f 96 be 4f 07 84 be b7 47 3d bf
       -0.755995 -0.2941864 -0.25786826 -0.73937553
000040 84 ab ab be 94 2f 6f bf 6c 21 4d bf 0e 36 33 bf
       -0.33529294 -0.93431973 -0.8012912 -0.70004356
000050 97 28 95 bd 64 60 6a bf e3 a9 26 bf 38 b2 25 bf
       -0.072831325 -0.9155333 -0.65102977 -0.64725065
000060 15 fe d1 be b1 29 79 bf d1 18 3e bf 4d 88 5f bf
       -0.41014162 -0.9732924 -0.74256617 -0.87317353
000070 c7 f4 54 bd 71 48 ed be a7 c8 74 be f3 32 6b bf
       -0.05199125 -0.4634433 -0.23904668 -0.9187462
000080 35 65 58 be dd ba 66 bf cd 97 2c bc c9 dc d4 bf
       -0.21132357 -0.9012888 -0.010534239 -1.6629878
000090 4b 83 7f 3e 7f 4b 35 be e5 7b a7 bd 18 30 a7 bd
       0.24952428 -0.1770458 -0.08177928 -0.0816347
0000a0 3e 24 0f bf f7 99 3b bf 73 41 e8 3c ff 31 4a be
       -0.55914676 -0.73281807 0.028351521 -0.19745634
0000b0 2a 34 28 3d fd ac 53 be 48 df d0 bd e8 ab 80 bf
       0.041065373 -0.20671459 -0.101988375 -1.0052462
0000c0 85 7c 2d bf 3d fa e6 be f7 bf 39 bf e9 e7 94 bf
       -0.67768127 -0.45112792 -0.7255854 -1.1633273
0000d0 e4 62 a2 be a6 c7 7e bd 3e 10 b1 be 5d d5 0f bf
       -0.31716073 -0.06220212 -0.34582704 -0.5618494
0000e0 95 8d 47 3d c1 ad 4c bf 0b d5 83 bf 6c 35 3f be
       0.048719008 -0.7995263 -1.029939 -0.18672723
0000f0 12 30 a7 bf 03 fd b2 be a0 6b c5 c0 1e 6c ae 3d
       -1.3061545 -0.34958658 -6.169388 0.085167155
000100 3a d0 bf bf 25 00 17 bf ec 73 fe bf e9 8c 5a c0
       -1.4985421 -0.58984596 -1.9879127 -3.4148505
000110 80 dd 99 3c a8 ed b9 c0 e5 a7 49 bf 53 b9 9b bd
       0.018782377 -5.810261 -0.7877181 -0.07603707
000120 77 cf 76 c0 59 8d 87 bf b1 fa 88 be 34 50 ba bd
       -3.8564126 -1.0590011 -0.26753762 -0.09097329
000130 30 dc 75 c0 37 fb 7f c0 a0 63 17 bf f7 fa 04 c1
       -3.8415642 -3.999708 -0.5913639 -8.311271
000140 0b ee 96 bb 83 dc 8e bf 3e a8 02 c1 6d 82 2f c0
       -0.0046060137 -1.1161045 -8.166075 -2.7423356
000150 1e 62 9b bf 91 28 68 c0 e2 6a 2f bd d8 31 2f be
       -1.2139318 -3.627476 -0.04282654 -0.17108858
000160 3d 74 75 3d e9 e0 6f 3d af ef e0 bf 73 4c 1d c0
       0.059925307 0.0585641 -1.7573146 -2.457791
000170 3e b2 2c c0 43 da e6 bf 36 07 1c be 76 05 52 c0
       -2.698379 -1.8035358 -0.15237126 -3.2815833
000180 27 dc 8c c0 4e 7a df 3d 7a 4d 39 be 7f 14 0d bf
       -4.401874 0.10912 -0.18095961 -0.551094
000190 71 22 05 bf c2 ca bc c0 6e 57 76 3d 10 4d 1f bf
       -0.5200568 -5.8997507 0.060141973 -0.62226963
0001a0 79 24 2e bd 24 bd 7d c0 ad 93 c9 bf be 6a ba bf
       -0.04251525 -3.9646692 -1.5748192 -1.4563825
0001b0 ba 26 6d c0 88 62 ad c0 78 58 75 be 64 b5 0b 3f
       -3.7054887 -5.4182777 -0.2395953 0.54573655
0001c0 b0 66 00 be 70 95 5f c0 52 62 98 be 3c 49 73 be
       -0.12539172 -3.493496 -0.29762512 -0.23758405
0001d0 cc e4 20 be 84 68 d6 bd 22 7c e0 bf fd e3 bd 3d
       -0.15712279 -0.104691535 -1.7537882 0.09272001
0001e0 dc 4e 7c be 1b 2f 35 bf 35 97 89 c0 51 bb 56 bd
       -0.24639457 -0.70775 -4.299708 -0.052424733
0001f0 29 df 19 c1 34 e8 c5 c0 6b 95 de be e0 8e 17 be
       -9.616982 -6.184595 -0.43473372 -0.14800596
000200 1e f6 9b bd af 87 f6 3f 49 3e ce bf 77 35 93 c0
       -0.076153025 1.9260157 -1.6112758 -4.6002765
000210 fa b3 bf bd 10 6c b7 bd 7d 51 b0 c0 13 2b 20 be
       -0.093605 -0.08956158 -5.5099473 -0.15641432
000220 05 cf 6c c0 c6 a2 6c 3f ad bd 3b bf 6f 23 26 c0
       -3.7001355 0.9243587 -0.733363 -2.5959127
000230 1e ff 0d bd 01 cf 25 bf 4e 88 45 bf c8 c3 f7 3d
       -0.034667127 -0.6476899 -0.7716111 0.12097889
000240 63 a4 e8 bf 85 ba 85 bf 5b fc b5 3e ad 88 0e c0
       -1.8175167 -1.0447546 0.35544094 -2.227092
000250 a9 47 f3 bd 15 0d 2e c0 b5 bf 2a c0 25 3f 45 3d
       -0.118789025 -2.7195485 -2.6679509 0.048155922
000260 17 30 3d c0 8e 8e ca bf d1 ba ef bc 31 3c 9b 3f
       -2.9560602 -1.5824754 -0.029263886 1.2127744
000270 d0 16 6a bf f2 04 8b bf eb f7 bd be ab 1c 3e 3d
       -0.9144106 -1.0860884 -0.3710321 0.04641406
000280 02 cb 1e c0 a7 bd 7d c0 53 90 a5 3d 5d 13 36 bf
       -2.4811406 -3.9647005 0.08084168 -0.71123296
000290 35 7f a5 bd 9e 14 c6 bf ff b5 8e bf 2e 9c 76 c0
       -0.080809034 -1.5475042 -1.1149291 -3.8532825
0002a0 91 b6 38 bf 2b 86 2d c0 49 de 87 bf b1 76 70 bf
       -0.72153574 -2.711314 -1.0614711 -0.9393111
0002b0 74 23 75 3d 74 19 e6 c0 df a0 0e bf 2a 52 4e bf
       0.059848264 -7.190607 -0.5571422 -0.8059412
0002c0 98 7d 46 bd 04 6d 9f bf d3 82 82 be dd 55 15 c0
       -0.04845962 -1.2455144 -0.25490436 -2.3333657
0002d0 ba 1a c6 3d aa 0b 45 bf 91 57 8b 3d 0b 95 38 be
       0.096730664 -0.7697092 0.06803811 -0.18025605
0002e0 04 6c 5a be d5 af 49 c0 15 67 1d c0 f2 c6 48 c0
       -0.21330267 -3.151357 -2.4594166 -3.1371427
0002f0 0c cd e9 bc aa d5 df be 7c a1 18 3c 3f e0 8f c0
       -0.028540157 -0.437177 0.009315845 -4.496124
000300 4f 48 eb bc cd e1 86 3e 82 cb ea bf c5 34 05 c1
       -0.028721003 0.26344147 -1.8343356 -8.325383
000310 9d ab 4b c0 2a ef 82 3e 23 4a 45 bf c6 2d ef bf
       -3.1823494 0.25573093 -0.7706625 -1.8685844
000320 32 d8 4d bd a9 ce 7e bf 50 fc 8e bf ac c8 3f 3e
       -0.050255008 -0.9953409 -1.117075 0.18728894
000330 ee 78 55 bf ed b4 24 3f e7 bb 10 bf 71 b8 18 c0
       -0.8338765 0.6433857 -0.56536716 -2.3862574
000340 0f 05 9c bd a0 3c 13 be 61 9e bb c0 b0 90 dc 3d
       -0.07618152 -0.14378595 -5.8630834 0.107697845
000350 35 93 00 c0 3b 97 e2 bf 32 bf a8 3d 70 3e 4d bf
       -2.0089848 -1.7702402 0.082395926 -0.801734
000360 65 68 31 3e 9e e6 09 c0 98 2e 75 be c2 b4 46 3e
       0.1732498 -2.1547008 -0.23943555 0.19404891
000370 cb f4 c2 bf ca a1 99 bf fa ed 82 bd 3a c7 e7 bf
       -1.5230955 -1.2002499 -0.06393047 -1.8107674
000380 9c a1 5f 3d 3a 69 81 c0 4a b8 aa be f5 73 69 c0
       0.054597482 -4.044095 -0.33343726 -3.6477025
000390 23 c3 38 bf 09 00 21 be 91 fa 7b c0 77 ad f2 bf
       -0.72172755 -0.1572267 -3.9371684 -1.8959187
0003a0 dd 28 58 bf 17 65 9c c0 f5 8c 4f c0 e9 54 b4 bf
       -0.8443735 -4.88734 -3.2429783 -1.4088413
0003b0 37 eb dd bc cf 6a 3b c0 21 43 b4 be b1 4e 30 bd
       -0.027089698 -2.928394 -0.35207465 -0.043043796
0003c0 9b fe 4e c0 f4 f4 e1 3e 96 5a 7b c0 67 55 93 3c
       -3.23429 0.44132197 -3.927404 0.017985059
0003d0 c9 25 af bd 79 ff dc bf 01 01 af be e4 1a 59 bf
       -0.08552129 -1.7265464 -0.34180453 -0.84806657
0003e0 c0 30 c8 3d 21 48 e4 bf d4 db 9d be 35 be b0 bf
       0.09774923 -1.7834512 -0.30831778 -1.3808047
0003f0 86 db 03 bf 7e 37 ff 3c 10 2d 30 c0 ad 73 7e c0
       -0.5150684 0.03115439 -2.7527504 -3.9758103

bias f4 [10]
000000 05 5f 53 3f 9f 3f e3 3e 45 10 86 bf c7 2e 93 bf
       0.82566863 0.44384477 -1.0473715 -1.149865
000010 45 10 33 3d 7a 19 a4 be 10 15 af bd b5 7d af be
       0.043716688 -0.32050687 -0.08548939 -0.34275594
000020 fd f5 e8 be b4 2d 7b bf
       -0.45500174 -0.9811661
