NN Real data/final_trained_models/TPSM/TPSM_expLR.pth (torch, 56171 bytes, 10 tensors)

weight f4 [60, 20]
000000 0b dd 74 40 59 a1 ab c0 0b 49 b4 bf 4e bb 4a bf
       3.8259914 -5.3634458 -1.4084791 -0.79192054
000010 cd b0 04 c0 d4 e1 40 bf 82 df 1a 3d bf da 28 3f
       -2.073291 -0.75344586 0.03781081 0.6595878
000020 6b a5 d6 be 71 02 6c bf fd 1c 8d bf 52 04 a5 3f
       -0.4192308 -0.92191225 -1.1024472 1.2891943
000030 c6 3f 2a 3f be ff af 3e 93 7a 50 be 7c 94 fd be
       0.6650356 0.34374803 -0.20359258 -0.49527347
000040 67 d5 a5 3f 79 b4 ff 3f 3e 92 3f bf 4c 73 d9 3f
       1.295575 1.9976951 -0.7483252 1.6988311
000050 60 19 a9 3f 67 6e a1 3d 54 68 8d bf ea fc 02 c0
       1.3210869 0.07882386 -1.1047463 -2.0466866
000060 d6 d6 13 bf d7 72 6a 3d 90 56 23 3f aa 37 b9 bd
       -0.5774969 0.057238426 0.6380396 -0.0904382
000070 19 dc 64 be bf 8a 25 be bf a9 c9 be a7 77 a7 3f
       -0.22349586 -0.16166209 -0.39387318 1.308339
000080 d2 f9 fc be 3c e0 70 bd e8 6f a3 be ec c1 94 be
       -0.49409348 -0.058807597 -0.31921315 -0.290542
000090 92 b3 07 40 66 fe d1 be 15 54 86 be b8 35 80 3f
       2.120335 -0.41014403 -0.26236024 1.0016394
0000a0 1d 8e 0b 3e c2 77 dd bf 09 f7 16 bf c1 b5 f9 bd
       0.1362843 -1.7302172 -0.58970696 -0.1219287
0000b0 77 d6 e9 3e 07 a4 78 be 51 2e 53 bf a8 3f 48 be
       0.45671436 -0.24281321 -0.8249255 -0.19555533
0000c0 7a 01 d7 3e 8a 26 42 3d 46 01 8f be 50 cd 10 bf
       0.41993314 0.047400035 -0.2793066 -0.5656328
0000d0 c5 d1 6c bf 3b 76 8a 3f 4b a6 5c 3f fe f0 37 bf
       -0.9250758 1.0817331 0.8619124 -0.718521
0000e0 bf e0 9e bb ec 49 2b bf 43 a0 59 3f 83 0f 82 3f
       -0.004848569 -0.6690967 0.85010165 1.0160984
0000f0 9a 14 06 3f 3a 14 2c 40 32 38 7b c0 24 19 37 bf
       0.52375185 2.6887345 -3.925305 -0.71522737
000100 74 e9 00 40 38 21 95 3d 46 c2 cb 3e 1c 28 36 c0
       2.0142488 0.072817266 0.39796656 -2.846198
000110 89 e6 2c 3e 83 0c b7 3e 58 e5 10 3f 4f 83 3c be
       0.16884817 0.35751733 0.5659995 -0.18409465
000120 68 d0 1a c0 8f ff 07 3e ae 98 49 3f f6 5d 71 be
       -2.41897 0.13281082 0.78748596 -0.23571
000130 59 95 b9 bf a2 a1 43 bf 89 a5 83 be 69 5d 64 3f
       -1.4498702 -0.7641851 -0.2571223 0.8920503
000140 0d b3 98 be 7a 5d 6a 3d 86 8a 11 3d fb 24 d5 3f
       -0.29824105 0.057218052 0.035532497 1.665191
000150 eb 43 5d 3f c7 f7 46 40 e9 d5 95 3e 32 3a c6 bf
       0.8643176 3.1088731 0.29264763 -1.548651
000160 7f c9 64 3f 4b 77 01 40 70 b7 9a 40 ba c3 9b bf
       0.8936996 2.022906 4.8348923 -1.2169106
000170 af 36 89 c0 c7 11 b7 3e 72 99 9b 3f 8b 1f 95 40
       -4.2879252 0.3575575 1.2156203 4.6601005
000180 46 67 41 c0 b9 c6 47 c0 18 43 11 3f 09 93 1f 40
       -3.0219283 -3.121504 0.56743 2.4933493
000190 b1 9b 28 40 96 c0 24 bf 9c d4 b8 3f f4 86 39 bf
       2.6345026 -0.6435636 1.4439883 -0.7247155
0001a0 aa 72 cd 3f aa 2d 4d 40 58 d0 0d bf ba 61 08 3f
       1.6050618 3.205912 -0.5539603 0.5327412
0001b0 8f 57 bc bd 49 89 86 3f 1b 31 3d 40 a7 d8 27 bd
       -0.09196388 1.0510646 2.9561222 -0.0409781
0001c0 68 4e 56 3e dd a1 31 bf 3c 71 57 3f 9c aa 75 40
       0.20928347 -0.6938761 0.84157157 3.8385382
0001d0 a3 21 dc 3f 21 38 c3 bf ed 61 8e 3f ec 94 3b bf
       1.7197765 -1.5251504 1.1123635 -0.7327411
0001e0 18 0a 83 3f 58 cf 1f 40 31 ab 82 c0 00 84 bc 3f
       1.0237455 2.4970303 -4.0833974 1.4727783
0001f0 55 ab cb 3f 34 35 05 3f b9 58 34 be 4d 69 db bf
       1.5911661 0.52034307 -0.1761197 -1.714151
000200 3b 17 95 be 2f aa a3 3f 2d 09 8a be 80 64 2d 3f
       -0.29119286 1.2786311 -0.26960126 0.67731476
000210 49 e9 81 3e 5e c9 4d be 1b e8 80 bf b8 06 43 bd
       0.25373295 -0.20096347 -1.0070833 -0.04761383
000220 3e 9b 29 3f 28 24 01 40 28 9a 5b 3f da 86 03 c0
       0.66252506 2.0178318 0.857821 -2.0551057
000230 c2 ba 49 3e 2a ba 38 3e 1c f1 40 be de 0a e7 3d
       0.19700149 0.18039766 -0.18841976 0.112813696
000240 ee 63 fb 3d 32 2c 2b bd 9c 25 7a bd 90 5a d7 3c
       0.122749195 -0.041790195 -0.061071023 0.0262883
000250 be 75 bc bc 39 5e 0b 3e 54 6e 6f 3e 40 84 ec bd
       -0.023005363 0.13610162 0.2338193 -0.11548662
000260 68 74 fd 3d 96 99 95 bc 5f 41 47 be e3 66 6f 3c
       0.12375718 -0.018261712 -0.19458531 0.014611932
000270 a9 a9 23 be fd 73 22 3d f9 75 1f 3e 69 a5 f5 3d
       -0.15982689 0.039661396 0.15572347 0.1199444
000280 40 c5 32 3e 16 49 40 bf 90 e8 0c c0 dd c5 ab bf
       0.17458057 -0.7511152 -2.2016945 -1.3419758
000290 fa 99 b7 3f fb b5 a1 3f 5c a5 95 3f 08 7b 18 bf
       1.4343865 1.2633661 1.1691089 -0.5956273
0002a0 0a b7 85 3e 8a ca 48 bf 8a c5 28 40 df f8 84 bd
       0.2611621 -0.7843405 2.6370568 -0.06492781
0002b0 e8 91 cc be 1e f1 46 3f 22 33 5a be b4 a2 87 40
       -0.39955068 0.77711666 -0.21308568 4.238611
0002c0 d2 f6 a6 bf 85 51 88 3f 05 67 20 40 0b 88 92 3e
       -1.3044074 1.0649878 2.5062878 0.28619418
0002d0 41 51 29 be 64 50 1c bd 0b 32 20 be 33 cc 97 bc
       -0.16534902 -0.038162604 -0.1564409 -0.018529987
0002e0 b6 d1 5d 3e a6 d1 c9 3d 8c 47 55 bd a8 e9 c1 bc
       0.2166203 0.098544404 -0.052070186 -0.023670986
0002f0 43 8e f2 bd a4 90 0f 3e 76 ef a6 ba a4 9f d4 3c
       -0.118435405 0.1402002 -0.001273616 0.025955029
000300 2d dd 0a bd 3c 4d 0c 3d 3f 2a 87 bd 4e 68 a6 bd
       -0.033902336 0.034253344 -0.06599855 -0.08125363
000310 4e 97 84 3c e6 25 27 be 07 92 0e 3d 32 ac 01 be
       0.016185429 -0.16323051 0.03480723 -0.12663344
000320 52 5e af bd e0 0c a4 3c 0b a7 59 bd ec ec e6 bd
       -0.08562912 0.02002567 -0.05313782 -0.11275658
000330 99 01 32 3e ce 32 38 3e 4c 43 ae 3d 5b 7c 04 be
       0.17383422 0.1798813 0.085089296 -0.12938063
000340 4b 85 6e be 80 48 c9 3e 5c 10 b4 bd 20 16 31 3c
       -0.23293035 0.39313126 -0.08792183 0.010808498
000350 57 c6 c0 be c3 3a 98 be 0f 16 11 3f 37 b5 b1 3e
       -0.3765132 -0.29732332 0.56674284 0.34708568
000360 78 9a 68 be 5d 1e b0 be fe c9 11 3f ba ad e8 3e
       -0.22715175 -0.34398165 0.5694884 0.45445043
000370 d8 96 2e 3d 8a 24 67 3d 09 58 65 be 1a 46 fa 3d
       0.042624325 0.05643133 -0.22396864 0.12220402
000380 9e 47 6b bd 9b a9 ea 3d e4 94 91 3d 3b 63 b8 bd
       -0.057441346 0.11458131 0.07108477 -0.09003302
000390 43 a6 e5 3c 39 32 f0 3d 2e 2b ca 3c 5f 55 51 bd
       0.028033381 0.11728329 0.024678793 -0.051106807
0003a0 98 43 ed 3d 7b 10 3e 3e d6 e6 a6 bd 95 a2 57 3e
       0.11585158 0.18560974 -0.08149497 0.21058114
0003b0 c3 92 6f 3d bc 14 1f 3d 02 ea 80 bd e7 2e 06 3e
       0.058489572 0.038838133 -0.062946334 0.1310383
0003c0 fd 85 8e 3e 66 b0 c3 3d 9e 5b 64 3f 69 b8 fc 3d
       0.278366 0.0955513 0.89202297 0.12339861
0003d0 cd 28 c1 3e 73 0c 76 3f 66 31 f2 3a 03 32 bd be
       0.3772644 0.96112746 0.0018477857 -0.36952218
0003e0 68 5a 98 3e 85 7c 85 3e f6 95 66 3f 93 3d 74 bd
       0.29756474 0.26071563 0.9007257 -0.059629034
0003f0 ce 1e 61 be c6 6b a1 3e 5f db b0 3e 63 80 31 3f
       -0.21984407 0.31527537 0.34542367 0.6933653

bias f4 [60]
000000 c4 1b 37 3e bf 5e 66 be e8 7d a0 bf 29 2d b4 be
       0.17881685 -0.2249708 -1.2538424 -0.35190704
000010 0b d9 c4 3e eb 0c 6d be f7 26 13 bf c6 96 93 be
       0.3844684 -0.23149459 -0.5748133 -0.28825969
000020 04 e7 c8 be 14 13 84 be 5b 43 f1 be ab d0 8f be
       -0.3923875 -0.25795805 -0.471217 -0.2808889
000030 a3 b0 f0 be b0 f3 a9 3e 1c 4c a0 3d 32 34 43 be
       -0.47009763 0.3319373 0.07827017 -0.1906288
000040 9e 77 8a 3e 01 0b 38 be 9f 72 7f be 21 51 9c be
       0.27044386 -0.17972948 -0.24946068 -0.30530646
000050 be f9 75 bf fb 06 17 bf be 34 0c 3f d7 cf 27 bf
       -0.960842 -0.58995026 0.5476798 -0.65551513
000060 0e cb bb 3d df 0e 46 3f 31 ef b8 be 5b 17 85 3c
       0.09169589 0.7736644 -0.3611999 0.016246488
000070 4e fe 1a bf 31 a3 8d 3d 14 3e a0 be 5a a0 43 bf
       -0.6054429 0.06915892 -0.31297362 -0.7641655
000080 56 a8 5a bf 67 35 ef bd 7d 10 6b be 20 4d 0e bf
       -0.8541311 -0.116801076 -0.22955509 -0.55586433
000090 d8 ec 20 3f a7 1a 8a bd 73 10 94 be 21 f7 ac 3e
       0.62861395 -0.06743365 -0.289188 0.33782294
0000a0 fc 87 8f be c2 ee 75 be 4f be ed be 91 3f e1 be
       -0.28033435 -0.2401686 -0.46434256 -0.4399381
0000b0 0c 2e 80 bd eb 19 97 bf d9 c6 32 bf 4f d8 ef 3d
       -0.06258783 -1.1804785 -0.6983467 0.117111795
0000c0 34 f2 39 bf 10 cb 62 3e 00 ab e4 3d 00 59 35 be
       -0.726352 0.22147775 0.11165428 -0.17709732
0000d0 5f 30 19 be aa 78 bf 3e 21 be ec be 5d bf ed be
       -0.14959858 0.37396747 -0.46238807 -0.4643506
0000e0 32 28 aa bf 17 48 66 bf f6 7c 09 bf ff f1 34 3e
       -1.3293517 -0.8995375 -0.537063 0.17670439

weight f4 [60, 60]
000000 79 3f 82 be 9e ac ae bd 96 31 cd bd 4e f7 10 be
       -0.2543905 -0.08529018 -0.100192234 -0.14156839
000010 96 49 ad be 08 73 c5 bd 7c aa eb be 1e ba 39 bc
       -0.33845204 -0.09641081 -0.46028507 -0.011335878
000020 19 d6 81 3b 97 1d 7a 3d 17 59 86 3e 77 ba 8e 3d
       0.00396229 0.061063375 0.26239845 0.06969159
000030 ab ea 32 bd ae 14 c6 be 6b 2d 71 bf 40 b0 5f 3d
       -0.043680828 -0.38687652 -0.9420993 0.054611444
000040 34 51 37 be 90 7a 09 3c 65 9f 63 bc ae 64 4d bf
       -0.1790207 0.008391038 -0.013892983 -0.8023175
000050 47 e5 64 be 15 5b a5 be 5d 1b 7a be 28 8c 59 bd
       -0.22353087 -0.32296053 -0.24424501 -0.05311218
000060 a2 3c f4 be cf ba 3a be f6 2b a4 bd ed 8b 9d bc
       -0.4770251 -0.18235324 -0.080161974 -0.01923176
000070 6a b1 17 be a3 f3 a6 bd a6 1f b3 be 61 79 ae 3b
       -0.14813772 -0.08151939 -0.34985083 0.005324528
000080 27 4e 35 bf b8 94 e2 be f0 c2 0a be 35 af d8 bb
       -0.70822376 -0.44254088 -0.13550925 -0.006612683
000090 f1 73 d7 be 56 29 a3 bc 79 1e c1 bd 0b 55 c8 be
       -0.42080644 -0.019917171 -0.0942964 -0.39127383
0000a0 45 47 83 bd 5c 30 07 bf 36 6d a4 bd 14 f5 d4 bd
       -0.06410078 -0.52808166 -0.08028643 -0.103983074
0000b0 70 bf cc be 48 56 e7 bb 51 ef 5b be b6 36 81 bd
       -0.39989805 -0.007059846 -0.2147801 -0.063092634
0000c0 2c 0e 0c be 3f 07 91 be 89 b1 41 be c0 e2 ff bd
       -0.13677281 -0.2832584 -0.1891538 -0.12494421
0000d0 b4 87 79 bf 41 fd 94 be 64 55 83 bd c9 a3 e6 be
       -0.9747269 -0.29099467 -0.06412771 -0.45046833
0000e0 19 d3 83 3e e2 c8 54 be 01 87 ac 3e a4 c1 87 be
       0.25746992 -0.20779756 0.3369675 -0.26514924
0000f0 3d 34 87 bf e2 c2 98 bf 40 c5 b4 be 5f ad 98 3f
       -1.0562817 -1.1934474 -0.3530674 1.1927909
000100 a4 9b 92 3f 40 b3 8e bf 83 d2 52 bf ff b0 94 bc
       1.1453748 -1.1148453 -0.82352465 -0.018150805
000110 39 02 91 bf 2a 0c 9c 3d 15 fb b8 3e c8 bc 49 3d
       -1.1328803 0.076195076 0.3612906 0.0492523
000120 48 49 db 3d af 63 11 c0 2a 5d a8 3f 31 31 8d 3e
       0.10707337 -2.2717092 1.3153431 0.27576593
000130 05 54 63 3f d2 50 9f bd 75 1d 38 3e 24 16 3c 3d
       0.8880008 -0.07779087 0.17979987 0.045919552
000140 8a 50 48 bf 8f e3 bc be d0 a6 14 c0 75 e5 35 be
       -0.7824789 -0.36892363 -2.3226814 -0.17763312
000150 c1 4d 85 bf d1 7b 16 3f 99 a7 ec bc 24 31 a7 bf
       -1.0414354 0.5878268 -0.02888851 -1.3061872
000160 bc 4d 8f 3e 6f 63 29 3e c3 d6 ee bf 22 ef 25 bf
       0.27988994 0.16541837 -1.865929 -0.6481801
000170 e7 14 c8 be 54 92 82 bf 3a 0d 8f 3d 59 eb 5f 3e
       -0.39078447 -1.0200906 0.06984945 0.21867122
000180 3d 7c 86 bf 2d f9 59 be a9 05 b1 3e 03 ea 8a bf
       -1.0506665 -0.2128646 0.3457463 -1.0852665
000190 34 1a b8 3d 1e f0 15 3f 80 e2 a3 bc a2 27 85 3e
       0.08989373 0.58569515 -0.020005465 0.260068
0001a0 40 68 1f bf 36 92 5d bf 1a 2c 6c bf f3 b7 f0 bf
       -0.6226845 -0.86551225 -0.92254794 -1.8806137
0001b0 d0 a3 f6 bf 0f 70 ab bf a0 90 88 bf 74 a7 c1 bd
       -1.9268742 -1.3393573 -1.0669136 -0.09455767
0001c0 1f ea b0 be 1a 4c 8a bf e7 03 e8 bd 41 9a 4a 3f
       -0.3455362 -1.0804474 -0.11328869 0.7914162
0001d0 fe b6 cc be 16 2a aa 3b 39 25 84 3f c2 5c d9 bf
       -0.39983362 0.0051930053 1.032386 -1.6981432
0001e0 31 86 28 c0 7f 9c 20 3f de ca 64 bf 5b 4f 80 3f
       -2.6331904 0.62738794 -0.8937205 1.0024217
0001f0 a0 55 ca bf c1 f1 c3 3d 1b fe 8e bf f9 a7 93 bd
       -1.5807381 0.09567595 -1.1171297 -0.072097726
000200 3b 11 75 bf ec a5 f9 3c 60 fe 0d 3e 77 a2 9d bd
       -0.95729417 0.030474626 0.13866568 -0.07697003
000210 8e 74 a9 3d 02 a9 b1 bf a8 20 10 c0 97 69 05 bf
       0.08274184 -1.3879702 -2.2519932 -0.5211424
000220 14 c3 7b c0 19 93 0a be d7 d8 de 3d b3 79 3e 3c
       -3.9337816 -0.13532676 0.10881203 0.011625695
000230 91 94 e9 3e ab 2c 13 be e8 b8 7b bf c0 29 a1 3c
       0.4562116 -0.14372508 -0.9832902 0.019673228
000240 95 0b 4f 3f db 8b 5f 3e 48 8e c3 bc 36 09 bf 3e
       0.8087705 0.21830694 -0.023871556 0.37311715
000250 68 39 e2 bd 2b b5 18 3f 7a d7 3a 3c e0 ce 73 3f
       -0.110461056 0.5965144 0.011403913 0.9523754
000260 e4 8a ae 3e 5c 3f 06 40 a0 94 5b bd 67 13 6b 3e
       0.3409034 2.0976171 -0.053608537 0.2295662
000270 4d 94 af bf 88 4f 63 3e fd ff 44 3d e7 cc 15 3d
       -1.3717133 0.22198308 0.048095692 0.036572363
000280 40 5e 5c 3d c5 91 00 c0 d8 28 36 3e 63 6e 25 3f
       0.05380082 -2.008897 0.17789018 0.6462156
000290 9a fb 17 bd a6 cc cd bf f3 c6 42 c0 03 bd 75 bd
       -0.03710518 -1.6078079 -3.043393 -0.05999471
0002a0 6c 8a 3b bf e1 5a 29 c0 20 df 23 3f 8a a9 29 be
       -0.7325809 -2.6461718 0.64012337 -0.1656858
0002b0 7e ec 5a 3f b1 c5 9d 3f cf 34 62 bf 06 ef c1 3f
       0.8551711 1.2325956 -0.8836183 1.5151069
0002c0 b7 20 86 bf ae 38 83 be d6 f8 25 3e 9b e0 65 bf
       -1.0478734 -0.2562918 0.16208205 -0.89795846
0002d0 de b5 16 3d 4e 2d 7d bd 4c 3e 99 bc 75 3f 50 be
       0.036794536 -0.061810784 -0.018706463 -0.20336707
0002e0 35 ab 44 bb 3c 11 01 be a8 41 a3 3c 10 a8 90 bb
       -0.0030009274 -0.1260423 0.019928768 -0.004414566
0002f0 a8 eb 9e bd 00 8f 40 bc 60 af 10 3d f2 99 6e 3d
       -0.077597916 -0.011752844 0.0353235 0.058252282
000300 1a 58 fc bc 9e 39 cb 3d a1 0d 23 be 31 cc 22 bc
       -0.030803729 0.09923099 -0.15923168 -0.009936378
000310 96 3e 51 bd b8 af 21 bd 69 0f 04 be bf ac 28 be
       -0.051085077 -0.03947422 -0.12896504 -0.16472147
000320 62 bf 5d bd 49 1d 48 bd 08 1b 89 be f8 f3 54 bd
       -0.054137595 -0.048856054 -0.26778436 -0.05199048
000330 84 03 fc bd 05 08 30 be 0d 0d 76 bd 2e 44 e1 bd
       -0.12305358 -0.17190559 -0.06007104 -0.10999332
000340 dc c4 2c be cc 3e 3b 3d 6e e9 f7 bd 80 0d c9 ba
       -0.16871971 0.045714185 -0.1210507 -0.0015339106
000350 e6 36 0a be d9 be 65 be 20 0f 6b 3d 13 87 ec bb
       -0.13497505 -0.22436084 0.05738747 -0.0072182505
000360 ab 57 87 be 4c 2f ba 3d cc 5a 22 be 4d ce 18 be
       -0.26434073 0.090910524 -0.15854949 -0.14922448
000370 ed 4a 3d be c0 bd 77 be 8f df f2 bd 19 4c 56 be
       -0.18485613 -0.24193478 -0.11859047 -0.20927466
000380 57 51 06 be 84 20 0a bd 5c 2d d8 bd da a4 7c bd
       -0.13116966 -0.033722416 -0.105555266 -0.061680652
000390 84 ce ba bd 06 b3 20 be 38 8f d2 bc 15 14 3f be
       -0.09121421 -0.15693292 -0.025703058 -0.18660004
0003a0 a7 7a 22 be b4 e9 42 be 28 c8 bb bd 6d 6d 26 be
       -0.158671 -0.19034463 -0.09169036 -0.1625268
0003b0 e2 15 1a 3d a9 4c d2 3d 7e 10 e5 3d 82 78 2e bd
       0.037618525 0.10268528 0.11184786 -0.042595394
0003c0 d0 fc 66 be 8d 1a 4c be 49 04 86 bd d2 71 8a be
       -0.22557378 -0.19932003 -0.06543786 -0.27039963
0003d0 36 8e 7a be bb 10 26 3e e0 c3 01 be e6 69 16 3e
       -0.24468312 0.1621732 -0.12672377 0.14688835
0003e0 ef bb 9b bc 2b 07 fb bd e5 29 8c 3d 13 d8 bb bd
       -0.019010512 -0.122572266 0.06843928 -0.09172072
0003f0 a2 35 dd 3d d5 52 9b be 62 b3 db 3d 71 94 9b bc
       0.10801245 -0.30336633 0.10727574 -0.01899168

bias f4 [60]
000000 44 ae 2c bf 95 de 36 3e 36 6e 7a be 04 58 99 be
       -0.6745341 0.17858346 -0.24456105 -0.29949963
000010 9f 58 3d be 25 b2 6e bd b5 75 1a bf cb 8f 44 3e
       -0.18490838 -0.05827536 -0.60335857 0.19195478
000020 bb bd 98 bf d3 31 9e 3e 05 be ab bf 44 c1 d4 3e
       -1.1932901 0.30897388 -1.3417364 0.415537
000030 68 c3 81 bf 0e c1 14 bf e4 8c ca 3e 47 6b 82 bf
       -1.0137758 -0.5810708 0.39560616 -1.0188988
000040 73 69 d5 bf 5e c9 b3 bc 43 99 90 be ad 60 91 be
       -1.6672806 -0.021946605 -0.2824193 -0.2839407
000050 f4 a7 48 be 75 18 dd be 66 ae a0 be b5 6e 8d 3e
       -0.19595319 -0.43182722 -0.31383055 0.27623525
000060 61 5e c1 bf 60 7c 27 be 21 29 30 bf f9 32 e2 bf
       -1.5106927 -0.16356039 -0.6881276 -1.7671806
000070 53 ea 96 bf 52 eb b5 bd 4f c5 c3 be 45 e5 50 be
       -1.179026 -0.088827744 -0.38236472 -0.2039996
000080 e7 5f bb be 95 ba 4f bd 5d f6 17 bf f9 81 ce be
       -0.36596605 -0.050715048 -0.59360296 -0.40333536
000090 50 19 9b 3f 27 5e 98 be 7f cd ba bf 4d a5 1d be
       1.21171 -0.29759333 -1.4593962 -0.15395088
0000a0 aa f6 43 be 28 83 1d bd 5a ef 21 bf 1a 79 2f be
       -0.19137064 -0.03845516 -0.63255847 -0.1713604
0000b0 9f 27 33 bf 3d f6 8c bf 41 99 37 bf 40 05 be be
       -0.6998233 -1.1012646 -0.7171822 -0.3711338
0000c0 3b 09 5e bf ba 00 62 be be f8 a9 bf 76 52 0c be
       -0.86732835 -0.2207059 -1.3279035 -0.13703331
0000d0 b4 86 24 bf 7d d7 85 be 7d ee 91 be 2d 36 ae be
       -0.6426804 -0.26140967 -0.28502265 -0.34025708
0000e0 e5 cc d2 be 50 9e 1b be c2 62 6d be 08 39 ff bf
       -0.41171947 -0.1519711 -0.23182204 -1.993928

weight f4 [60, 60]
000000 40 63 2e 3e dc 15 4b 3f ba a7 83 bf 00 1f 3c bd
       0.17030048 0.7933023 -1.0285561 -0.045928
000010 a1 61 92 be 72 18 20 bd c1 09 96 3e cb 8b 21 bf
       -0.2859011 -0.039085813 0.29304317 -0.6310393
000020 88 ca e2 be b9 f1 6b bf ec fd a2 bf 81 98 35 be
       -0.44295144 -0.92165715 -1.2733741 -0.17733957
000030 b5 36 4c bf 45 b4 c6 be c8 3a 72 3d 2b 81 e1 be
       -0.79770976 -0.3880941 0.05913809 -0.4404386
000040 11 a4 32 3f 58 a2 4a bc 70 ab 80 be 90 27 de bd
       0.69781595 -0.012367807 -0.25130796 -0.1084739
000050 e4 6a cc 3d d6 c9 80 3d 58 62 82 3c 5e e5 8c 3f
       0.09981325 0.06288497 0.015916035 1.1007497
000060 b7 4e a9 3f 98 31 ec bc 75 45 04 3e b8 a6 e7 be
       1.3227147 -0.028832242 0.12917121 -0.45244384
000070 a0 d7 74 3f 2e 9c f7 3d 3d 7c 66 bf 12 8d f0 bd
       0.9564152 0.12090336 -0.9003332 -0.11745657
000080 01 c7 33 bf 2f 1c f9 3e ac e4 0a 3f 60 16 54 bc
       -0.7022553 0.48654315 0.54255176 -0.012944788
000090 83 74 9c 3e a7 fb 86 bd 66 44 01 bf 62 62 51 bd
       0.3055764 -0.065909676 -0.5049499 -0.051119216
0000a0 9d 3e 83 bd 28 cf e1 bd 18 33 c2 be 46 bd fb bd
       -0.06408427 -0.1102584 -0.37929606 -0.122919604
0000b0 4a 87 99 bd a1 a6 f1 bd 81 47 89 bf 78 00 30 3d
       -0.074965075 -0.1179936 -1.0724946 0.042969197
0000c0 2a 6e 46 3f 25 f3 8a bd c8 86 83 3f 6d 9d de bd
       0.77511847 -0.067846574 1.0275507 -0.1086987
0000d0 8a 86 12 bf d8 e8 17 bc cf 3f d0 bd a4 31 f8 bd
       -0.5723654 -0.009271823 -0.101684205 -0.12118843
0000e0 92 56 cc bd 81 9f 24 3c a7 a0 cf bd ba 8d 70 bf
       -0.099774495 0.010047794 -0.10138064 -0.9396626
0000f0 cc ca 97 be e8 b5 0b be 4f 95 8b bf ae e2 b8 bd
       -0.2964691 -0.1364361 -1.090494 -0.09027611
000100 1a 8e 74 3e 47 9f 9f bd df 8d 0d bf 66 47 1a be
       0.23882332 -0.077940516 -0.55294603 -0.15066299
000110 13 2b 12 3f 13 05 a5 be ae b0 80 3f 5e 5a 46 be
       0.57096976 -0.32230434 1.0053918 -0.1937041
000120 de 07 23 3e dd dc 78 3d 6a 8f 9b 3f 4e e3 b8 3f
       0.1592097 0.060757507 1.2153141 1.4444368
000130 e1 b9 02 c0 86 bc b1 bd 18 87 b7 bf 24 79 c3 bd
       -2.0425951 -0.08678536 -1.4338102 -0.0954459
000140 0a dd 00 bd 30 0b c9 bd d4 08 3e 3d a6 1b 73 be
       -0.0314608 -0.09816587 0.046395138 -0.23741016
000150 a7 45 33 3f f8 a8 ba bc 9a ef 09 3f 91 06 9d bf
       0.70028156 -0.022785649 0.5388123 -1.2267629
000160 7d 4b 16 bf 26 44 94 bd e4 af e2 bf b4 2f e9 bd
       -0.58708936 -0.07239561 -1.7709928 -0.11386052
000170 fb 42 89 be d1 de a0 bb 64 e7 aa bd 44 f0 ce bd
       -0.26808915 -0.0049093743 -0.083449155 -0.10104421
000180 98 f6 99 bd 0e 5f 1f be 2a 31 33 3d ac c9 22 3d
       -0.07517737 -0.15563604 0.04374806 0.03974311
000190 80 c7 51 3d 88 92 c2 bc 94 9f 8b bd 9d e8 8a 3d
       0.05121565 -0.023751512 -0.068175465 0.06782649
0001a0 f6 83 0b be a4 4f c8 3d 3f 37 a7 be fd 1b b0 be
       -0.13624558 0.09780815 -0.32659337 -0.34396353
0001b0 86 f7 e1 3d bf 38 72 be 04 90 12 bf 80 44 48 bc
       0.110335395 -0.2365446 -0.57251 -0.012223363
0001c0 37 9c 9e 3f 27 6e aa 3f 2a 23 aa 3d 92 49 75 3d
       1.2391423 1.3314866 0.08307488 0.059884615
0001d0 e8 ed dd 3c c9 de 4f be 84 1a 46 be 6c 9e e8 be
       0.027090982 -0.2029983 -0.19346052 -0.45433366
0001e0 5f 5f 7a 3e a7 d8 87 bf 2f 78 2d 3e b9 13 99 3d
       0.24450444 -1.0612992 0.16940378 0.07474465
0001f0 a0 28 27 bd 2f 63 35 be 20 82 f9 3d 06 30 bd be
       -0.040810227 -0.17713617 0.121830225 -0.369507
000200 32 5c 16 3d fb b1 9b be 30 0a 3b bf a6 a2 70 bf
       0.036709018 -0.30409226 -0.7306242 -0.9399818
000210 f6 fc 34 3f 1a 42 72 3e 33 af 94 bf 48 15 0f 3f
       0.7069849 0.23658028 -1.1615967 0.5589185
000220 83 5c 73 be 91 1b f3 3d fd bd 73 bf 4f 0b 49 bd
       -0.23765759 0.11870492 -0.95211774 -0.04908305
000230 5c 7f 30 3e 1e e8 f9 3d e2 4b 0b be 23 1b 26 bf
       0.17236084 0.12202476 -0.13603166 -0.6488516
000240 fc 34 66 3e b3 e7 2c 3d 23 03 7d 3e 38 45 6d bf
       0.2248115 0.042213153 0.24708228 -0.92683744
000250 f2 80 be be 3a a7 ab bd 93 b9 79 bf b0 1a f6 bd
       -0.37207752 -0.08381505 -0.9754879 -0.12016809
000260 03 7e 55 bf e6 6d 0d be 5d 19 c3 be 63 cf 80 bd
       -0.83395404 -0.13811454 -0.38105288 -0.06289556
000270 5c 39 81 be 26 48 1d be 62 a6 36 be 29 d7 35 be
       -0.25239074 -0.15359554 -0.17836908 -0.17757858
000280 ac 9c 6e 3d 1a 70 c2 3b 02 8b 97 be 46 80 17 bb
       0.058254883 0.0059337737 -0.29598242 -0.0023117228
000290 9f 95 38 bf fe 1f 72 be 07 df 27 bf 0d e8 14 be
       -0.72103304 -0.23645017 -0.6557469 -0.14541645
0002a0 4e 30 de be e2 9b a1 bd 1c 2a 87 3f 6a 45 a9 3d
       -0.4339623 -0.078910604 1.0559726 0.08265193
0002b0 ee 0e 69 bf 3b bc da be ef 14 23 bd 18 34 f1 3c
       -0.91038406 -0.42721733 -0.039814886 0.029443786
0002c0 56 48 af bd a8 24 71 be e8 c5 d6 bd 93 e4 5e bf
       -0.08558719 -0.2354914 -0.10486966 -0.87067527
0002d0 b3 e8 a3 bd f0 92 7d be 33 d0 62 be d3 16 f0 bd
       -0.08003368 -0.24763083 -0.22149734 -0.117231034
0002e0 31 33 d2 3b 9b 36 de 3d 98 77 82 bd cd aa d6 bd
       0.006414794 0.10850259 -0.06370467 -0.104817964
0002f0 0e 57 86 be 75 39 ac 3c 9a 33 09 3e 53 ce 89 be
       -0.26238292 0.021023491 0.1339859 -0.26915225
000300 f7 49 0f be 51 37 d0 bd 68 fc 89 be 7b 4d 83 be
       -0.13993059 -0.10166801 -0.26950383 -0.2564505
000310 c1 63 b8 be b6 d6 ba ba c9 38 d1 bc 23 b5 2a 3d
       -0.36013606 -0.0014254663 -0.025539773 0.04167665
000320 30 95 0a 3d 2d a2 cb 3c d1 54 f9 bc fc ec 89 be
       0.033833683 0.024857605 -0.030435951 -0.26938617
000330 8b 56 cf be 72 80 dd 3d 08 93 a1 3c 76 31 64 be
       -0.40495715 0.108155146 0.01972343 -0.22284493
000340 5a 7c f6 3c 00 db eb bc 09 87 08 bf aa 82 e6 bd
       0.030088592 -0.02879095 -0.5333105 -0.11255391
000350 e6 30 58 be ef 02 ba be 87 de 33 be 30 85 7a 3d
       -0.21112403 -0.36330363 -0.17565356 0.061162174
000360 ff 4f b0 be de 00 91 bd 5b 0a 2a be 64 bc 20 3d
       -0.34436032 -0.070802435 -0.16605513 0.039242163
000370 18 da 9f 3d 06 b7 87 bd ad df 8c bc 71 f1 98 bd
       0.0780527 -0.06626706 -0.0171965 -0.07467926
000380 89 6c 0c be ee 90 32 bb 1d 3f 36 be 50 8d 2c bc
       -0.13713278 -0.002724703 -0.17797513 -0.010531738
000390 c6 d3 c7 bd c4 13 9f 3d cd d1 14 bf 36 c7 b3 bd
       -0.097571895 0.07767442 -0.5813263 -0.08778231
0003a0 8d 1e 96 bd 59 ea 1b 3d c6 96 9a bd e8 09 98 3d
       -0.07330046 0.03806529 -0.07548289 0.074237645
0003b0 54 5c 3c be 4e 07 bf bc 60 94 0f 3d 74 16 8b be
       -0.18394595 -0.023318913 0.03505361 -0.27165568
0003c0 01 82 fe be 71 b2 66 be 10 aa 6c bf 8b 40 37 bd
       -0.4970856 -0.22529007 -0.92446995 -0.044739287
0003d0 f0 b7 0b 3e d2 22 f2 3d 47 b9 0b be c1 c7 40 bf
       0.13644385 0.11823048 -0.13644896 -0.753048
0003e0 bb 19 a2 bf 51 85 b6 bf 38 b2 b2 3e 35 61 07 3f
       -1.2664102 -1.4259435 0.34901595 0.528827
0003f0 2d bf 15 3f b8 68 dc 3e a0 d1 f3 bf a1 06 9c 3d
       0.58494836 0.43048644 -1.9048347 0.07618452

bias f4 [60]
000000 dc 69 95 bf ba f3 c0 bf f5 c5 b4 bf a9 2b 8a be
       -1.1672931 -1.507438 -1.4122912 -0.26986435
000010 b4 5a 23 be 32 ba 6d bf de 1f c4 be 59 32 00 3e
       -0.15952569 -0.92862236 -0.38305563 0.12519206
000020 f2 3e a4 3f 1b 98 49 bf 62 d5 8f be 80 0f 77 3e
       1.2831709 -0.7874772 -0.28092486 0.24127007
000030 6c 4f 3e bf 35 b3 14 c0 e0 a7 87 bf 03 ec e9 bf
       -0.7433994 -2.323438 -1.0598106 -1.827515
000040 be 56 f4 3d 5d ba f3 bf 3e 15 cb bf ac 5c 5b bf
       0.11930607 -1.9041249 -1.5865858 -0.8568828
000050 f3 b2 57 bf 82 bd cb be 0f ee 1f c0 c6 00 a2 bf
       -0.8425743 -0.3979302 -2.498905 -1.2656486
000060 86 0c 3f bf 3e 8d cd bf 12 5e e1 bf 1f c9 e5 be
       -0.74628484 -1.6058729 -1.7606833 -0.44880006
000070 96 dc f6 bf 7b 37 8f bf 7f b6 e0 be 4f 5d 6b bf
       -1.9286067 -1.1188806 -0.43889233 -0.9193925
000080 a3 2a 95 bf fc d7 ac bf 1e 87 f7 bf 2c 15 a4 be
       -1.1653637 -1.3503413 -1.933811 -0.32047403
000090 e0 a1 af bf 7a e0 f1 bf 33 14 ab bf 48 a8 20 bf
       -1.3721275 -1.889663 -1.3365539 -0.62756777
0000a0 c1 0c f3 be de b3 fd be 9a bd a2 bf 9f 8c 75 bf
       -0.47470668 -0.4955129 -1.2714112 -0.95917696
0000b0 6b 1c cc bf 8e 78 9f be bf a7 d6 bf 6b 63 91 be
       -1.5946172 -0.31146663 -1.6769942 -0.28396162
0000c0 36 88 bc be 88 3b 07 3f af a8 64 bf 02 37 a2 bf
       -0.3682267 0.5282521 -0.8931989 -1.2673037
0000d0 93 0f cc bf 69 7e 85 be 1b 79 61 3f 48 ea d8 bf
       -1.5942253 -0.26073006 0.8807542 -1.6946497
0000e0 44 76 21 bf bc 01 de be 3e 1a 9d 3f b9 44 c0 be
       -0.63071084 -0.43360698 1.2273633 -0.3755243

weight f4 [60, 60]
000000 b0 80 0b 3f b4 29 86 3f b5 57 64 bf f0 66 19 be
       0.54493237 1.0481477 -0.8919633 -0.14980674
000010 b7 92 5b 3f 8f 01 a9 3e cb 22 4c 3e 34 58 75 3f
       0.85770744 0.33009002 0.19935147 0.9583771
000020 83 04 40 c0 cf 6d d2 be 4c 42 5f bd db 0e aa 3e
       -3.0002754 -0.41099402 -0.054506585 0.3321446
000030 a0 8b a1 bc 8f b0 29 bf dd d3 98 bd b4 28 94 3e
       -0.019719899 -0.6628503 -0.07462285 0.28937304
000040 18 4d a6 bf ac c1 87 bf 68 fb f7 bd 46 78 1f 3f
       -1.2992277 -1.0605979 -0.12108499 0.622929
000050 53 83 0c be 31 2e 29 3d 29 ab 65 3f 52 8e 20 bf
       -0.13721971 0.041303817 0.89714295 -0.62717164
000060 f9 d8 39 3f 3a a9 41 bf 0d 12 3c 3f 3f 71 9d bd
       0.725967 -0.75648844 0.73465043 -0.076876156
000070 f5 54 b5 be ce 9a 9d 3f 16 a6 11 bd cf e9 15 3e
       -0.3541638 1.2312868 -0.035558783 0.14639972
000080 e8 87 63 bf 2d 82 41 be 84 f8 da 3c 8a 47 eb bc
       -0.8887925 -0.18897314 0.02672983 -0.028720636
000090 4b 84 10 3e 3d 6a ed 3f b8 1f e8 3d 10 14 4b 3c
       0.14112966 1.8548046 0.11334175 0.01239492
0000a0 74 33 97 3e 80 8e 0e bf a4 41 bc 3c 75 2f 76 be
       0.29531443 -0.5568619 0.022980519 -0.24041541
0000b0 d4 75 0b bf 1c 7c 4c be cc 90 16 3e 56 bb 8b bf
       -0.54476666 -0.19969219 0.14703673 -1.0916545
0000c0 a2 56 c7 be 1b 6b 4f 3f 0f b4 51 3f f8 ae 80 be
       -0.38933283 0.81022805 0.8191537 -0.2513349
0000d0 ff dc 7d be 53 26 91 bf 67 b3 6b bf fc 81 ad 3c
       -0.24791335 -1.1339821 -0.9207062 0.021180145
0000e0 6c 00 0a 3e 20 ab 5f 3c 41 45 a4 bf 8c 9f de 3e
       0.13476723 0.013651639 -1.2833635 0.434811
0000f0 1b 78 22 3f d8 a6 89 bb e6 79 3f bf be 68 43 ba
       0.63464516 -0.0042007975 -0.7479538 -0.00074542675
000100 23 f3 04 3e 1a 63 36 be 08 9c 45 3d cd f7 dc 3e
       0.12983374 -0.17811242 0.048244506 0.43157807
000110 bb 40 ba be a0 41 a1 be 70 77 50 3d a4 ea 81 be
       -0.3637751 -0.3149538 0.050895154 -0.2537433
000120 53 42 e8 3e 83 c8 6e be a7 b6 6f be 89 e0 37 3f
       0.453631 -0.23318677 -0.2340952 0.7182699
000130 58 b6 e2 bf 46 bf 07 3f 99 81 57 be cb df 95 3e
       -1.7711897 0.53026235 -0.21045531 0.29272303
000140 49 c7 a9 3c e8 8b c8 3e d0 ba 04 3f b4 93 4f 3e
       0.02072491 0.3916924 0.51847553 0.20271188
000150 cf ab c0 3f d4 fa bd 3d 11 4f b2 3f a7 72 72 bb
       1.5052432 0.09276357 1.3930379 -0.0036994608
000160 5e 6f 01 bd 8f ba cb 3f 5d 9b 08 3e 6b df b1 be
       -0.03160035 1.5916308 0.13340516 -0.34740767
000170 da fd 95 bf d6 24 db 3e 76 e8 ea 3e 78 f2 27 3e
       -1.1718094 0.4280154 0.4588048 0.16401088
000180 02 1c 31 3e 2e ae 2a bf 24 d4 bf be 74 a4 0d 3d
       0.1729584 -0.6667203 -0.37466538 0.034580663
000190 1b de 3c be db 8f 80 be e7 a9 0d 3e a0 32 95 3e
       -0.18444102 -0.25109753 0.13834344 0.29140186
0001a0 fb b0 2e 3f f9 99 bf bd aa 0a b2 bd 3a e4 31 3f
       0.682388 -0.0935554 -0.0869344 0.6948887
0001b0 cf be 3f 3d 6b 0a 23 3e 7a f2 18 3f ad 23 b1 3c
       0.04681283 0.15921943 0.5974499 0.021623457
0001c0 42 dd 24 be df 4d aa 3e 41 e2 4b bf 97 48 11 bf
       -0.16100028 0.33262536 -0.7964211 -0.5675139
0001d0 d1 7a 18 bf ac 92 f7 3c ca e2 1f 3f 81 6b b3 bf
       -0.595624 0.030221306 0.6245543 -1.4017183
0001e0 8d 09 03 3f 26 6f c5 3c f1 6f 9b 3f 61 90 e2 bd
       0.5118645 0.024100851 1.2143537 -0.11062694
0001f0 8e cf 36 bf d3 1b 9b be 74 23 d2 bc 63 66 ab 3d
       -0.71410453 -0.30294666 -0.025651671 0.08369138
000200 77 19 8d be b6 0d 91 3e 68 d9 d5 3c 61 35 d1 be
       -0.2755849 0.28330773 0.026104644 -0.40861037
000210 8e 4c 4a bf a8 3c 9d 3e b4 73 35 be c6 ce 1e bf
       -0.79023063 0.3071034 -0.17719918 -0.6203426
000220 37 8c b2 bf ad 2d 60 bf 93 03 f8 3e 1d e7 b3 3f
       -1.394904 -0.87569696 0.48440227 1.4054905
000230 7c 0f 5d be 41 4e 0d 3d 30 72 7b bd a6 7b b6 be
       -0.21587938 0.034498457 -0.061388195 -0.3564121
000240 70 ba 13 3e 42 32 f9 be ab 5d b9 3c da e5 b8 3d
       0.14426589 -0.48671156 0.022627672 0.09028216
000250 fc 71 4c 3f 19 a6 03 3f a9 46 d7 3c 71 26 95 3e
       0.79861426 0.5142532 0.02627881 0.2913089
000260 14 84 89 3e ea db 88 bf 83 0e 1e bf fb e1 c6 bd
       0.2685858 -1.0692112 -0.61740893 -0.09711071
000270 ef a4 fb be 8d 42 24 3f f4 49 49 40 1a 89 3a be
       -0.49149272 0.6416405 3.1451387 -0.18216363
000280 40 60 1f bb 4a 67 8e bf 21 9f f3 bc 4e 6a 2d be
       -0.0024318844 -1.1125271 -0.029738965 -0.16935083
000290 7a 5c 79 bf 8f bf fc bc 0e 73 0a bf cc a3 cd be
       -0.97406733 -0.030853061 -0.5408181 -0.4016403
0002a0 3e 6c 7f bd 96 09 8f 3e ad 7c b0 3e 9e e3 71 be
       -0.062359087 0.27937 0.3447012 -0.23621985
0002b0 2c 95 3c 3d 1b 76 83 bf aa 91 d6 bf 5c 67 fc bc
       0.0460407 -1.0270418 -1.6763203 -0.030811004
0002c0 e1 23 c2 3d 37 37 97 bd 2b 6b 92 bf 39 73 32 3f
       0.094794996 -0.07383578 -1.1438955 0.69707066
0002d0 6b e3 a3 3e 2a 03 9e be dd b3 b8 bd 19 87 a7 3d
       0.32009444 -0.3086179 -0.09018681 0.08180065
0002e0 3b 94 d8 3e 20 89 b3 3e fd 36 5e 3d 33 6e 8f bf
       0.4230059 0.35065556 0.05425166 -1.1205505
0002f0 d6 b4 f7 bd 9d b0 34 bd 06 e6 1a be ce 63 3e bf
       -0.120950386 -0.044113744 -0.1512681 -0.7437104
000300 d0 b5 a9 3c 06 de 29 bd ee d0 97 bd 74 e5 73 bf
       0.020716578 -0.041471504 -0.07412897 -0.9527199
000310 98 f2 ab bf 46 0a 3f bf 22 c2 0e 3f 9d 92 98 3d
       -1.3433409 -0.7462505 0.55764973 0.07449839
000320 f7 63 8f bf 25 fb d7 bc 79 9a 24 3f 53 91 e9 bd
       -1.1202382 -0.026364872 0.64298207 -0.114046715
000330 86 34 ba 3e 07 69 b9 be a4 64 ef 3d 7f 6b 62 3d
       0.36368197 -0.36212942 0.116891176 0.055278298
000340 41 1a 16 be cb b5 03 3f f9 9c 98 bd 13 bd 3a 3f
       -0.14658453 0.5144927 -0.07451815 0.72944754
000350 84 aa 1b 3f 95 74 cb be 46 7c 54 3f 22 5c 55 3d
       0.6080706 -0.39737383 0.83002126 0.052089818
000360 4c d5 09 bd 4b c1 c7 bc 67 9a 97 3f 88 fe 0f bc
       -0.03365068 -0.024384161 1.1843995 -0.008788712
000370 e9 b1 8a bd fd ef fc bc e7 8c 39 3f 72 4b 3f 3d
       -0.06772215 -0.030876154 0.72480625 0.04670281
000380 90 f7 04 3f 30 94 36 bd 10 94 eb be 66 e2 e4 be
       0.5194025 -0.044574916 -0.460114 -0.44703978
000390 b3 62 87 3d 6f 1b c8 be 78 0d 54 3e b0 be f5 be
       0.06610622 -0.3908343 0.20708263 -0.47997046
0003a0 6c c6 e1 bd 04 c4 17 bf 57 7f 9e bf 7a 1f ed be
       -0.11024174 -0.5928347 -1.2382611 -0.46313077
0003b0 42 6b 81 bd b6 72 b2 3d 86 4b 31 be 25 ec 84 bf
       -0.06319286 0.087132856 -0.17313966 -1.0384566
0003c0 62 b5 28 bd 92 db a5 be c8 35 fe be fb 9b 2e be
       -0.041188605 -0.3239408 -0.49650407 -0.1705169
0003d0 8b 2a c0 bf 71 e5 81 bf 26 7b cc 3d 6c 5e 87 be
       -1.5012983 -1.0148145 0.09984426 -0.26439226
0003e0 26 fb b2 bf 59 6f 56 3d 32 64 29 bd f6 53 0e bf
       -1.3982894 0.052352283 -0.04135532 -0.55596864
0003f0 8d 3d 50 bf 0f 14 32 bd 8e 4f 9a bd 66 20 71 3d
       -0.8134392 -0.04347616 -0.07534705 0.05886879

bias f4 [60]
000000 dc c8 14 be 5c 04 c0 bd 75 e7 5f bf ab 5f a5 bf
       -0.14529747 -0.093758315 -0.8746255 -1.291982
000010 ad 4c 70 bf fb e1 45 be 4c 0a 0b bf 38 9e de bf
       -0.93867 -0.19324486 -0.54312587 -1.7392035
000020 38 91 38 c0 4c 4c 23 3e 13 8a bb bd cb 4b f1 3d
       -2.8838634 0.15947074 -0.09157195 0.117820345
000030 f1 f6 97 3e 2a 49 26 bf 48 ae 3b bf 14 85 11 3f
       0.2968059 -0.6495539 -0.7331281 0.56843686
000040 12 2d 3c be 75 53 21 bf 00 93 16 c0 cb f5 ec bf
       -0.18376568 -0.6301797 -2.3527222 -1.851251
000050 12 56 1b c0 ee 68 a7 bd 04 56 33 bf 35 58 b5 be
       -2.4271283 -0.081743106 -0.70053124 -0.3541886
000060 36 de 53 3e 25 dc 2a be 3b 2c 68 bf 66 15 a1 bf
       0.20690235 -0.16685541 -0.9069249 -1.2584655
000070 e8 ac d3 be 23 4f c2 3e c2 4a f9 be 4d a8 13 c0
       -0.41342854 0.37951002 -0.48689848 -2.3071473
000080 42 a9 c0 be cb 06 62 be 9b f3 8c be 35 01 a8 3f
       -0.37629133 -0.22072904 -0.27529606 1.3125368
000090 f2 7f 32 bf 13 06 a7 3f 29 ac be be ef d2 b8 bf
       -0.6972648 1.3048729 -0.37240723 -1.4439372
0000a0 8e e2 01 c0 8b bd c2 3d 49 71 25 be 36 a3 bd bf
       -2.0294528 0.09508809 -0.16156496 -1.4815433
0000b0 41 09 55 3f 25 b3 59 bf 28 dd c4 bd 0e 33 c5 3e
       0.83217245 -0.8503898 -0.09612495 0.38515514
0000c0 7e 83 ae be 1e 1a 9a bf 6d 8c e5 bf 78 69 d0 be
       -0.34084696 -1.203922 -1.793348 -0.40705466
0000d0 dd c5 a1 bf 2e c8 00 bf ff d6 9b be 25 98 ac bf
       -1.2638508 -0.5030545 -0.30437467 -1.3483931
0000e0 3b 97 98 bf e0 c1 de bf ad 25 88 bf 84 ed c8 bf
       -1.1921152 -1.7402916 -1.0636498 -1.5697484

weight f4 [10, 60]
000000 4d 57 c5 bf a9 04 7d bf 52 9f d4 bf 41 80 9e bf
       -1.5417267 -0.98835236 -1.6611121 -1.238289
000010 8f b6 37 bf 88 d5 05 bc 59 40 79 3e 3d fb fb be
       -0.7176294 -0.008168586 0.24340953 -0.49215117
000020 00 84 62 3d 52 7f 3d bf 8b 23 12 be 92 69 99 bf
       0.055301666 -0.740224 -0.14271371 -1.1985343
000030 50 63 6e bf 9f 94 1a bd b8 86 7a be e6 00 80 bf
       -0.9312029 -0.037739392 -0.24465454 -1.0000274
000040 25 02 8f bf e6 47 77 be e6 9b 1c bf e7 6e 31 bf
       -1.117253 -0.24148521 -0.6117538 -0.6930985
000050 ff ad 7a be 70 9a 28 bf 22 6a 96 be d2 5b be 3e
       -0.24480437 -0.6586065 -0.29377848 0.37179428
000060 0e 00 28 bf 0e bb 8f bf b4 93 a8 be f9 6e 95 bf
       -0.65625083 -1.122896 -0.3292519 -1.1674491
000070 d9 b6 8a bf 5d 67 92 bf 9e 5c 68 be 19 19 a0 bf
       -1.0837051 -1.1437794 -0.2269158 -1.2507659
000080 c2 9e 76 be 6f 94 70 bf cc 2d 67 be 43 59 3e bf
       -0.24083999 -0.9397649 -0.22576064 -0.7435495
000090 57 df 45 be 63 80 0c bf 9e c1 f2 bc 30 ad 23 bf
       -0.19323479 -0.548834 -0.02963334 -0.6393614
0000a0 8d a1 da be 68 61 73 bf 7d 1e 91 bb d2 77 dd bf
       -0.42701378 -0.95070505 -0.0044286833 -1.7302191
0000b0 74 d9 7e bf 2f c0 fe be 7f 0a 90 bf 93 ed d7 3d
       -0.9955056 -0.49756 -1.1253203 0.105433606
0000c0 61 db 63 be 21 aa 4d bf a1 95 4d bf 74 6f 01 be
       -0.22251655 -0.8033772 -0.8030644 -0.12640172
0000d0 5c 22 e5 be 64 cd b0 bd aa e8 4e 3c 79 11 34 bf
       -0.44752777 -0.08632925 0.012628714 -0.7033916
0000e0 28 be 58 bf 8b da 72 bf 34 eb 05 bf d8 1c 08 bd
       -0.84665155 -0.9486472 -0.52312016 -0.033230633
0000f0 e2 3a 4d c0 cc ec 13 c1 8e 83 a7 3e 64 79 b0 be
       -3.206719 -9.245312 0.32717556 -0.34467614
000100 6e 6b 10 bf d5 96 4d bd fd d0 04 3f 64 c8 a5 bf
       -0.56413925 -0.050192673 0.5188139 -1.2951779
000110 29 2a 9d c0 4a 26 cf c0 83 e4 0f be 14 b7 3a c0
       -4.9113965 -6.473424 -0.14052014 -2.9174242
000120 b0 62 f6 bf 25 94 88 be ed 0e 44 bf da a7 04 c1
       -1.9248867 -0.26675525 -0.76585275 -8.290979
000130 f7 00 c5 c0 ae f7 80 bd 98 0f e5 bf b9 11 2a c0
       -6.156368 -0.06297241 -1.7895384 -2.6573317
000140 76 16 cf bf bf bf ea bf 59 0a 77 3d f2 be 5e bd
       -1.617873 -1.8339766 0.060312603 -0.05438132
000150 99 a4 28 bc db 56 1f c0 60 33 af be 31 7b 00 c0
       -0.010293149 -2.4896762 -0.34218884 -2.007519
000160 18 9d 81 c0 db 86 43 c0 85 e4 26 be 96 9b f7 bd
       -4.0504265 -3.055106 -0.16298111 -0.120902225
000170 30 d4 d0 3c c1 26 a6 bf 6b 82 ee be cd ad 6d c0
       0.025491804 -1.2980577 -0.46583876 -3.713733
000180 cf 7b 1b bf 77 f9 5d bf 8b a6 69 be 9a 0a 84 bf
       -0.6073579 -0.8670878 -0.22817437 -1.0315735
000190 b4 b8 d3 bf 5b 2e 85 bf 36 4c e9 bd 1f 91 75 bf
       -1.6540742 -1.0404772 -0.11391489 -0.9592456
0001a0 9b 9d 2a c1 c1 64 83 bf 9b 72 c0 be cc 58 9d bf
       -10.663478 -1.0265123 -0.37587437 -1.2292724
0001b0 27 a7 bd be 6a 1a 0c c0 fd 86 eb bf bf f4 9d bd
       -0.3704159 -2.1891122 -1.840057 -0.07712697
0001c0 e3 7c 86 bf 1f 46 f2 bd e3 70 3f be 34 5e af be
       -1.0506862 -0.11829781 -0.18695407 -0.3425156
0001d0 e3 86 72 be 2e cc 1a c0 e9 f3 9d be eb a9 80 be
       -0.23684268 -2.4187121 -0.3085015 -0.25129637
0001e0 c9 90 23 c0 a8 3f 7a c0 2a 70 76 c0 d9 e3 b3 bf
       -2.555712 -3.9101353 -3.850596 -1.4053909
0001f0 85 28 b0 bf ce 18 f1 bc 6c 3f bb bf a3 fa a0 bf
       -1.3762366 -0.029430773 -1.462873 -1.2576488
000200 b2 6b ac bf a0 f8 42 c0 4e ad 84 ba 14 47 3a bf
       -1.3470366 -3.0464249 -0.001012245 -0.72764707
000210 cd 37 0e c1 16 8b 0a bf 9f 48 65 be ea bc 60 c0
       -8.888623 -0.5411848 -0.22390984 -3.5115304
000220 d6 1a a2 c0 3c 94 41 bb 34 03 d9 be fc 90 e4 be
       -5.065776 -0.0029537817 -0.42385256 -0.44641864
000230 0d 62 c2 bf d9 9d b5 bf c6 cb 88 bd 66 89 38 bd
       -1.5186173 -1.4188796 -0.06679492 -0.04505291
000240 95 37 d0 bd 11 45 be c0 d8 ef f7 3d 8b ad 86 bf
       -0.101668514 -5.945931 0.121062934 -1.0521711
000250 4b 96 8d c0 24 aa f9 c0 a7 15 9d 3d 3d 1f 01 c0
       -4.4245963 -7.802019 0.076701455 -2.0175316
000260 e3 96 8f be 52 0f 4b bf be 0e 1d 3f e1 a6 d0 bf
       -0.28044805 -0.7932025 0.6135062 -1.6300927
000270 00 1f c3 be d7 21 02 c0 f7 8b 38 3d d0 81 a0 bf
       -0.3810959 -2.0333154 0.045055356 -1.2539616
000280 29 fb a6 bf 4d 19 ec c0 73 4b 5d be 29 3b 1a bf
       -1.3045398 -7.3780885 -0.21610813 -0.6024652
000290 a9 4c b0 c0 d1 15 28 be 9f 06 18 c0 f5 a9 e9 be
       -5.509358 -0.16414572 -2.3754041 -0.4563748
0002a0 60 3e c6 be 7f 40 a8 be d7 68 dd bf 17 50 b1 be
       -0.38719463 -0.32861707 -1.729762 -0.34631416
0002b0 ad 22 25 be 04 8c 11 be 98 22 5f bc 3d f4 b0 bf
       -0.16126509 -0.14213568 -0.013619088 -1.3824536
0002c0 43 26 86 bf 67 6c 16 bf bd f8 3c bf 64 97 67 bf
       -1.0480427 -0.5875916 -0.73817044 -0.9046538
0002d0 33 4f fc bf 95 5e 4e bf 1a db 08 c0 43 3e 3f bf
       -1.971167 -0.8061307 -2.138373 -0.7470438
0002e0 76 96 63 c0 1a f1 20 bc 44 51 3a c0 9c d8 88 bd
       -3.5560584 -0.009823108 -2.91121 -0.0668194
0002f0 80 7e 31 3f 9c ab 33 c0 ef db 26 bb 2a 92 70 bc
       0.6933365 -2.8073492 -0.002546068 -0.014683286
000300 48 f8 5c c0 c0 db 10 bc fc cd 15 be e9 69 94 bf
       -3.452654 -0.008841455 -0.14629358 -1.1594821
000310 37 f0 98 be 40 f7 3f bd 68 3a 81 bf 77 bd de bf
       -0.2987077 -0.046866655 -1.0095949 -1.740157
000320 53 83 e5 bd 80 9c e9 be 88 86 ac be 3a d4 32 bf
       -0.11206689 -0.45627213 -0.3369639 -0.6985508
000330 5c 60 cb bd 63 ca 13 bf 61 8a da bd cd e9 7f bf
       -0.099304885 -0.5773069 -0.10670925 -0.99966127
000340 2a 1e 7c c0 da 91 96 c0 60 ab b0 3d 95 a7 e0 bf
       -3.939341 -4.705304 0.08626437 -1.7551142
000350 99 4c 3b be 50 04 13 c0 69 68 a1 3e ab 68 5f c0
       -0.18290938 -2.2971382 0.3152497 -3.4907634
000360 2b 5d b6 be 11 5f 15 c0 e8 1e c7 bc c5 cf 98 bf
       -0.35617957 -2.3339274 -0.02430673 -1.1938406
000370 7b 3f 2d bf be eb 62 c1 5f f0 ef 3c 4e 90 f6 bf
       -0.6767499 -14.182554 0.029289423 -1.9262788
000380 b6 ac a7 bf a8 8d 89 bf 56 e6 be bf 76 75 4b be
       -1.3099582 -1.0746355 -1.4914043 -0.19869027
000390 9f 9f e7 be 9a 97 81 3d 32 6a 44 be 28 68 9b 3e
       -0.4523897 0.06327744 -0.19181135 0.30352902
0003a0 a8 eb 2f be e2 53 ed 3c b7 1c 1a 3c d2 d7 d4 3e
       -0.1717974 0.028970663 0.00940626 0.41570908
0003b0 8e a6 0c bf 18 52 38 be 1c b0 c7 be 53 ca 6e bd
       -0.5494164 -0.18000066 -0.39001548 -0.05829842
0003c0 0f 75 df c0 8c f2 16 bf 33 90 06 c0 ec 17 f3 bf
       -6.9830394 -0.5896385 -2.1025512 -1.8991675
0003d0 88 eb 46 c0 4d 71 06 be 91 d8 25 bf 10 14 07 c0
       -3.1081257 -0.13129158 -0.6478358 -2.1105995
0003e0 6e 14 b0 c0 63 23 a9 c0 0e a1 1d be 85 fa 6e bf
       -5.502494 -5.2855697 -0.15393469 -0.9335101
0003f0 3f f3 ee bf 03 02 33 bf d8 0c 26 bf c4 26 c9 c0
       -1.8667983 -0.69924945 -0.6486335 -6.285982

bias f4 [10]
000000 b0 3b ef 3f d3 50 6a 3f 3f f3 a3 bf 0d 1e 1a c0
       1.869009 0.9152958 -1.2808608 -2.4080842
000010 1c a5 9f 3f 3c fa 18 bf 56 69 64 be 3f 89 0f bf
       1.2472262 -0.5975683 -0.22305807 -0.56068796
000020 4a 38 f4 bf f1 f8 e6 bf
       -1.9079678 -1.8044721
