NN Real data/final_trained_models/TPSM/TPSM2.pth (torch, 55855 bytes, 10 tensors)

weight f4 [60, 20]
0	0x3f498eb9	0.787334
1	0xbed88c57	-0.4229457
2	0xbf4ac95d	-0.79213506
3	0xbe767211	-0.2406695
4	0x3f865d9e	1.049732
5	0x3eb47766	0.35247344
6	0xbe436e84	-0.19085127
7	0xbf1e7d85	-0.6191028
8	0xbe4f69f8	-0.20255268
9	0x3e823a07	0.25434896
10	0x3ef42132	0.47681576
11	0x3e07eb00	0.13273239
12	0xbf54f8e0	-0.83192253
13	0x3f2929c2	0.6607934
14	0xbb33942b	-0.0027401547
15	0x3f9f70c3	1.2456287
16	0x3eb53be5	0.35397258
17	0xbfa10b65	-1.2581602
18	0x3f8b0ab4	1.0862641
19	0x3dd01d24	0.10161808
20	0x3dea088a	0.1142741
21	0xbe165668	-0.14681399
22	0x3daf6dfa	0.08565898
23	0xbd90b9e4	-0.07066706
24	0xbca0163c	-0.019541852
25	0x3cddbe89	0.027068393
26	0x3e7802ed	0.24219866
27	0xbe352cf9	-0.17692937
28	0x3e609325	0.21931131
29	0xbdf2a716	-0.11848275
30	0x3e1e522b	0.15461032
31	0x3d449b8a	0.047999896
32	0xbde397ca	-0.11112936
33	0x3c9e6279	0.019334065
34	0x3e5023c7	0.20326148
35	0xbe5b21c2	-0.21399596
36	0xbe1fa5d4	-0.15590602
37	0xbcbc0a3d	-0.0229541
38	0xbe0000bc	-0.1250028
39	0xbdb6cc02	-0.0892563
40	0x40b5132c	5.6585903
41	0x40a03316	5.006236
42	0xc0c1d570	-6.0573044
43	0x3e30705d	0.17230363
44	0x40216cb9	2.522261
45	0x40ab26f9	5.3485074
46	0xbf1e71f2	-0.61892617
47	0xc0215a8e	-2.521152
48	0x3fc7c3ef	1.5606669
49	0x3ea0f96a	0.31440288
50	0x40a7179b	5.2216315
51	0x3dbfe7b4	0.09370366
52	0x3edc7eb4	0.43065417
53	0x3ed5d156	0.41761273
54	0xbec8ef28	-0.39244962
55	0x40d5716d	6.670096
56	0x403dfbe6	2.9684997
57	0x4032800f	2.789066
58	0x4061ec53	3.530049
59	0xc00eed56	-2.2332358
60	0x3f8bbe03	1.0917362
61	0xc08bac57	-4.3647876
62	0x3f06b2c2	0.5261651
63	0xbdfa765e	-0.12229608
64	0x40902796	4.5048323
65	0xbec313fd	-0.38101187
66	0xc033a09c	-2.8066778
67	0x3f650f1f	0.894762
68	0xbd672aa6	-0.056437157
69	0x3fa6d83b	1.3034738
70	0x3ed30154	0.4121195
71	0xc0518f89	-3.2743857
72	0x3f8ae37b	1.0850672
73	0x3eafa9f8	0.34309363
74	0x3fae0577	1.3595418
75	0x3fef6dff	1.8705443
76	0xbf926a8c	-1.1438766
77	0xc02e1653	-2.7201126
78	0xbe437c73	-0.19090442
79	0xbfbb27ae	-1.4621484
80	0x3f129bcd	0.57268983
81	0xc11ea9cf	-9.916457
82	0x3fb4ac77	1.4115132
83	0xc0100a46	-2.250627
84	0x40dc9b64	6.8939686
85	0xbfdcd56e	-1.7252634
86	0xc0d52379	-6.66058
87	0xbfb4fe4b	-1.4140104
88	0x3f41f284	0.75760674
89	0x400c1750	2.188923
90	0xc036107d	-2.8447564
91	0xc0eb7798	-7.358349
92	0x3d8f662e	0.07001911
93	0x401fe05b	2.4980686
94	0x4077a196	3.8692374
95	0x408be9f1	4.3723073
96	0xc0b3f272	-5.6233454
97	0xbf2f65e1	-0.6851483
98	0x3fc34827	1.5256394
99	0x3f79126e	0.97293746
100	0xc162812a	-14.156534
101	0xbf5d4e5e	-0.86447704
102	0x40c141b1	6.039269
103	0x3f55eb18	0.8356185
104	0xc0998180	-4.797058
105	0xbea467e3	-0.3211051
106	0xbf39fdd9	-0.72652966
107	0xc0158914	-2.3364916
108	0x3eb3a2d7	0.35085174
109	0x3fff054d	1.9923493
110	0x3e525437	0.20539938
111	0x3ee508f5	0.44733396
112	0xbfb2d23f	-1.3970412
113	0xbd9a8415	-0.07544724
114	0x4037b26f	2.8702657
115	0x40256168	2.5840702
116	0x405a1830	3.4077263
117	0xbf5ebfe5	-0.8701156
118	0x405a5868	3.411646
119	0xc02aff96	-2.6718497
120	0xbe0d795e	-0.13815829
121	0x3a87b34b	0.0010353116
122	0xbcdd7b1e	-0.027036246
123	0xbd2e0be7	-0.04249182
124	0x3e062f24	0.1310392
125	0xbe3a3f40	-0.1818819
126	0x3d9b6288	0.07587153
127	0xbe29754f	-0.16548656
128	0xbb17ca55	-0.002316137
129	0x3dd2fa0f	0.10301601
130	0x3d36b1ba	0.044603087
131	0xbdf150cc	-0.11782989
132	0x3e3db5ad	0.18526335
133	0x3d14c087	0.03631642
134	0x3ee879e3	0.45405492
135	0xbd8af2d0	-0.06784594
136	0x3cd0034e	0.0253922
137	0xbe5cf2c6	-0.21576986
138	0xbdf73af4	-0.12071791
139	0x3e9e4ebf	0.30919454
140	0x4068bb7f	3.6364439
141	0xc03bf3da	-2.9367585
142	0x40a9f27b	5.3108497
143	0xbfb98424	-1.4493451
144	0x40f91c04	7.78467
145	0x3ff26e65	1.893994
146	0x3f87b0d7	1.0600842
147	0x3e6398f5	0.22226317
148	0xbd873dcb	-0.06603583
149	0x3f8839c9	1.0642635
150	0x400774e9	2.1165106
151	0x4025f540	2.5930939
152	0x3e369de1	0.17833664
153	0x4003c940	2.0591583
154	0xbfa9e82a	-1.3273976
155	0x40a6cb0a	5.212285
156	0xc04db259	-3.2140105
157	0xbff08e19	-1.8793365
158	0xbe7b0c40	-0.24516392
159	0x3f4a2465	0.78961784
160	0xbf80b030	-1.0053768
161	0xc0f74c97	-7.7280993
162	0x40c06bfe	6.0131826
163	0xc07f3b12	-3.9879804
164	0x40af1a81	5.4719853
165	0x3f8ddeeb	1.1083654
166	0xbf87b168	-1.0601015
167	0x3fdc00fb	1.7187799
168	0xbe95b963	-0.29243
169	0xbf3a1203	-0.72683734
170	0x3f4464a1	0.7671605
171	0xbf1a7ebd	-0.6034964
172	0x3f8d8f22	1.1059306
173	0x3e94089a	0.28912812
174	0x3f657b63	0.896414
175	0x4057778f	3.3666723
176	0xc09218b6	-4.5655165
177	0xc0161e89	-2.3456137
178	0x401ba52e	2.4319568
179	0xbf8c9cbd	-1.0985333
180	0xbfe7c233	-1.810614
181	0x3f970296	1.1797664
182	0xc01c9965	-2.4468625
183	0xc068eab5	-3.6393254
184	0x4054da1d	3.3258126
185	0xbe48c51b	-0.1960644
186	0xbf802cf6	-1.0013721
187	0xc09e2147	-4.941562
188	0xc01c6f38	-2.4442883
189	0x400145ba	2.0198808
190	0x3e43d0af	0.19122575
191	0xbf6b64ce	-0.9195069
192	0xc024e380	-2.5763855
193	0xbef136c1	-0.47112086
194	0x402980f5	2.648496
195	0x3fa4e967	1.2883729
196	0xbf639874	-0.889045
197	0xc00fbb80	-2.245819
198	0xbfab42cf	-1.3379763
199	0x408f753c	4.483061
200	0x3f83f8d1	1.0310308
201	0x3e93a101	0.28833774
202	0x3cecd4ee	0.028910127
203	0xbe27a7a2	-0.1637254
204	0x3f7093b3	0.9397537
205	0x3f4a6d1f	0.79072756
206	0xbed62941	-0.4182835
207	0x3e56966e	0.20955822
208	0xbe981009	-0.29699734
209	0x3f0d99dd	0.553129
210	0x3f7b49d8	0.9815955
211	0xbf18b117	-0.5964522
212	0xbe62d4f2	-0.22151545
213	0x3f2af8c8	0.6678586
214	0x3e5ab28e	0.21357176
215	0x3fc59903	1.543732
216	0xbf9877e7	-1.1911591
217	0x3d945177	0.07242101
218	0x3e2f6014	0.17126495
219	0x3e1844df	0.14870022
220	0x3fd8a223	1.692448
221	0xbf1e338e	-0.61797416
222	0xbf7de4ca	-0.9917723
223	0xbfe9c640	-1.8263626
224	0xc015e542	-2.3421178
225	0xbed71a22	-0.42012125
226	0x405d5c1f	3.4587476
227	0x3ec41ad3	0.38301715
228	0x3fb41b4d	1.4070832
229	0xbfef565e	-1.8698232
230	0xbfdc66b2	-1.721884
231	0xbf36ee24	-0.71457124
232	0xbe549367	-0.20759355
233	0xbfac6b4d	-1.3470246
234	0x3fe65716	1.7995327
235	0xbfc88193	-1.5664543
236	0xc0ace673	-5.403131
237	0x40190597	2.3909662
238	0x40c77c3f	6.2339168
239	0x40d35b00	6.6048584
240	0x3e34438d	0.17603894
241	0x3d830708	0.063978255
242	0xbe568836	-0.20950398
243	0x3ed1cff6	0.40978974
244	0xbcab666e	-0.020922866
245	0x3e5b0ef2	0.2139242
246	0xbec219bd	-0.37910262
247	0x3d932298	0.071843326
248	0x3ec4cf2f	0.3843932
249	0x3d897864	0.06712416
250	0x3dfa7260	0.122288465
251	0x3d8bc209	0.06824119
252	0x3d5d712f	0.05406302
253	0xbe514cd8	-0.2043947
254	0x3e7b5e3b	0.24547665
255	0x3e9128ce	0.28351444

bias f4 [60]
0	0xbfcabd7f	-1.583908
1	0xbe374f60	-0.17901373
2	0xbf4fe0ec	-0.8120258
3	0xbf1335b7	-0.5750384
4	0x3cbfba3e	0.023404237
5	0xbe50d816	-0.2039493
6	0xbede7b3a	-0.4345339
7	0xbf4b02ec	-0.79301333
8	0x3ef8ad69	0.485698
9	0xc058afae	-3.3857226
10	0xbfbf744f	-1.495737
11	0xc012846d	-2.2893326
12	0xbea6dd32	-0.32590634
13	0x3f73b017	0.95190567
14	0x3dd66d3a	0.10470052
15	0xc05cdc91	-3.4509623
16	0x3d3b5d7b	0.045743447
17	0x3ef64ba0	0.48104572
18	0xc056085b	-3.34426
19	0xbe10237f	-0.1407604
20	0xc029efed	-2.655269
21	0xbfb554a1	-1.4166452
22	0xbf81d8e3	-1.0144314
23	0xbf632c54	-0.88739514
24	0xbfb3ff44	-1.4062276
25	0x3eca6a5a	0.39534265
26	0x3eba8664	0.36430657
27	0xc01417df	-2.313957
28	0x3f0fed2c	0.5622127
29	0x3eca8d24	0.39560807
30	0xbe9b0e51	-0.3028436
31	0x3f224490	0.6338587
32	0xc01370ee	-2.3037677
33	0x3d3538eb	0.044243734
34	0xbf78eb2d	-0.9723385
35	0x3e0ff9bc	0.1406011
36	0xbf8c54b2	-1.0963347
37	0x3f1275e4	0.57211137
38	0xbeab8bcd	-0.33505097
39	0xbea800cc	-0.32813108
40	0xc001990b	-2.024966
41	0xbfbbfe0f	-1.4686908
42	0xbf2617bb	-0.6487996
43	0xbef19425	-0.47183338
44	0xbf273a64	-0.6532347
45	0xbf781cf5	-0.96919185
46	0xbe89848b	-0.26858935
47	0xbfbc0ab9	-1.4690772
48	0xc01246f8	-2.2855816
49	0x3e9b24ed	0.3030161
50	0xbf18d8d1	-0.59705836
51	0x3f0104fa	0.5039822
52	0xbddbb862	-0.107285276
53	0x3fa5ca4f	1.2952365
54	0xbee0296d	-0.43781605
55	0xbf01f344	-0.5076182
56	0xc0024a60	-2.0357895
57	0xc039fd53	-2.9060867
58	0x3fa0ea0e	1.2571428
59	0xbf1709f6	-0.58999574

weight f4 [60, 60]
0	0xbd864400	-0.06555939
1	0x3deb62ee	0.11493479
2	0xbdaf2d18	-0.08553523
3	0xbd9d227c	-0.07672593
4	0xbcd75d49	-0.026289599
5	0x3d03e388	0.032199413
6	0xbe2dc8dd	-0.16971155
7	0xbdae4915	-0.08510033
8	0xbe750932	-0.23929289
9	0xbcbdfdec	-0.023192368
10	0xbd66b4cc	-0.056324765
11	0xbdd12d38	-0.10213703
12	0xbd88e438	-0.06684154
13	0xbc55197b	-0.013006563
14	0xbdf984d7	-0.1218354
15	0xbc86a5c0	-0.016436458
16	0xbd2f6fdc	-0.042831287
17	0xbc54b392	-0.012982266
18	0xbdad6283	-0.08466055
19	0xbe265823	-0.16244559
20	0xbe809218	-0.2511146
21	0xbdba97f4	-0.09111014
22	0x3d4a16c8	0.049338132
23	0xbda2ee02	-0.07955553
24	0xbd702576	-0.058629476
25	0xbe24fa01	-0.16110994
26	0xbe04f6c2	-0.12984756
27	0x3d607498	0.054798692
28	0xbc2cdc45	-0.010550563
29	0xbc1d3a16	-0.009596368
30	0xbe4f4e63	-0.20244746
31	0xbd74943e	-0.059711687
32	0xbd7448cc	-0.059639737
33	0x3ab90c80	0.0014118105
34	0xbe03f6b5	-0.1288708
35	0x3dfd282a	0.12361176
36	0xbd79b177	-0.06096026
37	0xbd85172e	-0.06498562
38	0xbb850d40	-0.0040604174
39	0x3db33298	0.08749884
40	0xbd9a681c	-0.075393885
41	0xbdad76ef	-0.084699504
42	0xbdfcdb2c	-0.12346491
43	0xbe3dcfe2	-0.18536332
44	0xbd3f2fe8	-0.046676546
45	0x3d427600	0.047475815
46	0xbe6b3b3c	-0.22971815
47	0xbe6bbbbe	-0.23020837
48	0xbd9bd2be	-0.07608555
49	0xbe278f2f	-0.16363214
50	0xbdbe9b7e	-0.093070015
51	0xbbe08547	-0.0068518254
52	0xbdff9af3	-0.12480726
53	0xbe7fc816	-0.2497867
54	0xbe52f86c	-0.20602578
55	0xbd7e9ea5	-0.062163014
56	0x3e04083d	0.12893768
57	0x3d9672dc	0.073461264
58	0x3cbfbb08	0.023404613
59	0x3df19c5a	0.117974
60	0x3e3a26b9	0.18178834
61	0x3bcd1ad3	0.006259301
62	0x3eb3513f	0.35022923
63	0xbde795f2	-0.11307897
64	0xbf27dc41	-0.65570456
65	0xc02719a3	-2.6109397
66	0xbe05731b	-0.1303219
67	0x3f2bf268	0.6716676
68	0xbeecd66b	-0.46257338
69	0xbcc1e7b5	-0.023670057
70	0x3dba554c	0.090983
71	0xbfaaf60c	-1.3356338
72	0xbde90f11	-0.11379827
73	0xbe622772	-0.2208536
74	0xbd95e923	-0.07319858
75	0xbf74650a	-0.95466673
76	0xbf58ff31	-0.8476439
77	0xbf99f658	-1.2028303
78	0xbf0c0384	-0.54692864
79	0x3f97e59e	1.1866949
80	0xbf47133f	-0.7776374
81	0x3d24fcea	0.04028026
82	0xbf179c45	-0.59222823
83	0xbe8a8b09	-0.270592
84	0xbe0acd8e	-0.13554975
85	0xbf30e4a4	-0.6909888
86	0xbff6f557	-1.9293622
87	0x3f23f86e	0.6405095
88	0xbf6963ce	-0.91167915
89	0xbf5cc7aa	-0.86242163
90	0xbdf0df39	-0.11761326
91	0xbf8c2c38	-1.0950994
92	0xbec102fb	-0.37697586
93	0xbf01c62a	-0.50693
94	0xbf5c15c7	-0.8597073
95	0xbf39bdbc	-0.72555137
96	0xbf028fb2	-0.5100051
97	0xbf9cb3dc	-1.2242389
98	0xbdfed4a8	-0.12442905
99	0xbeb55d32	-0.35422665
100	0xbeaf6637	-0.3425767
101	0xbed12133	-0.40845641
102	0xbe9e8d97	-0.309674
103	0xc01930a7	-2.3935945
104	0x3ef700a8	0.48242688
105	0x3f0d935e	0.5530299
106	0xbf7d5e83	-0.9897234
107	0xbc9c4bc5	-0.019079098
108	0x3e197839	0.14987268
109	0xbba02103	-0.004886748
110	0x3eb9699e	0.36213392
111	0x3eee1445	0.4649984
112	0xbede626f	-0.43434474
113	0xbf204111	-0.62599283
114	0xbe874e78	-0.26427054
115	0xbe72fc68	-0.23729098
116	0x3ed8b1ca	0.42323142
117	0xbf24f846	-0.64441335
118	0xbf0314dc	-0.51203704
119	0xbd9b9f05	-0.0759869
120	0x3d60c81b	0.054878335
121	0x3c79b7af	0.0152415475
122	0x3e823f50	0.2543893
123	0x3fad139d	1.352161
124	0x3f9d3b4b	1.228372
125	0xc08192a5	-4.049151
126	0xbe835916	-0.25653905
127	0xbf8345cd	-1.0255677
128	0xbf8e29f3	-1.1106552
129	0x3df4211b	0.11920377
130	0xbe86bd7b	-0.26316437
131	0xbf62289f	-0.8834323
132	0x3e1cb4c3	0.1530333
133	0x3d81ab64	0.06331518
134	0xbd10e628	-0.035375744
135	0xbf909cf3	-1.1297897
136	0xbdd2585c	-0.102707595
137	0xc03b8b60	-2.9303818
138	0xbf174e6e	-0.5910405
139	0xbfd39bad	-1.6531883
140	0xbf699d8d	-0.9125603
141	0x3f976b53	1.1829628
142	0xbeae1524	-0.34000504
143	0xb99d1810	-0.00029963301
144	0xbfd72f42	-1.6811297
145	0xbf17641d	-0.59137136
146	0xbf0e5ab2	-0.5560714
147	0xbe82a0b2	-0.25513226
148	0x3f71adb6	0.94405687
149	0xc0532f2c	-3.2997541
150	0x3d5144ae	0.05109089
151	0x3f40da7b	0.75333375
152	0xbf133110	-0.5749674
153	0xbed57bc2	-0.41695982
154	0x3ef4cb2f	0.47811267
155	0xbf1448de	-0.57923687
156	0xc01a3bfc	-2.4099112
157	0xbf3726d8	-0.71543646
158	0x3bfaf80d	0.0076589645
159	0xbc6b8dff	-0.014377116
160	0xbef87093	-0.48523387
161	0xbf52c1f7	-0.82327217
162	0x3ed9a55a	0.42508966
163	0xbf284b30	-0.6573973
164	0xc0121044	-2.2822428
165	0xbff6b880	-1.9275055
166	0xc0159972	-2.3374906
167	0xbee82ed8	-0.4534824
168	0x3d247e6d	0.04015963
169	0xbf916ea0	-1.1361885
170	0x3cd5d55f	0.02610272
171	0xbe96ee2b	-0.29478583
172	0xc03efe73	-2.9842803
173	0x3e9f9049	0.31164768
174	0xbf9a4af9	-1.205413
175	0xbead9f7d	-0.33910742
176	0xbe682ac6	-0.22672567
177	0xbe888b04	-0.2666856
178	0x3ebb850d	0.36624947
179	0x3dc0f27c	0.0942125
180	0x3caaba83	0.020840889
181	0x3cc00d78	0.023443922
182	0xbf32f1cd	-0.6990021
183	0xbe358120	-0.17725039
184	0xbe9a1b37	-0.30098888
185	0xbf703e3b	-0.93844956
186	0xbea524c1	-0.32254604
187	0x3faf0271	1.367262
188	0xbf016a3b	-0.5055272
189	0xbf2c883d	-0.67395383
190	0x3c8dfb68	0.017331794
191	0xbd9a1d28	-0.07525092
192	0xbec27b75	-0.37984815
193	0xbf0aa09a	-0.5415131
194	0xbf09a9cf	-0.5377473
195	0xbef7e4fd	-0.48416892
196	0x3e9cd699	0.30632475
197	0x3e78444e	0.24244806
198	0xbe019f40	-0.12658405
199	0xbf37116d	-0.71510965
200	0xbe8c4193	-0.2739378
201	0xbd752983	-0.05985404
202	0xbf12e264	-0.57376695
203	0xbe92bb1f	-0.28658387
204	0xbf2f49c8	-0.68471956
205	0xbdde19a5	-0.10844735
206	0xbefe9530	-0.49723196
207	0xbe3d5f85	-0.18493469
208	0xbe64a807	-0.22329722
209	0xbec9a3f3	-0.39382896
210	0xbe51b5d5	-0.2047952
211	0xbedcf5d1	-0.43156293
212	0xbe0adebc	-0.13561529
213	0xbf6127bc	-0.87951255
214	0x3e5d09e3	0.21585803
215	0xbf8d6dd1	-1.1049138
216	0xbe33070d	-0.17483158
217	0xbfa0dcb8	-1.2567358
218	0xbd92231c	-0.07135603
219	0xbb57af12	-0.0032910747
220	0x3f42d037	0.7609896
221	0xbf4a33ff	-0.7898559
222	0xbdb6c53e	-0.0892434
223	0xbf452ab6	-0.77018297
224	0xbed0d188	-0.4078486
225	0xbec3ce90	-0.38243532
226	0xbcba72fb	-0.022759905
227	0xbe28d8b6	-0.16488919
228	0xbe58c887	-0.21170245
229	0xbe64ddff	-0.2235031
230	0x3e1024a2	0.14076474
231	0xbec6f833	-0.38861236
232	0x3e4ad985	0.1980954
233	0xbdb63d2e	-0.08898388
234	0xbfa532ea	-1.2906163
235	0xbde0db3f	-0.10979318
236	0xbea7b575	-0.32755628
237	0xbe188da5	-0.14897783
238	0xbe557054	-0.20843631
239	0xbd2202c8	-0.039553434
240	0x3f41d537	0.75715965
241	0xbdb4a5b5	-0.088206686
242	0xbf743164	-0.95387864
243	0x3f598fa3	0.849848
244	0x3f049470	0.51789
245	0x3fdaa5df	1.708187
246	0x3da578c0	0.08079672
247	0xbf8e4fbd	-1.1118084
248	0xc041d35d	-3.0285256
249	0x3f9b58a6	1.2136428
250	0x3e2173b2	0.1576679
251	0x3f3c20d7	0.7348761
252	0xbec866a4	-0.3914081
253	0xbf2ea67f	-0.682228
254	0x40482a80	3.127594
255	0x3f693d1c	0.9110887

bias f4 [60]
0	0xbe79ead1	-0.24405982
1	0xbf3a97ee	-0.72888076
2	0x3e7f172c	0.24911183
3	0xbf8f35a9	-1.1188251
4	0xbfd79f1c	-1.6845431
5	0xbf1da8ae	-0.6158551
6	0x3ef351b5	0.47523275
7	0xbe1959c2	-0.14975646
8	0xbf2739b9	-0.6532245
9	0xbf2e4ccc	-0.6808593
10	0xbf3182ce	-0.6934022
11	0xc00e0e4f	-2.2196233
12	0xbff188b7	-1.8869847
13	0xbf86ae59	-1.0521957
14	0xbee0c5ac	-0.43900812
15	0xbffa6302	-1.9561465
16	0xbfae6fee	-1.3627908
17	0xbf0af4c7	-0.5427975
18	0x3b90c718	0.004418265
19	0xbfe85045	-1.8149496
20	0xbe8b3a52	-0.27192932
21	0xbf1039ae	-0.5633801
22	0x3e3a9019	0.18219031
23	0xc038fa35	-2.8902714
24	0xbefa0a74	-0.488361
25	0xbe93ec45	-0.28891197
26	0xbf0eef13	-0.5583355
27	0xc04f2e46	-3.2371993
28	0xbf7aae1b	-0.97921914
29	0xbf144795	-0.57921726
30	0xbf2d7c52	-0.6776782
31	0xbe3ec86f	-0.18631147
32	0xc0325c0c	-2.786868
33	0xbede2b59	-0.43392447
34	0xbf893cff	-1.072174
35	0x3fabc45f	1.3419303
36	0x3fbb8e1a	1.4652741
37	0xc0780e4a	-3.8758721
38	0xbea15f82	-0.3151818
39	0xbfcb8395	-1.5899531
40	0xbe639f03	-0.22228627
41	0xc0b189f0	-5.548088
42	0xbf0b4509	-0.54402214
43	0xbff7bc1f	-1.9354285
44	0xbfea0245	-1.8281943
45	0xc044eb2c	-3.0768538
46	0xc0000543	-2.0003211
47	0xbffbb424	-1.966435
48	0xbe797830	-0.24362254
49	0xbdc08228	-0.09399825
50	0xbfe79a5e	-1.8093984
51	0xc086b4a4	-4.209551
52	0xbe9f3a13	-0.31098995
53	0xbed42e8f	-0.4144177
54	0xbf1c0fdb	-0.60961694
55	0xbf2c2a80	-0.6725235
56	0x400c20fb	2.189513
57	0xc0423c79	-3.034941
58	0xbfd13ce2	-1.6346705
59	0xbe21d5f8	-0.15804279

weight f4 [60, 60]
0	0xbd1ed774	-0.03877969
1	0xbdff77a4	-0.124739915
2	0xbde80118	-0.113283336
3	0xbdc74ded	-0.0973166
4	0xbeec3e2e	-0.4614119
5	0x3d22831e	0.039675824
6	0xbfece954	-1.8508706
7	0xbd861721	-0.0654738
8	0xbeceb16f	-0.40369746
9	0xbd765b07	-0.060145404
10	0xbd52e096	-0.051483713
11	0x3ef94143	0.48682603
12	0xbe0f9d8d	-0.14024945
13	0xbf7ee238	-0.9956393
14	0x3ce49316	0.027902167
15	0x3e0f023c	0.13965696
16	0xbde9eba4	-0.11421898
17	0x3dcf2536	0.10114519
18	0xbda3a27e	-0.07989977
19	0x3e88c4fd	0.2671279
20	0x3e1e8ce1	0.15483429
21	0xbde204c5	-0.11036066
22	0xbf179fad	-0.5922802
23	0xbdf5be6a	-0.11999209
24	0x3dff2a1a	0.12459202
25	0x3de8b9e3	0.1136358
26	0x39c8aaef	0.00038274328
27	0x3ed8b779	0.4232748
28	0xbe48d544	-0.19612604
29	0xbd65f90e	-0.05614572
30	0xbec1ddde	-0.37864584
31	0x3d3843b4	0.04498644
32	0x3ea6256a	0.3245042
33	0x3e130d9d	0.14360662
34	0x3ea87bf2	0.32907063
35	0xbfb64100	-1.4238586
36	0xbf896268	-1.0733156
37	0xbeb1d375	-0.3473164
38	0xbe26a783	-0.16274838
39	0xbdf5afdd	-0.11996434
40	0xbdb45ac1	-0.088063724
41	0x3f78ff27	0.9726433
42	0x3e21ad93	0.1578887
43	0x3f41ed95	0.75753146
44	0xbd32d6e5	-0.04366197
45	0xbf2477ed	-0.6424549
46	0xbe55f7f2	-0.20895365
47	0x3f1dd7be	0.6165732
48	0xbd83f82c	-0.064438194
49	0x3d1dd405	0.038532276
50	0xbf6d8e85	-0.9279559
51	0xbe31a566	-0.17348251
52	0x3e035148	0.12823975
53	0x3ccb6977	0.024830563
54	0xbdf40420	-0.11914849
55	0xbfb42fff	-1.4077147
56	0xbf7dcafc	-0.99137855
57	0x3cd708d2	0.026249323
58	0xbfb043d1	-1.3770696
59	0xbce658f2	-0.028118584
60	0xbd99056b	-0.074717365
61	0x3f0d5a6f	0.55216116
62	0x3fd8c73a	1.6935799
63	0x3f2b84fc	0.66999793
64	0xbfc238be	-1.5173566
65	0x3e1cc228	0.1530844
66	0xbda9536b	-0.08267864
67	0xbc73227b	-0.014839764
68	0xbf8877c5	-1.0661551
69	0x3d4fa0ca	0.05069045
70	0xbf2dfbc4	-0.6796229
71	0xbbbff905	-0.005858543
72	0xbf53739a	-0.8259827
73	0xbf7de2fe	-0.9917449
74	0xbac0f0f1	-0.0014720244
75	0x3f0e9e14	0.5570996
76	0x3c10a2c7	0.008827872
77	0x3e715096	0.23565897
78	0x3ddf6df1	0.109096415
79	0x3efd26c0	0.49443626
80	0xbd851ffe	-0.06500243
81	0xbe959fc1	-0.29223445
82	0xbf760e10	-0.9611521
83	0xbf333063	-0.6999571
84	0xbdb44c8c	-0.08803663
85	0x3d3c2eee	0.045943193
86	0xbc357726	-0.0110757705
87	0x3fa21596	1.2662838
88	0xbfd335f3	-1.6500839
89	0x3ea8a7f0	0.32940626
90	0xbf56d417	-0.83917373
91	0xbcf237b8	-0.029567584
92	0xbfd0b170	-1.630415
93	0x3ea726a6	0.32646674
94	0x3fdbbe97	1.7167538
95	0xbee955a2	-0.45573145
96	0xbf84712b	-1.0347036
97	0xbf818af1	-1.0120527
98	0x3e62159b	0.22078554
99	0xbee5a7ab	-0.44854483
100	0x3e457cc5	0.19285877
101	0x400d040b	2.2033718
102	0x3c94edab	0.018179735
103	0xbeacb1de	-0.33729452
104	0x3f734c2a	0.9503809
105	0x3f0d8cca	0.5529295
106	0x3ef2d8c5	0.47431007
107	0x3e1b8050	0.15185666
108	0xbda2b6f7	-0.07945054
109	0xbe1e5f63	-0.15466075
110	0x3f53c21e	0.82718074
111	0x4001167b	2.016997
112	0xbe4a843c	-0.19777006
113	0x3f4f8b0d	0.8107155
114	0xbef2b4b4	-0.4740349
115	0xc00162fa	-2.021666
116	0xbcfa3818	-0.030544326
117	0x3e115d14	0.14195663
118	0xbef52b4c	-0.47884595
119	0xbd567652	-0.052358933
120	0xbd4236a6	-0.047415398
121	0xbd92ed6f	-0.07174193
122	0xbeb84c43	-0.35995683
123	0x3e62de45	0.22155102
124	0xbf3df8fb	-0.7420804
125	0x3e455239	0.19269647
126	0xbe5d67f5	-0.21621688
127	0x3c6c3ce0	0.014418811
128	0xbea4e9f3	-0.3220974
129	0x3d113408	0.03545001
130	0x3df09740	0.11747599
131	0xbf089309	-0.5334936
132	0xbebb2172	-0.36548954
133	0xbf9a4e1f	-1.2055091
134	0xbc59f128	-0.013302125
135	0xbea636d1	-0.32463697
136	0x3eab8508	0.33499932
137	0x3dc8fdb6	0.098140165
138	0x3d6c52d0	0.057696164
139	0x3fad1bc1	1.3524095
140	0xbdb1edf0	-0.08687961
141	0xbdbd714a	-0.09250124
142	0xbf54beaa	-0.8310343
143	0xbe33a119	-0.17541923
144	0x3bc894c0	0.006121248
145	0xbd1889ce	-0.037240796
146	0xbd21c46c	-0.039493963
147	0x3eb2f1a9	0.34949997
148	0x3e504b91	0.20341326
149	0xbc199284	-0.009373311
150	0xbf019910	-0.5062418
151	0x3dbea070	0.09307945
152	0xbf37911b	-0.7170579
153	0xbde0b9b7	-0.10972922
154	0x3cb0b7d0	0.021572024
155	0x3c1e13b7	0.009648255
156	0xbf72d97a	-0.9486309
157	0xbfa84003	-1.3144535
158	0x3dc044f0	0.09388149
159	0xbeaf675b	-0.3425854
160	0xbdf68cab	-0.12038549
161	0x3e5e9934	0.2173813
162	0x3e041b11	0.1290095
163	0xbf0d55c1	-0.55208975
164	0xbdac65ee	-0.08417879
165	0xbefa03ba	-0.48830968
166	0xbf809efc	-1.0048518
167	0x3f5996ff	0.84996027
168	0xbb6b14c0	-0.0035870522
169	0x3d56ee74	0.0524735
170	0xbf33fe5e	-0.7031001
171	0x3e7fda18	0.2498554
172	0xbd5d13d4	-0.053973988
173	0x3f5765c9	0.84139687
174	0xbd80c03b	-0.06286665
175	0xbfe3b410	-1.7789326
176	0xbfe91670	-1.8209972
177	0x3eb5ac0f	0.35482833
178	0xbe449cf7	-0.19200502
179	0x3d8e7686	0.069562
180	0x3c83d2c0	0.016091704
181	0xbecde815	-0.40216127
182	0xbf8e2d5d	-1.1107594
183	0x3d0becb8	0.0341613
184	0xbfe9859d	-1.82439
185	0xbeb4246f	-0.35184047
186	0xbeb23ffe	-0.34814447
187	0xbcfd960d	-0.030955339
188	0xbeb90126	-0.3613369
189	0xbe9d926f	-0.30775782
190	0xbdcc94ca	-0.09989317
191	0xbee7aba5	-0.45248142
192	0x3e19176b	0.1495034
193	0xbfcb8c3c	-1.5902171
194	0xbdd7f098	-0.105439365
195	0xbe309a9a	-0.17246476
196	0xbe201602	-0.15633395
197	0x3d96e000	0.07366943
198	0xbd4f0425	-0.050541062
199	0x3f14d63b	0.5813939
200	0xbbe9c989	-0.0071346206
201	0xbe858ae5	-0.2608253
202	0xc01c65af	-2.4437063
203	0x3ed1db7f	0.40987775
204	0x3dc50da0	0.096217394
205	0x3d0374d0	0.032093823
206	0xbc1faffe	-0.00974655
207	0x3d2b066e	0.04175418
208	0xbe75342c	-0.23945683
209	0xbf2d7a11	-0.67764384
210	0x3fb26ce0	1.3939476
211	0x3db28772	0.087172404
212	0xbdee94d1	-0.11649478
213	0xbde20e77	-0.11037915
214	0x3dbdc31d	0.092657305
215	0xbf240007	-0.6406254
216	0xc010ef4d	-2.2646058
217	0xbfbcf541	-1.4762346
218	0xbd83ae21	-0.06429697
219	0xbee49bde	-0.44650167
220	0xbd523f18	-0.051329702
221	0x3e21ce3e	0.15801331
222	0xbcfd5357	-0.030923529
223	0x3c6df6d4	0.01452418
224	0x3f1b3100	0.60621643
225	0xbf17c516	-0.59285104
226	0xbfcafee2	-1.5859034
227	0x3d955e8c	0.07293424
228	0x3d1859e2	0.037195094
229	0x3d91292c	0.07087931
230	0xbf4d4486	-0.80182683
231	0x3fb27fd6	1.3945262
232	0x3dd793dc	0.10526249
233	0xbf467252	-0.7751819
234	0xbec6c46c	-0.38821733
235	0xbf54992b	-0.83046216
236	0xbda9384d	-0.08262692
237	0xbe9d08a6	-0.3067066
238	0xbf1c3004	-0.61010766
239	0xbc91bd0d	-0.017790342
240	0x3d04b70c	0.03240113
241	0xb9c74000	-0.00038003922
242	0x3e728405	0.23683174
243	0xbf8f7115	-1.1206385
244	0xbf47473a	-0.7784306
245	0xbce3b8d4	-0.027798094
246	0xbf166fe4	-0.5876448
247	0x3b5ccd80	0.0033691823
248	0xbe34cbd1	-0.17655875
249	0xbc227638	-0.009915881
250	0xbe675401	-0.22590639
251	0x3ee541a3	0.4477664
252	0xbf5f139d	-0.871393
253	0xbfb683cc	-1.4258971
254	0x3dd98032	0.106201544
255	0xbe241024	-0.16021782

bias f4 [60]
0	0xbfcc27ba	-1.5949624
1	0xbfc85461	-1.565075
2	0xc0773b9d	-3.8630135
3	0xc1027a83	-8.15491
4	0xc0918dd5	-4.5485635
5	0xbfb8c231	-1.4434263
6	0xbf3637f6	-0.7117914
7	0xc01cbb2a	-2.4489236
8	0x3f99fcdf	1.2030295
9	0xc0a58e84	-5.173647
10	0xc0982604	-4.7546406
11	0xc00aac48	-2.1667652
12	0xc0a40fd6	-5.126933
13	0x3e87046f	0.2637057
14	0xc02517de	-2.5795817
15	0xbfda10f7	-1.7036427
16	0xbfa20de2	-1.2660487
17	0xc02f4ceb	-2.7390697
18	0xc0d6cc84	-6.7124653
19	0xbf821c4a	-1.0164883
20	0xc0632a2b	-3.5494487
21	0xc08b916c	-4.3615017
22	0x3f93916f	1.1528758
23	0xc081bd95	-4.0543923
24	0xc08af3dd	-4.3422685
25	0xc0b670c5	-5.701266
26	0xbf6ec24d	-0.9326523
27	0xc0a0bc8f	-5.0230174
28	0xbf005f31	-0.5014525
29	0xc0083e02	-2.1287847
30	0xc015b6bc	-2.3392782
31	0xbf437793	-0.7635433
32	0xbfcc85eb	-1.5978369
33	0xc052761e	-3.2884593
34	0xc0d46cb8	-6.6382713
35	0xbfc1625f	-1.5108145
36	0xbfae6ba9	-1.3626605
37	0xc09feca2	-4.997636
38	0xbf4c877f	-0.7989425
39	0xbfe43b40	-1.7830582
40	0xc02a9538	-2.6653576
41	0xbfaaba32	-1.3338072
42	0xc0c1dd0e	-6.058234
43	0xbbd5edd2	-0.0065285945
44	0xc00d69ab	-2.2095745
45	0xc093e5a1	-4.621781
46	0xc004f4dd	-2.0774453
47	0xc06907ad	-3.6410935
48	0xc084257c	-4.1295757
49	0xbf3a5497	-0.72785324
50	0xbf80ca28	-1.0061693
51	0xc0f9a4e9	-7.8013806
52	0xbf61f2f6	-0.88261354
53	0xc08600f0	-4.1876144
54	0xc004e07e	-2.076202
55	0xc098fa92	-4.780587
56	0xc06756a9	-3.6146643
57	0xc128337c	-10.512569
58	0xc08d5fac	-4.4179287
59	0xbf7ef79c	-0.9959657

weight f4 [60, 60]
0	0xbe141111	-0.14459635
1	0xbe12df6a	-0.14343038
2	0xbcfbfa38	-0.030758962
3	0xbd7a70b0	-0.061142623
4	0xbd7424c8	-0.05960539
5	0xbd5fb2e3	-0.05461396
6	0x3ddda464	0.10822371
7	0xbd34e717	-0.044165697
8	0xbbf5b032	-0.0074978108
9	0xbe62e6fd	-0.22158428
10	0xbe75c760	-0.24001837
11	0x3d9a4975	0.07533542
12	0x3d4d0c99	0.050060842
13	0xbd3ad991	-0.045617644
14	0x3aee0700	0.0018160045
15	0xbd4a0ba1	-0.049327496
16	0xbe04cc47	-0.1296855
17	0xbba053e8	-0.004892815
18	0xbe2b544f	-0.1673138
19	0x3de0809b	0.109620295
20	0x3da24631	0.07923544
21	0xbe0236dd	-0.12716241
22	0xbdc3be7c	-0.095578164
23	0xbe6b4ce6	-0.22978553
24	0xbde787d6	-0.113052055
25	0x3d12cb48	0.035838395
26	0x3e01acf8	0.12663639
27	0xbe3d9ccd	-0.18516846
28	0x3dec6546	0.11542754
29	0x3de9087c	0.113785714
30	0xbe6ad64d	-0.22933312
31	0xbddcaf49	-0.107756205
32	0x3db352a6	0.08755998
33	0x3cb7ed67	0.02245207
34	0x3d6b2418	0.05740747
35	0xbd669318	-0.056292623
36	0x3d0ca0f8	0.0343332
37	0x3d53b878	0.051689595
38	0xbd909dcc	-0.07061347
39	0xbba23ea0	-0.004951313
40	0x3ca19e56	0.01972882
41	0x3d8c51db	0.0685155
42	0xbe00736b	-0.12544028
43	0xbdbdc4f6	-0.09266083
44	0xbe791d25	-0.24327524
45	0xbe87ad80	-0.26499557
46	0x3d243eec	0.04009907
47	0xbe727270	-0.23676467
48	0xbe33e018	-0.17565954
49	0x3ca06b27	0.019582344
50	0xbd000e6e	-0.03126376
51	0xbba6df93	-0.00509257
52	0x3dbc7e5f	0.09203791
53	0x3d180d81	0.037122253
54	0xbea5853f	-0.3232822
55	0xbd4bff10	-0.049803793
56	0xbd8a1b18	-0.06743449
57	0xbe51eaaa	-0.20499673
58	0xbe928526	-0.2861721
59	0x3d250324	0.0402862
60	0x3f172eb2	0.59055626
61	0x3f2ff35e	0.68730724
62	0x3e5d6df0	0.21623969
63	0x3fb4879e	1.4103887
64	0x3efeeab1	0.4978843
65	0x3eb5f40d	0.35537758
66	0xbe958d87	-0.2920954
67	0x3f3c2527	0.7349419
68	0x3e528950	0.20560193
69	0xbfe18df8	-1.762145
70	0x3cd3a3fd	0.025835032
71	0xbe949bf1	-0.29025224
72	0xbe7844ce	-0.24244997
73	0xbea81d5b	-0.32834896
74	0xbf1cb7f4	-0.6121819
75	0xbf13ecd3	-0.5778324
76	0xbe9d7c3f	-0.30758855
77	0xbe850789	-0.2598231
78	0xbf5cc6f4	-0.8624108
79	0x3e9ae3c1	0.30251887
80	0x3fd78e74	1.6840348
81	0x3e27e05c	0.1639418
82	0x3f26ac09	0.65106255
83	0xbfafa60d	-1.372255
84	0x3fc62144	1.5478902
85	0xc021f971	-2.5308497
86	0xbefd8d59	-0.49521902
87	0x3f757c5d	0.9589289
88	0x3ec54cdb	0.385352
89	0x3e81583f	0.2526264
90	0xbf34ace1	-0.7057629
91	0x3f693111	0.91090494
92	0x3e852155	0.26001993
93	0x3f961421	1.1724893
94	0xbe8dc386	-0.27688235
95	0x3ed01cd1	0.40646985
96	0xbe05df3d	-0.1307344
97	0x3f25cdcc	0.64767146
98	0xbea0bf43	-0.3139592
99	0x3f7e837f	0.994194
100	0xbf770412	-0.96490586
101	0xbee0741c	-0.43838584
102	0x3d69ad40	0.05704999
103	0xbf353a98	-0.7079253
104	0x3e144b72	0.14481905
105	0x3f73014c	0.94923854
106	0xbf0c934c	-0.5491226
107	0x3d0c8a85	0.03431179
108	0x400bb7e2	2.1830983
109	0x3ecc22fb	0.39870438
110	0xbda89708	-0.08231932
111	0x3e72a8e1	0.23697235
112	0x3f085761	0.5325833
113	0xbd65a1e5	-0.056062598
114	0x3e61a544	0.220357
115	0x3ef64643	0.4810048
116	0xbe122972	-0.14273623
117	0xbf6463d0	-0.892148
118	0xbe9ddd28	-0.3083279
119	0xbc962093	-0.01832608
120	0xbd90f943	-0.07078793
121	0x3fe822d4	1.8135629
122	0x3fddc990	1.7327137
123	0xbef3440a	-0.47512847
124	0xc05b433e	-3.4259791
125	0x3edbe8b8	0.42950988
126	0x3df39494	0.118935734
127	0x3d2ce29b	0.042208295
128	0x3e4fb0fe	0.20282361
129	0xbf8731fc	-1.0562129
130	0xbf9ca885	-1.2238928
131	0x3f32f99b	0.6991212
132	0xbf2d0c04	-0.6759646
133	0xbdc6d3ce	-0.09708367
134	0xbe13a16f	-0.14417051
135	0xbe8647f9	-0.26226786
136	0xbf6222f6	-0.88334596
137	0xbe7becf1	-0.24602105
138	0xc014fd5d	-2.327964
139	0x3dba9235	0.09109918
140	0xbeb89a4f	-0.36055228
141	0x3e8ab145	0.2708837
142	0x3fada098	1.3564634
143	0xbecf2f83	-0.40465936
144	0xbff22bc9	-1.8919612
145	0xbf3b31a8	-0.73122644
146	0xbd7308f2	-0.059334703
147	0xbf9ef987	-1.24199
148	0x3d58f199	0.05296478
149	0x3d017adc	0.03161131
150	0xbff06779	-1.8781577
151	0xbfa0e09e	-1.2568548
152	0x3f950a44	1.1643758
153	0xbf37d3df	-0.71807665
154	0x3ee5802a	0.44824344
155	0xbdb50b1f	-0.08840012
156	0x3dd24b54	0.10268274
157	0xc01a8258	-2.4142056
158	0x3f683527	0.90706104
159	0x3e96568d	0.29362908
160	0x3f22e7aa	0.6363474
161	0xbf04240c	-0.51617503
162	0xbf7672f1	-0.96269137
163	0xbfa4ff9b	-1.2890505
164	0xbffd3026	-1.9780319
165	0xbf98fc52	-1.1952002
166	0xbf58c092	-0.8466884
167	0xbf647609	-0.8924261
168	0x3e805076	0.25061387
169	0x3e29aaf7	0.16569124
170	0x3e01b53d	0.12666793
171	0xbcdfd2fc	-0.027322285
172	0xbd8737e9	-0.06602461
173	0xc01a7db0	-2.4139214
174	0x4004e50a	2.0764794
175	0xbf0e5628	-0.55600214
176	0xbf3b12c5	-0.73075515
177	0xbfdf1cb0	-1.743063
178	0xbee62707	-0.4495165
179	0xbda45124	-0.08023289
180	0x3cdd8938	0.02704297
181	0xbebcb835	-0.3685929
182	0x3ea401a2	0.32032496
183	0xbef126e2	-0.47099978
184	0xbe1ed830	-0.15512156
185	0x3e03da0b	0.12876146
186	0xbcf497e4	-0.029857583
187	0xbe09871e	-0.1343045
188	0xbee7c06b	-0.4526399
189	0xbefa1aae	-0.4884848
190	0xbcbacd5e	-0.022803005
191	0xbef5de31	-0.4802108
192	0xbe480fdb	-0.19537298
193	0xbe93cc0b	-0.2886661
194	0xbcfab235	-0.030602554
195	0xbc07964d	-0.008275581
196	0xbd1c0268	-0.038088232
197	0xbafdd509	-0.0019365858
198	0xbdbfc4f3	-0.09363737
199	0x3cf6f325	0.030145237
200	0xbe524d1a	-0.20537224
201	0x3df2aa3e	0.11848877
202	0xbf14f839	-0.5819126
203	0xbf16f112	-0.58961594
204	0xbd292c66	-0.041302107
205	0xbecc96a1	-0.3995867
206	0xbdaa6d83	-0.08321669
207	0xbf1ce405	-0.6128543
208	0xbd8e59f1	-0.06950749
209	0xbea51e9a	-0.3224991
210	0xbee8aedb	-0.45445904
211	0xbda2b04b	-0.079437815
212	0x3f4bd844	0.7962687
213	0xbdf2f64e	-0.11863385
214	0xbd464ae6	-0.048411272
215	0xbccda688	-0.025103822
216	0xbddb1159	-0.10696668
217	0xbf1b49e7	-0.6065964
218	0xbd92e70f	-0.07172977
219	0xbeb823d2	-0.3596483
220	0xbedae4f4	-0.42752802
221	0xbd120c48	-0.035656244
222	0xbe8efa0c	-0.27925146
223	0xbedfbf4e	-0.4370064
224	0xbf218b6e	-0.6310338
225	0xbf58d6fa	-0.8470303
226	0x3e1550d2	0.14581612
227	0xbd74a3ae	-0.05972641
228	0xbc6dbde0	-0.014510602
229	0xbdee0209	-0.11621482
230	0x3e256dbe	0.16155145
231	0xbde0eee2	-0.10983063
232	0x3d108558	0.035283417
233	0xbdf00d62	-0.117213026
234	0xbe904874	-0.28180277
235	0xbcf968bf	-0.030445455
236	0x3c6b2855	0.014352878
237	0xbee7a8dd	-0.4524602
238	0xbeefd69f	-0.4684343
239	0x3d70edbc	0.05882047
240	0xbf9e565f	-1.2370108
241	0x3fb63db4	1.423758
242	0x3d008ba8	0.031383187
243	0xbfdc70c0	-1.7221909
244	0x3f9e09a7	1.2346696
245	0xbd64cbee	-0.055858545
246	0x3ca4432a	0.020051558
247	0xbf4432fa	-0.76640284
248	0xbf02327e	-0.50858295
249	0xbfd7db43	-1.6863788
250	0xbf9f9b2c	-1.246923
251	0x3ee03dc1	0.43797114
252	0x3d7f5848	0.06234005
253	0xbfa9b831	-1.3259336
254	0xbf8b7ddf	-1.0897788
255	0xbf512657	-0.81699127

bias f4 [60]
0	0xbef8b465	-0.4857513
1	0x3fb39468	1.4029665
2	0xc0486d30	-3.1316643
3	0xbf9a88dc	-1.2073016
4	0xc0b0c3bf	-5.523895
5	0xc0480d69	-3.1258185
6	0xc0a81094	-5.2520237
7	0xc0d4ebc9	-6.6537824
8	0xc00be26e	-2.1856952
9	0xc032e051	-2.7949412
10	0xc04e14b3	-3.2200134
11	0xc071f665	-3.7806637
12	0xbf7fcb04	-0.9991915
13	0xc00d038c	-2.2033415
14	0xc04b7384	-3.1789255
15	0xc0e37253	-7.1077056
16	0xc0c89b65	-6.268969
17	0xc05329ac	-3.2994184
18	0xbecb5f1d	-0.39721003
19	0xc0ad403b	-5.4140906
20	0xbfe9f887	-1.827897
21	0xbf94e0b8	-1.1631079
22	0xc011e932	-2.279858
23	0xbfea9aa6	-1.8328445
24	0xc0867be7	-4.202625
25	0xc019c938	-2.4029064
26	0xc0a4ecd1	-5.1539083
27	0xbf475cce	-0.77875984
28	0xc04424d5	-3.064748
29	0xbfdaf6db	-1.7106584
30	0xc00f678d	-2.2406952
31	0xbee4adf8	-0.44663978
32	0xc0150932	-2.3286862
33	0xc026f798	-2.608862
34	0xc0d31671	-6.5964894
35	0xc08dbba2	-4.4291544
36	0xbd0864d3	-0.03329928
37	0xbf5eb191	-0.86989695
38	0xc08c01bd	-4.375212
39	0xc0408f57	-3.0087488
40	0xc0837bb3	-4.10885
41	0xbf922c80	-1.141983
42	0xbfbd503d	-1.4790112
43	0xbf64e584	-0.89412713
44	0xc00b0859	-2.1723845
45	0xc08c9100	-4.3927
46	0xc03a501e	-2.91114
47	0xbe8b6338	-0.27224135
48	0xc0c6d741	-6.213776
49	0xbf2cf216	-0.67556894
50	0xc0955e9f	-4.6678004
51	0xc0166105	-2.3496716
52	0xc0371166	-2.860437
53	0xc0820273	-4.062799
54	0xbfb35f39	-1.4013435
55	0xc0762e29	-3.8465674
56	0xbf9f90dd	-1.2466084
57	0x3f0d9206	0.5530094
58	0xc01c1a02	-2.4390874
59	0xbf19e8da	-0.6012093

weight f4 [10, 60]
0	0x3e253be0	0.16136122
1	0xbfaf81b9	-1.3711463
2	0xc09ad598	-4.8385735
3	0xbdd97835	-0.10618631
4	0xc07a7eea	-3.9139962
5	0xc03a5b5f	-2.9118268
6	0xc013b8c8	-2.3081532
7	0xc02ba01f	-2.681648
8	0xc088ec4a	-4.278844
9	0xbff40849	-1.9065028
10	0xc0385892	-2.880406
11	0xbf93edec	-1.1556983
12	0xbe96d92d	-0.29462567
13	0xbf3b68a1	-0.73206526
14	0xc04568a1	-3.084511
15	0xc029f6f7	-2.6556985
16	0xbe858914	-0.26081145
17	0xc0088223	-2.132943
18	0xbcdd5467	-0.027017785
19	0xc03fd71f	-2.997505
20	0xbffcbfe5	-1.9746062
21	0xbf7e0798	-0.9923034
22	0x3dcc6521	0.09980226
23	0xbee495d3	-0.44645557
24	0xc01c7af2	-2.445004
25	0xc0321036	-2.7822394
26	0xbf528af8	-0.822433
27	0x3d2092a5	0.03920235
28	0xbf1510c1	-0.5822869
29	0xbf1e3657	-0.61801666
30	0xc001aca1	-2.0261614
31	0xbef983f8	-0.48733497
32	0xc00a69ac	-2.1626997
33	0xbf6af016	-0.9177259
34	0xbecf0abe	-0.40437883
35	0xbf46f6da	-0.77720416
36	0xc016a476	-2.353788
37	0xbeaa09b8	-0.3321054
38	0xc0759ba2	-3.837624
39	0xc028170a	-2.6264062
40	0xc04b9703	-3.181092
41	0xbff5ec55	-1.9212748
42	0xc05eb290	-3.4796486
43	0xbea72425	-0.32644764
44	0xbf3a70dd	-0.72828466
45	0xc076a8a4	-3.854043
46	0xbf588323	-0.845751
47	0xbf68456b	-0.90730923
48	0xbf6fef47	-0.93724483
49	0xbc51b9e4	-0.012800667
50	0xc02118ee	-2.5171466
51	0xc00a9e1c	-2.1659002
52	0xbf87dde2	-1.0614588
53	0xbef0e7c3	-0.4705182
54	0xc030732b	-2.7570293
55	0xbfbaa768	-1.4582338
56	0xbd8d94ac	-0.069131225
57	0xc0215d4d	-2.5213196
58	0xbf724df8	-0.9465022
59	0xbd546187	-0.05185082
60	0x3d35dd25	0.044400353
61	0xbfb00276	-1.3750751
62	0xc160c457	-14.047935
63	0xbe857071	-0.26062348
64	0xc0fff526	-7.9986753
65	0xc1041a5d	-8.256436
66	0xc0bb8441	-5.8598943
67	0xc0ad8602	-5.4226084
68	0xc13dde49	-11.866769
69	0x3f0f80b4	0.5605576
70	0xc0ffc745	-7.993075
71	0xc036fa6b	-2.8590343
72	0xc0377f41	-2.867142
73	0xbf48855c	-0.7832849
74	0xc0533496	-3.3000846
75	0xc0c0381b	-6.006849
76	0xc04640cf	-3.0977056
77	0xc013f618	-2.3118954
78	0xbdd120c5	-0.102113284
79	0xc0b51209	-5.6584516
80	0xc05029fe	-3.252563
81	0xc1db4215	-27.407267
82	0x3ee3ae47	0.444689
83	0xc0407ea4	-3.0077295
84	0xc00e9087	-2.2275712
85	0xc0806dc4	-4.013399
86	0xc12a81d3	-10.656695
87	0x3db31e0f	0.087459676
88	0xbf2f910c	-0.685807
89	0xbd86d8f8	-0.06584352
90	0xbf8330f7	-1.0249318
91	0xbdcf9412	-0.10135664
92	0xc0966847	-4.700229
93	0xc02c88bb	-2.6958454
94	0xbe13893e	-0.14407822
95	0xc09099fb	-4.5187964
96	0xc0e1d4a3	-7.0572066
97	0xbe809fb7	-0.25121853
98	0xbff138b3	-1.8845428
99	0xc0406f5f	-3.0067976
100	0xc0a69886	-5.2061186
101	0xc120dcc7	-10.053901
102	0xc0a0cbff	-5.024902
103	0xbea7816e	-0.32715935
104	0xbf990324	-1.1954083
105	0xc0e71f58	-7.222576
106	0xc016ecec	-2.3582106
107	0xc1342382	-11.258669
108	0xc15c6b12	-13.77614
109	0xbf53fe1d	-0.8280962
110	0xc039600b	-2.896487
111	0xc0eb4848	-7.3525734
112	0xbecffa22	-0.40620524
113	0xc00e4179	-2.2227461
114	0xc08b392e	-4.35073
115	0xc04baa05	-3.1822522
116	0xbf1b897c	-0.6075666
117	0xbf7da53c	-0.9908025
118	0xbe8e0368	-0.27736974
119	0xbd3a80e0	-0.04553306
120	0x3cfb28a1	0.030659022
121	0xbfc19a97	-1.5125302
122	0xc04d0d76	-3.2039466
123	0xbe23a7af	-0.15981935
124	0xc0d448b5	-6.6338754
125	0xc0a2663c	-5.07498
126	0xbfaa27ab	-1.3293356
127	0xbf9cfcaf	-1.2264613
128	0xc0f88a07	-7.766849
129	0xbff709a2	-1.9299815
130	0xc08641d0	-4.1955338
131	0xbff8f112	-1.9448569
132	0xbfdb68ca	-1.7141354
133	0xbf86d8ca	-1.0534909
134	0xc0003d28	-2.0037327
135	0xc0822b03	-4.0677505
136	0xbf41690f	-0.7555093
137	0xbf99fa1b	-1.2029451
138	0xbd124af9	-0.03571603
139	0xbf818c6d	-1.012098
140	0xbfd1e8c3	-1.6399158
141	0xc11f028d	-9.938123
142	0xbdc70daf	-0.09719407
143	0xbe895ded	-0.26829472
144	0xc135ba4a	-11.357981
145	0xc1081e2b	-8.507365
146	0xc099c32c	-4.8050747
147	0xbeb4e06b	-0.35327467
148	0xbfa4fef2	-1.2890303
149	0xbf0323ef	-0.51226705
150	0xc0611fa0	-3.5175552
151	0xbc993164	-0.01870031
152	0xc0c5729e	-6.1702414
153	0xbfedfb55	-1.8592325
154	0xc028a140	-2.634842
155	0xc0a0e0c8	-5.027439
156	0xc168cd9d	-14.550199
157	0xbeb16cd1	-0.34653333
158	0x3d94140f	0.072303884
159	0xc070bb5b	-3.7614353
160	0xc09af011	-4.841805
161	0xc0cfa9bd	-6.48947
162	0xc1dcc417	-27.595747
163	0xbedb07bb	-0.42779335
164	0xbeb8916a	-0.36048442
165	0xc02490bc	-2.571334
166	0xbf941f96	-1.1572139
167	0xc065b968	-3.5894413
168	0xc00111ce	-2.0167117
169	0x3d376701	0.044775967
170	0xc10273fa	-8.153315
171	0xc07cea92	-3.951817
172	0xbf959092	-1.1684744
173	0xc0044501	-2.0667117
174	0xc0be69ea	-5.950429
175	0xc0321240	-2.782364
176	0xbf206c3c	-0.6266515
177	0xc00f943c	-2.2434225
178	0xbf370098	-0.7148528
179	0xbc45bc05	-0.012068753
180	0xbe5d3a28	-0.21604216
181	0xbf1a550b	-0.60286015
182	0xc0ba6d47	-5.8258395
183	0x3d3f64a6	0.046726845
184	0xc08c394b	-4.381994
185	0xc0068e98	-2.1024532
186	0xc00b5961	-2.1773303
187	0xc021f2e1	-2.5304492
188	0xc1bb13e7	-23.384718
189	0xbf933bfb	-1.150268
190	0xc08232e3	-4.0687118
191	0xbf2f2e5c	-0.68430114
192	0xbf8cc3a7	-1.0997208
193	0x3cd88f7f	0.026435612
194	0xbff37dd3	-1.9022774
195	0xc09466cd	-4.637549
196	0xbe9cafa6	-0.3060276
197	0xbf98abcd	-1.192743
198	0xbdedf64e	-0.116192445
199	0xbf9ae6d6	-1.2101696
200	0xc027fca0	-2.624794
201	0xc11289ba	-9.158625
202	0xbdd03b4c	-0.1016756
203	0xbf0f70af	-0.56031317
204	0xc16430ee	-14.261946
205	0xc1811883	-16.136969
206	0xc0179bcf	-2.3688848
207	0x3dcca944	0.09993222
208	0xbf8ee8bc	-1.1164775
209	0x3dff5f3c	0.124693364
210	0xbf54140c	-0.8284309
211	0x3d2bf199	0.041978452
212	0xc008b389	-2.135958
213	0x3eab866a	0.33500987
214	0xc0cc5b46	-6.386142
215	0xc040b11f	-3.0108106
216	0xc192988f	-18.324492
217	0xbf0982d5	-0.5371526
218	0xbfcd6acf	-1.604822
219	0xbfe3ae0e	-1.7787492
220	0xc00cfce4	-2.2029352
221	0xc0daec94	-6.841379
222	0xc22d7d84	-43.372574
223	0x3e4ce700	0.20009995
224	0xbea808cf	-0.3281922
225	0xc010c43e	-2.2619777
226	0xc026508a	-2.5986657
227	0xc14c3a67	-12.764258
228	0xbe24436f	-0.16041349
229	0xbe1c5fc1	-0.15270902
230	0xc08fcd98	-4.493847
231	0x3ef537fb	0.47894272
232	0xbf4c79a8	-0.7987313
233	0xbec2e449	-0.38064793
234	0xc09d4b33	-4.9154296
235	0xbfb9220c	-1.4463515
236	0xbe35a5f9	-0.17739095
237	0xc0325642	-2.7865148
238	0xbfc81c1f	-1.5633582
239	0xbd262701	-0.04056454
240	0xbdab6196	-0.083682224
241	0xbfe1151d	-1.7584568
242	0xc13ce633	-11.806201
243	0xbed485f9	-0.41508463
244	0xc0eeda74	-7.4641666
245	0xc0ce6226	-6.449481
246	0xc121b2ce	-10.1061535
247	0xc095b528	-4.678364
248	0xc1101533	-9.005176
249	0x3f136126	0.5757011
250	0xc0a833b3	-5.256311
251	0xbfabeade	-1.3431051
252	0xbfbab4a8	-1.4586382
253	0xbf9ab9c3	-1.208794
254	0xc0202727	-2.5023897
255	0xc0e6f9cb	-7.2179923

bias f4 [10]
0	0x3f35043e	0.707096
1	0xc04cd694	-3.2005968
2	0xbfc16c81	-1.5111238
3	0xc053521f	-3.3018873
4	0xc02a22eb	-2.6583812
5	0x40014ebc	2.0204306
6	0x40a0448d	5.008368
7	0xc01c2e50	-2.4403267
8	0xc08902d1	-4.281594
9	0xc0a3e091	-5.121163
