NN Real data/final_trained_models/TPSM/TPSM.pth (torch, 55843 bytes, 10 tensors)

weight f4 [60, 20]
0.0045243413 0.7989998 -0.3404768 0.24356456 0.4381384 0.10750033 0.26505607 0.15570043
0.13228507 -0.022207214 -0.018343452 0.21009675 0.058203515 0.2105586 -0.13527186 0.026268905
-0.035866927 0.13137497 -0.08289477 -0.27528265 0.04889063 -0.1888045 0.012248395 -0.21004847
-0.2074626 -0.4518167 0.41527146 0.30346864 -0.17994186 0.12059234 -0.16866717 0.19540507
0.1430106 0.16968726 -0.16122785 0.12568958 0.029219232 0.28070474 0.0038946054 -0.2506006
0.6504369 -0.36948338 0.36364204 -0.27334017 -0.1779712 0.36041835 0.10455787 0.09828972
0.20487495 -0.14917262 -0.13927068 -0.12624222 0.12152846 0.07035559 -0.10255769 0.0011495497
-0.094334744 -0.2172193 -0.06365057 0.013534061 0.21046747 0.17103289 -0.2547607 -0.43080598
0.09106125 -0.20243005 0.0844822 -0.030672362 -0.17389478 -0.14914882 -0.10686382 0.12465286
-0.10459359 0.2046591 -0.05054681 -0.14704789 0.16185066 -0.059741564 0.23641847 0.14141399
-0.4517941 0.13325787 0.05909155 0.25275427 -0.10813367 0.06163967 0.25201014 0.038093604
0.11239278 -0.14259723 -0.0067828638 -0.047061346 0.103849195 -0.2813063 -0.19415511 -0.11714024
0.23475668 0.037103873 -0.06954361 0.031887677 0.37170154 -0.37368926 0.27079913 0.30463052
-0.45373273 -0.051963728 -0.038109306 0.29256976 0.23451962 -0.2976279 -0.09710858 0.035021096
0.20281991 0.14448349 -0.18512774 -0.32337576 -0.008983169 -0.090557344 -0.05637569 0.14621368
-0.08179352 -0.34526694 0.027738614 0.059785634 -0.09388348 0.13560027 -0.35672894 0.13174023
-0.16080669 -0.33944035 0.18212676 -0.34700522 -0.16252877 -0.34113562 -0.18695 0.4035174
-0.28901064 0.104519434 -0.24384113 -0.2683857 -0.25701395 -0.026093693 0.4018633 0.1894466
-0.1536597 -0.23164813 0.10409891 0.11359418 -0.12745449 0.20205702 -0.096327476 0.1402869
0.12420806 0.11786955 0.11508793 -0.015853984 0.33421433 0.19736902 0.11725987 -0.09413441
-0.1017759 -0.038337488 0.0032802997 0.29214588 -0.33234033 0.09756416 0.01703488 -0.025702016
0.21591204 -0.24232976 -0.04471518 0.10697021 0.15576817 0.20038274 -0.13811545 -0.0065211845
0.32423544 -0.22576395 0.017467508 -0.05482993 -0.7387432 -0.12101505 0.22526023 -0.07196458
0.08773356 -0.24762793 0.103598714 -0.0352806 -0.038772486 0.2915644 -0.17695948 0.04180346
0.09990704 0.10353877 -0.10761397 0.06082679 0.3329747 -0.13074979 0.33360925 0.079300314
0.052251775 -0.28913918 -0.19756526 0.31149134 -0.19032711 -0.20134932 -0.025342565 -0.20714971
-0.12594235 -0.3395459 -0.08520821 0.11967821 -0.30562967 -0.3479369 -0.20795219 0.2370859
-0.053010847 0.0721936 -0.28353107 -0.3247888 0.010465372 0.11746821 -0.029603193 0.39890492
-0.0478293 0.0991424 0.39606258 0.10484341 0.25043875 -0.007332088 -0.16746348 0.048629306
0.12218255 0.032543655 0.13241188 -0.048266456 0.26144788 0.21861732 0.24919175 -0.25240216
-0.16839787 -0.180392 0.3853779 -0.3239478 0.26754913 0.2826683 0.07160067 0.24077623
-0.0024373536 -0.014141731 0.30001774 0.1913882 -0.012655726 -0.12785156 -0.09555274 -0.09328209
00000000: ed40 943b 408b 4c3f fa52 aebe fd68 793e
00000010: ad53 e03e 2229 dc3d 6eb5 873e ef6f 1f3e
00000020: bd75 073e e7eb b5bc 0245 96bc 9a23 573e
00000030: cf66 6e3d ac9c 573e b584 0abe e331 d73c
00000040: 33e9 12bd 2987 063e bcc4 a9bd d9f1 8cbe
00000050: 8b41 483d f855 41be 7ead 483c f216 57be
00000060: 1371 54be 8554 e7be 769e d43e 3e60 9b3e
00000070: ae42 38be 1ef9 f63d 16b7 2cbe 4418 483e
00000080: 5f71 123e 7fc2 2d3e ea18 25be c5b4 003e
00000090: 2c5d ef3c 88b8 8f3e a33c 7f3b b94e 80be
000000a0: 0883 263f ed2c bdbe 4a2f ba3e 3ef3 8bbe
000000b0: 153e 36be c188 b83e 7022 d63d 1f4c c93d
000000c0: bdca 513e b5c0 18be f99c 0ebe a445 01be
000000d0: eae3 f83d 9716 903d c409 d2bd 7dac 963a
000000e0: 9332 c1bd bc6e 5ebe 3b5b 82bd f7bd 5d3c
000000f0: c984 573e 3f23 2f3e ff6f 82be 9a92 dcbe
00000100: 527e ba3d d349 4fbe 0105 ad3d 9b44 fbbc
00000110: 7911 32be 78ba 18be 6bdb dabd 004a ff3d
00000120: 2a35 d6bd 2892 513e 2c0a 4fbd b993 16be
00000130: 2ebc 253e 92b3 74bd af17 723e d4ce 103e
00000140: 8e51 e7be c074 083e fb09 723d 0269 813e
00000150: 3075 ddbd e179 7c3d 7907 813e 0a08 1c3d
00000160: 302e e63d 0205 12be c942 debb 66c3 40bd
00000170: e3ae d43d 6107 90be 99d0 46be 39e7 efbd
00000180: 0e64 703e 3bfa 173d e16c 8ebd a79c 023d
00000190: aa4f be3e 3354 bfbe 2fa6 8a3e 88f8 9b3e
000001a0: a84f e8be ebd7 54bd 8118 1cbd b4cb 953e
000001b0: e925 703e af62 98be dde0 c6bd 4872 0f3d
000001c0: 06b0 4f3e 7bf3 133e 2092 3dbe 8291 a5be
000001d0: 242e 13bc 2176 b9bd 32ea 66bd 0ab9 153e
000001e0: 5c83 a7bd d4c6 b0be 173c e33c c8e1 743d
000001f0: fb45 c0bd ccda 0a3e 2da5 b6be e9e6 063e
00000200: 82aa 24be 20cb adbe 707f 3a3e abaa b1be
00000210: f16d 26be 54a9 aebe d26f 3fbe d599 ce3e
00000220: 34f9 93be 490e d63d 7db1 79be da69 89be
00000230: 5597 83be 71c2 d5bc 07c1 cd3e 4afe 413e
00000240: f858 1dbe 2b35 6dbe cf31 d53d 11a4 e83d
00000250: 6e83 02be 09e8 4e3e 5747 c5bd 5ea7 0f3e
00000260: cc60 fe3d 9765 f13d 38b3 eb3d 37e0 81bc
00000270: 241e ab3e 1b1b 4a3e f125 f03d 8bc9 c0bd
00000280: e26f d0bd c507 1dbd 4cfa 563b 2594 953e
00000290: 8328 aabe b8cf c73d bc8c 8b3c 098d d2bc
000002a0: 0c18 5d3e 4b25 78be 4427 37bd 3313 db3d
000002b0: b181 1f3e 2231 4d3e 236e 0dbe a9af d5bb
000002c0: 3002 a63e aa2e 67be 0518 8f3c 5995 60bd
000002d0: 461e 3dbf bdd6 f7bd 9eaa 663e 2a62 93bd
000002e0: a7ad b33d 2d92 7dbe 902b d43d 6482 10bd
000002f0: e6cf 1ebd ee47 953e de34 35be 1b3a 2b3d
00000300: 109c cc3d 220c d43d b764 dcbd 8325 793d
00000310: a97b aa3e 46e3 05be d5ce aa3e 3468 a23d
00000320: f505 563d 0d0a 94be 8c4e 4abe cb7b 9f3e
00000330: 1ce5 42be 842e 4ebe 369b cfbc 0e1f 54be
00000340: 08f7 00be f6d8 adbe a481 aebd d919 f53d
00000350: 7e7b 9cbe c924 b2be 6bf1 54be a5c6 723e
00000360: e721 59bd 3dda 933d fc2a 91be b84a a6be
00000370: f476 2b3c 2c93 f03d 6582 f2bc 443d cc3e
00000380: a8e8 43bd 2c0b cb3d b7c8 ca3e 24b8 d63d
00000390: 8239 803e 0342 f0bb 8c7b 2bbe 862f 473d
000003a0: d83a fa3d 7f4c 053d fb96 073e 0cb3 45bd
000003b0: 7fdc 853e 38dd 5f3e 1f2c 7f3e db3a 81be
000003c0: 7e70 2cbe aeb8 38be 4150 c53e 7cdc a5be
000003d0: 33fc 883e e6b9 903e 5fa3 923d 0b8e 763e
000003e0: 02bc 1fbb b8b2 67bc ed9b 993e 45fb 433e
000003f0: f659 4fbc 85eb 02be 28b1 c3bd ae0a bfbd

bias f4 [60]
0.022857727 0.21255149 0.16988246 0.09786578 0.1251035 0.029858401 0.07191434 0.07917368
0.13408116 0.1023235 0.16550475 0.23414196 0.028979592 0.01928138 0.25599602 0.11902474
-0.0045026676 -0.029379744 0.15600008 0.0044576842 0.048679486 0.20916024 -0.024125373 0.1947562
0.03718532 0.22305083 0.30118078 0.1689377 -0.04616496 0.15760241 -0.048078917 -0.0019013243
0.12951182 0.09556857 0.016880523 0.13368292 0.15317707 0.17184 0.16148819 -0.005679301
0.006011634 0.014773866 0.043078855 0.20389241 0.13173828 0.11953533 0.21175365 0.085058
-0.025772922 0.017114226 -0.02411868 0.13250676 0.18601243 0.10242184 -0.000112093854 0.12701465
0.104247846 0.050111283 0.058373485 -0.17111687
00000000: 2140 bb3c 19a7 593e abf5 2d3e db6d c83d
00000010: 221b 003e 9b99 f43c d347 933d cf25 a23d
00000020: 924c 093e fc8e d13d 147a 293e e9c2 6f3e
00000030: 9c66 ed3c fcf3 9d3c e911 833e 3ec3 f33d
00000040: 1d8b 93bb caad f0bc 7cbe 1f3e c411 923b
00000050: 2464 473d 1a2e 563e 93a2 c5bc 2b6e 473e
00000060: a24f 183d 7067 643e 5e34 9a3e 01fe 2c3e
00000070: 7817 3dbd 8762 213e 66ee 44bd db35 f9ba
00000080: bf9e 043e 74b9 c33d 0649 8a3c 2de4 083e
00000090: 73da 1c3e d3f6 2f3e 295d 253e 6e19 babb
000000a0: 3efd c43b 160e 723c 7473 303d 2cc9 503e
000000b0: 66e6 063e f0ce f43d f3d5 583e e432 ae3d
000000c0: bc21 d3bc 2233 8c3c 8a94 c5bc daaf 073e
000000d0: 0b7a 3e3e 8bc2 d13d ee13 ebb8 2110 023e
000000e0: e57f d53d 7d41 4d3d 0919 6f3d 4339 2fbe

weight f4 [60, 60]
-0.015890699 -0.050850168 0.045543108 0.2156774 -0.0776202 0.27597377 -0.06875646 0.057115372
-0.09126492 -0.020192701 0.0059464304 0.0136048 0.031259384 0.13167591 -0.16519791 0.0141452225
0.2672553 -0.005447316 0.19594724 0.01916572 0.19955957 0.09555763 -0.015770443 0.2158604
0.20065676 -0.03996379 -0.04858184 0.00043921536 0.22905003 0.07724339 0.18967502 0.04122383
-0.01709685 0.07517868 0.31692332 -0.08968677 0.084263705 -0.014239341 0.1404527 0.1632062
0.33184636 0.30286172 0.20654945 0.1720272 -0.102761365 0.21197619 0.19265217 0.06536568
0.14774315 0.0669012 0.20512156 -0.064551584 0.07020998 -0.019783255 -0.17317826 0.009949879
0.026070125 0.13621542 -0.15588805 0.26022628 -0.4271038 0.10212139 -0.041956745 -0.14316243
0.08422401 0.16958189 -0.15967898 0.04920617 0.06446215 -0.11395615 0.17730911 0.047000058
-0.072137445 -0.23189037 0.0919106 0.10456033 -0.0869401 -0.027158432 0.11254231 -0.3385055
-0.09225507 -0.058819193 -0.16578703 -0.014973229 0.02042275 0.12437897 0.12251537 0.05404684
0.17718905 0.0115473475 0.10726232 -0.4395234 0.03267191 0.0076045347 0.018867327 0.3026075
0.08666332 -0.08504747 0.09506197 0.014390338 -0.3891721 -0.008420174 -0.3015414 0.07278287
0.08004656 -0.009969961 0.09059214 -0.20045513 0.20942412 0.046240814 -0.3178217 0.19301976
0.18348314 0.0068445927 -0.342149 0.049074538 -0.23084058 -0.39405313 0.36130252 -0.25538695
0.39535543 -0.013850783 0.00019687698 0.11671855 -0.0688892 0.046638045 -0.07355515 -0.00078245864
-0.05912808 0.14553393 -0.15393855 -0.0006067288 0.22692895 -0.06475653 -0.11587153 -0.08693961
0.07188942 0.07229612 0.044302177 0.07723412 0.24009657 -0.028464418 0.08764619 0.3067617
0.24466442 0.042267706 0.09786486 0.1273649 0.115938395 0.14498204 0.25360963 0.35545897
-0.030293114 0.16806616 0.22105688 -0.14555052 -0.06031382 -0.050863042 0.09843937 0.14725737
-0.019315945 0.13973331 0.26723087 0.22579536 0.08695967 0.10113261 0.015785817 0.12074927
0.08492966 -0.15778328 -0.06757082 -0.011691718 -0.016467467 0.31649274 0.07729271 0.067072615
0.09773809 0.36480454 -0.27378896 0.32762557 -0.16217451 0.004886462 -5.8887097e-05 -0.07638496
0.21990606 0.2512178 -0.0911432 0.18949735 0.11456471 0.09695882 0.050744247 0.15613808
-0.031727713 -0.06210234 0.09271701 0.08516065 0.018006867 0.2997875 0.15499575 -0.20471366
-0.26819846 -0.159618 0.005610521 -0.24608175 -0.07222424 -0.14872105 0.099123634 0.24620187
0.4411039 0.04436236 0.058085322 -0.39122894 -0.105329745 -0.17833486 -0.0780587 0.099716984
0.0038160007 -0.059304845 0.0039814236 0.12709989 -0.20769762 0.18916655 -0.028580097 -0.13276407
-0.01075901 -0.20423304 -0.058066938 -0.25198722 0.11558948 0.19918479 -0.011139281 0.106973015
0.17216983 -0.14200793 -0.20582278 -0.034454245 -0.022666393 -0.08537446 0.3432812 -0.03309233
-0.35661122 0.059355795 -0.017382003 -0.11643481 0.33843276 -0.0067169396 -0.031873826 0.152623
0.28782335 0.20113565 0.11839877 0.22409591 -0.18105866 -0.09218004 0.1963554 0.21764833
00000000: 362d 82bc 4448 50bd 698b 3a3d 89da 5c3e
00000010: 57f7 9ebd 6f4c 8d3e 30d0 8cbd cff1 693d
00000020: 1ae9 babd 2a6b a5bc 46da c23b abe6 5e3c
00000030: d709 003d 0dd6 063e a429 29be 5dc1 673c
00000040: b0d5 883e 667f b2bb 65a6 483e 6e01 9d3c
00000050: 5859 4c3e b8b3 c33d 0431 81bc 820a 5d3e
00000060: f778 4d3e 12b1 23bd c0fd 46bd 7d46 e639
00000070: 178c 6a3e c831 9e3d 2b3a 423e 52da 283d
00000080: b10e 8cbc 48f7 993d c643 a23e b3ad b7bd
00000090: 7392 ac3d 204c 69bc d5d2 0f3e 871f 273e
000000a0: c4e7 a93e b110 9b3e b381 533e e627 303e
000000b0: 8d74 d2bd 4910 593e 9c46 453e 71de 853d
000000c0: fb49 173e 7f03 893d 630b 523e 9f33 84bd
000000d0: 40ca 8f3d 7e10 a2bc a455 31be d104 233c
000000e0: 0491 d53c 0e7c 0b3e 1ea1 1fbe 613c 853e
000000f0: 59ad dabe 0525 d13d d6da 2bbd 2c99 12be
00000100: a37d ac3d e0a6 2d3e e382 23be 698c 493d
00000110: bb04 843d d861 e9bd 8590 353e 2283 403d
00000120: ccbc 93bd ab74 6dbe a03b bc3d ba23 d63d
00000130: a70d b2bd 5c7b debc 957c e63d 9850 adbe
00000140: 3af0 bcbd 65ec 70bd 13c4 29be 4652 75bc
00000150: 9c4d a73c 67ba fe3d 57e9 fa3d 3860 5d3d
00000160: 0c71 353e 1631 3d3c 59ac db3d 3609 e1be
00000170: fbd2 053d 762f f93b a78f 9a3c 5fef 9a3e
00000180: 8a7c b13d 5e2d aebd daaf c23d 74c5 6b3c
00000190: 9141 c7be c5f4 09bc a263 9abe 2f0f 953d
000001a0: 73ef a33d 0c59 23bc 5f88 b93d 1c44 4dbe
000001b0: 4773 563e 0267 3d3d 87b9 a2be f9a6 453e
000001c0: 01e3 3b3e 9b48 e03b 272e afbe 6202 493d
000001d0: 7961 6cbe 55c1 c9be a5fc b83e 14c2 82be
000001e0: 076c ca3e 65ee 62bc c370 4e39 230a ef3d
000001f0: c815 8dbd 8907 3f3d 15a4 96bd e91d 4dba
00000200: 4930 72bd d906 153e 11a2 1dbe e10c 1fba
00000210: 1060 683e 129f 84bd 0d4e edbd 650d b2bd
00000220: c33a 933d fd0f 943d 3376 353d ec2c 9e3d
00000230: e0db 753e 362e e9bc d87f b33d df0f 9d3e
00000240: 4f89 7a3e e720 2d3d 5f6d c83d f26b 023e
00000250: 1c71 ed3d 2c76 143e 1fd9 813e b8fe b53e
00000260: 4429 f8bc 8919 2c3e bc5c 623e 320b 15be
00000270: a00b 77bd c455 50bd 959a c93d a3ca 163e
00000280: 793c 9ebc 4016 0f3e 7cd2 883e e636 673e
00000290: e917 b23d 9d1e cf3d 4251 813c 654b f73d
000002a0: 9aef ad3d f191 21be 9262 8abd 9f8e 3fbc
000002b0: c8e6 86bc 560b a23e a44b 9e3d 5e5d 893d
000002c0: e82a c83d a9c7 ba3e 112e 8cbe 8abe a73e
000002d0: 1311 26be 9d1e a03b 8afd 76b8 b86f 9cbd
000002e0: 0e2f 613e 9f9f 803e 49a9 babd 980b 423e
000002f0: e7a0 ea3d 5992 c63d 33d9 4f3d a9e2 1f3e
00000300: ebf4 01bd 065f 7ebd 6ae2 bd3d b568 ae3d
00000310: 2383 933c bf7d 993e 35b7 1e3e 75a0 51be
00000320: 4f51 89be e772 23be 76d8 b73b dbfc 7bbe
00000330: 4dea 93bd 554a 18be 5501 cb3d 581c 7c3e
00000340: 5fd8 e13e 4eb5 353d e0ea 6d3d 294f c8be
00000350: 1fb7 d7bd 6a9d 36be 3ddd 9fbd 6b38 cc3d
00000360: de15 7a3b a3e9 72bd 9a76 823b 7926 023e
00000370: afae 54be e0b4 413e cf20 eabc 4ef3 07be
00000380: 8f46 30bc 7722 51be 99d7 6dbd 7804 81be
00000390: 2dba ec3d 19f7 4b3e 8881 36bc ab14 db3d
000003a0: 4a4d 303e 876a 11be 35c3 52be e51f 0dbd
000003b0: dfae b9bc ced8 aebd 8ec2 af3e d38b 07bd
000003c0: bf95 b6be 101f 733d b464 8ebc 6075 eebd
000003d0: 0f47 ad3e c619 dcbb 218e 02bd 3449 1c3e
000003e0: 955d 933e 81f6 4d3e 0e7b f23d 6679 653e
000003f0: 7167 39be e4c8 bcbd 6411 493e 34df 5e3e

bias f4 [60]
-0.06715725 0.05428138 -0.00035468847 0.022213204 0.012011429 0.20276016 0.17996442 0.1885859
0.11662708 0.106760345 0.0053717047 -0.116368495 0.120226175 -0.04100757 -0.016031142 0.045678947
0.0049655647 0.013605869 0.08236535 -0.039698426 -0.07156243 -0.088438466 0.084850684 0.0821645
0.06373315 0.14204329 0.124440275 0.09521992 0.0022989633 0.08740942 0.053265195 0.0921759
0.0995377 0.038689528 0.061492793 -0.14443499 -0.078762546 -0.011233243 -0.01793982 0.09583369
-0.13041095 -0.112340756 0.02519949 0.15105665 0.08316852 -0.06464951 0.1388465 0.15319803
-0.06871392 0.079127304 0.01848369 -0.058044672 -0.015958566 -0.051613837 -0.031015487 0.016011681
-0.03124575 -0.011464131 -0.06117638 0.028633885
00000000: be89 89bd 2756 5e3d 7bf5 b9b9 77f8 b53c
00000010: 96cb 443c 5ca0 4f3e 9848 383e aa1c 413e
00000020: 2eda ee3d 2ba5 da3d 2005 b03b 9b52 eebd
00000030: 2439 f63d 8ef7 27bd be53 83bc d919 3b3d
00000040: 2db6 a23b 27eb 5e3c 2aaf a83d d19a 22bd
00000050: 538f 92bd 3a1f b5bd 32c6 ad3d dd45 a83d
00000060: 8786 823d cc73 113e 8bda fe3d a902 c33d
00000070: 34aa 163b b603 b33d 9b2c 5a3d b8c6 bc3d
00000080: 6cda cb3d e978 1e3d dedf 7b3d c4e6 13be
00000090: 424e a1bd a30b 38bc 88f6 92bc 7444 c43d
000000a0: 738a 05be e912 e6bd 296f ce3c 98ae 1a3e
000000b0: 4254 aa3d f666 84bd c72d 0e3e f2df 1c3e
000000c0: e2b9 8cbd 7f0d a23d 1c6b 973c 40c0 6dbd
000000d0: 8abb 82bc 0869 53bd 3114 febc ee2a 833c
000000e0: 16f7 ffbc 0dd4 3bbc 1594 7abd 9c91 ea3c

weight f4 [60, 60]
-0.033209402 0.12230403 -0.07228487 0.066266015 0.355869 0.3157225 0.28782856 0.20766695
0.023877097 0.1101936 -0.21378316 0.19122519 0.013915186 0.03688112 -0.07530645 0.032828297
-0.0773171 0.11909486 0.23348913 0.0350338 0.13026294 -0.086663514 0.08011684 0.25871503
-0.0032201272 0.13621013 -0.24005233 0.011812768 -0.22103868 -0.29373014 -0.061154034 0.01957382
0.040044617 -0.12257741 0.19352171 -0.07570039 -0.14973506 0.06614587 -0.047871318 0.19675899
0.022298828 0.0736184 0.053374227 0.18364711 0.13999605 -0.07567785 0.11936567 0.21290092
0.003676921 -0.06200791 -0.048925918 0.014167608 0.21825173 -0.012027725 0.33987498 -0.058275186
-0.23706715 -0.033661574 -0.16511133 -0.11166382 0.114333175 0.26782888 -0.088124365 0.3001935
0.16134964 -0.13139297 0.12483872 -0.02389682 0.026094088 -0.3138236 -0.050958496 0.1756571
-0.11605637 -0.09968323 0.030240819 0.08609209 -0.052746736 0.042965613 -0.13666989 0.3969774
0.3424123 0.035543397 0.1254584 -0.10595651 0.09440726 -0.025188196 -0.30461517 0.18083164
-0.31364256 0.009393682 -0.016122572 -0.1763943 -0.13186818 -0.028303327 -0.2144263 0.07893669
0.048640575 0.18572186 0.3713576 -0.09667104 0.2876091 -0.10446175 0.33653158 -0.14885023
0.23381199 0.08178601 -0.11584715 0.077663936 0.04370504 -0.43185076 -0.030573891 0.25627047
-0.114656866 0.2628236 -0.046599783 -0.027594257 -0.15788686 0.21065274 0.26136422 -0.1548366
-0.15090582 0.15450734 -0.21979791 0.36606678 0.27476475 0.26358268 0.19548374 0.037236266
-0.21241933 -0.21991412 -0.19192563 0.21658838 -0.2377636 -0.03285692 -0.26642576 0.083962694
0.074780546 0.045738965 0.23299864 0.12434146 -0.10049519 0.062128723 0.10407125 0.22766961
-0.18571824 0.021492321 -0.224621 -0.18554291 -0.15434745 -0.28005454 0.070347816 -0.12093961
0.2583023 -0.4066248 0.10800731 -0.087856054 -0.027976874 0.16178009 0.14258158 0.27708983
-0.27170047 -0.010601945 0.12857059 -0.06291645 0.01022344 -0.11580029 0.19802251 0.06540084
0.10832008 0.031406157 0.15708578 -0.038137577 0.42516184 0.10430763 0.31464276 -0.27581587
-0.34412384 -0.16860285 -0.10850728 -0.12812236 0.04031202 0.044135924 0.18558988 0.290891
0.062989354 0.080243155 -0.010338003 0.055409785 -0.24319722 -0.3347562 -0.07124463 -0.05608969
-0.3156512 0.0063936114 0.10652034 0.041660704 0.10899171 0.03897483 0.28729403 -0.09259104
0.10273395 0.042307585 -0.2221561 0.087518476 -0.04543603 0.12219418 0.19104959 -0.09295713
0.44409636 0.12430099 0.012218095 -0.096437 0.2164863 -0.43118256 -0.0816302 0.0011248522
0.4692592 0.28880993 0.1752677 0.25439143 -0.14087525 -0.059033275 -0.014332008 0.051013473
-0.039994013 -0.24896511 0.21300714 0.17658862 -0.008147171 0.24468844 0.31958753 -0.014660839
0.30089888 0.29910943 0.2658851 -0.006512654 -0.2558322 -0.12221919 0.18919703 -0.3801147
-0.049361005 -0.14992228 0.05876118 -0.046429783 0.054096133 0.23867986 0.18391086 0.1681988
0.033131324 -0.028778013 -0.098549284 0.35522512 -0.00018626066 0.002125159 -0.020659935 0.141748
00000000: 9506 08bd 897a fa3d 170a 94bd 7ab6 873d
00000010: 7634 b63e 61a6 a13e 445e 933e a5a6 543e
00000020: e799 c33c 2fad e13d f9e9 5abe 89d0 433e
00000030: 85fc 633c a810 173d 453a 9abd f776 063d
00000040: 6d58 9ebd 02e8 f33d c617 6f3e 9a7f 0f3d
00000050: a663 053e a47c b1bd 4c14 a43d 4c76 843e
00000060: c508 53bb ab7a 0b3e 47d0 75be 578a 413c
00000070: f757 62be cc63 96be a77c 7abd 4759 a03c
00000080: d305 243d dd09 fbbd 8e2a 463e ce08 9bbd
00000090: 2654 19be 7c77 873d b714 44bd 307b 493e
000000a0: 08ac b63c 3ec5 963d ef9e 5a3d fd0d 3c3e
000000b0: 205b 0f3e fdfc 9abd fd75 f43d b302 5a3e
000000c0: 7ff8 703b 02fc 7dbd 8b66 48bd 411f 683c
000000d0: 627d 5f3e ef0f 45bc 1804 ae3e f6b1 6ebd
000000e0: bbc1 72be b8e0 09bd f212 29be 00b0 e4bd
000000f0: 8327 ea3d de20 893e 8c7a b4bd f6b2 993e
00000100: d738 253e e18b 06be 71ab ff3d 44c3 c3bc
00000110: 45c3 d53c 7dad a0be dbb9 50bd 74df 333e
00000120: f6ae edbd b926 ccbd 98bb f73c 0d51 b03d
00000130: f60c 58bd b6fc 2f3d 31f3 0bbe 9f40 cb3e
00000140: aa50 af3e f495 113d 2b78 003e baff d8bd
00000150: 9858 c13d 7a57 cebc 85f6 9bbe ee2b 393e
00000160: c295 a0be f5e7 193c 7c13 84bc b5a0 34be
00000170: 7408 07be 61dc e7bc 9192 5bbe 8fa9 a13d
00000180: 573b 473d df2d 3e3e 9522 be3e 77fb c5bd
00000190: 8041 933e 0bf0 d5bd de4d ac3e 326c 18be
000001a0: 696c 6f3e 6c7f a73d 4541 edbd 450e 9f3d
000001b0: 0e04 333d 8b1b ddbe 1976 fabc e235 833e
000001c0: 38d1 eabd d190 863e 6adf 3ebd 5a0d e2bc
000001d0: 18ad 21be 5ab5 573e 88d1 853e 7c8d 1ebe
000001e0: 0e87 1abe 2c37 1e3e b412 61be 1b6d bb3e
000001f0: f7ad 8c3e 4ff4 863e e42c 483e 0e85 183d
00000200: 7484 59be 2b31 61be 2788 44be 58c9 5d3e
00000210: 4d78 73be fa94 06bd f568 88be a2f4 ab3d
00000220: 8b26 993d c858 3b3d 3297 6e3e bca6 fe3d
00000230: 6cd0 cdbd b07a 7e3d 4f23 d53d 3922 693e
00000240: ec2c 3ebe aa10 b03c 0c03 66be f6fe 3dbe
00000250: 420d 1ebe 4f63 8fbe 8412 903d 30af f7bd
00000260: 3340 843e 2031 d0be f032 dd3d e0ed b3bd
00000270: c22f e5bc aea9 253e e800 123e b8de 8d3e
00000280: 531c 8bbe c8b3 2dbc 02a8 033e 57da 80bd
00000290: 3780 273c b428 edbd 6ac6 4a3e e0f0 853d
000002a0: ebd6 dd3d bea3 003d 18db 203e 2636 1cbd
000002b0: d0ae d93e 3d9f d53d db18 a13e bd37 8dbe
000002c0: 0031 b0be 3aa6 2cbe 1139 debd 8232 03be
000002d0: 371e 253d dfc7 343d 460b 3e3e aaef 943e
000002e0: 9000 813d 8656 a43d ba60 29bc 5ff5 623d
000002f0: b108 79be 2a65 abbe b4e8 91bd 4ebe 65bd
00000300: 099d a1be 8081 d13b 5627 da3d 6aa4 2a3d
00000310: 0c37 df3d 12a4 1f3d 3418 933e 5fa0 bdbd
00000320: 2d66 d23d b84a 2d3d e47c 63be e33c b33d
00000330: 211b 3abd f140 fa3d 81a2 433e 4f60 bebd
00000340: 9960 e33e 8491 fe3d 682e 483c c380 c5bd
00000350: 96ae 5d3e f6c3 dcbe bc2d a7bd c76f 933a
00000360: be42 f03e e5de 933e 6079 333e 983f 823e
00000370: 9a41 10be e0cc 71bd ccd0 6abc 81f3 503d
00000380: c3d0 23bd b6f0 7ebe 8b1e 5a3e a6d3 343e
00000390: b67b 05bc 9b8f 7a3e faa0 a33e 0434 70bc
000003a0: 6b0f 9a3e df24 993e 1822 883e 1a68 d5bb
000003b0: 70fc 82be 0e4e fabd debc 413e 659e c2be
000003c0: c42e 4abd 3a85 19be 90af 703d 282d 3ebd
000003d0: e893 5d3d 7e68 743e 2153 3c3e 4e3c 2c3e
000003e0: b6b4 073d debf ebbc 35d4 c9bd 11e0 b53e
000003f0: f74e 43b9 4046 0b3b 063f a9bc 6326 113e

bias f4 [60]
-0.03797751 0.034415368 0.07731225 -0.012680711 -0.01517975 0.13124561 0.0062009185 -0.078722626
-0.10817167 0.042216647 -0.010293258 -0.11781526 0.16726051 -0.12843396 -0.017495899 -0.08188953
-0.038642775 -0.019486075 -0.06648787 -0.054262422 -0.021898856 0.1422757 0.054063838 -0.029851712
0.062514275 -0.00084745884 -0.08262131 0.04176263 0.0046791537 0.030905813 0.0077557513 -0.05094549
-0.11550254 0.03475283 0.19051127 -0.09424395 -0.07419747 0.0040429523 0.098047264 -0.09633834
0.12844278 0.15426408 -0.05293661 -0.022870062 -0.10355781 -0.13576671 -0.06647209 -0.106951535
0.042140856 0.064398214 -0.13422321 0.05653546 -0.08363321 -0.034893613 0.18928441 0.06828731
0.2559316 0.111986555 0.092254326 0.14201653
00000000: 4e8e 1bbd 21f7 0c3d e355 9e3d c2c2 4fbc
00000010: 7cb4 78bc 4065 063e 1331 cb3b 5439 a1bd
00000020: 1c89 ddbd 5deb 2c3d 0ea5 28bc 2149 f1bd
00000030: 5746 2b3e 3184 03be 8f53 8fbc b3b5 a7bd
00000040: e347 1ebd 43a1 9fbc cb2a 88bd 4642 5ebd
00000050: 3b65 b3bc b9b0 113e 0b72 5d3d 948b f4bc
00000060: 7c07 803d 0028 5eba 5d35 a9bd 4b0f 2b3d
00000070: 9653 993b 302e fd3c f523 fe3b 38ac 50bd
00000080: 988c ecbd fc58 0e3d 6315 433e f902 c1bd
00000090: d8f4 97bd be7a 843b 01cd c83d 094d c5bd
000000a0: 8186 033e 67f7 1d3e 0fd4 58bd ff59 bbbc
000000b0: 1e16 d4bd 6e06 0bbe 8522 88bd 6809 dbbd
000000c0: e49b 2c3d 36e3 833d cf71 09be ba91 673d
000000d0: e347 abbd 9bec 0ebd c6d3 413e 38da 8b3d
000000e0: 7709 833e 3559 e53d d6ef bc3d c86c 113e

weight f4 [60, 60]
0.18154119 0.25481692 0.21787581 0.026521359 0.05978699 0.23627566 0.24311869 0.114637636
0.01620388 -0.023122264 0.13820429 0.05244948 0.09154148 0.06411468 0.050458927 -0.17055877
0.016905278 -0.15854818 -0.021711394 0.084803335 -0.018751627 0.08798501 -0.13910632 -0.09929314
0.15333289 -0.10198997 0.24086091 0.2249582 -0.011361671 0.083045065 -0.23575275 0.34079596
0.087085426 -0.18243079 -0.053566307 0.069291875 0.23047681 0.0042047678 0.18535502 -0.19230525
-0.16259223 0.022921195 -0.052531622 0.22910284 0.10330635 0.19490018 0.13613704 -0.037238713
-0.20582846 0.13365929 0.021272967 -0.00071700366 -0.110635474 0.06511985 0.137308 -0.004245082
0.031167813 -0.22889255 -0.1804512 0.040785298 -0.08339561 -0.075098276 -0.083183356 -0.21392512
-0.13760221 0.02294298 0.096447796 0.16474022 -0.05139512 -0.15048446 0.02041743 -0.09786429
0.1563718 -0.10905195 0.16966438 -0.029777449 0.07199838 0.16408545 0.1793834 -0.03047105
0.1256738 -0.004559812 0.28973913 0.008075342 0.15718898 0.121458605 -0.082288876 0.11611468
0.14869258 0.1149128 -0.20077805 -0.24564455 -0.03616475 0.0812555 0.03867722 -0.045545533
-0.18179181 -0.18808362 -0.09550852 0.28141618 0.1527985 0.024421206 0.0144260675 -0.2842154
0.38325074 0.06499099 -0.16719007 0.23424724 -0.083315074 -0.014868798 0.14674936 -0.18268505
0.31117776 -0.1739437 -0.24039741 -0.022010937 0.13983044 0.43131518 -0.015198979 0.07685179
0.286259 0.17722568 0.29582128 -0.1970072 0.09618905 0.2676804 0.23254038 0.13706593
0.020738497 0.13997129 0.12929659 0.023344621 0.26354256 0.015536622 0.13653807 -0.5013129
0.17953065 -0.2270436 -0.070589624 -0.07345138 -0.09637931 0.10269668 0.08054382 -0.0835137
-0.07328621 -0.058308996 0.068481125 0.12862289 6.7426445e-06 -0.100543775 -0.4170651 0.015462953
-0.10542886 -0.113234825 0.061190013 -0.09157214 0.019147333 0.26163492 -0.11445295 0.17876212
-0.28066492 0.011484288 -0.24316606 -0.34540498 -0.007152517 0.2767138 0.057188507 0.13750133
-0.6510104 0.097308345 0.024843631 0.17213939 -0.027216434 0.18891835 -0.112785585 -0.04789139
0.13694762 0.11417812 -0.19432557 -0.033520665 0.017343106 -0.03161723 -0.013606225 -0.053053766
0.04815403 0.09047608 -0.024310134 0.16992372 0.11814435 0.10576655 0.102879755 0.08791858
-0.05824247 -0.018215923 0.30931315 -0.2671753 0.07392331 0.22308937 0.072484165 0.0641349
0.03975157 0.08184821 0.5367656 -0.059465297 -0.038071536 -0.057899676 -0.1928712 -0.049382497
-0.08818557 0.16265161 -0.11103501 -0.16005138 0.05456907 0.12018125 -0.03170293 -0.18266027
-0.052779317 0.11354582 -0.026238754 0.3630204 0.15309626 0.060236976 -0.12700078 -0.31365135
0.29388657 -0.23246776 -0.11219998 0.09275581 -0.21989521 0.059020676 -0.06781927 -0.13656464
0.18593568 -0.20150037 -0.10053552 0.12020992 -0.051241968 0.44729623 -0.06410779 0.19445492
0.088744015 0.04105426 0.19084549 0.19485295 -0.17262448 -0.013063242 0.1063839 0.025496332
0.11041327 -0.02984764 0.18484452 -0.11206669 -0.109639436 0.08382087 -0.011113365 -0.29269323
00000000: efe5 393e 5d77 823e d61a 5f3e 5243 d93c
00000010: 34e3 743d 3ff2 713e 1bf4 783e 23c7 ea3d
00000020: 00be 843c e76a bdbc 6d85 0d3e 44d5 563d
00000030: 197a bb3d 8f4e 833d 05ae 4e3d f5a6 2ebe
00000040: f07c 8a3c 745a 22be 18dc b1bc 5fad ad3d
00000050: 039d 99bc 7c31 b43d e371 0ebe 345a cbbd
00000060: 4c03 1d3e 1ee0 d0bd 3ea4 763e 715b 663e
00000070: 4d26 3abc 8813 aa3d 2b69 71be cf7c ae3e
00000080: d859 b23d 23cf 3abe 5868 5bbd e6e8 8d3d
00000090: 1d02 6c3e 26c8 893b b5cd 3d3e abeb 44be
000000a0: 947e 26be 3bc5 bb3c 662b 57bd ef99 6a3e
000000b0: 4892 d33d ea93 473e 8267 0b3e 9f87 18bd
000000c0: b2c4 52be fbdd 083e a544 ae3c 4df5 3bba
000000d0: da94 e2bd 8e5d 853d 789a 0c3e 541a 8bbb
000000e0: a453 ff3c cf62 6abe 33c8 38be 7c0e 273d
000000f0: 51cb aabd 20cd 99bd 095c aabd 300f 5bbe
00000100: 98e7 0cbe ebf2 bb3c 6c86 c53d a9b1 283e
00000110: b083 52bd 9918 1abe 7442 a73c 136d c8bd
00000120: ee1f 203e a156 dfbd 80bc 2d3e d6ef f3bc
00000130: e373 933d 0406 283e 48b0 373e 6c9e f9bc
00000140: a2b0 003e 7a6a 95bb b058 943e 704e 043c
00000150: 26f6 203e 4abf f83d 1287 a8bd 89cd ed3d
00000160: de42 183e 6757 eb3d c398 4dbe 3f8a 7bbe
00000170: 7d21 14bd 4969 a63d 016c 1e3d f48d 3abd
00000180: a227 3abe fe98 40be f999 c3bd c815 903e
00000190: 3677 1c3e fb0e c83c 505b 6c3c ae84 91be
000001a0: 7139 c43e ff19 853d e033 2bbe 82de 6f3e
000001b0: 18a1 aabd 429c 73bc 7745 163e ca11 3bbe
000001c0: b152 9f3e 4c1e 32be bd2a 76be 4850 b4bc
000001d0: b62f 0f3e 58d5 dc3e 2305 79bc 7964 9d3d
000001e0: 8a90 923e a67a 353e e375 973e 41bc 49be
000001f0: c4fe c43d 680d 893e 111f 6e3e 035b 0c3e
00000200: c8e3 a93c a254 0f3e 5366 043e 383d bf3c
00000210: 0def 863e 518d 7e3c a3d0 0b3e 0b56 00bf
00000220: e2d6 373e 1e7e 68be 4b91 90bd ad6d 96bd
00000230: 8462 c5bd a352 d23d 29f4 a43d 3b09 abbd
00000240: 1517 96bd 6ad5 6ebd d53f 8c3d b8b5 033e
00000250: e03e e236 e5e9 cdbd 8f89 d5be 5358 7d3c
00000260: 16eb d7bd a9e7 e7bd 61a2 7a3d 2d8a bbbd
00000270: deda 9c3c 03f5 853e 4f66 eabd 6b0d 373e
00000280: 50b3 8fbe 9828 3c3c 8600 79be ecd8 b0be
00000290: a95f eabb 6ead 8d3e 7f3e 6a3d 26cd 0c3e
000002a0: 9ea8 26bf 9949 c73d df84 cb3c 4f45 303e
000002b0: 00f5 debc d073 413e 21fc e6bd c329 44bd
000002c0: ff3b 0c3e 38d6 e93d 48fd 46be f74c 09bd
000002d0: 2113 8e3c 1281 01bd a5ec 5ebc e84e 59bd
000002e0: 293d 453d 864b b93d 0c26 c7bc 7c00 2e3e
000002f0: aaf5 f13d 229c d83d 9fb2 d23d a80e b43d
00000300: a88f 6ebd 8f39 95bc 4b5e 9e3e 33cb 88be
00000310: 1b65 973d 8a71 643e 9472 943d 2959 833d
00000320: 8bd2 223d 09a0 a73d 7869 093f e291 73bd
00000330: e6f0 1bbd 3628 6dbd 0780 45be 4d45 4abd
00000340: a39a b4bd 258e 263e 5366 e3bd 82e4 23be
00000350: d183 5f3d 9621 f63d eeda 01bd 4b0b 3bbe
00000360: 202f 58bd b68a e83d a8f2 d6bc cfdd b93e
00000370: 44c5 1c3e 0cbb 763d 7e0c 02be e996 a0be
00000380: 4d78 963e 070c 6ebe 1ac9 e5bd c2f6 bd3d
00000390: 362c 61be aabf 713d d4e4 8abd 9ad7 0bbe
000003a0: ec65 3e3e 1d56 4ebe 91e5 cdbd 9e30 f63d
000003b0: 19e3 51bd 0304 e53e f24a 83bd 311f 473e
000003c0: 6cbf b53d 8328 283d 006d 433e 8887 473e
000003d0: 79c4 30be 3507 56bc cddf d93d afdd d03c
000003e0: 5a20 e23d 0a83 f4bc e247 3d3e 3983 e5bd
000003f0: a48a e0bd 47aa ab3d d514 36bc e3db 95be

bias f4 [60]
0.054031026 -0.09544086 -0.04749466 -0.19738264 0.14913695 0.02771472 -0.06254139 -0.042862214
0.13409789 -0.10623924 0.25876632 -0.06234933 -0.05585188 -0.122669704 -0.031510554 -0.09545096
-0.05512541 -0.08718556 0.013819187 -0.106546335 -0.07224718 0.1917943 -0.26146263 -0.12517115
0.08591535 0.10872223 0.09300531 0.10590867 0.056227986 -0.084370665 0.046002753 0.01716237
0.088814996 -0.111185215 -0.056723148 0.030237682 -0.087035 0.16550131 -0.047741234 -0.06986224
-0.07656518 0.02401111 0.044742174 0.23915623 0.17473377 -0.09044465 0.054940887 0.07398725
0.1594791 -0.058260433 -0.12080123 0.068438895 0.1013142 -0.11572745 -0.118100055 -0.11834678
-0.03884156 -0.2367223 0.00570426 0.11474974
00000000: a34f 5d3d 7f76 c3bd c389 42bd ad1e 4abe
00000010: 5bb7 183e fb09 e33c b315 80bd 4a90 2fbd
00000020: f550 093e f593 d9bd 057d 843e 0362 7fbd
00000030: f1c4 64bd 413a fbbd 3611 01bd cb7b c3bd
00000040: 2fcb 61bd 588e b2bd df69 623c f734 dabd
00000050: 54f6 93bd ba65 443e 6ede 85be de2c 00be
00000060: 63f4 af3d c3a9 de3d 9179 be3d a5e6 d83d
00000070: 514f 663d 87ca acbd 626d 3c3d 1998 8c3c
00000080: a3e4 b53d 13b5 e3bd 8856 68bd 04b5 f73c
00000090: 683f b2bd 2d79 293e 508c 43bd ef13 8fbd
000000a0: 35ce 9cbd f3b2 c43c 9243 373d 5fe5 743e
000000b0: 69ed 323e 0b3b b9bd b209 613d a186 973d
000000c0: 7d4e 233e 7ea2 6ebd a366 f7bd b129 8c3d
000000d0: d27d cf3d 8302 edbd 71de f1bd cc5f f2bd
000000e0: 5418 1fbd 5567 72be cdea ba3b e901 eb3d

weight f4 [10, 60]
-0.08943739 0.055380598 0.04744803 -0.073706985 -0.13320978 0.12631233 -0.048217215 0.07356957
-0.099696696 0.02660891 -0.1666585 0.14409521 0.20917715 -0.033693537 -0.09361608 0.013525253
0.023524549 0.038236246 0.061863624 0.11972205 0.17004633 -0.02939245 0.6990094 0.07961461
-0.022812102 -0.072087 -0.10514977 0.014115856 0.017044174 0.03661541 0.09836362 -0.028876998
-0.019161683 0.030570267 0.18590757 -0.084627084 -0.058985796 -0.05348678 0.06286252 -0.002016734
-0.098432615 -0.025408348 -0.06111357 -0.023496313 -0.061361622 0.33833268 0.08226891 0.08046895
-0.016381737 -0.053014565 0.10317854 -0.0588032 0.08540838 0.0003066808 0.10321737 -0.0710482
0.06594285 0.27835783 0.08964607 -0.0848935 -0.1577224 -0.08984893 0.1343025 -0.06466347
0.057193283 -0.15977046 -0.034685515 -0.19987585 0.0704312 -0.060258653 0.06340375 -0.20951098
0.14972891 0.07804841 0.17853995 0.08995294 -0.19127417 -0.11575598 0.08256982 -0.07571001
-0.201313 0.10583647 0.073425926 -0.12073511 -0.0079245 0.06946391 -0.19419736 0.08318202
-0.25996482 0.24196629 0.087691724 -0.17662911 -0.107756324 -0.12140111 -0.04825342 -0.27779764
-0.05768111 -0.38586712 -0.09116156 -0.0067251734 -0.0641079 -0.10535149 0.04069091 -0.13695449
-0.15022253 -1.2379377 -0.2851561 0.09505556 0.07007538 -0.11899408 0.0897585 -0.22749166
0.15188403 -0.11378124 -0.11471338 -0.0015964806 -0.08432644 0.22166613 0.10434893 0.061002776
0.24522841 -0.30018586 0.057117898 -0.34011525 0.056494422 0.08250986 0.20167373 -0.072419815
0.11203549 -0.093750775 -0.09061363 -0.06128278 0.12720887 0.22634767 0.10194782 0.09631557
0.08269948 0.11064656 -0.08393077 0.09366718 -0.0053806943 -0.18819271 -0.6177388 -0.19170997
-0.435549 0.09494255 0.10748469 -0.42436904 -0.19093667 0.10006006 0.038473863 -0.25945207
0.12352338 -0.042318575 -0.17114498 -0.12668078 0.1152715 -0.02051231 -0.21724683 0.039386846
-0.08873984 -0.23756956 -0.54427975 0.10637712 -0.1420013 -0.4384893 0.19946222 0.07268099
-0.2528211 -0.106120676 -0.35232252 0.22613637 0.013400705 0.08844416 -0.11744104 -0.10052523
-0.03876975 -0.06984948 -0.14924966 -0.445516 0.24561559 -0.12641113 0.31632292 -0.9264955
-0.22474726 0.039056025 0.05991048 0.09044724 -0.06627983 0.025919702 -0.23779997 0.2143638
0.15116054 -0.074448295 0.081469186 0.16468632 -0.0036338898 0.0492497 0.0912579 -0.12629706
0.10499597 -0.2834157 -0.92791045 0.07299224 -0.07028136 -0.28441164 0.14247689 -0.41930303
-0.20705879 0.12624611 0.109748565 -0.04287638 -0.30839756 0.17200755 -2.7669312e-05 0.13150649
-0.057946026 -0.23075837 0.16966541 0.078510106 0.06458555 0.09899789 -0.2853826 -0.11469517
-0.004888911 0.17767805 0.12583883 -0.10039739 -0.2589914 0.02492756 -0.6548756 0.14882222
-0.3824963 0.095352456 -0.13099419 0.020312056 -0.11940799 0.13525496 -0.12791596 -0.14945598
0.104946904 -0.7526423 0.2208448 -0.1369346 0.13938615 -0.4110389 -0.030310486 -0.055543967
0.09678109 0.061497405 0.1538849 -0.034167618 0.060767677 -0.0456805 0.0839789 -0.19466221
00000000: f32a b7bd c4d6 623d de58 423d b0f3 96bd
00000010: 2568 08be 0558 013e 6a7f 45bd a5ab 963d
00000020: c82d ccbd eefa d93c 87a8 2abe b28d 133e
00000030: 8932 563e 3c02 0abd cab9 bfbd 0699 5d3c
00000040: 8eb6 c03c 9c9d 1c3d b664 7d3d d630 f53d
00000050: a020 2e3e 6fc8 f0bc 48f2 323f fc0c a33d
00000060: 72e0 babc 59a2 93bd c358 d7bd 3146 673c
00000070: 39a0 8b3c 0afa 153d de72 c93d 748f ecbc
00000080: f6f8 9cbc 7f6e fa3c 8e5e 3e3e f750 adbd
00000090: 179b 71bd f414 5bbd 11be 803d 2f2b 04bb
000000a0: 0a97 c9bd 2b25 d0bc 3952 7abd 577b c0bc
000000b0: 5356 7bbd f139 ad3e 9a7c a83d e8cc a43d
000000c0: fe32 86bc cd25 59bd 454f d33d a0db 70bd
000000d0: 97ea ae3d 00ca a039 a163 d33d b881 91bd
000000e0: 0c0d 873d eb84 8e3e 5c98 b73d a5dc adbd
000000f0: fb81 21be b702 b8bd 9886 093e 486e 84bd
00000100: 8143 6a3d de9a 23be 6612 0ebd 41ac 4cbe
00000110: 3c3e 903d c7d1 76bd d3d9 813d 0c8a 56be
00000120: 8952 193e d8d7 9f3d 2dd3 363e 3f39 b83d
00000130: 60dd 43be 7911 edbd 5e1a a93d da0d 9bbd
00000140: ff24 4ebe cbc0 d83d 5560 963d f843 f7bd
00000150: c3d5 01bc 1843 8e3d acdb 46be 565b aa3d
00000160: 1c1a 85be 03c6 773e b897 b33d 43de 34be
00000170: 59af dcbd 25a1 f8bd 61a5 45bd 7e3b 8ebe
00000180: 0743 6cbd 6090 c5be e9b2 babd d85e dcbb
00000190: 014b 83bd 86c2 d7bd 83ab 263d cc3d 0cbe
000001a0: efd3 19be be74 9ebf fbff 91be 7dac c23d
000001b0: ae83 8f3d 2bb3 f3bd 4ed3 b73d 93f3 68be
000001c0: 7d87 1b3e 2406 e9bd d9ee eabd 0041 d1ba
000001d0: 57b3 acbd 72fc 623e e4b4 d53d 0cde 793d
000001e0: 281d 7b3e f6b1 99be 75f4 693d 9623 aebe
000001f0: b266 673d eefa a83d 8f83 4e3e d750 94bd
00000200: dd72 e53d 6800 c0bd a493 b9bd a703 7bbd
00000210: 0b43 023e afc7 673e 05ca d03d 1941 c53d
00000220: 585e a93d aa9a e23d e5e3 abbd 94d4 bf3d
00000230: 8950 b0bb 97b5 40be 2124 1ebf 9e4f 44be
00000240: 4700 dfbe 3d71 c23d ef20 dc3d e646 d9be
00000250: e784 43be 4aec cc3d c596 1d3d e7d6 84be
00000260: d3f9 fc3d 3e56 2dbd a140 2fbe 9bb8 01be
00000270: 7713 ec3d 6f09 a8bc f475 5ebe 1a54 213d
00000280: 3cbd b5bd 6f45 73be eb55 0bbf 3fdc d93d
00000290: ca68 11be ab81 e0be d33f 4c3e c5d9 943d
000002a0: c471 81be cc55 d9bd 9e63 b4be 4b90 673e
000002b0: a18e 5b3c 3622 b53d ee84 f0bd 2ce0 cdbd
000002c0: 08cd 1ebd 3f0d 8fbd e7d4 18be ac1a e4be
000002d0: a782 7b3e eb71 01be 14f5 a13e cf2e 6dbf
000002e0: 2524 66be 36f9 1f3d b164 753d 673c b93d
000002f0: b8bd 87bd 8e55 d43c d681 73be 2f82 5b3e
00000300: d4c9 1a3e 5978 98bd 51d9 a63d 88a3 283e
00000310: 8e26 6ebb 0eba 493d 6ce5 ba3d 0454 01be
00000320: 2108 d73d dd1b 91be 8a8b 6dbf f57c 953d
00000330: acef 8fbd 679e 91be 76e5 113e e3ae d6be
00000340: 3807 54be a946 013e dbc3 e03d 259f 2fbd
00000350: 49e6 9dbe bf22 303e 651b e8b7 a3a9 063e
00000360: d058 6dbd ec4b 6cbe c5bc 2d3e e8c9 a03d
00000370: 6e45 843d 68bf ca3d ab1d 92be 4de5 eabd
00000380: 2833 a0bb 3cf1 353e e5db 003e 269d cdbd
00000390: 859a 84be e234 cc3c eda5 27bf da64 183e
000003a0: 8ed6 c3be 2648 c33d 5723 06be 7865 a63c
000003b0: 2d8c f4bd 4780 0a3e 67fc 02be fd0a 19be
000003c0: 67ee d63d 2aad 40bf 2425 623e 9538 0cbe
000003d0: 3ebb 0e3e b173 d2be b24d f8bc 1282 63bd
000003e0: 2a35 c63d b4e4 7b3d 0194 1d3e 58f3 0bbd
000003f0: 87e7 783d 7a1b 3bbd 21fd ab3d 8855 47be

bias f4 [10]
-0.19922605 -0.18299352 0.00861099 -0.018538946 0.042541504 0.06932944 -0.09536582 0.019584991
-0.0051003145 0.12947398
00000000: ea01 4cbe a762 3bbe 1c15 0d3c fdde 97bc
00000010: 0040 2e3d 98fc 8d3d 284f c3bd b470 a03c
00000020: 8a20 a7bb d494 043e
