NN Real data/final_trained_models/TPSM/TPSM_expLR1.pth (torch, 56183 bytes, 10 tensors)

weight f4 [60, 20]
000000 b8 4a 60 40 2c d2 54 be dd e6 1d c0 25 9c f7 bf
       3.5045605 -0.20783299 -2.4672158 -1.9344527
000010 e9 6f ea be 1f 61 fa 3f 21 2d 80 bd 0c 89 9f be
       -0.45788506 1.9560889 -0.06258608 -0.31159246
000020 e5 e9 16 be 4e 7d c0 bd 5b a1 0d 40 13 ec 0f c0
       -0.14737661 -0.093989 2.2129734 -2.2487838
000030 0e d3 b8 3e 00 df 5f bf 23 c7 af 3f f4 e3 0b 40
       0.36098522 -0.87449646 1.3732647 2.1857882
000040 d1 78 66 c0 8e f7 2f 40 08 4a 9c be 18 ec 5a 40
       -3.601124 2.7494845 -0.3052523 3.42066
000050 e3 b1 11 40 d7 d9 47 c0 f3 0d 38 bf 14 b9 d2 bf
       2.2764823 -3.122671 -0.71896285 -1.6462731
000060 42 46 15 bf d4 ad 3b bf f3 cf 0a bf 35 d5 98 be
       -0.5831033 -0.73312116 -0.54223555 -0.29850164
000070 8e a9 dc be 95 98 33 3f 39 61 83 bf cd 15 de 3e
       -0.4309811 0.70154697 -1.0264045 0.43376008
000080 ca 01 1a 3d 93 3c a8 3f 26 c2 e9 3e 7b 75 0f c0
       0.037599362 1.3143486 0.45655936 -2.2415454
000090 76 f3 ee 3f 0e 2d 96 3f 3f c3 ae 3f 26 86 ef 3f
       1.8668048 1.17325 1.3653334 1.8712814
0000a0 9c c7 ad 3f c1 71 47 c0 af 34 ab bf 04 2f 40 c0
       1.3576541 -3.116318 -1.3375453 -3.0028696
0000b0 21 ce ae bf e5 a7 f1 3e 39 4a e9 bf 24 15 fb 3e
       -1.3656656 0.47198406 -1.8225776 0.49039567
0000c0 c4 b3 be be 5d 51 74 bf df fe 80 be ed 19 be bf
       -0.37246525 -0.9543665 -0.2519445 -1.4851662
0000d0 90 5a 47 3f 3a 3e 19 3f 83 24 df be 0e b7 6f bf
       0.7787256 0.59860575 -0.43582544 -0.93638694
0000e0 54 1a 57 bf f6 65 d9 3f af 67 9d 3f 02 86 6e 3f
       -0.8402455 1.6984241 1.2297267 0.9317323
0000f0 8f 66 fa 3f 5a e8 74 3f 50 9e 4c bf d2 8b 29 c0
       1.9562548 0.9566704 -0.79929066 -2.649159
000100 a3 65 a7 bf 99 b7 3e 3e 6c a4 62 3f 16 6c 61 3d
       -1.3077892 0.18624724 0.8853214 0.05503472
000110 e5 a7 46 bf 4c c9 b3 bf a5 5b e2 be d4 92 f3 be
       -0.77599937 -1.4045806 -0.44210544 -0.47572958
000120 9f b2 cb 3e 0d 14 59 bf ba 24 cc bf 67 49 35 bf
       0.39784715 -0.8479622 -1.5948708 -0.7081513
000130 d1 8b fb be ae 3f c7 bf 1a 5f d5 bf 8f 12 02 c0
       -0.4913011 -1.5566308 -1.6669648 -2.0323827
000140 64 e1 1e be e4 c5 32 be 88 91 a4 bd 6c e8 c9 3d
       -0.15515667 -0.17458302 -0.080355704 0.09858784
000150 38 02 b7 3c 94 da f9 3d e2 ed 18 3e fa ea 16 3e
       0.022339925 0.121998936 0.14934495 0.14738074
000160 c6 14 3b 3e 50 56 1e 3c 76 06 4a 3e 84 63 59 bd
       0.18269643 0.009664133 0.19729027 -0.05307342
000170 e8 29 24 3d 47 c5 4e be 06 bf 3e 3e 36 0c 30 3e
       0.040079027 -0.20192443 0.18627557 0.17192158
000180 38 f5 67 3d 2a a6 c3 bd 70 c2 83 3d dc de b4 3d
       0.056630343 -0.09553178 0.064335704 0.088315696
000190 2e 26 62 3f 15 35 4e c0 bd 32 8d bf bc 55 ef 3e
       0.8833951 -3.2219899 -1.1031109 0.46745098
0001a0 9e 1d 83 3f 0b c1 59 bf 26 10 57 c0 4f ab d6 bf
       1.0243413 -0.85060185 -3.3603606 -1.6771029
0001b0 b6 c2 41 bf 6c 29 c1 3f ab 5b 74 bf 87 d3 e9 bf
       -0.7568773 1.5090766 -0.95452374 -1.8267678
0001c0 dc 06 c4 bd 56 f6 b8 bd d7 7a fe 3e 03 20 67 bf
       -0.09571621 -0.0903136 0.49703094 -0.9028322
0001d0 a7 64 46 bf ac 34 6b 3e 40 98 73 bd 5b 66 3d 3e
       -0.77497333 0.22969311 -0.05947137 0.18496077
0001e0 f5 52 41 3f 19 20 88 be 1a 7c fb 3c 59 96 a8 3d
       0.7551721 -0.2658699 0.030698825 0.082318015
0001f0 91 76 38 bc 21 e0 9b 3e 3e f3 ad bd 64 c3 d0 3d
       -0.011258737 0.30444434 -0.084936604 0.10193518
000200 44 ac b6 3d 2b 3e 82 3d aa 4f 5b 3e aa b0 cc be
       0.08919576 0.06359514 0.21417108 -0.39978534
000210 1e 0e 4a 3c c5 c7 7f 3e e4 9b 1f 3e 90 0e 48 3d
       0.012332467 0.2497855 0.15586811 0.048842013
000220 08 5b 26 3d 64 06 01 bf 84 7d a3 3d 42 e4 1a 3e
       0.040614158 -0.50400376 0.079829246 0.15126136
000230 c1 f6 9c 3e 8b cf 44 bf e9 b1 27 bf 12 86 74 3f
       0.30657008 -0.76879185 -0.65505844 0.95517075
000240 d5 8e 8b 3f bb e7 74 3e 19 e0 65 bf 54 a2 c8 be
       1.0902964 0.23916523 -0.8979507 -0.39186347
000250 e9 c8 76 3f f6 c3 7f 3f 0a 94 d0 3d 34 b9 23 bf
       0.96400315 0.9990839 0.10184486 -0.6395447
000260 95 29 e9 be 27 77 20 3e 1d 96 2c 3f b0 85 c1 be
       -0.45539537 0.15670453 0.67416555 -0.37797308
000270 0e 64 5a bf 0d 5e 20 bf be f6 d6 be bb 1d 80 3f
       -0.8530892 -0.6264351 -0.41985124 1.0009073
000280 59 da 13 bf df 64 31 c0 20 9e af 3e 2a fb 76 3f
       -0.5775505 -2.7717817 0.34300327 0.96476996
000290 5e eb 30 bf b9 2f 5b 3f 63 18 0e c0 a5 b3 80 be
       -0.6910914 0.85619694 -2.2202384 -0.25137058
0002a0 28 69 8c 3f b5 22 6a bf d2 ce 78 bd 01 9f f5 3f
       1.0969591 -0.9145921 -0.060744114 1.9189149
0002b0 af e1 56 be 83 ef 1d 3f ab 57 7a be 8a 7f 22 3e
       -0.20984529 0.6169359 -0.24447505 0.15868965
0002c0 2c 49 10 40 52 31 25 bf 30 32 05 3f 43 3a 72 3d
       2.254466 -0.6452838 0.52029705 0.059137594
0002d0 35 f0 28 c0 9b 40 f4 3f 97 75 df c0 3e 55 e5 bf
       -2.639661 1.9082216 -6.983104 -1.7916639
0002e0 c9 76 33 40 6d f3 c3 be 87 10 cc 3e 82 d7 47 c0
       2.804125 -0.38271657 0.3985636 -3.1225286
0002f0 af 65 00 3f 70 6d 17 be 57 f5 d0 be 7f a7 cf bd
       0.50155157 -0.14787841 -0.4081218 -0.10139369
000300 a7 0d 5d c0 f8 7c 87 3f 89 80 41 3e df 7d 96 bf
       -3.4539583 1.0585012 0.18896689 -1.1757163
000310 9d 62 4d c0 22 c0 9f be ad 07 dd 3f 9e 85 7c bf
       -3.2091439 -0.31201273 1.7267967 -0.98641384
000320 33 48 09 3f f3 af 05 bd d7 49 f0 3c 25 b3 ba 3e
       0.5362579 -0.0326385 0.029332085 0.364648
000330 8d 6f 6a 3e 61 5b 1e 3f 76 ea cd bd 0f 34 27 3e
       0.22894116 0.61858183 -0.100544855 0.16328453
000340 f0 9f 01 3e 15 43 3a 3e d4 87 14 3f ac f1 f3 bc
       0.12658668 0.18189652 0.5801976 -0.029778324
000350 d1 45 b3 bd d3 49 a1 bb a8 97 91 bd e6 ce e5 3e
       -0.08753551 -0.0049221306 -0.07109004 0.44884413
000360 b1 6c 5a be 89 df bf be 39 3e 2b 3d 21 ba fa bd
       -0.21330525 -0.3747523 0.041807387 -0.122425325
000370 eb 18 4d 3f 71 97 c2 c0 22 89 53 bf 8f 5d 34 3e
       0.80116147 -6.0809865 -0.82631123 0.17613815
000380 c5 f9 f0 bd 0f 32 30 3e 5d 25 b5 c0 ca 21 e6 be
       -0.1176639 0.17206596 -5.660811 -0.44947654
000390 6c 83 e1 3e 64 43 c7 be 3d f0 29 bf c6 15 06 c0
       0.4404558 -0.38918602 -0.663822 -2.095079
0003a0 cf 14 11 bf dd a7 03 3f 2b a8 24 3f e6 e4 16 bf
       -0.56672376 0.51428014 0.64319104 -0.5894302
0003b0 7a 2d 02 3f 15 46 e8 3e 0c 58 cb 3e d4 07 d0 3d
       0.5085064 0.45365968 0.39715612 0.10157743
0003c0 1f e9 ab c0 1e aa 4b 3f c7 00 9c c0 05 b8 0f 3f
       -5.372207 0.79556453 -4.875095 0.56140167
0003d0 3a 26 77 40 ac ab 6b 3f 8e 07 81 bf a3 c4 1d c0
       3.8617082 0.92058825 -1.008043 -2.4651268
0003e0 24 1e bf 3f 4d 48 be 3e 51 32 8f 40 ef f0 08 c0
       1.4931073 0.37164536 4.474892 -2.1397054
0003f0 45 89 52 bf a6 27 c2 3f fd cc 28 bf 5a 5e f7 40
       -0.82240707 1.516835 -0.6593779 7.7302675

bias f4 [60]
000000 ef 29 06 be 23 cd 3c bf 62 b5 b4 bf a0 2c 8a bf
       -0.13101934 -0.73750514 -1.4117854 -1.0794868
000010 97 09 1e be da 90 8a bf f8 60 5b bf 97 79 0e bf
       -0.15433346 -1.0825455 -0.8569484 -0.5565428
000020 fb d6 33 bf e7 8e 4f be c0 f6 e9 be 4f ba 77 bf
       -0.7024991 -0.20269357 -0.45696068 -0.9676866
000030 59 96 92 be 79 64 90 bf 33 29 80 be 62 c4 6c be
       -0.2863033 -1.1280662 -0.25031433 -0.23121789
000040 05 83 1d be 27 51 00 bf aa 0a 79 be 8c b2 06 bf
       -0.15382011 -0.5012383 -0.24320474 -0.5261619
000050 8d 76 85 3c f7 6a 80 be ec 83 59 bf 0d 74 7e bf
       0.016291881 -0.25081608 -0.8496692 -0.9939583
000060 3c 78 0b bf 0d 40 59 bf e0 e3 1c bf 57 bc 1e bf
       -0.5448034 -0.8486336 -0.6128521 -0.62006134
000070 de 61 0b 3e 40 65 3b 3e d4 a7 42 bf 36 03 e5 be
       0.13611552 0.18300343 -0.76037335 -0.44729012
000080 7b f0 39 bf 8c 1b 61 bf bf 86 4f be c6 a6 6a bf
       -0.7263257 -0.8793266 -0.20266245 -0.91660726
000090 42 e2 5f 3e c8 8f 4d 3c eb ac be be 04 5d a8 bf
       0.21863654 0.012546487 -0.372413 -1.3153386
0000a0 8f ba 3a bf 4e 55 16 3f aa 8f ef be d8 81 3b be
       -0.72940916 0.58723915 -0.46789294 -0.1831125
0000b0 29 8d b8 be 88 84 3f bf f5 c5 4c 3e 16 c5 3a 3e
       -0.36045197 -0.748116 0.1999739 0.18239245
0000c0 2d 24 53 be cc 62 0d bf 39 cf 39 3f 9b df 9e 3e
       -0.20619269 -0.5522888 0.7258182 0.31029972
0000d0 3d 02 6d bf 9d 54 7c 3e 69 87 76 be 10 66 dc be
       -0.9258154 0.24641652 -0.24075092 -0.43046618
0000e0 02 21 89 bf 44 7a b5 be 88 9c 8b bf f2 6f 26 bf
       -1.0713198 -0.35444844 -1.0907145 -0.65014565

weight f4 [60, 60]
000000 4e 9f b4 3f cc 1e 9c bd c3 ff a5 be da 97 cb 3e
       1.4111116 -0.076230615 -0.32421693 0.3976429
000010 1c 55 08 3d d6 31 a5 bf 58 06 54 bb 37 04 23 bd
       0.03328429 -1.2905834 -0.0032352414 -0.03979894
000020 2a 83 6e bf 55 30 84 3f ed ce a4 be 5b fa 37 bf
       -0.9316889 1.032725 -0.32189122 -0.7186639
000030 bb 6f 45 bf 23 ae 40 3d 75 8c 92 3d 92 f7 c5 bd
       -0.7712361 0.04704107 0.07155696 -0.09666361
000040 53 cd 3b 3f 07 09 41 be 82 79 06 bf 9c 67 d3 3e
       0.73360175 -0.188511 -0.52529156 0.41289985
000050 44 57 ef bf 63 30 8b bf f1 fb 55 3e 3f 1b 1e 40
       -1.8698506 -1.0874141 0.2089689 2.470413
000060 64 15 be bf 60 24 c7 3f 85 ad eb be 54 b6 88 c0
       -1.4850278 1.5557976 -0.46030822 -4.272257
000070 1b 72 b2 bd c1 4f 62 3f 22 0b 39 3e e5 75 f5 bf
       -0.0871317 0.88402945 0.18070653 -1.9176604
000080 c4 14 a0 3e 9d b3 cf 3f 35 55 02 3e a0 91 50 bf
       0.31265843 1.6226689 0.12727816 -0.81472206
000090 27 4d ab 3f df 6a a1 be 7e 43 8e 3f cb ee ba 3e
       1.338292 -0.3152685 1.1114347 0.3651031
0000a0 68 6a 29 40 90 d2 b4 3f bc e7 9c be 26 c6 10 3e
       2.6471195 1.4126759 -0.3064555 0.14138088
0000b0 1a 32 da bf b9 45 82 3e ab 86 37 3f df cd 7a be
       -1.704654 0.2544382 0.7168986 -0.24492596
0000c0 fd c9 5b 3d fc 21 0b 3e eb cb d8 be d3 d6 4b be
       0.053659428 0.13587183 -0.42343077 -0.19906168
0000d0 20 57 fd bd bb 41 35 3f b4 ab e6 3d 48 7a c4 3e
       -0.123701334 0.7080342 0.112632185 0.38374543
0000e0 0e 05 61 be 7b 96 11 bd 32 5f c3 3f ed 01 f8 3e
       -0.21974584 -0.0355439 1.5263426 0.4843897
0000f0 e6 13 9a bd e8 bc 8f bd 9a e1 ad bd 3e 69 16 3d
       -0.075233266 -0.07018453 -0.08490296 0.03672146
000100 e4 4b a9 3d eb d2 02 be 30 3f dd 3c 42 8d 10 bd
       0.08266428 -0.12775771 0.02700767 -0.035290964
000110 36 f7 b1 bd 6c d1 99 bc 60 d0 a3 3d b2 69 f9 3d
       -0.0868973 -0.018776618 0.07998729 0.12178363
000120 af 64 b5 be c0 7b 32 bd fa e3 d6 bd 40 ce 0b bb
       -0.35428378 -0.04357505 -0.10492702 -0.0021332651
000130 64 b8 b7 bd 3a fd 9d bd 5e 86 86 bd 8e 21 70 bd
       -0.089707166 -0.07714315 -0.06568597 -0.05862575
000140 0e 32 9d 3d 28 bd c6 be 20 41 e6 3c 1d 26 f0 3c
       0.07675563 -0.3881619 0.028107226 0.029315049
000150 10 ba f1 be 74 5b b3 be 39 76 9b bd a7 50 95 be
       -0.47212267 -0.3503071 -0.075909086 -0.29163095
000160 48 3d 28 be 50 a0 eb bd dc 5b 0a 3d ab 9f 67 bd
       -0.16429627 -0.115051866 0.03377901 -0.056548756
000170 d4 50 8c 3c b4 ef 04 be 1c 80 a0 3d 7a 2d d1 be
       0.017128386 -0.12982064 0.07836935 -0.40855008
000180 c2 7b d9 bd ca b6 18 bd 84 51 09 be 5f 92 cd 3c
       -0.10619308 -0.037283696 -0.13410002 0.02509421
000190 f1 bb e7 ba fc 72 b9 be ce e1 ab bd 34 89 04 bd
       -0.0017679912 -0.3622054 -0.08392678 -0.03235741
0001a0 08 30 90 be 18 80 7f 3d 26 98 fd bd db f1 9f be
       -0.28161645 0.06237802 -0.12382536 -0.3123921
0001b0 8a 43 a3 3d 12 a1 ea bd c2 ce ec bd 28 ee e6 bc
       0.079718664 -0.11456503 -0.115628734 -0.028189734
0001c0 40 88 0c bb ed ba d7 be 13 c4 e8 bd a8 51 46 bd
       -0.0021443516 -0.421348 -0.11365523 -0.048417717
0001d0 3a 38 28 be 10 e7 9f 3d aa 85 d8 be 05 f6 12 be
       -0.16427699 0.078077435 -0.42289478 -0.14351662
0001e0 8d 2e 46 be ea d6 84 bd 8e a1 5f be a5 59 94 bb
       -0.19353695 -0.06486304 -0.21838972 -0.004527288
0001f0 06 4c ec 3d 2d 10 2c bc ab 92 b3 bd 96 c7 0f bd
       0.11537938 -0.0105019035 -0.08768209 -0.03510245
000200 52 3b b4 3b ea 54 c8 bd b0 fc a4 bc 68 1b 91 bd
       0.0055002356 -0.09781821 -0.020140022 -0.070853055
000210 ec de 34 bd 8b a8 7d bd 12 e1 99 3b 24 17 16 3d
       -0.044157907 -0.061928313 0.00469602 0.036643162
000220 5e d2 b9 be 52 c5 b9 bd 90 2c 3b bc 4c 20 61 be
       -0.3629331 -0.09070839 -0.011424199 -0.21984977
000230 e4 40 e8 3d ec 7e 22 be 4c 2e e2 bc a2 6d 08 be
       0.11340502 -0.1586873 -0.027609967 -0.13323072
000240 4d 67 01 bb 89 8b bb bd 86 a9 6c bc 00 a7 d9 bd
       -0.001974541 -0.091574736 -0.014444714 -0.10627556
000250 3d 35 2f bd 64 a9 fd bd b1 63 cd bd 29 44 1c be
       -0.04277538 -0.12385824 -0.1002878 -0.15260376
000260 9b db 69 bc f8 7a 3f be 94 ae 42 3d 62 62 d4 3d
       -0.014273549 -0.18699253 0.047529772 0.103703275
000270 5d c3 b9 be 53 65 66 be 15 90 ce bd 36 17 49 be
       -0.36281863 -0.2249959 -0.10086075 -0.1963776
000280 f2 2e a5 bd 8d 3e 51 be 8e b2 88 3d 4c e3 5c bd
       -0.08065595 -0.20434017 0.066746816 -0.053927705
000290 ff d6 0a bd d4 47 54 bd 70 45 19 be 40 36 f3 bc
       -0.033896443 -0.051826313 -0.14967895 -0.029688954
0002a0 d4 f2 35 be eb d6 06 bd 73 dd 37 be c5 97 04 be
       -0.17768413 -0.032919805 -0.1795557 -0.1294852
0002b0 e8 50 e7 be 1b 4b d8 be f6 f8 3f be 3f 86 85 bd
       -0.45178914 -0.422448 -0.18747315 -0.06519746
0002c0 aa 4e 07 be b2 00 72 bd f4 c7 69 be e8 5d 21 be
       -0.13213602 -0.059082694 -0.22830182 -0.15758479
0002d0 91 a3 05 bf 2a 39 a9 be 99 d7 2c bf aa 30 5c be
       -0.5220271 -0.33051425 -0.67516476 -0.21502939
0002e0 ce 97 90 bd b5 1c 66 be 85 82 6e be fc ef 4e 3e
       -0.070602044 -0.22471888 -0.23291977 0.20208734
0002f0 0d 53 83 3c c2 0d 17 be aa 4b 9a be 5b f8 77 be
       0.016030813 -0.14751342 -0.30135852 -0.24215834
000300 fc 33 1d 3e e3 b1 88 be 6a 7d c7 bd bc b5 3a bd
       0.15351862 -0.26698217 -0.09740718 -0.04558347
000310 14 cc 5e bf a1 82 cd 3d b9 25 66 3d 56 77 8b be
       -0.8703015 0.10034681 0.05618832 -0.27239484
000320 e4 82 58 be 4e 6c 97 be 25 05 d7 bd ba bb e7 be
       -0.21143681 -0.29574817 -0.10499028 -0.45260412
000330 be 0b 8a bd 23 ac f9 bc a3 a7 fa be 63 80 ad be
       -0.06740521 -0.030477589 -0.48956022 -0.33887014
000340 38 69 e3 be 48 2e 7b be b6 a8 a7 be 56 71 08 3e
       -0.44416213 -0.24529374 -0.32745904 0.13324484
000350 2e a5 63 be f4 96 ce be aa 33 5e bd a5 ad ee 3d
       -0.2223098 -0.40349543 -0.05424849 0.11654214
000360 9f 5b f9 be 03 85 74 be 02 5e 39 be 16 4b 8b be
       -0.48702714 -0.23878865 -0.18102267 -0.27205724
000370 1c c1 42 3e 52 f5 e7 be 2f d8 66 3e ea 81 52 3e
       0.19018978 -0.45304352 0.22543405 0.20557371
000380 fd 74 5e bd 15 e2 5b bd 6c 98 49 be f2 be d3 3a
       -0.054310787 -0.053682406 -0.1968705 0.0016154929
000390 7b 22 4a bd 1f 1e aa bd 60 f7 2d be 87 c6 82 be
       -0.04934929 -0.083065264 -0.16988897 -0.2554209
0003a0 54 bd 1c 3e 9f d8 80 be 38 33 21 be b8 de 97 3e
       0.15306598 -0.2516527 -0.15742195 0.29662108
0003b0 1d 22 51 3e f4 bc e9 bd c7 39 be be 27 b7 1d be
       0.2042317 -0.11412993 -0.37153456 -0.15401898
0003c0 8e d3 7e be 56 e9 57 be 4b 34 ed bd f1 a6 ff bd
       -0.24885389 -0.21085104 -0.1158224 -0.124830134
0003d0 d5 bc 81 bd ee d6 90 3d 48 08 6b be 8c cf 50 bc
       -0.06334845 0.070722446 -0.22952378 -0.0127447955
0003e0 70 60 1f bc 06 67 8f be a0 26 09 be 0e a4 47 3e
       -0.009727582 -0.28008288 -0.1339364 0.19496176
0003f0 02 a1 b2 be 55 0c f0 bd ca 57 98 bc a5 8c a2 bd
       -0.34888464 -0.11721102 -0.018596549 -0.07936982

bias f4 [60]
000000 63 3b 38 3f ef 50 01 bf 32 e6 c2 be b6 49 bd be
       0.71965617 -0.5051412 -0.3806625 -0.369703
000010 2c 67 50 be 1e ab 2c be 80 62 49 be fa c2 a0 be
       -0.20351857 -0.16862151 -0.19666481 -0.31398755
000020 d8 1f 07 bf d3 6a d3 be 80 97 1b bf 65 cb c5 bf
       -0.52782965 -0.41292438 -0.60778046 -1.5452696
000030 22 ff b0 be 88 ad d9 3e bf b3 d4 be 9f a9 b2 be
       -0.3456965 0.42515206 -0.41543385 -0.34895036
000040 8b 4e a6 be 52 32 ab bf 79 2c 5e bf 95 fe 3b bf
       -0.324818 -1.3374732 -0.8678661 -0.73435336
000050 99 88 6a be 98 32 0a bf cb 0e 97 be 21 4e 96 be
       -0.2290367 -0.5398345 -0.29503474 -0.29356483
000060 94 cd 94 bd ca 14 6d be 4d 48 27 bf 35 1b f8 be
       -0.072657734 -0.23152462 -0.653447 -0.48458257
000070 0e 27 1d c0 95 d2 bf be d1 da 0c be 55 53 b4 bf
       -2.4555087 -0.3746535 -0.13755347 -1.4087931
000080 94 7d 1d bf b7 c5 d6 ba bb 1b f9 bf 68 3e ec be
       -0.6151974 -0.0016385828 -1.9461588 -0.46141362
000090 7e 72 58 bf 41 41 47 bf 4f a7 ba bf 33 37 41 bf
       -0.845497 -0.77833945 -1.4582309 -0.7547485
0000a0 a4 c0 91 be 35 2a 11 bd 70 7d 7e bf 6e 89 28 be
       -0.28467286 -0.035440642 -0.9941015 -0.16458675
0000b0 14 0e da be 81 a3 13 3f 6e 28 66 3f 5e fd d8 be
       -0.42588866 0.5767136 0.8990544 -0.42380804
0000c0 8f 3c d3 be 70 bd ed be ef 67 d4 be 62 de fe be
       -0.4125714 -0.46433592 -0.41485545 -0.4977904
0000d0 ed 46 cd be a4 5d ca be c6 f8 af be 74 e1 82 be
       -0.40093175 -0.39524567 -0.34369487 -0.25562632
0000e0 a7 e8 52 be 90 3f 4d bf 67 14 87 3f 81 7d c6 be
       -0.20596562 -0.80175114 1.0553101 -0.38767627

weight f4 [60, 60]
000000 94 0e a5 bd 0c 74 1f bd 25 4c 5a ba 5c 45 f1 3e
       -0.08059421 -0.03892903 -0.00083273865 0.4712323
000010 29 53 ac 3e f4 9d b5 3b cf 4c 02 3e 87 2b de 3d
       0.33657196 0.005542511 0.12724613 0.10848146
000020 b4 f7 cc be 54 b4 5a 3d a6 f8 ce 3d 19 2f 51 be
       -0.40032732 0.05339463 0.1010602 -0.20428123
000030 7d e0 de 3e dc 4b 69 be 78 f0 2d bc f5 a9 63 3c
       0.43530646 -0.22782844 -0.010616414 0.013895501
000040 f3 7f 8a 3e 8f e8 df bd 21 7e 6f be 1c 43 59 3d
       0.27050743 -0.10933029 -0.23387958 0.053042516
000050 9f 31 bb 3e da 39 40 bd eb 6d e3 3e bc a8 24 be
       0.36561295 -0.04693017 0.44419798 -0.16079992
000060 59 17 05 be c0 f3 57 3d b1 6d 4d bc 4c cd 81 bc
       -0.12997188 0.052722692 -0.0125383595 -0.015844963
000070 ff 6f 3c be f8 36 b8 bd 74 e9 80 3d 4f 94 d2 be
       -0.18402098 -0.089948595 0.06294528 -0.41128775
000080 85 41 3b be 60 1b 84 3d 28 7b e4 3d 0e 8c 8e bd
       -0.18286712 0.06450534 0.11156303 -0.06960307
000090 d2 5b 49 bc 98 3a f9 bb 19 5b 38 bb 68 32 2c bd
       -0.012289958 -0.007605862 -0.002813047 -0.04204026
0000a0 32 40 b3 3e 1e 53 4f 3c 1b f5 09 3d 22 11 aa 3e
       0.35009915 0.012654094 0.033681016 0.33216196
0000b0 0b 72 20 3e 8b f6 59 be ce e4 6b be ec 17 1f 3d
       0.15668504 -0.21285455 -0.23036501 0.038841173
0000c0 92 e9 8d 3d 1c e4 3e 3d fd b6 20 3e 6f 42 de bd
       0.069293156 0.04660426 0.15694804 -0.10852515
0000d0 e6 af ae 3e f3 5e fc 3d 9f 82 41 bd 56 40 84 3d
       0.34118575 0.123227976 -0.04724371 0.064575836
0000e0 e6 ee 82 3e c9 ae 15 3e 52 bc df be e0 a2 6a bd
       0.2557289 0.14617456 -0.43698364 -0.057284236
0000f0 e3 74 f2 bd 28 eb 94 3c ef 80 54 bd 16 90 dc 3d
       -0.118387006 0.018178537 -0.051880773 0.1076967
000100 2d 32 08 be fb 7a c8 3c 2c a2 51 bd f1 eb ea 3c
       -0.1330039 0.024472704 -0.05118005 0.028676959
000110 59 cf b2 bd 09 ad 82 bd b2 62 94 3d b1 eb f4 bc
       -0.08730955 -0.0638066 0.07245387 -0.029897543
000120 cc e7 8f bd fd b3 e0 bd 8e 99 ed 3d 39 ca 5a 3b
       -0.070266336 -0.1097183 0.11601554 0.0033384694
000130 bb 0e ed bc 81 24 46 be c7 a2 69 bc a2 64 c0 3d
       -0.028937688 -0.19349863 -0.014260001 0.09394194
000140 ac be a9 3d 20 da 26 3c a0 df 8f 3c c6 65 78 bd
       0.08288321 0.010183841 0.017562687 -0.060643934
000150 96 d9 20 bd 28 09 2e 3d 9d 52 8a bd 38 84 e1 3d
       -0.039270006 0.0424892 -0.067540385 0.11011547
000160 92 3a bb bc a0 b4 78 bc d8 aa d8 bd cd 9a 0d be
       -0.022855077 -0.015179783 -0.10579461 -0.13828583
000170 b6 c8 01 be 12 8f b3 bd 92 83 0a bd 9a 1c 52 bd
       -0.12674221 -0.08767523 -0.03381688 -0.051296808
000180 04 a9 4f be 42 66 ce bd f8 f6 4d 3d 43 ab ee bd
       -0.20279318 -0.10078098 0.050284356 -0.11653759
000190 16 21 c9 3c 65 ef 57 be 81 83 da 3d c6 c0 80 bd
       0.02455191 -0.21087416 0.10669614 -0.062867686
0001a0 ea 01 79 3d 54 b4 f3 bc 00 d9 f0 bd 68 9e 2b bc
       0.06079284 -0.029749073 -0.117601395 -0.010474779
0001b0 d3 55 a8 bd a0 63 a4 bd 7b 3f a5 3d 8f 30 30 be
       -0.08219495 -0.080268145 0.080687486 -0.17206024
0001c0 6c bc b8 bc e5 28 b1 bd 3e c2 06 be 16 c8 f6 3d
       -0.022550784 -0.08650378 -0.13160035 0.12049882
0001d0 e9 9e 13 be 72 c4 bc bd 20 a6 9f bd ea 8e 9b 3c
       -0.14416088 -0.092171565 -0.07795358 0.018989045
0001e0 9f 2a 6f bf 84 ec d8 3d ee 98 fb bd de 50 1e 3d
       -0.9342441 0.10591987 -0.122850284 0.03865134
0001f0 78 e6 09 bd 60 72 51 bd 18 ea f5 3d 75 52 ba bd
       -0.033667058 -0.051134467 0.120075405 -0.09097759
000200 7e 39 84 3d a0 42 e6 3d 12 a5 8c bd 94 01 f4 bc
       0.06456278 0.112431765 -0.06867422 -0.029785909
000210 bc f9 db bd 77 c9 80 bf 40 3d 88 bb 64 34 9e bd
       -0.107409924 -1.0061482 -0.004157692 -0.077248365
000220 24 83 1c be 96 46 35 3f 0d 93 51 3c 34 18 89 3e
       -0.15284401 0.7081083 0.012791407 0.26776278
000230 f3 66 9a 3c 81 65 13 bd 51 1b 87 bd 26 03 c6 3d
       0.018847918 -0.035985474 -0.06597007 0.09668569
000240 b2 79 bf bc 9b 42 e6 bd c0 06 f8 3c 0c ff 3c bd
       -0.023373459 -0.11243173 0.030276656 -0.04614167
000250 f2 6b a2 3e 2e 98 0f bd ac b1 f0 bd 1a 50 e9 be
       0.3172298 -0.03505724 -0.11752638 -0.45568925
000260 c0 37 93 3d 3c d7 05 bd 1e 6c 71 be ef d0 00 be
       0.07188368 -0.032675967 -0.235764 -0.12579702
000270 21 33 27 be 7e 55 92 3e 5e 61 ec 3d 97 c3 ff bd
       -0.16328098 0.2858085 0.11542009 -0.12488478
000280 8d 4a 0a bc 78 60 d6 3d e8 c3 08 3d be 5d 79 bd
       -0.008440626 0.10467619 0.033389956 -0.060880415
000290 98 74 29 bd 8a ef 46 3e 86 81 9a bf 40 5d 0d 3c
       -0.041370958 0.19427314 -1.2070777 0.00862819
0002a0 b8 17 a2 3d e8 5b f8 3c f7 78 86 bd b6 37 d6 bd
       0.0791468 0.030317262 -0.06566041 -0.10459845
0002b0 52 44 30 ba 5c 55 2e be 5e e6 ca 3d 1d d3 f5 bd
       -0.00067240477 -0.1702475 0.0990722 -0.12003157
0002c0 84 10 da 3c c7 94 3c 3e 6c 44 e5 bd 5c 52 31 3d
       0.026619203 0.18416129 -0.11194691 0.043291435
0002d0 1a 78 25 be a5 09 3d bd 56 c6 02 bb 54 5a 73 bd
       -0.16159096 -0.046151776 -0.0019954643 -0.059412315
0002e0 2b 98 25 be 42 b0 30 3d fc 03 e2 3d a8 f4 07 be
       -0.16171329 0.043136843 0.11035916 -0.13276923
0002f0 9e 96 a1 be 2f f1 b7 bc 13 c1 27 3d 14 83 ae 3e
       -0.31560224 -0.022453872 0.040955614 0.3408438
000300 65 f4 d4 3c 7d 6e c8 bf 43 f1 3e bc 11 5e 42 3d
       0.025995443 -1.5658718 -0.011654201 0.04745299
000310 2a 53 65 bd a8 ad cc be 5c eb 18 bf 28 72 77 3d
       -0.055987515 -0.3997624 -0.5973413 0.060411602
000320 2c 6a 03 be 5a 10 dc bd 8f 60 da 3d e8 35 c0 3c
       -0.1283347 -0.10745306 0.10662948 0.023463205
000330 18 aa 74 3d 53 74 de 3d 7d ce cc be 02 da 44 3e
       0.059732527 0.10862031 -0.40001288 0.19223788
000340 48 63 d5 be 32 5b 56 bd 14 52 d9 bd 90 23 82 3e
       -0.41677308 -0.052333064 -0.10611358 0.25417757
000350 76 8b de bd 38 b4 f9 3c ba 0d f7 bd a2 c7 e2 3e
       -0.10866444 0.030481443 -0.12063165 0.44292933
000360 58 9f a0 bd 9a dd ed bb de 53 01 bd 87 a5 e9 bd
       -0.078428924 -0.007259083 -0.031574123 -0.11408525
000370 1b f6 ff 3d 79 f4 fd 3d 16 5f 82 3d 03 3b 01 3d
       0.12498113 0.12400145 0.063657925 0.03155042
000380 48 09 61 3d 30 29 98 be 18 30 0a bf 0e b6 dd bd
       0.054940492 -0.29718924 -0.53979635 -0.1082574
000390 0d 51 26 3e 5e 7b 88 be 28 22 6e 3d 84 2b d6 be
       0.16241856 -0.26656622 0.058138043 -0.41830075
0003a0 e0 1f 70 be 7a 49 0e 3d 83 d3 cb 3d 41 b1 d2 bc
       -0.2344966 0.03473804 0.09952452 -0.025719287
0003b0 c6 1d b5 bd c7 0b 53 3e a5 6e 88 be 57 e5 fc bb
       -0.088435695 0.20609961 -0.26646915 -0.007717769
0003c0 13 af a2 bd ad 75 09 3e 9c 4c 6a 3e 90 46 5c 3c
       -0.07943549 0.13423796 0.22880787 0.013444558
0003d0 7e 0f 58 be e9 4c 56 3e 6a 14 a8 bd aa 38 52 be
       -0.2109966 0.20927776 -0.08207019 -0.20529428
0003e0 d6 d7 ad bc f3 43 bd 39 09 f4 12 3e cd 4e 24 3e
       -0.021221083 0.00036099515 0.14350905 0.16045685
0003f0 48 f9 48 be ab 56 da be 3f eb 07 bd 3e b1 e2 3d
       -0.19626343 -0.42644247 -0.033183333 0.110689625

bias f4 [60]
000000 e0 97 ad be d7 8f 35 be 2e 83 de bf 57 f9 9c bf
       -0.33904934 -0.17730652 -1.7383783 -1.2263592
000010 56 e1 34 bf 73 7e 85 be 8c 6c 4f bf 21 18 16 be
       -0.70656335 -0.26073036 -0.81025004 -0.14657642
000020 45 72 09 3f 52 07 f6 be a2 0d 3f bf 9f ef 5f be
       0.53689986 -0.4805246 -0.7463018 -0.21868752
000030 98 fd 8e be 97 fa 15 bf 26 5a af bf 0a 9a 29 bf
       -0.27927852 -0.58585495 -1.3699386 -0.6625067
000040 4f f4 1b bf 4b d3 9e bf d3 b2 44 bf 54 57 39 c0
       -0.6091966 -1.2408231 -0.76835364 -2.895955
000050 0a 06 bb be c0 05 80 be 06 cd 1f be 5b 9e bf bf
       -0.36528045 -0.25004387 -0.15605554 -1.4970201
000060 e0 1e bd be 4b 88 ac be c8 9d ba bf 66 d2 cb bf
       -0.36937618 -0.33697733 -1.4579401 -1.5923584
000070 53 38 37 bf 18 5c e5 be c4 5d 4f bf e7 b9 cc be
       -0.7157032 -0.44796824 -0.8100245 -0.39985582
000080 c3 a7 b2 bf 6d 9f 32 40 4d 83 75 bf ea 60 86 bf
       -1.3957447 2.7909806 -0.95903474 -1.0498326
000090 a6 4b 8b bf 81 79 02 c0 96 12 18 be 5f 44 a4 bf
       -1.0882461 -2.038666 -0.1485084 -1.2833365
0000a0 a0 0a aa bf ef d4 86 bf f7 00 e9 be 06 a9 e4 be
       -1.3284492 -1.0533732 -0.4550855 -0.44660205
0000b0 32 72 9d be 02 bc 93 bf 07 63 c8 bf fa b4 6f bf
       -0.30751187 -1.154175 -1.5655221 -0.93635523
0000c0 19 1a 95 3d 03 2a 42 3f 87 5a 68 bf c2 7b e8 bd
       0.07280368 0.75845355 -0.90763134 -0.1135173
0000d0 81 b9 1d c0 b5 66 b3 be 1d 03 06 be d8 c3 08 bf
       -2.4644473 -0.35039297 -0.13087125 -0.53423834
0000e0 d7 f3 bf bf 0d d3 fa be 58 6b 8f be fc 95 2b bf
       -1.4996289 -0.48989144 -0.28011584 -0.67025733

weight f4 [60, 60]
000000 8e e6 3b 3e ba ab 8b 3d 14 4b 13 3e d8 44 56 be
       0.18349668 0.068198636 0.14384109 -0.209247
000010 c3 e1 78 be 42 b1 93 be fc 0f b1 be aa 64 19 bd
       -0.24304871 -0.28846174 -0.34582508 -0.037449516
000020 e4 58 8b be f0 43 a9 3d 38 ea d8 bc 37 53 00 be
       -0.27216256 0.08264911 -0.026478872 -0.12531744
000030 26 bf c5 3c b9 9b e9 3e bd b7 9b 3d ba 2d 96 be
       0.024138998 0.4562662 0.07603405 -0.29331762
000040 65 aa 1c bf b4 ef 68 3d 85 11 79 be e1 5b 62 3e
       -0.611975 0.056869224 -0.2432309 0.22105362
000050 66 84 a4 3d b0 a9 b1 3d 6c ac 2f be 0f fb 81 3e
       0.080330655 0.086749434 -0.17155617 0.25386855
000060 89 a8 05 be 9b 8f f2 bd 20 b7 30 3f 64 9e bc 3d
       -0.13052572 -0.11843797 0.69029427 0.09209898
000070 e2 c2 c3 bd 4d a1 9a bd ba 70 33 3f 04 d2 f7 bd
       -0.09558655 -0.07550297 0.7009388 -0.12100604
000080 81 a4 52 3f 27 6e 6b be f3 8d 03 be c1 ee 6f 3c
       0.82282263 -0.22991239 -0.12847118 0.014644326
000090 23 17 c5 be 1f d9 00 bf 08 74 13 3d 74 d6 bd 3c
       -0.38494214 -0.503313 0.035999328 0.023173548
0000a0 d3 65 cd be 1e 14 ea 3d 6c a9 3e 3d 47 f8 3f bf
       -0.40116748 0.11429618 0.046548292 -0.74988216
0000b0 33 16 26 bf 48 be a7 be 85 f7 37 be b9 32 90 be
       -0.64877623 -0.3276236 -0.17965515 -0.28163698
0000c0 15 a5 d7 be 94 8e 77 be c9 7b 0e 3d 5e e3 9e bd
       -0.42118135 -0.24175483 0.03478602 -0.077582106
0000d0 39 1a 08 be 0f f7 c9 bc 18 1b 0b bd 91 d8 f3 bd
       -0.13291253 -0.02465394 -0.033961385 -0.11906541
0000e0 f3 2b 4a 3e 44 92 db bd c1 97 a0 be 19 47 f1 bd
       0.19743328 -0.10721257 -0.3136578 -0.11781139
0000f0 df ee b2 be 58 f7 43 bc f3 5f cc be 42 1a c2 be
       -0.3494787 -0.011960827 -0.39916953 -0.37910658
000100 bc 59 09 bd 80 d7 28 be d9 e0 73 bd c6 84 b9 3d
       -0.033532843 -0.16488457 -0.059540603 0.09058528
000110 86 3e ad be a2 6e f1 3d 05 6d 85 bd 41 80 0e 3d
       -0.33836764 0.1178868 -0.065149345 0.03479028
000120 2f 8e 2e 3d 6d cc 8e 3d 67 99 86 bd 4c e5 02 bc
       0.042616066 0.06972585 -0.06572228 -0.007989239
000130 99 b1 5d bd 38 de d1 3d 0f d3 86 be 12 23 e8 bd
       -0.05412445 0.10247463 -0.263329 -0.11334814
000140 32 61 7a 3c b9 73 87 3d 38 01 99 3c 84 2f 29 3c
       0.015281962 0.06613869 0.018677339 0.01032627
000150 d4 2a e7 bc aa 41 bb bd b4 e1 2f 3d 35 e9 03 be
       -0.028218664 -0.09143384 0.042939857 -0.1288193
000160 8e c6 34 be 2e 79 20 be db 21 ff bd 80 ee 5a 3b
       -0.17653868 -0.15671226 -0.12457629 0.0033406317
000170 e0 25 a0 be b7 02 ac be b7 d9 f3 bd 13 32 1b 3d
       -0.31278896 -0.3359582 -0.1190676 0.03788955
000180 37 47 5e 3c 57 79 a2 be 44 e4 d8 bd e7 97 cd bd
       0.013566784 -0.317332 -0.10590413 -0.10038739
000190 68 11 a8 be 1d 11 ce 3d 54 aa ea bc 85 b7 bf be
       -0.3282578 0.10061858 -0.028645672 -0.37444702
0001a0 16 c6 05 be 3d 20 c0 bc 7f 9b 67 3d d1 48 a9 3c
       -0.13063845 -0.023452872 0.056544777 0.020664604
0001b0 56 b0 43 be 39 62 04 bf 3f 97 18 3e 78 6b a7 3d
       -0.19110236 -0.51712376 0.14901446 0.08174795
0001c0 a5 0a 37 be 67 6e c4 3c e8 2d 8b 3d 00 82 67 3a
       -0.17875154 0.023978425 0.06795865 0.0008831322
0001d0 72 38 51 be 94 c1 7c bd cb 04 90 3d 80 2f a3 3d
       -0.20431688 -0.061708048 0.07032164 0.07968044
0001e0 23 67 b4 be 65 b3 4a 3d 2d c0 87 be f4 2c 3f 3f
       -0.35234937 0.04948749 -0.26513806 0.7467797
0001f0 a6 79 fa bc b9 d3 5f 3d 78 f5 1e 3f 16 5b b3 be
       -0.030575585 0.054645274 0.62093306 -0.3503043
000200 1e c3 42 bf 05 57 9c be b3 d4 bc 3e dd 0b b9 3d
       -0.76078975 -0.3053514 0.36881027 0.09035466
000210 4e 6b 97 3d 82 36 28 3f 9b 11 b2 bc a3 3a a2 bd
       0.073935136 0.6570817 -0.02173691 -0.0792134
000220 fe cd e0 bd f1 a4 8f 3f db bf 0a 3a 3e d5 71 3e
       -0.1097679 1.1222211 0.0005292871 0.23616502
000230 fe a5 01 be f8 58 08 be c7 0f 87 3b a8 22 05 bf
       -0.12660977 -0.13315189 0.004121754 -0.52006006
000240 28 cc e5 3c 83 5f 0c bf e0 43 b6 3f 91 24 a1 3e
       0.02805145 -0.5483324 1.4239464 0.3147321
000250 33 35 ad 3e 7c 8f 02 3f b1 5b 88 be d9 ee 7e be
       0.3382965 0.5100019 -0.26632455 -0.248958
000260 42 da cb 3d e3 f9 9a be bc a1 24 be 79 45 41 3f
       0.09953739 -0.30268773 -0.16077322 0.7549663
000270 1d 3b 0c 3f c1 68 37 3f 3b 89 50 3e e4 e6 a4 3e
       0.547777 0.71644217 0.2036485 0.32207406
000280 18 df d8 be 34 9d 47 be 1c ee 3e 3e 3b a4 01 c0
       -0.42357707 -0.19493562 0.18645519 -2.0256488
000290 4c fd 2f 3c 10 3c ad 3c 31 04 5e bf 0c c6 06 3e
       0.010741543 0.021146804 -0.86725146 0.13161486
0002a0 69 08 6b bf 36 21 8e be 27 8e 3a 3e d7 2e 7d 3c
       -0.9180971 -0.27759713 0.1821829 0.015453062
0002b0 39 ee 70 be 85 fc 03 bd d7 f3 70 3c b9 6b 9f be
       -0.23528375 -0.032223243 0.014706573 -0.31136873
0002c0 29 69 d2 3e c4 4a 3d bd 08 b0 86 3d 39 61 26 be
       0.41095856 -0.04621388 0.06576544 -0.16248025
0002d0 a7 19 85 3e 80 48 30 bd 5a ca b6 3b f3 17 64 be
       0.25996134 -0.04303789 0.0055783214 -0.22274761
0002e0 df ec 0c 3c dc f5 f1 3d 38 cc 22 be 4e 6e 78 3d
       0.008601396 0.11814472 -0.15898216 0.06065207
0002f0 a6 24 7f be 64 59 97 3d 20 f4 01 3c 7d 0d e0 3c
       -0.24916324 0.07390097 0.007931739 0.027350182
000300 17 b6 80 bb bb 48 bc bd a8 55 73 3e 1d ba 6b be
       -0.003927957 -0.0919356 0.23763144 -0.23020215
000310 d0 9a d5 bd 44 f9 e0 bd 99 bb 9b be 4b a9 6a bd
       -0.10429919 -0.10985044 -0.30416563 -0.057290357
000320 f6 d2 82 bd 88 f1 8d be 89 22 dd 3c 22 67 54 be
       -0.06387894 -0.27723336 0.026994007 -0.20742467
000330 97 92 7e be ec 4d 8f 3d cf 27 44 be 4d 85 93 bd
       -0.24860607 0.06997284 -0.19155811 -0.072031595
000340 a3 04 17 be 09 22 1f bd f6 b5 bd 3e cf 0e 4b bd
       -0.14747863 -0.038850818 0.37052888 -0.04957467
000350 67 20 2e bd 50 bb c4 bd f5 ec 64 3d 20 98 41 bd
       -0.04251137 -0.096060395 0.055890042 -0.04726422
000360 8c cf 4d bb 51 6f eb bd 93 80 ab bd dc 3d e8 bd
       -0.0031404225 -0.11495841 -0.08374133 -0.11339924
000370 4a b8 4d be e4 fd 63 3e 01 e4 93 bd c9 08 81 be
       -0.20089832 0.2226482 -0.07221223 -0.25202015
000380 28 16 7e bc 2c 06 7b be 3a 2e dc 3d 2d 41 23 be
       -0.015508212 -0.24514073 0.107510045 -0.15942831
000390 c3 36 71 bc 6a 40 7f be ba 5b 4c 3c 12 df 51 be
       -0.014722529 -0.24926916 0.012473041 -0.20495251
0003a0 fe 2e 15 be 20 e3 ac bd d5 33 28 be 85 11 f1 bd
       -0.14568707 -0.08441758 -0.16426022 -0.1177092
0003b0 44 4f 8d be f7 3e ea 3d e3 01 b7 bd 72 06 3e bc
       -0.27599537 0.11437791 -0.08935907 -0.011598216
0003c0 f2 ed 31 3e 1b 47 e2 bd 01 74 cd bd e9 01 4c bd
       0.17375925 -0.110487185 -0.100318916 -0.04980651
0003d0 aa a6 86 bd b5 e5 53 be 83 a5 c7 be ad 9d 38 bd
       -0.065747574 -0.20693095 -0.38993463 -0.045072246
0003e0 02 0a c2 be 7d a0 8f 3e fc 82 01 3e a8 7f 81 3d
       -0.3789826 0.2805213 0.12647623 0.063231766
0003f0 26 60 d0 bd fc 91 25 3f ac 5b e3 3d f1 8f b6 be
       -0.10174589 0.6467588 0.111014694 -0.35656694

bias f4 [60]
000000 fa 5e 5d bf f0 48 37 bf 4e 16 39 40 4f 78 45 be
       -0.8647305 -0.7159567 2.8919864 -0.19284175
000010 f3 ea 99 bf bf 09 f3 bf 22 af 2e bf ad 11 1d bf
       -1.2024826 -1.8987349 -0.6823598 -0.61355096
000020 f5 96 45 bf 1d 44 ac c0 1f f6 26 c0 d2 a9 84 bf
       -0.7718347 -5.3833146 -2.608772 -1.0364325
000030 69 ad 9c bf e8 b2 fb be 09 fd 92 be 4c e5 c5 be
       -1.224042 -0.49159932 -0.28708676 -0.38651502
000040 a2 6a 0e c0 a6 b2 b4 bf 28 1a c8 c0 69 2e d4 bf
       -2.2252584 -1.4117019 -6.253193 -1.6576663
000050 9f a7 91 be 7d 43 9c be 7d 77 01 be 59 50 cf bf
       -0.28448197 -0.3052024 -0.12643237 -1.6196395
000060 37 1b 5e bf aa 2b 17 be 11 3c 8a bf 18 e7 6c bf
       -0.86760277 -0.1476275 -1.0799581 -0.9254012
000070 b2 8e 11 bf 98 f7 0a bf c3 13 af be d9 ad b7 bf
       -0.5685836 -0.5428405 -0.34194764 -1.4349929
000080 51 e9 44 be 88 ba ad 3f c7 55 a8 bf 50 47 02 bf
       -0.19229628 1.357255 -1.3151177 -0.50890064
000090 45 1f 95 bf b8 d2 0a c0 02 49 22 3f 3a 3e a9 be
       -1.1650168 -2.1691113 0.6339265 -0.33055288
0000a0 d3 88 34 bf a5 11 5b 3f 63 a6 5c c0 c5 46 96 c0
       -0.7052128 0.855738 -3.4476554 -4.696139
0000b0 22 70 89 bf c2 a9 18 bf 21 d2 b5 bd cb 5a fe bf
       -1.0737345 -0.5963403 -0.088779695 -1.9871458
0000c0 d9 8b 29 bf d3 73 bf be 7e 70 9d bf 97 ef 61 be
       -0.66229016 -0.37393054 -1.2299955 -0.22064053
0000d0 59 cf 6e bf d3 61 a1 be 87 5e a5 c0 82 b0 b8 be
       -0.9328514 -0.31519946 -5.167789 -0.36072165
0000e0 5a b1 6a 3e de 2e b0 bf 32 a4 30 c0 11 ff 54 bf
       0.22919217 -1.3764303 -2.7600217 -0.832017

weight f4 [10, 60]
000000 49 93 7c bf 9f 35 11 bd 98 e0 53 bf cf 84 b9 be
       -0.9866224 -0.035451528 -0.8276458 -0.36234137
000010 ac df 98 bf 5c 9d cd bf ee 33 63 bf d8 83 96 be
       -1.1943259 -1.6063647 -0.88751113 -0.29397464
000020 7f a6 1c bf 9a 57 7d bf c9 f5 b9 bf ca 19 b2 be
       -0.6119155 -0.98961794 -1.4528133 -0.347853
000030 a6 77 da 3d 8f 86 b8 be 6e 54 b9 bd 6c 09 cc be
       0.106673524 -0.3604016 -0.09049307 -0.39850938
000040 5b 7e d4 bf fe 4b a2 bf 7d 98 d1 be 32 bb 7c 3e
       -1.6601061 -1.2679441 -0.40936652 0.24680784
000050 89 1e 79 bd 29 30 96 3d 14 c4 a9 3e b7 d8 55 bf
       -0.060820136 0.073334046 0.33157408 -0.83533806
000060 d4 24 e2 be 3a b4 88 bb d0 a9 f8 be a3 a3 05 be
       -0.44168723 -0.0041718753 -0.48567057 -0.13050704
000070 41 0b 9e be 02 b9 f9 be 01 62 29 be c2 bb 58 be
       -0.3086796 -0.48773962 -0.16541292 -0.21165374
000080 78 33 96 3d 1f 02 30 bf ea 84 21 be 76 0b d8 bd
       0.07334036 -0.68753237 -0.15773359 -0.10549061
000090 de ac 43 bf 95 f9 c1 bf b1 28 7d c0 ee 17 10 be
       -0.7643565 -1.5154291 -3.9556086 -0.14071628
0000a0 34 03 92 be cf 2e 05 c0 18 5e 6a bd 9d f9 0f 3f
       -0.2851807 -2.080982 -0.05721864 0.56240255
0000b0 b0 ff 0e c0 f4 63 a9 be e6 f0 3c bf 5e 6d 31 bf
       -2.234356 -0.3308407 -0.7380508 -0.69307506
0000c0 7b 7b ee be 34 b1 db 3d e8 14 c5 be 7e 39 f8 bd
       -0.46578583 0.10727158 -0.38492513 -0.12120341
0000d0 91 31 52 bf 87 c7 29 3e 32 33 85 bf f0 10 07 3e
       -0.8210688 0.1658002 -1.0406249 0.13190055
0000e0 0f 1d 43 c0 40 45 87 bf 2f e2 56 bf 96 50 40 be
       -3.0486486 -1.0568008 -0.8393888 -0.18780741
0000f0 45 30 9d bf e9 2a d6 3c f9 d0 85 c0 08 78 1b bf
       -1.2280356 0.026143508 -4.1817594 -0.6073003
000100 3a 87 0d bf 64 c0 df be 25 b1 05 bf a2 1d ea be
       -0.55284464 -0.4370147 -0.52223426 -0.45725733
000110 5b fa 8b 3d 85 81 eb 3c c6 6b 8d c0 4b 94 26 bf
       0.06834861 0.028748283 -4.419406 -0.6507003
000120 59 47 37 3e f7 c6 30 3d fa ef 43 be 91 6b 49 bf
       0.1789831 0.043158498 -0.19134513 -0.7867976
000130 63 a6 9c c0 23 38 ce be bc 15 68 be 9d 41 99 3e
       -4.895311 -0.40277204 -0.22664541 0.2993287
000140 b5 87 a7 be 42 b9 8c 3c 4f fb 76 be bb 16 c7 bf
       -0.32720724 0.017178182 -0.24119304 -1.5553812
000150 3b 42 31 bf 02 00 06 be c1 34 98 bf c5 8d cc bd
       -0.69241685 -0.1308594 -1.1891099 -0.09987978
000160 52 76 a7 be 84 f5 11 c0 b2 11 8d bd aa 13 f2 bf
       -0.3270746 -2.28061 -0.06888141 -1.8912251
000170 25 fb fb bd a8 ef d6 3d db 97 87 3e 91 b5 4e bf
       -0.123037614 0.104949296 0.26483044 -0.807458
000180 5a ab de c0 b2 70 c7 c0 08 c8 48 c0 51 fb a4 be
       -6.958417 -6.2325068 -3.137209 -0.3222299
000190 4e 0c 2d be 22 a3 f5 c0 e7 4c 0a bf 29 5a 50 3f
       -0.16899225 -7.6761637 -0.54023594 0.81387573
0001a0 58 64 95 bf 0c 85 5e bf 91 2e 27 c0 b7 3f a6 bf
       -1.1671247 -0.86921763 -2.6122172 -1.2988194
0001b0 56 24 26 be 5d 02 85 bc e7 3e 53 be 3f f8 45 bd
       -0.16224799 -0.016236478 -0.20629464 -0.04833245
0001c0 ce 4b 24 bf 25 a4 4c be d6 56 2d bf a2 1c fd bd
       -0.6417817 -0.19984491 -0.67710626 -0.12358977
0001d0 b8 d6 ad c1 ae 36 51 c0 b1 8f e3 3d ef 5e 02 bf
       -21.729843 -3.2689624 0.11111391 -0.5092611
0001e0 84 d3 48 be f2 8f 64 be 4e bd c3 c0 e4 8c 79 be
       -0.19611937 -0.22320536 -6.1168585 -0.24370152
0001f0 bd 2d 48 3e ac c2 08 c0 08 66 62 c1 e4 9c 08 3e
       0.19548698 -2.1368818 -14.14991 0.13341099
000200 1f b5 13 bf 30 16 33 3e 17 5a 1a be c3 84 86 bf
       -0.57698244 0.17488933 -0.15073429 -1.0509266
000210 b0 30 2a bf bc 89 03 bf 43 4a 86 3e a5 8d 13 be
       -0.6648054 -0.5138204 0.26228532 -0.14409502
000220 f4 1a 73 bf d8 f9 d6 3e 78 c0 94 c0 14 73 f5 be
       -0.94963 0.4198749 -4.6484947 -0.4793936
000230 dd 83 d0 bd f6 24 ee bd f5 67 88 bd 83 a9 0a c0
       -0.10181401 -0.116281435 -0.06660453 -2.1665962
000240 52 27 4a be a3 a0 17 bf c2 3e 18 bf f1 01 af be
       -0.19741562 -0.5922949 -0.5947076 -0.3418117
000250 e2 62 8a be ba 6e db bf 6e 43 3c bd 96 93 87 c0
       -0.27028567 -1.7143166 -0.045962743 -4.236766
000260 56 f8 dd 3d 97 0f 76 c0 7f 96 4b 3d 1e 4e 16 bf
       0.10838382 -3.8447015 0.04970407 -0.5871295
000270 3e 70 b5 c0 88 eb 1e bf 47 9f 01 bf 42 b6 03 3e
       -5.6699514 -0.6207814 -0.5063366 0.12862495
000280 9e a4 e1 be 88 25 86 bf 99 50 e6 bf 9d 2e 0b bf
       -0.44070905 -1.0480204 -1.7993346 -0.54368
000290 3f 4e 37 bf 06 f9 2e 3f 40 8c b4 c0 84 2a c3 be
       -0.7160377 0.6834873 -5.6421204 -0.38118374
0002a0 a5 2d 12 3d 4e 61 02 3d 5b e2 03 bd f3 55 03 bd
       0.03568806 0.03183108 -0.03219829 -0.03206439
0002b0 34 f7 63 bf 04 fe 62 3b c3 1d b4 bf d9 f8 1c be
       -0.8904908 0.0034636268 -1.4071583 -0.15329303
0002c0 ac 30 12 c1 7e 31 35 c0 58 69 dc bf 82 cd d1 be
       -9.136883 -2.8311458 -1.7219648 -0.40977103
0002d0 0a 71 87 be 65 6a 2f 3c 12 f5 d9 c0 1c 85 6a be
       -0.2645343 0.010706519 -6.811166 -0.2290234
0002e0 20 f6 54 be 65 34 a0 bf 3a c9 5f c0 4f f9 8d be
       -0.20797014 -1.251599 -3.496657 -0.2772927
0002f0 6a 40 90 bd 4f 99 e4 be 14 ec 91 bf 8e df 97 3d
       -0.07043536 -0.44648215 -1.140017 0.074156865
000300 1c 3c 8d 3d d8 cf fc bd f6 3a 81 bd df 59 a6 3e
       0.068962306 -0.123443305 -0.06310074 0.3249044
000310 d5 1c 82 bf f4 30 00 bf b5 9d 76 bf 44 f9 27 be
       -1.0165049 -0.50074697 -0.9633439 -0.16403681
000320 0d 96 84 bd f1 00 16 be a5 c3 4e 3d 02 46 a0 bf
       -0.064739324 -0.14648797 0.05047955 -1.2521365
000330 89 52 93 be 90 22 21 be dd 8a c9 bd 0e 99 64 be
       -0.28773907 -0.15735841 -0.09840939 -0.2232401
000340 83 69 27 3e 9d 8d e3 bf 99 19 02 bf 77 b1 a9 be
       0.16348843 -1.7777592 -0.5082031 -0.33143207
000350 c1 74 9a 3d 57 c2 9f c0 40 8d f9 bd d4 32 3c bf
       0.075418 -4.992473 -0.121851444 -0.7351506
000360 8b e6 62 bf 2a da c2 bf d7 5d c0 be 02 1e 5d 3a
       -0.8863303 -1.5222828 -0.37571594 0.00084349525
000370 52 fd 43 bf ef b3 8b bf cf 9f 20 be ba ee 8e ba
       -0.7655841 -1.0914286 -0.15685962 -0.0010904886
000380 d2 d4 e5 be 5c 14 53 3e 5c fa e1 bf d9 3a 0b bf
       -0.44888932 0.20613235 -1.7654529 -0.5438667
000390 43 26 cb 3d 38 06 3a be 17 69 1d 3e 28 44 d4 3d
       0.09919407 -0.18166435 0.1537212 0.10364562
0003a0 1e cd 0b c0 37 cd 42 bd cb 0f a9 3e c2 3f bb 3d
       -2.1843944 -0.04755899 0.33019862 0.0914302
0003b0 c5 82 a7 c0 9a aa 95 be 98 1e 0a bf 83 8c cd be
       -5.234713 -0.2923172 -0.5395293 -0.40146264
0003c0 af 79 ed bd 6f 30 19 3e dc 6b 53 c0 e0 50 11 be
       -0.11595475 0.14959882 -3.3034582 -0.14191008
0003d0 b7 0f 59 bf f8 c3 dd bf 2d b0 0e 3e 46 ff 2c bf
       -0.84789604 -1.732543 0.13934393 -0.67577016
0003e0 4c 1a c5 3d f2 89 45 c0 a4 87 64 c0 02 b3 33 bf
       0.09624156 -3.0865445 -3.5707788 -0.7019502
0003f0 46 0f 43 3d d8 fe 07 bf 5e 8c c2 bd a2 ce 4d bf
       0.047621988 -0.53123236 -0.09499429 -0.8039342

bias f4 [10]
000000 ed 13 11 40 62 8c 66 be 2f 9d 19 3f 10 c7 05 bb
       2.2668412 -0.2251449 0.6000547 -0.002041284
000010 a3 e8 44 bf 29 b4 0b bf 9c 6c 82 bf dc 5f 13 c0
       -0.76917475 -0.5457178 -1.0189395 -2.3027258
000020 3a c1 33 bf 81 52 09 c0
       -0.70216715 -2.1456606
