NN Real data/final_trained_models/KTPM/KTPM1.pth (torch, 55855 bytes, 10 tensors)

weight f4 [60, 20]
0	0x3e4c54a9	0.1995417
1	0x3f90d2cd	1.1314331
2	0xbf604d71	-0.87618166
3	0x3eece51c	0.46268547
4	0x3fb57089	1.4174968
5	0xbf234854	-0.6378224
6	0xbde21311	-0.11038793
7	0x3f25c200	0.64749146
8	0xbf3e104e	-0.7424363
9	0xbe8314d6	-0.25601834
10	0x3ed0018f	0.4062619
11	0xbf1aa81d	-0.6041277
12	0xbe151150	-0.14557385
13	0xbf25281c	-0.6451433
14	0xbf122816	-0.57092416
15	0x3f72adad	0.9479626
16	0xbef8f28f	-0.48622558
17	0xbf44cb4e	-0.7687272
18	0x3eb46f9a	0.35241395
19	0xbdb9433a	-0.090460256
20	0xbf03db4e	-0.5150651
21	0xbfbe5441	-1.4869462
22	0x3f65577c	0.89586616
23	0x3e6a900c	0.22906512
24	0xbc27860a	-0.0102248285
25	0x3eb8631c	0.36013114
26	0xbeefc89e	-0.46832746
27	0x3dd11daa	0.10210736
28	0xbf20af7c	-0.6276777
29	0xbf0c7004	-0.5485842
30	0x3e67fa1a	0.22654
31	0xbf68f292	-0.9099513
32	0xbc906f8a	-0.017631311
33	0xbe911cee	-0.28342384
34	0xbe165310	-0.14680123
35	0x3f95a909	1.169221
36	0xbf100f3c	-0.56273246
37	0x3d85f480	0.06540775
38	0xbef7a444	-0.48367512
39	0x3ebe5388	0.37173104
40	0x3e8d26a2	0.27568537
41	0xbf9498b1	-1.1609098
42	0xbf9e74d7	-1.2379407
43	0x3e9174c4	0.28409398
44	0x3f38746f	0.72052664
45	0xbd75599d	-0.059899915
46	0xbf831384	-1.0240331
47	0xbfa086d5	-1.2541147
48	0x3e891e16	0.26780766
49	0x3f4f4d94	0.8097775
50	0x3eadf941	0.33979228
51	0xbe884b87	-0.26620123
52	0xbed3fb28	-0.41402555
53	0x3e925383	0.2857934
54	0x3e516e54	0.20452243
55	0xbe82cd3c	-0.25547206
56	0x3e67d848	0.22641098
57	0x3e438333	0.19093017
58	0x3f1071d5	0.56423694
59	0xbf321d26	-0.69575727
60	0x3ed93d18	0.42429423
61	0xbf07d4ce	-0.5305909
62	0x3f249bec	0.6430042
63	0xbf1418f7	-0.57850593
64	0xbff6d02c	-1.9282279
65	0xbe46bc27	-0.19407712
66	0x3fabb98f	1.3416003
67	0x3e37f3ba	0.17964068
68	0x3e7285c8	0.23683846
69	0xbec66331	-0.38747552
70	0xbeb90bc1	-0.3614178
71	0x3fb80eaa	1.4379475
72	0x3e928db9	0.2862375
73	0xbd891482	-0.06693365
74	0xbd3e51f2	-0.046464868
75	0xbe8b3ed6	-0.27196378
76	0x3f51e812	0.81994736
77	0x3d379047	0.044815328
78	0xbf8b4844	-1.0881429
79	0x3f065cce	0.5248536
80	0xbf09175c	-0.5355127
81	0x3eed7595	0.4637877
82	0x3f025299	0.50907284
83	0x3e7d577e	0.24740407
84	0xbf596f05	-0.8493503
85	0x3e64e3a5	0.22352464
86	0x3f158392	0.58403885
87	0x3f1abaa3	0.60441035
88	0xbe8e1a75	-0.2775456
89	0x3f10961c	0.5647905
90	0xbeb39200	-0.35072327
91	0x3ef31b8f	0.47481963
92	0x3f2ae070	0.66748714
93	0xbf80e64d	-1.0070282
94	0x3ee3ceb0	0.44493628
95	0x3e9581ec	0.29200685
96	0x3f3a5ff2	0.7280265
97	0x3f4125f9	0.75448567
98	0xbfc10205	-1.5078741
99	0x3f3d1e79	0.7387462
100	0x3f45d6bd	0.7728079
101	0xbf564e0b	-0.83712834
102	0x3f8a5b6b	1.0809149
103	0xbf009d95	-0.5024045
104	0xbffd201a	-1.9775422
105	0xbe203dc5	-0.15648563
106	0xbbb9f284	-0.005674662
107	0x3eae0123	0.33985242
108	0x3f762902	0.9615632
109	0xbf916e4c	-1.1361785
110	0xbe7c0d88	-0.24614537
111	0xbed14d76	-0.4087941
112	0x3ed23e1c	0.4106301
113	0x3da6e14e	0.08148442
114	0xbf187370	-0.59551144
115	0x3e52b01b	0.20574991
116	0xbf569933	-0.83827513
117	0x3e7a754e	0.2445881
118	0x3f6ea6da	0.93223345
119	0xbf355cba	-0.70844615
120	0xbe3f803d	-0.18701263
121	0xbf99afd1	-1.200678
122	0x3e38b1c7	0.18036567
123	0x3f8fcdc4	1.123467
124	0x3eab75a5	0.33488193
125	0xbec92b26	-0.39290732
126	0x3f6be836	0.921512
127	0x3e841f84	0.25805295
128	0x3e9fccc0	0.312109
129	0xbe38b80e	-0.18038961
130	0xbf02d79f	-0.5111026
131	0x3f72544f	0.94659895
132	0x3f64b053	0.8933155
133	0x3e884240	0.26613045
134	0xbefd3981	-0.49457934
135	0x3dd8518a	0.10562427
136	0x3f850b5a	1.0394089
137	0x3ead9c87	0.33908483
138	0x3ddf26cd	0.108960725
139	0xbee4f921	-0.4472132
140	0xbf07b4f9	-0.5301052
141	0x3f95c3d7	1.170039
142	0x3fb77e11	1.4335347
143	0x3ef78463	0.4834319
144	0xbf977c18	-1.1834745
145	0xbd8e67d2	-0.06953396
146	0x3f8830e9	1.0639926
147	0x3f3f542f	0.7473783
148	0x3f528084	0.8222735
149	0xbf1aebb4	-0.60515904
150	0xbdda8131	-0.106691726
151	0x3f5d32ec	0.86405826
152	0x3f1627ae	0.58654296
153	0x3d651808	0.05593112
154	0xbfab1910	-1.3367023
155	0x3e1de47d	0.15419193
156	0x3f908dce	1.1293275
157	0x3ecfc816	0.4058234
158	0x3ed56d3c	0.41684902
159	0xbf7e2a34	-0.99283147
160	0x3f2a1c9a	0.6644989
161	0x3fcc37ea	1.5954564
162	0xbdbfd6d2	-0.093671456
163	0xbf67512e	-0.90358245
164	0x3f31bab3	0.69425505
165	0x3ea12b9d	0.31478587
166	0xbf1da83b	-0.61584824
167	0x3d9816ec	0.07426247
168	0xbeacf069	-0.33777168
169	0x3e21ff1e	0.15819976
170	0xbe94730e	-0.2899403
171	0xbea64793	-0.32476482
172	0xbe128aa3	-0.14310698
173	0xbd230941	-0.039803747
174	0xbdc20eb7	-0.09475463
175	0xbf3a6214	-0.72805905
176	0x3da5fe1f	0.081051104
177	0xbeba320d	-0.3636631
178	0xbddd8d15	-0.10817925
179	0xbf3df4fd	-0.7420195
180	0x3f89ca76	1.0764911
181	0x4078905c	3.883811
182	0xbf1b3bdd	-0.6063822
183	0x3e6ab008	0.22918713
184	0x3faa8664	1.3322263
185	0xbdd19108	-0.10232741
186	0x3f7a68e6	0.9781631
187	0xbc59fc40	-0.01330477
188	0xbcdc701d	-0.026908929
189	0xbedf02a2	-0.43556696
190	0xbdde066e	-0.1084107
191	0x3f259751	0.64684016
192	0xbd9792a7	-0.074010186
193	0xbe29947c	-0.16560549
194	0xbef7b248	-0.48378205
195	0xbf2a64d1	-0.66560084
196	0x3c32f8b1	0.01092355
197	0x3f27f807	0.65612835
198	0xbe546748	-0.20742524
199	0xbef59cb6	-0.47971123
200	0x3e54bdab	0.20775478
201	0xc0038d83	-2.0555122
202	0xbec49b3c	-0.38399684
203	0xbfac9b96	-1.3484981
204	0xbed92f72	-0.4241901
205	0xbeb0d3cc	-0.34536588
206	0xbeaf239e	-0.3420686
207	0x3ebaeebe	0.3651027
208	0xbeebfb48	-0.4609015
209	0xbde3d590	-0.11124718
210	0x3e06bcd3	0.13157968
211	0x3e8cc50d	0.27494088
212	0x3e01c86d	0.12674113
213	0x3eef6eca	0.46764213
214	0x3e92c7be	0.28668016
215	0x3df93cee	0.121698245
216	0x3f2d56b7	0.6771044
217	0x3e6ed23b	0.23322384
218	0x3f53ab09	0.82682854
219	0x3f232866	0.6373352
220	0xbfadff6b	-1.3593572
221	0x3f4425c4	0.76620126
222	0x3f00c518	0.5030074
223	0x3f094782	0.5362474
224	0x3eca2bba	0.39486486
225	0x3ed9df39	0.42553118
226	0x3dca7add	0.098867156
227	0xbe01634f	-0.1263554
228	0xbdb38894	-0.087662846
229	0x3e471913	0.19443159
230	0x3d0b68fc	0.034035668
231	0xbf0c52ef	-0.54814047
232	0xbf0aaa94	-0.5416653
233	0xbcd93011	-0.026512178
234	0xbe353e37	-0.17699514
235	0x3e5106a0	0.20412683
236	0xbf628f21	-0.8849965
237	0x3d94109a	0.07229729
238	0xbe970e92	-0.29503304
239	0xbf103edd	-0.5634592
240	0x3fa0729f	1.253498
241	0xbff204e3	-1.8907741
242	0xbeaf213e	-0.3420505
243	0x3f8e0598	1.1095457
244	0xbe923168	-0.2855332
245	0xbeca97ac	-0.3956884
246	0x3ee54b60	0.4478407
247	0x3ece8fc2	0.40344054
248	0x3e243bf7	0.160385
249	0xbeb87d41	-0.3603306
250	0xbefa81f0	-0.4892726
251	0x3ee382c7	0.44435713
252	0x3ea3b33c	0.31972682
253	0x3d9ad243	0.075596355
254	0xbcb34375	-0.021882752
255	0xbf082f86	-0.53197515

bias f4 [60]
0	0x3cd7309d	0.026268298
1	0x3ddc1518	0.10746211
2	0x3e5d837c	0.21632189
3	0xbe078260	-0.13233328
4	0xbe60fa7c	-0.21970552
5	0xbdf9f84b	-0.12205561
6	0xbde696b8	-0.11259216
7	0x3d946e0c	0.07247552
8	0xbbd2a50f	-0.006428368
9	0xbd1c390d	-0.038140345
10	0x3d92ff53	0.071776055
11	0xbdc0b6a4	-0.09409836
12	0x3d2b526d	0.041826654
13	0x3cd376ae	0.025813427
14	0xbd881eb3	-0.066464804
15	0x3c9f6fa7	0.01946242
16	0xbd7ddde0	-0.061979175
17	0x3cb83ec4	0.022490866
18	0xb983fdbc	-0.00025175314
19	0x3d89c64d	0.06727276
20	0xbe6ee65f	-0.23330067
21	0xbe63bd37	-0.22240148
22	0xbe350fea	-0.17681852
23	0xbd11c402	-0.03558732
24	0xbdbeb0a6	-0.09311037
25	0x3de69a81	0.11259938
26	0x3e1c6cf0	0.15275931
27	0xbe915c02	-0.2839051
28	0xbca39e34	-0.019972898
29	0x3cdb9728	0.026805475
30	0xbd61dcf7	-0.05514237
31	0x3e01ccee	0.1267583
32	0x3b4c1310	0.0031139292
33	0x3e248a4e	0.16068384
34	0xbda4afe6	-0.080413625
35	0xbe13a5ed	-0.14418764
36	0x3db80df7	0.089870386
37	0xbc9f40ea	-0.019440133
38	0x3d882e3f	0.06649446
39	0xbcac268b	-0.021014472
40	0xbdb2c96c	-0.087298244
41	0x3db09507	0.08622175
42	0x3d73ee51	0.059553448
43	0x3e45c736	0.19314274
44	0x3d2b1403	0.04176713
45	0xbca45281	-0.020058872
46	0xbcaad432	-0.020853136
47	0x3b20d5db	0.002454153
48	0xbed31261	-0.4122496
49	0xbdf9c8c7	-0.12196498
50	0x3d879a2c	0.06621203
51	0xbe50aeb0	-0.20379138
52	0xbf1c793d	-0.61122495
53	0xbcbd75dd	-0.02312749
54	0x3b34d4f0	0.002759274
55	0xbd0cba11	-0.034357134
56	0xbe27a911	-0.16373087
57	0x3c7a150f	0.01526381
58	0xbdfae6ae	-0.1225103
59	0xbd77f8d2	-0.060540028

weight f4 [60, 60]
0	0xbdd77b55	-0.105215706
1	0xbd0643cd	-0.032779504
2	0x3c21fdb9	0.009887152
3	0xbc06fa6a	-0.008238414
4	0xbe0a084c	-0.13479728
5	0x3db3a626	0.08771925
6	0xbd819b93	-0.063285016
7	0xbdc556cc	-0.09635696
8	0x3d3c1913	0.04592235
9	0xbdb5b124	-0.088716775
10	0xbc2099a1	-0.009802253
11	0xbb9c3e55	-0.0047681727
12	0x3d9d44a8	0.07679111
13	0xbc6a3327	-0.014294422
14	0xbe003bb3	-0.12522773
15	0x3cccfb98	0.025022313
16	0x3cd269b8	0.025685176
17	0x3dc85ba2	0.097831026
18	0xbd7251b0	-0.059159935
19	0x3d807d64	0.06273916
20	0xbdccfded	-0.1000937
21	0x3d411425	0.047138352
22	0xbd96a5ca	-0.073558405
23	0x3cfee242	0.031113748
24	0xbe0248ee	-0.12723133
25	0xbdb8c5c2	-0.09022094
26	0xbbc4d01e	-0.006006255
27	0x3d65f08c	0.056137607
28	0xbd30cb38	-0.043162555
29	0xbda3d4ee	-0.079995975
30	0x3ddd5cb2	0.10808696
31	0xbd06659a	-0.03281174
32	0xbdb083ec	-0.08618912
33	0x3d7902e7	0.060793784
34	0xbd870ace	-0.06593858
35	0xbe16848b	-0.14698999
36	0xbd8b6c5a	-0.06807776
37	0xbe1aa50e	-0.15102026
38	0x3c1f85b5	0.009736468
39	0xbe1253a0	-0.14289713
40	0x3b8b2b87	0.004247132
41	0xbe11a942	-0.14224723
42	0x3d8c75bc	0.068583935
43	0xbc3b4d90	-0.011432067
44	0xbd7c5407	-0.061603572
45	0xbdb750c3	-0.08950951
46	0xbde01616	-0.109417126
47	0x3ca1554c	0.019693993
48	0x3de1fdc8	0.11034733
49	0xbdd9be25	-0.1063197
50	0x3daf3b37	0.08556216
51	0x3d0065a2	0.031346925
52	0xbbc863b1	-0.0061153998
53	0xbe02c78a	-0.1277143
54	0xbd0831fa	-0.033250786
55	0xbd68fc32	-0.056881137
56	0xbe2a9718	-0.166592
57	0x3d384c48	0.044994622
58	0xbda8fb16	-0.08251016
59	0x3d0042fa	0.031313874
60	0xbf46473e	-0.77452457
61	0x3e8c646b	0.27420363
62	0x3f092a85	0.53580505
63	0x3eaca1a7	0.3371708
64	0x3f12e087	0.5737385
65	0xbdd61cab	-0.10454687
66	0x3edc272a	0.4299863
67	0x3dc906e7	0.0981577
68	0xbf1a784b	-0.603398
69	0xbfd412bf	-1.6568221
70	0xbe0c6021	-0.13708545
71	0x3d687ae3	0.05675782
72	0x3f887848	1.0661707
73	0xbd95bc33	-0.07311287
74	0x3ddaa2d8	0.10675591
75	0x3cf0b660	0.029383838
76	0xbf5adf9d	-0.85497457
77	0x3ebd12e3	0.36928472
78	0xbe38b654	-0.18038303
79	0xbf51a0ca	-0.8188597
80	0x3eea319f	0.45740983
81	0x3e6d5cfe	0.23180005
82	0x3f3ae171	0.73000246
83	0xbf613367	-0.8796906
84	0x3f59e847	0.8512005
85	0xbe6fb423	-0.2340856
86	0xbfc7c1e8	-1.560605
87	0xbe9c1001	-0.3048096
88	0x3ee31ac5	0.4435636
89	0x3b70c2ee	0.003673728
90	0x3d88952c	0.06669077
91	0x3ec01eec	0.37523592
92	0x3fa182c1	1.2618028
93	0xbe49baf5	-0.19700225
94	0x3efbac76	0.49155015
95	0xbf20539a	-0.62627566
96	0x3f9cbe29	1.2245532
97	0x3f1ca430	0.6118803
98	0xc014a096	-2.3223014
99	0x3cb50647	0.02209772
100	0xbce0ce52	-0.027442131
101	0x3ed401ee	0.41407722
102	0x3ee13152	0.4398294
103	0xbe9858d3	-0.29755268
104	0x3cdb879c	0.026798062
105	0x3e790634	0.24318773
106	0xbe6bef47	-0.23040496
107	0xbd860558	-0.06543988
108	0x3f28c123	0.65919703
109	0xbeefe1e5	-0.4685203
110	0xbea90c3e	-0.33017153
111	0x3f5688d0	0.8380251
112	0x3db83699	0.08994789
113	0xbe6dff7a	-0.23241988
114	0xbe37594b	-0.17905156
115	0xbebb56b3	-0.36589584
116	0xbe85b174	-0.26111948
117	0x3fa1aa1c	1.2630038
118	0x3ef8b9f5	0.48579374
119	0x3f3ac599	0.7295776
120	0xbf2d0fcb	-0.67602223
121	0xbf100ae4	-0.5626662
122	0x3e88d9f9	0.267288
123	0xbf25156f	-0.6448583
124	0xc045eb27	-3.0924776
125	0x3d8cdde4	0.0687826
126	0xbe70864e	-0.23488733
127	0xbf2460a2	-0.6420995
128	0xbec66f90	-0.3875699
129	0x3f41c65f	0.75693315
130	0x3b446941	0.0029969963
131	0x3d895622	0.06705882
132	0xbea9d0f1	-0.33167222
133	0x3eef956d	0.4679369
134	0xbd20082b	-0.03907029
135	0x3fd054eb	1.6275915
136	0x3f39b418	0.72540426
137	0x3f3ad775	0.7298501
138	0xbf68d2db	-0.9094674
139	0xbf07f4e2	-0.53108037
140	0x3e5954a4	0.21223694
141	0x3a9b5aca	0.0011852619
142	0x3e74fc65	0.23924406
143	0x3eee535f	0.46547982
144	0x3ef8b600	0.48576355
145	0x3f809e8f	1.0048388
146	0xbf33948a	-0.7014853
147	0x3e6f7ce5	0.23387487
148	0x3dec6839	0.115433164
149	0xbdca1afb	-0.09868427
150	0x3e4208db	0.1894869
151	0x3f97c6ce	1.1857545
152	0xbe446895	-0.1918052
153	0xbfcf2611	-1.6183492
154	0xbea822e1	-0.3283911
155	0x3f190677	0.5977549
156	0x3fb46226	1.4092453
157	0xbe93436b	-0.28762373
158	0xbfbce05a	-1.4755967
159	0xbe08e6cd	-0.13369294
160	0x3df54420	0.119758844
161	0x3eb4ab67	0.3528702
162	0x3ed33a07	0.4125521
163	0xbf89c209	-1.076234
164	0xbfb06ca8	-1.3783159
165	0x3f00aa86	0.502602
166	0x3f197197	0.5993895
167	0x3d357982	0.044305332
168	0x3e9accbe	0.3023433
169	0x3ebee2b7	0.37282345
170	0xbf67ae17	-0.90500015
171	0xc015242a	-2.3303323
172	0x3f21725d	0.6306513
173	0x3d6a17ba	0.057151534
174	0x3ecd3b80	0.40084457
175	0x3ecc2c84	0.39877713
176	0x3e89b68a	0.2689708
177	0x3ea76f33	0.32702026
178	0x3f6f4809	0.9346929
179	0x3dfc044a	0.123055056
180	0xbebab614	-0.3646704
181	0xbf104e7e	-0.5636977
182	0xbd827eb4	-0.06371823
183	0x3f075d01	0.5287629
184	0xbe0588fb	-0.13040535
185	0x3eaa1520	0.33219242
186	0x3db7c7bc	0.08973643
187	0xbebb4a2a	-0.3658002
188	0x3d076677	0.033056702
189	0xc01413f8	-2.3137188
190	0x3e159a84	0.14609724
191	0xbeaa3191	-0.3324094
192	0x3ff6b761	1.9274713
193	0xbf055b73	-0.52092665
194	0x3f1775c4	0.5916407
195	0x3f32843c	0.69733024
196	0xbf1893c8	-0.59600496
197	0xbe1f45aa	-0.15553918
198	0xbe45af8d	-0.19305249
199	0xbed68d68	-0.4190476
200	0x3eea7233	0.45790252
201	0xbe217ecb	-0.15771024
202	0x3dc61369	0.09671671
203	0xbdc9bf88	-0.09850985
204	0x3e2a19f0	0.16611457
205	0xbedb9a31	-0.42891076
206	0xbf1809b4	-0.59389806
207	0xbf6263f8	-0.8843379
208	0xbe21789b	-0.15768664
209	0x3bff478a	0.0077905105
210	0xbe914826	-0.28375357
211	0x3ecbb0a0	0.39783192
212	0x3f57c9be	0.8429221
213	0x3ebf2999	0.37336424
214	0x3cef0dbc	0.029181354
215	0x3d851919	0.064989276
216	0x3dc7b7f8	0.09751886
217	0xbe0c0536	-0.13673863
218	0xbe5a3488	-0.21309102
219	0x3f4b93bc	0.795223
220	0xbeb641f8	-0.35597205
221	0xbeabe728	-0.33574796
222	0x3f0cc00a	0.5498053
223	0xbfa74c85	-1.3070227
224	0x3e288997	0.16458736
225	0x3e458627	0.19289456
226	0xbf6382bb	-0.88871354
227	0x3eb7cf83	0.35900506
228	0x3d48346e	0.048878126
229	0xbe3d61be	-0.18494317
230	0x3f1f5fb7	0.62255424
231	0x3e90e76c	0.2830156
232	0x3db5b644	0.08872655
233	0xbe152980	-0.14566612
234	0x3d45e43e	0.04831337
235	0x3e32c549	0.17458071
236	0x3f2bf08a	0.6716391
237	0x3f4e1bd7	0.8051123
238	0xbe86d2d2	-0.26332718
239	0x3f2c8684	0.67392755
240	0xbec01c6e	-0.3752169
241	0x3eb971a1	0.36219504
242	0x3e0b6af3	0.13615017
243	0xbd5de459	-0.054172847
244	0x3e9e2379	0.30886438
245	0xbe1401d0	-0.14453816
246	0xbdd58b9c	-0.10427019
247	0xbd514b50	-0.051097214
248	0xbecb0f19	-0.39659956
249	0x3f265dd4	0.6498692
250	0x3d183603	0.037160885
251	0xbd92115f	-0.071322195
252	0xbe4fea88	-0.2030431
253	0xbf08b329	-0.53398377
254	0xbcf502af	-0.029908506
255	0xbd34ec5c	-0.044170722

bias f4 [60]
0	0xbe2705ec	-0.16310853
1	0xbdeb2055	-0.11480776
2	0xbe141d20	-0.14464235
3	0xbd9d7333	-0.07687988
4	0xbe2053d4	-0.15656978
5	0x3dbf901f	0.09353661
6	0x3ebef38b	0.37295184
7	0xbdf6a210	-0.1204263
8	0x3acebf93	0.0015773646
9	0x3e15ce62	0.1462951
10	0x3c18a3ed	0.009316427
11	0x3de58b62	0.11208226
12	0xbed863b3	-0.42263564
13	0x3eb34b0c	0.35018194
14	0xbd2df6b5	-0.042471606
15	0xbe316c62	-0.17326501
16	0xbd5195f5	-0.0511684
17	0xbda5c778	-0.08094686
18	0xbd928bb6	-0.07155554
19	0xbd4bc36d	-0.04974692
20	0xbe0bbc1f	-0.13645981
21	0xbe0fb9e8	-0.14035761
22	0xbe4eabb1	-0.20182683
23	0x3d6fbabf	0.058527704
24	0x3e7d677a	0.24746504
25	0x3eeb9008	0.46008325
26	0xbf78a43c	-0.971256
27	0x3dbae9c5	0.09126619
28	0xbe4789c7	-0.19486152
29	0xbd59b1ab	-0.053147953
30	0x3e280fd7	0.16412292
31	0x3df97c16	0.12181871
32	0x3df4e148	0.119570315
33	0x3eb5cb4d	0.3550667
34	0xbdd9b01c	-0.10629293
35	0xbf325d94	-0.6967404
36	0x3dbb27f7	0.09138482
37	0x3e839199	0.2569702
38	0x3dd4f561	0.10398365
39	0x3d2db665	0.042410273
40	0xbd3b7e65	-0.045774836
41	0xbf0686d3	-0.52549475
42	0x3e8fd7ee	0.2809443
43	0xbdf6044c	-0.12012538
44	0x3dd9591d	0.106127
45	0x3e40bb07	0.18821345
46	0x3e18bef5	0.14916594
47	0x3e22491d	0.15848203
48	0x3e05ebd1	0.13078238
49	0x3dd32411	0.103096135
50	0xbe884152	-0.26612335
51	0xbcce1150	-0.02515474
52	0xbe59a6c4	-0.21255022
53	0xbc00ea4a	-0.007868359
54	0x3e9b2fa0	0.30309772
55	0xbd97b1f8	-0.07406992
56	0x3d765a61	0.060144786
57	0x3e349e73	0.17638569
58	0xbda48a01	-0.08034135
59	0x3eaee62c	0.34159982

weight f4 [60, 60]
0	0xbda86556	-0.08222453
1	0xc092c202	-4.5861826
2	0xbe2975d3	-0.16548853
3	0xbf26d368	-0.6516633
4	0xbe6e87c2	-0.23293975
5	0xc02d00c2	-2.7031713
6	0x3e6634cd	0.2248108
7	0x3dd0022b	0.101566635
8	0x3f29f151	0.66383845
9	0xbee34ccf	-0.44394538
10	0xbef76379	-0.4831808
11	0xc01e4632	-2.4730344
12	0x3e71af12	0.2360194
13	0xbeb5771e	-0.35442442
14	0x3d8c54c2	0.06852104
15	0xbdcaff70	-0.09912002
16	0x3dfebdf4	0.124385744
17	0xbfb0abbd	-1.380241
18	0xbf24e6b5	-0.6441453
19	0xbfd55fe1	-1.6669885
20	0x3e01c0db	0.12671225
21	0xbeadaefa	-0.3392256
22	0xbd257900	-0.040398598
23	0x3ea146b1	0.31499246
24	0x3f940c08	1.1566172
25	0x3f3a729e	0.7283114
26	0x3da1390a	0.078722075
27	0x3dcd83c9	0.10034902
28	0x3f0b1106	0.5432285
29	0x3dc73906	0.09727673
30	0x3cfd9f39	0.030959712
31	0x3f5cd3df	0.8626079
32	0xbff3f820	-1.9060097
33	0x3f07c224	0.5303061
34	0xbe00b1ef	-0.12567876
35	0xbf2e8eae	-0.6818646
36	0xbf78be7e	-0.9716567
37	0xbfb250e7	-1.393094
38	0xc053e7f4	-3.3110323
39	0x3ec8c8a5	0.3921558
40	0x3e701e0d	0.23448963
41	0xbe601e4c	-0.21886557
42	0xbe2cf4ad	-0.16890211
43	0x3f337ca6	0.70112073
44	0x3de18d08	0.11013228
45	0xbec652c9	-0.38735035
46	0xbf378f29	-0.7170282
47	0x3e8cecdd	0.27524462
48	0x3e2d6073	0.16931324
49	0x3f3099c9	0.6898466
50	0xbd945134	-0.07242051
51	0x3d978413	0.07398238
52	0xbf3b5ff7	-0.73193306
53	0x3e1c30f6	0.15253052
54	0xbf3d0377	-0.7383341
55	0x3f46b8f1	0.7762595
56	0xbf4e03bb	-0.8047444
57	0xbf448326	-0.76762617
58	0x3f334b63	0.70036906
59	0x3d95dbc2	0.07317306
60	0xbd2f6198	-0.042817682
61	0xbeaf85a4	-0.34281647
62	0xbfbdce67	-1.4828614
63	0xbf158179	-0.58400685
64	0x3e97dcbd	0.29660597
65	0xbefdf1ed	-0.49598637
66	0x3e39ca3f	0.18143557
67	0xbd9762f2	-0.07391919
68	0xbf35f941	-0.71083456
69	0xbdb0b43c	-0.08628127
70	0x3c0ded9a	0.008662606
71	0x3dbdc1b0	0.092654586
72	0xbec944b5	-0.39310232
73	0x3e90e1c8	0.28297257
74	0xbe079b89	-0.13242926
75	0xbd1c416d	-0.038148332
76	0xbd628380	-0.05530119
77	0xbf6191b3	-0.88112944
78	0xbe6d9373	-0.23200779
79	0x3ec253d0	0.3795457
80	0xbcebda5b	-0.028790643
81	0x3e00cca2	0.12578061
82	0x3f18d60a	0.597016
83	0xbfb9e5f4	-1.4523301
84	0xbe68dd87	-0.22740756
85	0xbe7810db	-0.2422518
86	0x3f6dc7b0	0.92882824
87	0xbf863ee6	-1.0487945
88	0xbf990516	-1.1954677
89	0x3f5b0cef	0.8556661
90	0x3f8abf88	1.0839701
91	0xbf6e68ad	-0.9312847
92	0x3d6b4f4e	0.057448678
93	0xbede85a5	-0.43461338
94	0xbdcb32af	-0.099217765
95	0xbf2de59b	-0.67928475
96	0xbf422fd7	-0.7585425
97	0x3c2d2923	0.01056889
98	0xbfa9c111	-1.3262044
99	0xbe529965	-0.20566328
100	0xbfb13e05	-1.3847052
101	0xbe6ec8ca	-0.23318782
102	0x3f2e60b1	0.6811629
103	0xbf8b79a7	-1.08965
104	0xbe313130	-0.1730392
105	0xbf06d577	-0.5266947
106	0xbf5cf5c0	-0.86312485
107	0x3e59e6e6	0.21279487
108	0x3ea02fc0	0.3128643
109	0xbf822e6a	-1.0170414
110	0xbf98ecdf	-1.1947287
111	0xbf51c8ac	-0.81946826
112	0xbf8d3b56	-1.1033733
113	0x3e98862d	0.29789868
114	0xbf58db67	-0.8470978
115	0xbf77546d	-0.966132
116	0xbf6bc4d3	-0.92097205
117	0xbe96b27c	-0.29433048
118	0x3f0f20cc	0.5590942
119	0x3f43651c	0.76326156
120	0xbd9ba2c4	-0.075994045
121	0xbde19c1e	-0.11016105
122	0xbdd4d02e	-0.103912696
123	0xbba23e22	-0.0049512545
124	0xbda4a9c0	-0.0804019
125	0x3c20f89e	0.0098249
126	0x3d2e35a0	0.04253161
127	0xbd7cdfce	-0.061736874
128	0xbe117c11	-0.14207484
129	0xbe04dc15	-0.1297458
130	0xbe4b212b	-0.19836871
131	0xbc988416	-0.018617671
132	0xbdfb8544	-0.12281278
133	0xbd52c224	-0.05145468
134	0xbd08bb38	-0.03338167
135	0xbe0172e0	-0.12641478
136	0xbd1ced04	-0.038311973
137	0xbe0a4706	-0.13503656
138	0xbdd68ba2	-0.104758516
139	0x3d173582	0.036916263
140	0x3df80662	0.121105924
141	0xbde38cd5	-0.11110846
142	0xbd489c1f	-0.048977014
143	0x3c8b2d3a	0.01698934
144	0xbda17db4	-0.07885304
145	0x3d09e66c	0.033667013
146	0x3d68e684	0.05686046
147	0x3c199a48	0.009375162
148	0xbe06bb62	-0.13157418
149	0xbd692d30	-0.05692786
150	0xbcabf248	-0.020989552
151	0x3da87fc3	0.082274936
152	0x3dc20218	0.094730556
153	0x3cdd84c0	0.02704084
154	0x3cc89a28	0.02448757
155	0x3d2e7ffc	0.042602524
156	0xbe1bbd9c	-0.15209049
157	0xbdbd041a	-0.09229298
158	0xbd00e3ab	-0.03146712
159	0x3c6bfacd	0.014403057
160	0x39977f84	0.0002889597
161	0xbc09db4e	-0.008414103
162	0xbd244936	-0.040108882
163	0xbdd74a02	-0.10512163
164	0xbdba80b7	-0.09106582
165	0xbe1e8f29	-0.15484299
166	0x3dbced72	0.092249766
167	0x3d36d82f	0.044639762
168	0x3dbd37fa	0.09239192
169	0x3d833d92	0.06408228
170	0xbe248490	-0.16066194
171	0xbd189466	-0.0372509
172	0x3d3df09a	0.046372034
173	0xbd108635	-0.03528424
174	0xbe0329f8	-0.12808979
175	0xbda05278	-0.0782823
176	0xbd00dc70	-0.031460226
177	0x3ca632c8	0.020287886
178	0xbd00badd	-0.031428207
179	0x3d2940f9	0.04132173
180	0xbda7d2e6	-0.081945226
181	0xbdd71a67	-0.10503083
182	0xbd9c7db5	-0.07641164
183	0xbe3a1a6a	-0.18174139
184	0xbeadcdfb	-0.33946213
185	0x3e661231	0.22467877
186	0xbe89199c	-0.2677735
187	0x3cf75ac0	0.03019464
188	0xbdc954cf	-0.09830629
189	0xbe736b49	-0.23771395
190	0x3e0ef498	0.13960493
191	0x3e17cb88	0.14823735
192	0x3e4eb928	0.20187819
193	0x3d809483	0.06278326
194	0xbdd8834c	-0.10571918
195	0x3ba67f80	0.005081117
196	0xbe5015e2	-0.20320848
197	0x3ed694b6	0.41910332
198	0xbdc88041	-0.097900875
199	0x3def6ec5	0.116910495
200	0xbda4d01a	-0.08047505
201	0x3ed2978b	0.41131243
202	0xbe0abf0a	-0.13549438
203	0x3e463dec	0.19359559
204	0x3e04d410	0.1297152
205	0x3e0106c7	0.12600242
206	0x3eb46735	0.3523499
207	0xbe81a4eb	-0.25321135
208	0x3e92ec31	0.28695825
209	0x3e9f54b7	0.3111932
210	0xbca6e982	-0.020375017
211	0xbe0bc62e	-0.13649818
212	0xbda00f98	-0.07815474
213	0x3cfe67ec	0.031055413
214	0x3cdeb0f8	0.027183995
215	0x3e04d288	0.12970936
216	0xbe2841cf	-0.16431354
217	0x3e46f938	0.19431007
218	0x3dc44e50	0.095852494
219	0x3e0fcba7	0.14042531
220	0x3d92622e	0.071476325
221	0x3ce200a3	0.027588194
222	0xbd569b0d	-0.05239396
223	0xbee7ab7a	-0.45248014
224	0xbe85bfda	-0.26122934
225	0xbe8b02df	-0.27150628
226	0x3e12d2ef	0.14338277
227	0x3dc1cc72	0.09462823
228	0xbe0c237c	-0.13685411
229	0x3e630e76	0.22173485
230	0xbc2cd5ac	-0.01054899
231	0x3d9d230f	0.076727025
232	0x3d9ffbfe	0.078117356
233	0x3e61daac	0.22056073
234	0x3ed6cf3f	0.4195499
235	0xbeae478d	-0.34038964
236	0x3e4ca79d	0.19985814
237	0xbdf5c9fa	-0.120014146
238	0x3ee16a76	0.44026536
239	0x3d2beda7	0.04197469
240	0xbbea4a45	-0.007149967
241	0xbf4aca89	-0.79215294
242	0xbed206a7	-0.410207
243	0x3e26a547	0.16273986
244	0xbe67f747	-0.22652923
245	0x3d82b223	0.06381633
246	0xbe421745	-0.18954189
247	0xbdbf89fc	-0.0935249
248	0xbf5949fa	-0.84878504
249	0x3eee2453	0.46512088
250	0xbf101f5d	-0.56297857
251	0x3ec9ebf6	0.39437836
252	0x3d102f64	0.035201445
253	0xbf65215a	-0.89504015
254	0xbd5127e5	-0.051063437
255	0x3c895298	0.016763017

bias f4 [60]
0	0x3dc3c839	0.09559674
1	0x3f38c77a	0.7217938
2	0xbe3ec6b4	-0.18630487
3	0xbe54209d	-0.20715566
4	0xbe26cf3b	-0.1628999
5	0xbf0be927	-0.5465264
6	0xbeb18d5b	-0.34678158
7	0xbd6b731f	-0.057482835
8	0x3e8fae92	0.28062874
9	0x3ddec51e	0.10877441
10	0x3bd3b081	0.00646025
11	0xbe9ff347	-0.31240293
12	0xbec025a4	-0.37528718
13	0xbec77e6b	-0.38963637
14	0xbf8c17d8	-1.0944777
15	0x3e9567ce	0.2918076
16	0x3f0a07e7	0.5391831
17	0x3ef9795d	0.48725405
18	0x3ae3c018	0.0017375974
19	0x3e9e4ad2	0.30916458
20	0xbe8b9ad2	-0.27266556
21	0xbe4dc9eb	-0.20096557
22	0x3ed73607	0.42033407
23	0xbc5fc40a	-0.013657579
24	0x3f30987a	0.6898266
25	0xbeab63a5	-0.3347446
26	0x3ea7e7a5	0.32793918
27	0xbe54d696	-0.20784983
28	0xbea5b90f	-0.3236775
29	0x3ddb6712	0.107130185
30	0xbf9f648e	-1.2452562
31	0xbebdcc85	-0.370701
32	0xbe35ae12	-0.17742184
33	0x3ebc0e93	0.3672987
34	0x3e742ac9	0.23844446
35	0xbf481a08	-0.7816472
36	0x3ed40fd5	0.4141833
37	0xbe49003c	-0.19628996
38	0xbef4587f	-0.47723767
39	0x3e1c05d2	0.15236595
40	0xbda401ad	-0.08008132
41	0x3cd20d0e	0.02564099
42	0xbe04e0a5	-0.1297632
43	0x3c12b973	0.008955347
44	0x3f11a7f6	0.56896913
45	0x3a4ae0b0	0.00077391695
46	0xbe3f4166	-0.18677291
47	0xbe028854	-0.12747318
48	0x3f376908	0.7164464
49	0x3e83b2f1	0.2572246
50	0xbe445fd5	-0.19177182
51	0x3e9442f9	0.28957346
52	0xbeefc5ff	-0.46830747
53	0x3e874440	0.26419258
54	0xbe8dfddc	-0.27732742
55	0x3e48eeec	0.19622391
56	0x3f1aab07	0.60417217
57	0xbdb7cc4a	-0.08974512
58	0x3f29d111	0.66334635
59	0xbed86295	-0.42262712

weight f4 [60, 60]
0	0xbfc27fc4	-1.5195241
1	0xbed49062	-0.41516405
2	0x3da65019	0.08120746
3	0x3ecbfc3e	0.39840883
4	0x3ef3e4f8	0.47635627
5	0x3ea56c29	0.32309082
6	0x3ecbe280	0.39821243
7	0x3fb64644	1.4240193
8	0x3f1bb2a2	0.6081945
9	0xbd9b6576	-0.075877115
10	0x3e5c8065	0.21533354
11	0x3f93e683	1.1554722
12	0x3f457f95	0.771478
13	0x3e27e927	0.16397534
14	0x3e4755bf	0.19466303
15	0x3d896caa	0.06710179
16	0x3ef1079d	0.4707612
17	0x3f1c802f	0.6113309
18	0xbed00797	-0.4063079
19	0xbeb7340b	-0.35781893
20	0xbe0f7376	-0.14008889
21	0x3dd51bac	0.104056686
22	0x3cbfaacc	0.023396872
23	0x3f0bb08c	0.54566264
24	0x3bb49d4f	0.0055119167
25	0xbd517bc6	-0.05114343
26	0x3e081d51	0.13292433
27	0x3dc5073b	0.0962052
28	0xbd7e5242	-0.062090166
29	0x3ec1e4a3	0.37869748
30	0xbeae198e	-0.34003872
31	0x3f4f34ac	0.80939746
32	0x3e21e1d9	0.1580881
33	0xbdbc25d3	-0.09186902
34	0x3ed5ed91	0.4178281
35	0x3f76a1d5	0.96340686
36	0x3d238230	0.03991908
37	0x3cd03290	0.025414735
38	0xbca8f00d	-0.020622278
39	0x3ebf7314	0.37392485
40	0xbf161568	-0.58626413
41	0x3edc2736	0.42998666
42	0x3ec47308	0.38369012
43	0x3e821ebd	0.25414076
44	0x3f0132db	0.50468224
45	0x3f9b2e98	1.2123594
46	0xbfb63a2e	-1.4236505
47	0xbe923902	-0.28559119
48	0x3e933b0c	0.28755987
49	0x3e213e68	0.15746462
50	0x3bb397d4	0.005480746
51	0xbe1edce6	-0.15513954
52	0x3d6d4ca1	0.057934407
53	0x3e1ba76d	0.15200587
54	0x3f28f1a5	0.6599372
55	0xbdf8b4df	-0.121438734
56	0xbeb3fe02	-0.3515473
57	0xbdcf7057	-0.10128849
58	0xbe5df873	-0.21676807
59	0xbe843f4f	-0.2582955
60	0x3f69afdc	0.91283965
61	0x3f670e76	0.9025644
62	0xbd96eee3	-0.07369783
63	0x3e86b236	0.2630784
64	0xbf80aa94	-1.0052056
65	0x3f99b1bc	1.2007365
66	0x3e926d0e	0.28598827
67	0xbe46c144	-0.19409662
68	0x3f8ef065	1.1167113
69	0xbe39677c	-0.18105882
70	0x3eac78d5	0.33685938
71	0xbe581bec	-0.21104401
72	0x3ddad0da	0.106843665
73	0xbff31367	-1.8990296
74	0x3d1e673d	0.038672674
75	0xbf825d9f	-1.0184821
76	0xc021f705	-2.5307019
77	0x3ee0e707	0.4392626
78	0xbf2f04c5	-0.6836665
79	0x3f40d79b	0.7532899
80	0xbf516841	-0.81799704
81	0x3e09b184	0.13446623
82	0xbf184817	-0.59485
83	0x3e03ab9c	0.12858433
84	0x3e3f6b7b	0.18693344
85	0xbff9fe86	-1.9530799
86	0xbfad56f2	-1.3542159
87	0x3d8c5c20	0.06853509
88	0x3d690e4a	0.056898393
89	0xbe540c27	-0.20707761
90	0x3f901316	1.1255825
91	0x3fb3de11	1.4052144
92	0x3dabfad6	0.083974525
93	0xbff19ede	-1.8876607
94	0x3d3c2b0b	0.045939486
95	0xbd514111	-0.051087443
96	0xbee52af1	-0.44759324
97	0x3f11a307	0.56889385
98	0x3f5592de	0.83427227
99	0xbef138be	-0.47113603
100	0x3f2d6fc1	0.6774865
101	0x3f4ba161	0.7954312
102	0x3e216175	0.15759833
103	0x3fbf2fbc	1.4936442
104	0x3d806178	0.06268591
105	0x3eabfe2b	0.33592352
106	0x3e8d98a2	0.27655512
107	0x3f0261a0	0.50930214
108	0x3fa0023d	1.2500683
109	0xbf7f6082	-0.99756634
110	0x3dbd1456	0.092323944
111	0x3ed7acc5	0.42124
112	0x3eea3fe6	0.45751876
113	0x3f988f3d	1.1918713
114	0x401e4edb	2.473563
115	0xbf09e766	-0.5386871
116	0xbfa1d58d	-1.2643296
117	0x402ad12e	2.6690173
118	0xc00cd2c6	-2.2003646
119	0x3f45d356	0.772756
120	0x3f60c5d5	0.8780187
121	0x3ea33295	0.3187453
122	0xbda97f5a	-0.082762435
123	0xbe8ff8f0	-0.28119612
124	0xbe358a47	-0.1772853
125	0x4010c7e9	2.2622015
126	0xbed2cff4	-0.4117428
127	0xbf651243	-0.8948099
128	0xbf00a409	-0.502503
129	0xba2d6b63	-0.0006615428
130	0x3f9991d5	1.199763
131	0x3c0e408e	0.008682383
132	0xbfa95170	-1.3227978
133	0x3eac1c87	0.33615515
134	0x3f820446	1.0157554
135	0x3f81fc5d	1.015514
136	0x3e8273ab	0.25478873
137	0x3f0a9e69	0.54147965
138	0x3d99450b	0.07483872
139	0x3f3d18a2	0.7386571
140	0x3e212393	0.15736227
141	0x3ed9e64b	0.42558512
142	0x3f854936	1.0412967
143	0x3f22d842	0.63611233
144	0xbcc83c17	-0.024442716
145	0x3fbce816	1.4758327
146	0x3f4dfec8	0.8046689
147	0xbad3cd05	-0.0016159123
148	0x3e0e082c	0.13870305
149	0x3d334efa	0.04377649
150	0xbf9391ca	-1.1528866
151	0xbee37e1d	-0.44432154
152	0x3d77dbf7	0.06051251
153	0x3ed6d3c8	0.4195845
154	0xbe85b686	-0.26115817
155	0x3f4c6242	0.7983743
156	0xbf04e66d	-0.519141
157	0x3f11a52a	0.56892645
158	0xbf0c4821	-0.5479756
159	0xbf261bb4	-0.6488602
160	0xbeeb5b74	-0.4596821
161	0x3fb03bdd	1.3768269
162	0x3ed95c3f	0.4245319
163	0x3f0eff10	0.55857944
164	0xbcbef1f8	-0.023308739
165	0x3e9beada	0.30452615
166	0xbecb5736	-0.39714974
167	0x3eb35f3a	0.3503359
168	0xbf198641	-0.5997048
169	0x3e293d28	0.16527236
170	0xbdd08d6e	-0.101832256
171	0x3dd55737	0.104170255
172	0x3eb17c44	0.3466512
173	0xbedf5921	-0.43622687
174	0x3f20d83e	0.6282996
175	0x3ee22150	0.4416604
176	0x3cda8254	0.026673473
177	0xbe6fff9d	-0.23437352
178	0x3efd610d	0.49488106
179	0xbf906e42	-1.1283648
180	0x3d940876	0.07228176
181	0x3ead8162	0.33887774
182	0x3ddf829c	0.10913584
183	0x3ec2c476	0.38040513
184	0x3f60e5eb	0.87850827
185	0x3f2b8e9a	0.6701447
186	0xbfc94599	-1.5724365
187	0x3fcb48f7	1.5881642
188	0x3f9b4328	1.212987
189	0x3dcdb2c5	0.10043863
190	0xbd600526	-0.05469241
191	0x3f9e8dae	1.2386987
192	0x3efa9b34	0.48946536
193	0xbeda7cf4	-0.42673457
194	0x3f77c1ff	0.9678039
195	0xbf3a7ccd	-0.7284668
196	0x3e7ce2a1	0.24695827
197	0x3ee54ec2	0.4478665
198	0x3f4eeaf4	0.8082726
199	0x3eb08f89	0.3448451
200	0xbe9626fb	-0.29326615
201	0x3cb20ec4	0.021735556
202	0xbd0e64a3	-0.034763943
203	0xbe59ceab	-0.21270244
204	0x3e073f68	0.13207781
205	0x3dad17c5	0.08451799
206	0xbf8793f7	-1.059203
207	0x3d86cced	0.06582055
208	0x3e69d9df	0.22837017
209	0x3f646aaa	0.89225256
210	0xbf5cbca6	-0.86225355
211	0x3fc9a111	1.5752279
212	0xbe179fba	-0.14807025
213	0xbea61020	-0.32434177
214	0x3d8b8d15	0.06814019
215	0x3f375ade	0.7162303
216	0xbee1451c	-0.4399804
217	0x3f9d21c5	1.2275931
218	0xbf0e0d9c	-0.55489516
219	0x3f79a53f	0.9751777
220	0xc005463f	-2.0824125
221	0x3f5421d3	0.8286411
222	0xbf01519f	-0.5051517
223	0x3faf34f0	1.368803
224	0xbe9f97b9	-0.31170443
225	0x3db05f46	0.08611922
226	0xbe5ebee3	-0.21752505
227	0x3deeee84	0.11666587
228	0x3ef132b3	0.47108993
229	0xbdfe5aa6	-0.124196336
230	0x3e44247f	0.19154547
231	0xbdcf1a20	-0.10112405
232	0xbf5b13b1	-0.8557692
233	0x3f918b6d	1.1370674
234	0xbc94a578	-0.018145308
235	0x3eb3fecc	0.35155332
236	0xbde80436	-0.11328928
237	0xbe04bf21	-0.12963535
238	0xbe0c6d47	-0.13713561
239	0x3f4102a5	0.7539466
240	0xbdd09f6a	-0.10186656
241	0xbcbe82f9	-0.023255812
242	0xbe0066bb	-0.12539189
243	0xbd69edb9	-0.057111476
244	0x3eab2454	0.33426154
245	0x3f07edb0	0.5309706
246	0x3eb35a6a	0.35029918
247	0xbf16c5f6	-0.58895814
248	0xbf7a3fe3	-0.97753733
249	0xbdfe5edd	-0.124204375
250	0xbf2f948b	-0.68586034
251	0xbe07eba4	-0.13273484
252	0xbe8678da	-0.26264077
253	0xbf44aa00	-0.768219
254	0x3ea7d362	0.3277846
255	0xbf1e006e	-0.61719406

bias f4 [60]
0	0x3d131319	0.035906885
1	0xbf15c527	-0.58503956
2	0x3edc341b	0.43008503
3	0x3e95eee3	0.2928382
4	0xbf00ab59	-0.50261456
5	0x3e2cbf51	0.16869856
6	0xbec2ee49	-0.38072422
7	0xbe297191	-0.16547228
8	0xbf653b7a	-0.8954388
9	0xbe7427f2	-0.23843363
10	0x3f022ab5	0.50846416
11	0xbe0be302	-0.13660815
12	0x3dda770f	0.1066724
13	0x3d947c85	0.07250313
14	0x3f0b38ef	0.5438375
15	0x3ddc8e9b	0.10769387
16	0xbe5faf1e	-0.21844146
17	0xbf63fe4a	-0.8905989
18	0xbf55712a	-0.833758
19	0x3e3c440a	0.1838533
20	0xbebf1d32	-0.37326962
21	0xbeebc818	-0.46051097
22	0xbe3b4da7	-0.18291341
23	0xbe8b57d8	-0.27215457
24	0xbc38b132	-0.011272715
25	0xbf53b41b	-0.82696694
26	0xbe93b07a	-0.28845578
27	0xbe66f4c9	-0.22554316
28	0xbdb2b436	-0.08725779
29	0x3e042a9b	0.12906878
30	0x3f3cd374	0.7376015
31	0xbebb28a2	-0.36554438
32	0xbf267ade	-0.6503123
33	0xbdd694ac	-0.10477576
34	0xbd0dae16	-0.03458985
35	0xbed4181e	-0.4142465
36	0x3f1ff1f4	0.62478566
37	0xbd0c24a2	-0.034214623
38	0x3d868052	0.06567444
39	0xbf03fdce	-0.5155915
40	0x3d93d9a1	0.07219244
41	0x3b9fe461	0.00487952
42	0x3f16bdd8	0.5888343
43	0x3ecc28df	0.39874932
44	0xbc6cc0e1	-0.014450283
45	0xbec19412	-0.3780828
46	0xbe8af6bb	-0.27141365
47	0xbdbda3ff	-0.092597954
48	0x3db4c56a	0.08826716
49	0xbfdff329	-1.7496082
50	0xbe8a78d4	-0.2704531
51	0xbef358b3	-0.4752861
52	0xbf25d85d	-0.6478327
53	0x3e2d4ec0	0.16924572
54	0xbe26820e	-0.1626055
55	0xbeaf108f	-0.3419232
56	0x3e9fbc17	0.3119819
57	0x3e001ce9	0.12511028
58	0xbed93b75	-0.42428175
59	0x3f0f024a	0.5586287

weight f4 [10, 60]
0	0xbec8189a	-0.3908127
1	0x3f0e32cf	0.5554628
2	0xbf683fc3	-0.9072229
3	0xbe6a4d21	-0.22880985
4	0xbf946752	-1.1594031
5	0xbe8a86ec	-0.27056062
6	0xbe75f152	-0.24017838
7	0xbe00f31d	-0.1259274
8	0xbef21fd0	-0.47289896
9	0xbd90bf5a	-0.070677474
10	0xbe30adf9	-0.17253865
11	0xbf1712b2	-0.590129
12	0xbf7657bd	-0.9622763
13	0xbe98ae85	-0.29820648
14	0xbef77029	-0.4832776
15	0xbe85f041	-0.26159862
16	0xbf2a0aba	-0.6642262
17	0x3df11cca	0.11773069
18	0xbf0b1eba	-0.5434376
19	0xbed19ef0	-0.40941572
20	0xbf1b9a3f	-0.60782236
21	0xbf1410f7	-0.57838386
22	0xbbd27595	-0.0064227083
23	0xbe89d674	-0.26921427
24	0xbcdff8e3	-0.027340358
25	0xbf00a648	-0.50253725
26	0xbeaa4a0e	-0.33259624
27	0xbef8626b	-0.48512587
28	0xbe9c26d3	-0.3049837
29	0xbf2620a0	-0.6489353
30	0xbee7bcfc	-0.4526137
31	0xbf17fa60	-0.59366417
32	0xbf547989	-0.8299795
33	0xbcdb8d2e	-0.026800718
34	0xbeca75b9	-0.3954294
35	0xbf113ee6	-0.567366
36	0xbf4726b5	-0.7779344
37	0xbe8d5f92	-0.27611977
38	0xbfa887d4	-1.3166451
39	0xbf2d1355	-0.67607623
40	0xbed6073e	-0.418024
41	0xbf2a0adb	-0.66422814
42	0xbf1bad1a	-0.6081101
43	0xbf4e841b	-0.80670327
44	0xbf754f2f	-0.9582395
45	0xbf421382	-0.75811017
46	0xbf4da75d	-0.803335
47	0xbdc9bb14	-0.098501354
48	0xbf5d26b2	-0.8638717
49	0x3bc184d3	0.0059057265
50	0xbe452e29	-0.1925589
51	0xbfa6bd18	-1.3026457
52	0xbf4630b8	-0.7741809
53	0xbf5be824	-0.85901093
54	0x3ca7d053	0.020485079
55	0xbecd13f9	-0.400543
56	0xbda3bb31	-0.07994688
57	0xbf00853d	-0.50203305
58	0xbe79d2eb	-0.24396865
59	0xbefd7654	-0.4950434
60	0xc055d01a	-3.3408265
61	0x3f418996	0.75600564
62	0xc008f730	-2.1400871
63	0xbf2c460a	-0.6729437
64	0xc062a709	-3.541445
65	0xbf1a2732	-0.6021606
66	0xbe23720d	-0.15961476
67	0xbd22c23a	-0.03973601
68	0xc0d85e9e	-6.76155
69	0xbe192cf0	-0.14958549
70	0xbd159733	-0.036521148
71	0x3dab6dbc	0.083705395
72	0xc0caa592	-6.332711
73	0xc0908597	-4.5163074
74	0xc0522604	-3.2835703
75	0xbe2dc748	-0.16970551
76	0xbc4f181d	-0.012640026
77	0xbf387998	-0.7206054
78	0xbf63fb1a	-0.89055026
79	0x3dbb1a8c	0.09135923
80	0xc00c437d	-2.1916192
81	0x3c27ac3d	0.010233936
82	0xc09c0a52	-4.87626
83	0xbfb4e682	-1.4132845
84	0xbeb43387	-0.35195562
85	0xc02ec5a1	-2.7308123
86	0xc01c2cf4	-2.4402437
87	0x3f2607c5	0.64855605
88	0xbebcef09	-0.3690112
89	0x3f3d9e53	0.7406971
90	0x3d2324b0	0.03982991
91	0xbfa1436b	-1.2598699
92	0xc0dea2b4	-6.957361
93	0xbca99554	-0.020701088
94	0xbfc3bdde	-1.5292318
95	0xbc9f02e2	-0.019410554
96	0x3e9bc8ca	0.30426627
97	0x3e2500d4	0.16113597
98	0xbee2d90e	-0.44306225
99	0xbf606b9e	-0.8766421
100	0xc01ede05	-2.482301
101	0x3e295a4d	0.16538353
102	0xc01b3b53	-2.4254959
103	0x3dde1255	0.1084334
104	0xbfb06b4d	-1.3782746
105	0xbee64499	-0.4497421
106	0xbf843330	-1.0328121
107	0xbe93a12a	-0.28833896
108	0x3db48dcf	0.0881611
109	0xc01bbbfc	-2.4333487
110	0xbfb45b02	-1.4090273
111	0xc0477482	-3.116486
112	0xc0784311	-3.8790934
113	0x3f90bfc4	1.1308522
114	0x3d9d18f0	0.07670772
115	0xbfd23659	-1.6422836
116	0xc088875c	-4.2665234
117	0xc0b595e4	-5.674547
118	0xbe9f78ad	-0.31146756
119	0xbf9dc380	-1.2325287
120	0xbf74fe75	-0.9570077
121	0xbf855952	-1.0417883
122	0xc0b5be3a	-5.679471
123	0xc0a5a664	-5.1765614
124	0x3ee41f28	0.4455502
125	0xc0502f0b	-3.2528713
126	0xbf1d31ee	-0.6140431
127	0x3cb8bef8	0.022551998
128	0xc021fdca	-2.531115
129	0xbdbd6e00	-0.092494965
130	0xc11226e9	-9.1345
131	0xbe8c67c7	-0.27422926
132	0xc037c6e8	-2.8715153
133	0xbf6c7c74	-0.923774
134	0xc10225a6	-8.1341915
135	0xbff46e51	-1.9096166
136	0xbe651f95	-0.22375329
137	0xc082241f	-4.0669093
138	0xbfe5c74f	-1.7951449
139	0xbfa9957a	-1.3248742
140	0x3ea3c6d9	0.31987646
141	0xbe452c56	-0.19255194
142	0xbf8688a0	-1.0510445
143	0xc0f6c4bd	-7.711516
144	0xbe0556fb	-0.13021462
145	0x3d7c8df1	0.061658803
146	0xbec8173d	-0.3908023
147	0x3e45d9b2	0.19321325
148	0xbe3f3615	-0.18672974
149	0xc0145401	-2.3176272
150	0xbf909d7d	-1.1298062
151	0xbeeadbf2	-0.4587093
152	0xbbd32c67	-0.006444502
153	0xbd188684	-0.03723766
154	0xc03e001d	-2.968757
155	0xbe80fc9a	-0.2519272
156	0xc09676a1	-4.701981
157	0xbe04c0c8	-0.12964165
158	0xc0084d7b	-2.129729
159	0xbfa19cd1	-1.2625982
160	0xc08493fb	-4.143064
161	0xbea64bec	-0.324798
162	0x3f7583bb	0.9590413
163	0xbfe86823	-1.815678
164	0xbfefa480	-1.8722076
165	0xbd9120f9	-0.07086367
166	0xc0a6e0d2	-5.214944
167	0xbe828fe2	-0.255004
168	0xbee512f7	-0.44741032
169	0xbe88d0e0	-0.2672186
170	0xbe28554a	-0.16438785
171	0xc0335d14	-2.802556
172	0xbe17fa46	-0.14841565
173	0xbe9429bd	-0.28938094
174	0xbda77373	-0.08176317
175	0xc0da5ca8	-6.8238106
176	0xbea51bdf	-0.32247826
177	0xbf55b88b	-0.83484715
178	0xbf553621	-0.8328572
179	0xc05a4196	-3.410253
180	0xbebce0ab	-0.36890158
181	0xc00ac8a7	-2.1684968
182	0xbe753b22	-0.23948339
183	0xc07ca2c6	-3.947435
184	0xbfc07087	-1.5034341
185	0xc1057e0b	-8.343272
186	0xbe9ea21a	-0.3098305
187	0x3d51146f	0.051044878
188	0xbdf1b902	-0.118028656
189	0xbdf2c8c1	-0.11854697
190	0xc0e71933	-7.221826
191	0xbf6ea34c	-0.9321792
192	0xbf8b07fb	-1.086181
193	0xc0e41220	-7.1272125
194	0xc046e3fa	-3.1076646
195	0xc03624e1	-2.846001
196	0xc04d0c4b	-3.2038753
197	0xbf116df2	-0.5680839
198	0xbf165178	-0.5871806
199	0xc0ab2e0e	-5.349372
200	0x3dd8fdf7	0.10595315
201	0xbedf8a88	-0.43660378
202	0xc0e1fb62	-7.0619364
203	0xbff06250	-1.8780003
204	0xbe9d7fe7	-0.30761644
205	0x3d5cb0eb	0.05387966
206	0xbf10653a	-0.5640446
207	0xbf6d1f75	-0.92626125
208	0xbf85f6db	-1.0465959
209	0xbe91d528	-0.28482938
210	0xc0ae1faf	-5.4413676
211	0xbefc26e5	-0.49248424
212	0xbe0c965b	-0.13729231
213	0xbe493b94	-0.19651634
214	0xc07f7af5	-3.9918797
215	0xbfacd563	-1.350262
216	0xbf105ea8	-0.56394434
217	0xc0081d99	-2.1268065
218	0xc04e1309	-3.2199118
219	0xbe86ceef	-0.26329753
220	0xc093f51c	-4.6236706
221	0x3c12a4fb	0.008950467
222	0xc059c3f8	-3.402586
223	0xbff2e29c	-1.8975406
224	0xbf7f8583	-0.998131
225	0xbf4e3cca	-0.80561507
226	0xbfc7626c	-1.5576911
227	0xbdef7313	-0.116918705
228	0xc0727b3d	-3.7887719
229	0xbfce4c54	-1.6117043
230	0xbe8a799f	-0.27045915
231	0xbff229aa	-1.8918965
232	0xc00ca4ad	-2.197551
233	0xbf3f3415	-0.74688846
234	0xbd88bbe4	-0.06676462
235	0xbd047507	-0.03233817
236	0xbf2f35ef	-0.6844167
237	0xbebc30e8	-0.36756063
238	0x3e395153	0.18097429
239	0xbf680914	-0.9063885
240	0xbfb223bb	-1.3917154
241	0xc014d6d7	-2.3256128
242	0x3e1dedd4	0.15422755
243	0xc0141c21	-2.3142169
244	0xbe54e05b	-0.2078871
245	0x3df3be96	0.11901586
246	0xbf56821c	-0.8379228
247	0x3d1aea96	0.037821375
248	0xc0b9e5f2	-5.8093195
249	0xbe0156a7	-0.12630711
250	0x3f3b47dd	0.7315653
251	0x3d8d9b52	0.069143906
252	0xc08a405f	-4.320358
253	0xbfb5a107	-1.4189767
254	0xbfede390	-1.8585072
255	0x3d9be34a	0.07611711

bias f4 [10]
0	0x3f75e2d8	0.9604926
1	0xbee849f8	-0.45368934
2	0xbe88767b	-0.26652893
3	0xbf9747b0	-1.1818752
4	0x3d93a96c	0.07210049
5	0xbd7cd931	-0.061730567
6	0xbfb76260	-1.4326897
7	0x3dfc6c4b	0.12325343
8	0xbf135962	-0.5755826
9	0xbfa53882	-1.290787
