NN Real data/final_trained_models/KTPM/KTPM.pth (torch, 55843 bytes, 10 tensors)

weight f4 [60, 20]
00000000: 2987 54bf 8f18 903d f381 303e c10c 49be
00000010: c010 213d 9a18 d03d 9a96 45be a75b 843d
00000020: e885 babc 02f4 bc3d ee4d 6dbe 825d 4a3e
00000030: 92f9 763d 3d22 70be 7051 e7ba 4dcb 4ebd
00000040: 86de c33e 1dc7 b13e 9676 f9bb 9114 783d
00000050: 0d6c 313e aae5 d8bd 5f51 37bd 8e26 dabe
00000060: 34d4 a3bd 7fba 3e3d e265 a43e 708d 8fbb
00000070: dd5d 11bf 0879 c4be b806 89be 01e7 2e3f
00000080: bdd1 8e3d 37b2 09bf dfd8 133e 1002 57be
00000090: 3811 2d3f 9387 973e 0e2e 07bf dde6 ac3e
000000a0: 708a 173d f3d9 c7be 77bb 9cbe 3286 683e
000000b0: 4148 41be 5ff8 8ebe c370 11be 1f95 3bbc
000000c0: 0b98 123e 1166 353e 86c7 28be 2b10 64be
000000d0: e7cb aabe 1eb5 803e 845a 943e 9fc9 93bd
000000e0: 0a97 e4be 9206 75be fa9c 00be 6659 9d3e
000000f0: 8c4b 8e3e 3ca5 bebe 2134 153f 780d a6be
00000100: 882d 253f 6b97 b53d 3f2d cc3e 94e5 a43c
00000110: 2719 69be 135d 503d 3353 3fbd 5704 e03c
00000120: c1e6 f93d f85d 063e 1fe9 0abd 9cd3 f6bd
00000130: 0893 65bd 6531 a53d e723 9abd deb8 c03b
00000140: 2fb6 ea3c b403 0dbf 8cc1 f4be 57e1 ffbe
00000150: 11d7 80be 4f55 8cbe 569f 343e 2632 d5be
00000160: b756 6ebe 955a 983d ab68 1bbe 0c80 6f3e
00000170: 2ed8 dabd 5e6f 30bd 437f 1e3d b40d c8be
00000180: c090 473e 49f4 f8bd f9ee 633e 3cc7 0fbd
00000190: 3718 f3be f64c 57bf d65b 3f3e b67d 113e
000001a0: fe1c 1e3e 0e62 52bd 804a 0bbf e607 093e
000001b0: 11d2 57bd 374c 83be 33de 2f3e e8c6 14bf
000001c0: 4da2 833e 2819 95bd bd5a 2b3d f320 abbe
000001d0: c93d 1bbe b6d7 ab3e da2c 3ebe 0bb0 b5be
000001e0: 3435 0b3e 38c2 2f3e 2af9 d63d 472e c8be
000001f0: cf62 e93e 3436 173e 0c2d 8dbe 8262 19be
00000200: 3160 f8be 120d 973e 3606 3bbe a6eb 2bbe
00000210: e80d 1abf f9db 09be 6f90 c43e fad8 0ebc
00000220: 5052 15bf 3230 c1be e4c9 66bd 4a87 893e
00000230: c1b1 253e 1146 d13e 86d9 a5be 7f1e 8abe
00000240: 2706 efbe 0d9e 3cbe b878 cb3e de1a 1e3f
00000250: 67e6 883e 7f6b 0bbf 8d40 2cbd 3847 c53e
00000260: a673 bf3e 9b24 09bd 33b1 91be c455 84bd
00000270: a551 03be b139 343f 693a 2a3d c040 4abd
00000280: 1051 043f a548 a7be 3d7b b7be 8790 8b3e
00000290: 1253 3d3e c3b5 8c3e 1f6d 0dbd 53ea d3be
000002a0: 0c71 95be 75f9 7abc f51e 8c3e 1017 fc3d
000002b0: f752 f4bb 2a70 c4be 93a1 963e 4ebb 2abe
000002c0: 99c0 7ebe b7b4 74be cb20 86be 27b6 673d
000002d0: d8bc 9d3d fc3b 22bd ab60 213f 7d49 0f3e
000002e0: 7bea 97bd 6e61 81be 03af 7639 c020 133d
000002f0: cc7a 523d edea 2c3e 5eda 68be dde7 0a3e
00000300: 5056 cf3d 8062 343e 82d4 3a3d 79d1 fcbd
00000310: 9a3c d63b e6ea 883d 0eff 46be aa73 b63e
00000320: 38af bebe a180 a53e 778e cd3e 7726 1c3d
00000330: 9859 2f3e ef40 5dbe 9649 8b3e 63d8 f73d
00000340: 7008 e93d e2a0 bb3d c42c aebe 8713 4c3e
00000350: 93b0 18be 74a3 1ebe 29cc 123e bfd7 e2bd
00000360: 06cb 03be de66 2fbe ca42 bfbc 29a1 123e
00000370: fd2f 353e 1c39 7dbf 4130 1ebf fe04 ee3e
00000380: 69d6 e23c 6c2a ed3d 21c7 a8bd ded6 0ebf
00000390: 2376 1b3e 4806 53bd aa64 c4bd c7c3 a1be
000003a0: 5f07 efbd 4eb4 bebe 682a 7dbd ed9b ac3c
000003b0: a123 f2be 56d7 bfbd d414 0abf 210b 6f3c
000003c0: 09e5 afbe cf64 493e 6d57 353e 7305 ad3e
000003d0: 5590 b0be 26da c23d 1687 793e 8dd5 343e
000003e0: 135c 1a3e aaa1 833e a976 413e c43d 42bd
000003f0: 3166 1abd 0f77 8abe 3d1d 583d 0192 af3e
-0.8301874 0.07035934 0.17237072 -0.19633771 0.039322615 0.101609424 -0.19295731 0.06462794
-0.02276893 0.09226228 -0.23174259 0.19762233 0.060296603 -0.23450561 -0.0017648172 -0.05048685
0.3825571 0.34722224 -0.0076130135 0.06056649 0.17326374 -0.1059068 -0.044755336 -0.4260754
-0.07999459 0.046564575 0.3210898 -0.0043808743 -0.5678385 -0.3837359 -0.26762938 0.68321234
0.06973598 -0.5378756 0.14438199 -0.2099688 0.676044 0.29595622 -0.5280465 0.33769885
0.03699726 -0.3903347 -0.30611774 0.22707441 -0.18875219 -0.27923867 -0.14203171 -0.011449127
0.14315812 0.17714716 -0.16482362 -0.22271793 -0.3335869 0.2513818 0.28975308 -0.072161905
-0.44646484 -0.23928288 -0.12559882 0.30732268 0.27792013 -0.3723544 0.5828267 -0.3243215
0.645226 0.08866771 0.3987827 0.020129003 -0.22763501 0.050870012 -0.046710204 0.02734582
0.12202216 0.13121784 -0.033913728 -0.1205208 -0.056048423 0.08066062 -0.07526379 0.005881413
0.028651325 -0.55083776 -0.47803915 -0.49976608 -0.25164083 -0.27408835 0.17638907 -0.41639823
-0.23275267 0.07439152 -0.15176646 0.2338869 -0.10685764 -0.043074958 0.038695585 -0.39072955
0.19488811 -0.12155969 0.2225913 -0.035102114 -0.47479412 -0.8410181 0.18687376 0.14208111
0.15440747 -0.051363043 -0.5441055 0.1338192 -0.05269057 -0.25644085 0.17174606 -0.58116007
0.25709763 -0.07280189 0.04183458 -0.33423576 -0.15160288 0.33563012 -0.18571797 -0.35485873
0.13594514 0.17163932 0.10496743 -0.39097807 0.45583197 0.1476677 -0.2757343 -0.14978984
-0.48510888 0.2950216 -0.18264088 -0.16789111 -0.6017747 -0.13462819 0.38391444 -0.008718723
-0.58328724 -0.37732083 -0.05634488 0.2686103 0.16181089 0.4087377 -0.3239252 -0.26976392
-0.4668438 -0.18419667 0.3974054 0.61759746 0.26738283 -0.544609 -0.042053748 0.38530898
0.3739292 -0.033482175 -0.28455505 -0.06461671 -0.12824114 0.7040053 0.04155961 -0.049378157
0.5168619 -0.3267261 -0.3583621 0.27258703 0.1848872 0.27482423 -0.034527894 -0.41389713
-0.2918781 -0.015318264 0.27367368 0.12309086 -0.0074561792 -0.38366824 0.29420146 -0.16673014
-0.24878158 -0.23897062 -0.26196894 0.0565702 0.07702035 -0.039607987 0.6303813 0.13992877
-0.074177705 -0.25269645 0.00023525585 0.035919905 0.05138664 0.16886492 -0.2273955 0.13565011
0.10123885 0.176157 0.04561282 -0.12344641 0.006537986 0.06685428 -0.19433233 0.3563512
-0.37243056 0.323247 0.40147755 0.03812262 0.17124021 -0.21606801 0.2720458 0.12101819
0.113785625 0.09161545 -0.34018528 0.19929324 -0.14911108 -0.1549204 0.14335693 -0.110763066
-0.12870416 -0.17129084 -0.023347277 0.1431929 0.17694087 -0.98915267 -0.6179238 0.46488184
0.02769013 0.11580357 -0.08241106 -0.5579661 0.15181784 -0.051519662 -0.09589513 -0.3159468
-0.11671328 -0.37246937 -0.06180802 0.021070445 -0.47292808 -0.09367244 -0.5393803 0.014590056
-0.34354427 0.19667362 0.17709132 0.3379322 -0.34485117 0.09514265 0.24367937 0.17659588
0.15074186 0.25709277 0.18892922 -0.047422186 -0.037695114 -0.2704396 0.05276226 0.3429108

bias f4 [60]
00000000: e202 3f3d 1dcd 1ebd d76e 7b3d 0e81 f43b
00000010: a139 dcbd 042f 83bd bba8 6cbc d422 35bb
00000020: 88d1 613e cc86 38bc da89 783e 0a0a f93d
00000030: d099 543e 2365 943b 6017 773e 6427 e93b
00000040: f4b8 473e 596a b13d 12f0 503e 1cff 683e
00000050: 1753 053e e2bb b73d 18db 703e 3b53 7f3d
00000060: befd df3d 5c41 303e 45b2 4cbc a226 0d3e
00000070: dafd cc3d d0ae 04bd d40b 073e 4557 223e
00000080: 5249 ae3d a218 3cbe fe66 783d 8c54 383d
00000090: 1510 b23d d51e 4e3e 5ebc 663d b85b 59bd
000000a0: 39b5 2e3d ecac c53d 2fc1 9e3c db54 b03b
000000b0: ce7a 0c3e dff2 523c 54e0 4ebe 4427 613e
000000c0: 8b1c 723e e7b0 0b3e 6374 cf3d 775f 89bc
000000d0: b32b 19bd 140c 633e 46f4 5f3e 0b3d ba3c
000000e0: 6998 8ebc a511 13bd 09b0 bd3b 2340 963d
0.04663361 -0.03876983 0.061385002 0.0074616736 -0.10753179 -0.06405452 -0.014444525 -0.0027639167
0.22052586 -0.011262607 0.24271336 0.12160118 0.207618 0.004528658 0.2413001 0.0071152914
0.19504148 0.08662862 0.2040408 0.22753567 0.13019978 0.08971383 0.23521078 0.062335234
0.10937069 0.17212433 -0.012493675 0.13784268 0.10009356 -0.032393277 0.13188106 0.15853603
0.085100785 -0.18368772 0.060645096 0.045002505 0.08694474 0.20128949 0.056331985 -0.053065985
0.042653296 0.09652123 0.019379226 0.0053812093 0.13718721 0.012875288 -0.20202762 0.21987635
0.23643701 0.13641702 0.10129621 -0.016769154 -0.03739519 0.22172576 0.21870527 0.022734186
-0.01740666 -0.0359055 0.0057888073 0.07336452

weight f4 [60, 60]
00000000: 13a5 c2bb 54e8 b03e b111 d23d b145 9abc
00000010: 84d9 dabd 27d6 28bf 0f1b 593d 80d6 0d3f
00000020: 9272 2d3d 1814 6ebd 1a84 aa3c 30c8 b3be
00000030: 33ab 033d 0764 08be 4114 a43c cd71 2cbf
00000040: a3a2 373e 2490 79be 5d49 9dbd 5599 01be
00000050: e8e4 043e d4f9 d1bd 3e7b 0cbe a00d c0be
00000060: f569 89bc c944 833e 28de 313d 8f11 103e
00000070: 066a e2bd 6d9d 113e a9e1 763d e808 ff3d
00000080: 11e4 9c3d f69f 0fbe aad8 e63c c34d 4bbe
00000090: 74d1 6cbd 7ed1 c33d 5e80 86bd 77af b93d
000000a0: f19d 52bf 059b e63d 67fc 973d 6779 c53e
000000b0: 8c98 a4bd 24d9 00be 1e3f 25bf 82d6 7f3e
000000c0: badf a83d 32bd 82bd 8be3 833d 6f3d 9f3e
000000d0: 13b0 b83e c9e7 6dbd e5af 823d 03b4 4a3d
000000e0: d3cb abbe 1063 92bf 91c2 87be 0f48 443e
000000f0: 1a85 903e 4347 053e 5d38 a43d e062 c6be
00000100: 7400 493c 980c 293e 2319 093e 167d 7f3e
00000110: 3935 69be 1ec4 13be e569 803e 40ca aabd
00000120: dd38 5c3d 63c3 a03e c802 9b3c d77d b0be
00000130: adae 7ebd 0fc7 7d3e 3495 adbe c27c 833e
00000140: 67b3 ae3e 32f2 64be 7da9 9b3e fc9d b03d
00000150: 4645 083e 7352 223e 0ee4 a9be f621 393e
00000160: 9e32 703e c447 ebbc 360f 60bd 0920 3ebe
00000170: ccba 5a3e 8052 c73e 0827 0a3e ca6b a6be
00000180: a135 013d 9ffa 79bd 1fcc b4be 63ee 963e
00000190: d8bb b13e 91d1 b73c 0743 b9be 7cd8 a2be
000001a0: eb8a 183e 33a6 20be f1dd c33d 2d81 dd3b
000001b0: 6d83 07be cbc7 623d 1061 1cbd 75b8 86be
000001c0: 0e62 3e3e 1ce6 093e b495 9d3c 3112 a5be
000001d0: fcac 9b3e 535a 61be a375 70be b531 8dbe
000001e0: 6fe9 97bd f75f 993e bc2c 493e cb30 4abe
000001f0: 4ca4 a4be 6232 a13c 5bea 303e 8503 463c
00000200: 8f80 493e 9c8f db3d 2b23 603c 3b56 a33d
00000210: 419e 053e 9084 71bc 936f bebd 4d4e 41bf
00000220: 2625 07be 55cb 0b3e 5fae d33d ca8f 32bc
00000230: 4807 e23d 3e21 00be 519c 313e 0fa7 4a3e
00000240: 1161 73bc e0e0 1d3d f9cb a33e dd3b 9b3d
00000250: 93fe 48bc 067b 01bf 8032 c63e 303d 3e3d
00000260: a7b8 67be 9928 bc3c fbbc 1d3e 9129 b6bc
00000270: 6e81 363e 9a88 f43c 6ca7 403e a6e8 c1bd
00000280: 5938 c6be 3bab b13d 0816 bebd f43d 033d
00000290: 1400 e9bc 7076 63bf cbb9 4b3f 37af 803c
000002a0: ab6b 55be a42e bb3c 79df 14bc 7775 a5be
000002b0: e6c8 c13d 17d7 523d e6f6 02be 2f3a a63d
000002c0: 6637 4e3e 452b 50be bd4e 39bd 7b3b 2e3c
000002d0: 1885 1b3e 3590 be3d ffad 94bd b086 283e
000002e0: 6840 6e3e bdcf 073e 6b73 ddbe f34d bcbe
000002f0: 74bf 693e 7e35 fb3c b673 7abd 3d46 5d3e
00000300: 9ba3 7dbe 5d02 c93d 925b 043e 20bb df3e
00000310: 9ec2 f1bc 3bd4 81be 2acb 2a3d 04e9 fdbc
00000320: dc46 8e3c 1aca 183f 7b42 4fbe 33a0 d33d
00000330: 2826 6cbd ebcf 0b3e b51a fbbc 1922 5ebe
00000340: e3eb 2abd 00d6 903e 66e5 0abe 27e5 e7bc
00000350: fe4c 963e add0 93bd d9e9 893c 3653 013e
00000360: 8a2e 0ebd 8314 9f3d 6f06 98bc 916b ebbd
00000370: d405 483c d8e4 ba3c 60aa 623e 00bd 853d
00000380: 7de9 01be 0bbc 393f ef1e 68bf ec0b 483b
00000390: 12c6 863e f3e2 463e ddd8 f13d 0e7a 31be
000003a0: 9770 85be 8b21 7a3e 60b3 5e3d c9ba 1c3e
000003b0: 9820 34bd ca3b 313e b2ea eebd d72f 053f
000003c0: f98f e93d 0725 8e3e 9255 3a3e 0b23 623e
000003d0: 635b 3bbe d2d2 eebc c04e 543e 0553 48be
000003e0: 8d6f 343e 37a1 233e 3eb1 21bd 60aa be35
000003f0: 3815 f43d e0cd 80bd 45ce b3bd d9a7 44bf
-0.0059400885 0.34552252 0.102572806 -0.01883206 -0.10686019 -0.6595177 0.05300432 0.55405426
0.04234559 -0.05812463 0.020814944 -0.35113668 0.03214569 -0.13319407 0.020029189 -0.67361146
0.17933135 -0.24371392 -0.076800086 -0.12656148 0.12977946 -0.10252729 -0.13718888 -0.37510395
-0.016774157 0.25638416 0.043424755 0.14069198 -0.110553786 0.1422021 0.0602738 0.124528706
0.07660688 -0.14025864 0.028179485 -0.19853882 -0.057816938 0.09561442 -0.06567453 0.090666704
-0.8227225 0.112600364 0.07421189 0.38569185 -0.080369085 -0.12582833 -0.64549434 0.24984172
0.082457975 -0.063837424 0.06439885 0.31101558 0.36071834 -0.058082376 0.063812055 0.04948808
-0.33553943 -1.1436481 -0.2651563 0.19168113 0.28226548 0.13015465 0.08018563 -0.3874731
0.012268174 0.1650871 0.13388495 0.2495006 -0.22774209 -0.14430282 0.2508079 -0.083393574
0.053765167 0.31399068 0.018922225 -0.34471008 -0.062178303 0.24782966 -0.33902895 0.2568112
0.34121248 -0.22358015 0.30402747 0.08623883 0.13307676 0.15851764 -0.33181804 0.18079361
0.23456809 -0.028720744 -0.054702006 -0.18566908 0.2136032 0.3893013 0.13491452 -0.32504112
0.031545285 -0.061030027 -0.35311982 0.2947875 0.34713626 0.022438796 -0.3618395 -0.3180579
0.14896743 -0.156884 0.09563816 0.0067597837 -0.13233729 0.05536632 -0.038178504 -0.26312605
0.18592092 0.13466686 0.019236423 -0.3224044 0.30405414 -0.22007112 -0.23482375 -0.27576986
-0.07417571 0.29956028 0.19645971 -0.19745176 -0.321566 0.019677345 0.172769 0.0120858
0.19677947 0.10720751 0.01368026 0.079754315 0.1304865 -0.014741078 -0.09298625 -0.755101
-0.13197765 0.13651784 0.10335993 -0.01089854 0.11036545 -0.12512681 0.17344786 0.1979029
-0.014854685 0.038544536 0.31991556 0.075797774 -0.0122677265 -0.50578344 0.38710403 0.04644507
-0.22629033 0.022968577 0.15404122 -0.022236617 0.17822811 0.029850293 0.18813866 -0.09468202
-0.38714865 0.08675238 -0.09281546 0.032041505 -0.02844242 -0.88852596 0.7958037 0.015708549
-0.20841853 0.022849388 -0.009086483 -0.3231618 0.094621465 0.051474657 -0.12789497 0.081165664
0.2013832 -0.20329006 -0.045241106 0.010634298 0.1518749 0.09304849 -0.072597496 0.16457629
0.23266757 0.1326284 -0.4325212 -0.3677822 0.2282694 0.030665156 -0.061145507 0.21608825
-0.24769442 0.09814904 0.12925556 0.43697453 -0.029511746 -0.25357231 0.04169766 -0.0309949
0.017367773 0.5968338 -0.20240204 0.1033329 -0.057653576 0.13653533 -0.030652383 -0.21692695
-0.041728865 0.2828827 -0.13564071 -0.02830751 0.29355615 -0.07217536 0.01683514 0.12629399
-0.03471235 0.07767584 -0.018557755 -0.11495126 0.012208421 0.0228142 0.22135305 0.065301895
-0.12686725 0.72552556 -0.906722 0.0030524684 0.2632299 0.19422512 0.118089415 -0.17331716
-0.26062462 0.24426858 0.054370284 0.15305628 -0.043976396 0.17307964 -0.11665858 0.5202612
0.11404414 0.27762625 0.18196705 0.2208368 -0.1829658 -0.029153261 0.20733166 -0.1956292
0.17620678 0.15979467 -0.039475672 1.4205689e-06 0.1191811 -0.062892675 -0.08779577 -0.76818615

bias f4 [60]
00000000: 4446 773d 7def db3d 8d3c a13c 363f 96bd
00000010: 73d8 1f3d f4e6 23be de2f dc3c 2618 38bd
00000020: c1c5 71bd 7fcc 9abd dd59 193e e783 acbd
00000030: 5be8 73bd e783 f73c 7128 56bb d153 ba3c
00000040: 0701 79bc 78a0 fb3d bf6b 2dbe 0e1a 0cbd
00000050: 19cf cdbd 029c 42be ea61 8cbd d5e1 413e
00000060: 2dda b1bd 78e0 5c3c 3018 8fbd b3cd 993d
00000070: a924 a7bd 73e8 173e 4538 98bd e296 2e3d
00000080: 5def 55bc 25ca bebd 3ac7 b23d 9eb3 b13d
00000090: 3d67 423c 7bc5 17bb 35bb 963c 1783 5b3d
000000a0: 6bfa 0dbe dc1b 9c3d 1bbc fa3d 2061 363d
000000b0: 051a 2a3c fa67 8b3c 88b0 0b3c cd4b 1b3e
000000c0: 12da eabd 525c f7bd 3795 b33d 9cf6 e53d
000000d0: 0f14 f6bd 812f 3d3d fb5a 68ba dcdf 82bd
000000e0: d89e 103e bba5 563c b9a6 2f3e be9c 94bd
0.060369745 0.10739038 0.019682193 -0.07336275 0.03902478 -0.1600607 0.026878294 -0.044944905
-0.059026483 -0.07558536 0.14975686 -0.08423596 -0.059547763 0.030214263 -0.0032677914 0.022745045
-0.015197999 0.12286466 -0.16935633 -0.034204535 -0.10049266 -0.19004825 -0.06854613 0.18933804
-0.08684192 0.013481252 -0.06987035 0.07509937 -0.08161289 0.14834766 -0.074326076 0.04262436
-0.013057557 -0.093159 0.08729406 0.086768374 0.011865434 -0.002315848 0.018399814 0.053591814
-0.13865058 0.07622501 0.122429095 0.04452622 0.01038218 0.017017353 0.008525975 0.15165634
-0.11467375 -0.120781556 0.08768695 0.11228678 -0.120155446 0.04618788 -0.0008863655 -0.06390354
0.14123094 0.013101037 0.17153443 -0.07256459

weight f4 [60, 60]
00000000: f74e d13e da45 4abd 047f 213e 52a7 6ebe
00000010: d318 993e 7426 033f 97a7 ad3e f3ff d73d
00000020: bf28 193e f4e1 9a3e d597 5d3d 1cbb 6d3d
00000030: b28c f8be bc8a 723e b56a 253e 9ae6 59bd
00000040: 7ef3 e6bd fcd9 153e 32bc a8be 86fe 953d
00000050: 14e5 0c3f 441f 8b3e 04c3 2c3e 753a 3b3c
00000060: f5c8 ad3e a51a dcbf 2909 793e e125 4abe
00000070: 0069 28be 93cf 083e c490 cebe 1202 61be
00000080: 5ed3 6ebe 7c02 f4bf e5d5 883d 4f1f 1e3e
00000090: 35db c4bc 20f1 14bd e167 64be 1374 c5bd
000000a0: 908f b2bd c3c1 34bd 292f d33d a06b b3be
000000b0: 6edb dfbd ec8d 29be 109a e3be f049 1e3e
000000c0: ff0e 0d3e a7e3 b2bd ecbe a5be 60b7 023d
000000d0: 0586 44bd e868 803f c78c 273e 8dbb 483e
000000e0: 4086 ef3c 9b32 fcbd 4945 b8bc fe25 d13d
000000f0: c8a7 ba3c 790d 03be 9817 913c 2179 e9bd
00000100: de97 ccbd 7617 9a3d 2f0b ae3c 5893 ef3b
00000110: b20c 5a3d 7813 e83c a7bb ba3d 9d17 e2bd
00000120: 709f 1bbc 6fdb d3bd 6263 e2bd f884 1bbc
00000130: 5864 77bd fa45 cabd b64c f93d 56a1 5c3c
00000140: 1084 f03d bb2d acbd 46f1 a13c 913c d1bc
00000150: da0c bebd 20f1 41bd d67c 24bd 65dc 2ebd
00000160: 0eee b23d 100f 82bd 4590 033e e256 f7bd
00000170: 20cd dbbd 6074 f03d dec2 943d f83e 733d
00000180: 7699 eabd 3bd3 07be 944b 06be 38f9 34bd
00000190: b004 53bc bceb 86bd 2042 f03d 8856 223c
000001a0: 2c1d d93d 00e5 243c cc19 be3d f99e bebd
000001b0: af8b 93bd c16b ba3d 4a54 8ebd dc42 603c
000001c0: 8bf6 633d 9e6a e33d 3eb0 d2bd f80d 24bd
000001d0: 8334 dcbd 92c7 6bbd c7ba f93d ec1e d4bd
000001e0: 0839 d3bd af5e 45bd 7238 a73e e97e 0ebe
000001f0: fb7b 373e 0b10 8b3d 1bf2 aa3e 88e7 04bd
00000200: 5886 013e f7b6 a03e c5b9 ae3c aa25 223e
00000210: d534 73be 93e2 9ebd 6b47 073e 54f4 9f3d
00000220: 28b1 023e dd88 b1bd b15a 3dbe e168 9e3e
00000230: f266 f43e 9681 5c3e b5d3 513e 82f3 843c
00000240: 4c0b aa3e 2ed9 67bf e60f 763e 8f4b 92bd
00000250: 8406 d43d 966c 343d 50d9 bbbe dff4 253d
00000260: 4a95 6bbe 0de7 cabf 5dff 9b3d 87b5 8f3d
00000270: b6fc a6bd 5c9d 0e3d 0fd8 ebbe 678a f53c
00000280: daae 8bbd 87e9 04be 298e 643e 0bf7 973c
00000290: 12ac 953c 247f 40be 7fb4 57be b5d4 053d
000002a0: e1ae dc3e 2ed8 673d d8f3 14bd 2873 873d
000002b0: 7142 483e 244c a03e fd1c 173e 07e6 a53e
000002c0: 6a30 05be ea64 42be fbe2 c9bf 326f ebbd
000002d0: 4872 0e3f b438 873e 99ad 77be 6070 15be
000002e0: c02f 0bbe 09e9 62bd d6fc 6abd bba2 2a3c
000002f0: b628 36bd fe9f abbe c867 303e dea3 873b
00000300: 6372 bebe 3c4e fdbd 12ba b63c ace7 913d
00000310: ed3b afbd b9c3 7e3e d0e3 913d 7154 87be
00000320: f8d2 cfbc 7185 ef3d 155f 0bbe 2f41 823e
00000330: e855 493e 8de2 1f3f 1965 723e d358 08bd
00000340: d6ec 0c3e 1335 c73d 69e9 593e a67e 853d
00000350: 254f b43e 734c 2e3f 0d4e cfbc 748b 2e3e
00000360: 55a6 fb3d 3b90 60be b20d 583f c348 863e
00000370: 4135 d3bd 13bf 06bc 2e30 163e 3fc8 493e
00000380: 75cb 4c3e 48e6 19be 3e8c 17be 7f09 f13c
00000390: 05eb 3a3c 81b6 11bd f8a4 463d 8433 2abd
000003a0: b6d2 79bd de2d 88bc ab2d 16be a4ae 4b3f
000003b0: c808 713e ce72 7fbe b226 49be 8c66 d2bc
000003c0: 411d 473f a514 1a3e 4614 2d3e a631 cdbd
000003d0: 611b 643d b76d 073e 0673 6b3e 1c03 a5bd
000003e0: b368 1fbd 9bee 02bc d50a 503e b522 873d
000003f0: 5cff f7be dd77 f8be 910b 1f3e 4e07 5e3d
0.40880558 -0.049383022 0.15771109 -0.23306015 0.29901752 0.5123055 0.33916923 0.10546865
0.1495695 0.30250514 0.054099876 0.05803977 -0.48544842 0.23685735 0.16153987 -0.053198434
-0.11276911 0.14633936 -0.32956082 0.07323937 0.55037045 0.2717229 0.16871268 0.011427511
0.3394238 -1.7195631 0.243199 -0.19741012 -0.16446304 0.13360433 -0.40344822 -0.21973446
-0.23322818 -1.9063258 0.06681422 0.15441631 -0.024030307 -0.036362767 -0.22305252 -0.0964128
-0.087187886 -0.044130098 0.103117295 -0.3504305 -0.10930525 -0.16558045 -0.44453478 0.15457892
0.13775252 -0.087348275 -0.32372224 0.03191316 -0.047979373 1.0032015 0.16362296 0.19602795
0.02923882 -0.1231434 -0.022493975 0.102123246 0.022785082 -0.12798108 0.017711446 -0.11400057
-0.09989904 0.07524006 0.021245567 0.007311266 0.053234763 0.028329596 0.09117823 -0.1103966
-0.009498462 -0.10344588 -0.11054112 -0.009492151 -0.06039843 -0.09876628 0.121728346 0.0134662
0.11743939 -0.0840716 0.019768368 -0.025541576 -0.09279795 -0.047349095 -0.040158115 -0.042690653
0.087368116 -0.06350529 0.12848003 -0.120771185 -0.10732484 0.11740947 0.072637305 0.059386224
-0.114550516 -0.13264172 -0.13114768 -0.044182986 -0.012879536 -0.065879315 0.11731362 0.009908326
0.10601267 0.0100643635 0.09282264 -0.093076654 -0.07204377 0.09102584 -0.069496706 0.0136878155
0.055655044 0.1110432 -0.10287522 -0.040052384 -0.10752203 -0.057563372 0.12193828 -0.103574604
-0.10313612 -0.048186 0.32660252 -0.139156 0.17918389 0.06790169 0.33387837 -0.032447368
0.12648904 0.3138959 0.021328816 0.1583468 -0.23750623 -0.07758059 0.13210838 0.07810274
0.12762892 -0.08668683 -0.18491627 0.3093939 0.4773479 0.21533808 0.20490916 0.016229395
0.33211744 -0.90565765 0.24029502 -0.07143318 0.10352805 0.044048868 -0.36689234 0.04051673
-0.23006168 -1.5851761 0.07617066 0.070170455 -0.081536695 0.03481804 -0.46063277 0.029973222
-0.0682046 -0.12979709 0.22319855 0.018550416 0.018270526 -0.187985 -0.21064948 0.032673556
0.43102172 0.05660265 -0.03636536 0.06613761 0.19556595 0.3130809 0.14757152 0.3240206
-0.1300675 -0.18983808 -1.5772394 -0.11495818 0.5564313 0.2641045 -0.24187316 -0.14593649
-0.13592434 -0.05539802 -0.05737003 0.0104147745 -0.04447242 -0.33520502 0.1722709 0.0041394075
-0.37196645 -0.12368438 0.022305522 0.07124266 -0.08556352 0.2487935 0.0712353 -0.2643161
-0.025369152 0.11695374 -0.1361049 0.25440356 0.19661677 0.62455064 0.23671378 -0.033287834
0.1376222 0.0972692 0.21280445 0.06518297 0.35216632 0.680854 -0.025305772 0.17045385
0.12287585 -0.2193002 0.843959 0.26227388 -0.10312892 -0.008224267 0.14666817 0.19705294
0.19999488 -0.15029252 -0.14799592 0.029423473 0.011408572 -0.03557444 0.04849717 -0.041553035
-0.060991965 -0.016623434 -0.14665858 0.79563355 0.23538506 -0.24946138 -0.19643667 -0.025683664
0.7777901 0.15046938 0.16902265 -0.10019235 0.055690173 0.13225447 0.22993097 -0.08057234
-0.03891821 -0.007991458 0.20316632 0.06598417 -0.4843701 -0.48528948 0.15531756 0.054206185

bias f4 [60]
00000000: f36f 393d ff43 3cbc 3fc4 8e3b faa7 c43d
00000010: 377e 0bbe 1223 0bbd 23ed d2bd e4e2 613e
00000020: a264 333e 4599 c7bd c4e8 c03d 0477 9b3e
00000030: e32a 4bbd 334a aebd 12e0 d6bd bed6 42bd
00000040: 04d7 253e 6c51 72bd 6f43 06be 3752 8c3e
00000050: 3217 8ebd 3311 b43d a7fd a23d 3976 6ebd
00000060: d982 313d 2111 a63d fc60 1d3e adec dd3d
00000070: cc72 b4bb 1cf8 873d f008 553d 43d2 873c
00000080: 46a0 d43d ae60 3dbe f91e 653c dee7 513e
00000090: 8ee5 f83d e727 173e 96fd ebbd f159 513e
000000a0: 4835 ccbd 4fc7 7e3d 594f 503e 6f62 a83d
000000b0: f86c 113e 697d 2bbd 3b06 c2bd 2748 db3d
000000c0: c5e5 563e a4da 40be 93ed 8abd 7a89 b4bc
000000d0: 1680 7cbd 7bfd 16be a38e b9bd 0a52 2a3d
000000e0: 16c7 c3bd 34a3 3b3d dff5 a6bc 9003 65bd
0.04527278 -0.011490821 0.0043568905 0.096023515 -0.13622366 -0.033968993 -0.102991365 0.22059208
0.17518857 -0.09746031 0.094193965 0.3036424 -0.049601447 -0.08510246 -0.10491957 -0.047568075
0.16195303 -0.05915968 -0.13111661 0.27406475 -0.06938018 0.08792343 0.079585366 -0.058218215
0.043337677 0.08108736 0.15369028 0.10836158 -0.005506849 0.0663912 0.052010477 0.016579753
0.10382132 -0.18493912 0.013984435 0.20498607 0.12153159 0.14761315 -0.11522977 0.20444466
-0.099711 0.062201794 0.20342769 0.082219 0.14201725 -0.041867647 -0.094738446 0.10707121
0.20986088 -0.18833405 -0.06783595 -0.02203821 -0.06164559 -0.14745133 -0.09060409 0.041582145
-0.09559457 0.04580994 -0.020380912 -0.0559116

weight f4 [60, 60]
00000000: 5e78 b7be 6fdb 8f3d fb7f 95bd 55c8 d73d
00000010: cac8 82be 6b14 7f3e 6366 c93e 1c21 893d
00000020: f463 903e c0a1 173e 49ba 283d 79ec fb3d
00000030: 0451 9f3e 4403 4bbe b26d 893e 2968 443e
00000040: 7cd0 b23e 7652 083c aacc 03be ca12 ff3d
00000050: 68bb 463d 343f d8bd 0a8b 7d3e 16ef 1ebe
00000060: 722a 483e b08d 4abc 509b 58be 6769 183e
00000070: eca3 debd e60b 3dbe 5e78 bc3d 1f8c 333e
00000080: 86ac ba3d 813d 79be b056 b63e 843d 6c3d
00000090: e562 623d e615 04be faee b8bd abf4 343e
000000a0: b8f8 4a3e d4ce 00bd 0164 7bbc 71f0 5c3e
000000b0: 584d 033f b5aa 033e 94a7 3a3e 0e21 943d
000000c0: a892 29be da65 653e 570d 3abe 2106 9d3e
000000d0: d13b 94be fed5 babc 1d93 03be 21d3 cb3d
000000e0: 6b5f 60bd dde3 85bd 7803 45be 7325 52be
000000f0: 5dc1 48bd a93d b73c 5b2c de3c d252 31bc
00000100: 039e 223e 74d9 be3d 6ae0 eebd 82ef b53e
00000110: 4ccf e23d 02c4 643e dfb4 933e 508b 4a3e
00000120: a478 d6be fa63 993b 7736 8f3e b7b5 a13c
00000130: cbaf 62be 04cd 0b3d d4ca 37bd 89ca ee3e
00000140: 9dcc e8bd 28d0 24be 5759 b9be a0a4 f43e
00000150: 183b cbbd 7ab0 7e3a 3ee9 95bd be91 ac3d
00000160: eb3d 963d 65b7 75be 5dac a33e 864e 41bc
00000170: 5f1f 043c 3cd8 0c3f b383 a43d 9dd6 c83e
00000180: 377f 01be b463 b5bc a710 fabd 238b 323e
00000190: d036 31be ca1f a03e 6260 853e ebbe b3bd
000001a0: 0c70 e4bc 7e81 a0be 4660 d9bc 476f 8a3e
000001b0: a8d4 993e 8fa3 683d 5574 fcbd 7336 90be
000001c0: a08b 823e 08c5 05bd f4cb d23e 1e11 163f
000001d0: d45d 223e 884c 883e 7ff4 883c 7df8 603e
000001e0: 718d 00be d765 9e3d e168 43be c888 643e
000001f0: df96 0c3b ae4f 693e d4d0 22bd 8aa4 e73e
00000200: 208e 603e 9ddc 963e 0207 533e ee46 2a3e
00000210: ae27 aabe da2d fa3c d830 e73e 771f 1bbe
00000220: e29b 243e 2960 ec3c 3045 39bc 1f91 ec3e
00000230: 8456 2dbd ab07 68be 1006 78be c6f2 303e
00000240: 294b 143e c7a3 bf3d 0006 c6b9 b1aa ab3e
00000250: e637 483e b0de abbe a859 d03e 36c7 96bd
00000260: cc42 0fbe 87db dc3e 941c 423e b9a4 b83e
00000270: c812 febd 0e92 a9bc 7aff d13d 4c8e dc3b
00000280: 1c18 44bd 2736 8c3e 3b72 2b3e 1406 203e
00000290: 157a c1bd 65bf a4be d9a3 843d 4692 103e
000002a0: 87e6 583e f7a1 9d3e 19c9 07be d56e 79be
000002b0: 0fab 4a3d 9a15 96be 4ddb 963e 359b ee3e
000002c0: aaa7 023e 6ab0 653c 1891 8dbe 44d4 08bd
000002d0: ffdf 8a3d c8ba 3e3d 1a89 5cbd 20f2 3f3d
000002e0: bba6 983e 556e 6c3d 2815 4c3d 4cb4 9dbe
000002f0: a02e 94bd 8280 9abc 26e4 843d d55c 6cbe
00000300: ca7a 2abb 58b0 9abd 100c fabc 889c 6b3d
00000310: c1dc 513c dfaf 2cbc 404e 1a3b bbaf 1ebd
00000320: 8323 04be 97e5 0dbc 9253 143f c38f 77be
00000330: bc61 9f3d b2a0 0b3e 0dac d73e e0c5 eb3d
00000340: cefe 65bc 2002 e73e 08d0 3abe 6757 043e
00000350: 5b59 083f 285d 483f 7730 603e afac 9cbe
00000360: a03d 153d e565 32be c219 833d 0c56 9a3e
00000370: 9a35 6b3e f1f7 503d 7f93 2ebe c142 853d
00000380: a1e2 883d 1da0 0b3e 0a2c 753e ea97 a3be
00000390: c032 26be a448 5a3e b74b 29bf 9feb 233c
000003a0: 340e 31be 330a 863e 9cb2 debe a4ad c8be
000003b0: 7d8d 1dbe c07c 2ebe 6e41 33bd d58b d23d
000003c0: c54f af3e 10b9 e7bd c240 be3e ad33 4dbe
000003d0: d366 363e e69e 77bd 5d62 febd 9b4c 45bd
000003e0: bd83 15be 2813 693d acbb 04bd e5fd ddbb
000003f0: 535e 24be fd69 d93e bb23 d4bd 5f30 3fbe
-0.3583402 0.070242755 -0.07299801 0.10536257 -0.25543815 0.24910133 0.39335927 0.06695768
0.28201258 0.14807796 0.04119328 0.12300963 0.31116498 -0.19825464 0.26841503 0.19180359
0.34924686 0.0083204415 -0.12871042 0.124547556 0.04851857 -0.1055893 0.2476007 -0.15520892
0.19547442 -0.0123628825 -0.21152997 0.14883958 -0.10871109 -0.1846157 0.09202646 0.1753392
0.091149375 -0.24339868 0.35613012 0.057675853 0.055270094 -0.12898979 -0.09029956 0.17671458
0.19821441 -0.031447247 -0.015343667 0.21576096 0.5128989 0.12858088 0.18227988 0.07232867
-0.16559851 0.22402135 -0.18169151 0.30668738 -0.28951886 -0.022807118 -0.12849088 0.09952379
-0.054778498 -0.06537602 -0.19239604 -0.20522098 -0.04901253 0.022368269 0.02712076 -0.010822969
0.15880589 0.0931882 -0.11663897 0.35534292 0.11074695 0.22340396 0.2884893 0.19779706
-0.41888916 0.0046811076 0.2797124 0.019739969 -0.22137372 0.034131065 -0.044871166 0.46638897
-0.11367152 -0.1609503 -0.36200973 0.4778185 -0.099233806 0.0009715628 -0.07319878 0.084262356
0.07336029 -0.2399574 0.3196744 -0.011798507 0.00806412 0.5501745 0.08032932 0.39226237
-0.12646185 -0.022142269 -0.122102074 0.17435889 -0.17306066 0.31274253 0.26050097 -0.08776649
-0.02788546 -0.31348795 -0.026535165 0.27038023 0.30045056 0.056796607 -0.12326876 -0.2816654
0.2549715 -0.032658607 0.4117123 0.5861987 0.15856105 0.2662089 0.016718147 0.21969791
-0.12553956 0.07734268 -0.19082977 0.22317803 0.002145223 0.22784302 -0.039749935 0.4524272
0.21929216 0.2946519 0.20608142 0.1662862 -0.33233398 0.030539442 0.45154452 -0.15148722
0.1607509 0.028854446 -0.0113079995 0.4620447 -0.042318836 -0.22659175 -0.24221063 0.1728011
0.14481796 0.0935741 -0.00037769973 0.33528665 0.19552574 -0.33568335 0.40693402 -0.07362215
-0.13990325 0.43136236 0.18956214 0.36063173 -0.12405926 -0.020699527 0.102538064 0.0067308303
-0.047874555 0.27385065 0.16742794 0.15627319 -0.094471134 -0.32177272 0.06476564 0.14118299
0.21181689 0.30787632 -0.13260306 -0.24358685 0.04947954 -0.29313356 0.29464188 0.4660279
0.12759271 0.014019111 -0.2764976 -0.033405557 0.06781005 0.046564847 -0.053841688 0.046861768
0.29814705 0.05772241 0.049824864 -0.30801618 -0.072354555 -0.018860105 0.06488828 -0.23082288
-0.002601313 -0.07553166 -0.03052333 0.057522327 0.0128089795 -0.010539978 0.0023545176 -0.03874181
-0.12904172 -0.0086606955 0.5794002 -0.24175934 0.07782313 0.13635519 0.42123452 0.11512351
-0.014037801 0.4511881 -0.1824342 0.12923966 0.53261346 0.78267145 0.21893488 -0.30600497
0.036435723 -0.17421682 0.06401397 0.30143774 0.22969666 0.051017705 -0.17048453 0.06506873
0.06683851 0.13635297 0.23942581 -0.3195184 -0.16230297 0.21316773 -0.66131157 0.010004907
-0.17290574 0.26179656 -0.43495643 -0.39194977 -0.15386005 -0.17039776 -0.04376357 0.10280577
0.34240547 -0.11314595 0.3715878 -0.20039244 0.17812662 -0.06045427 -0.12421105 -0.04816876
-0.14601035 0.056903034 -0.03240554 -0.0067746514 -0.16051607 0.42463675 -0.103583775 -0.18670796

bias f4 [60]
00000000: 85c3 a23d 1988 f53d 4b1b 483d bbd4 0fbe
00000010: e859 093c 25d4 0d3e 178e 00be 8241 03bd
00000020: 29db 2bbd e03c 323c 47ab 66bd cfca b8bd
00000030: 89f5 bdbd 3117 08be eb39 f9bd a6fa 16be
00000040: 3b1e ab3d ec72 823e 1595 333e 961d 86bd
00000050: 2055 853e e856 a1bd be1a 00be a7d5 d03e
00000060: 625e 3cbe a258 49be 1abb bf3e c964 2e3e
00000070: 98cf 803e 6577 443e c256 cf3d 7281 09be
00000080: 313f eb3d 4a3c b1bb b9f8 913e cb65 61be
00000090: 656a 68bd 0c06 fb3d 8a19 103e 4fdf fcbd
000000a0: 6281 74bd 9267 033f 2da1 70be 63d1 febd
000000b0: 8e49 97bd 2715 52bc 7c4f 313e 718a 543e
000000c0: 5c49 83be f3df 983d 44bf d7bd 8ac6 3abc
000000d0: 411a cdbd 3e5e a03e 2660 5d3d 4d2d 13be
000000e0: c183 933d 30b5 353c 49c0 0cbc 9bc1 71bd
0.07947449 0.11988849 0.048854154 -0.14045994 0.008383252 0.13850458 -0.12554203 -0.032044895
-0.041957054 0.010878772 -0.056315687 -0.09023058 -0.09275348 -0.13290097 -0.1216925 -0.14744052
0.083553754 0.25478303 0.17537339 -0.06548612 0.26041508 -0.07877904 -0.12510201 0.40788004
-0.18395379 -0.19662717 0.37447435 0.17030634 0.2515838 0.1918617 0.101239696 -0.13428286
0.11486662 -0.0054087983 0.28510073 -0.22011487 -0.05674209 0.12257013 0.14072242 -0.1234728
-0.0596937 0.5132991 -0.23498984 -0.12442281 -0.07387076 -0.012822426 0.17315477 0.20755936
-0.25641906 0.0746459 -0.10534528 -0.011399874 -0.10014773 0.313219 0.054046772 -0.1437275
0.072028644 0.011090562 -0.008590766 -0.059022527

weight f4 [10, 60]
00000000: 8456 ffbd 6f49 263e b242 ea3c ee3e 6a3e
00000010: f3b6 fe3c 2efa 933e 0f44 873d fd64 fcba
00000020: 6941 1e3e 4921 da3e 6caa c23e a46f ac3d
00000030: e590 76bd 597a dfbd 8226 fb3c 8f46 13bc
00000040: 9844 e9bd d390 df3e 803a 4d3c 10a3 5b3e
00000050: a728 4dbe 4d59 033e 2cc8 773e c803 dbbd
00000060: e8ea aebd b4bf 773d 76e6 74be cd9e 0c3d
00000070: 45df 2fbe 92ab 87bd 742d 3ebe 97d6 9e3d
00000080: 0857 463d 1903 813d 0f6a 06be 57cc f0bc
00000090: 741b 6bbe 0e22 6bbc 24eb c6be fc4c 713d
000000a0: f0ca 71bd f949 36be b9e9 8ebe a1ed a9bd
000000b0: ea33 723e 0423 8a3d ac8e 7fbd e18a e53c
000000c0: 14cd 6d3d ace8 603f 70b5 d6bc fd92 103e
000000d0: f028 823d 46f3 8cbe 9dec 6f3e bc28 053e
000000e0: 787a e83d 5b5e 123e b62d e33a b4a0 aebb
000000f0: 698f 06bf 688d 2f3e 612b 0f3d eb99 50bf
00000100: 4694 d73d 2194 ed3d cf0f 1bbd 877a 1abf
00000110: fdfd f93d c621 dbbe 254e 3ebd b001 453c
00000120: 371d a6be 5d71 0f3d 2af5 edbe 748c 0abf
00000130: 6236 31bb 89be b73e 59fd 503e d401 b0bc
00000140: 98b1 503d 80ab 943b 78c9 423e 1b5f ab3e
00000150: 11ac d2be 4c2d 1d3e e1aa 843e f8f2 acc0
00000160: 5ae6 a8bd 96f9 eabe ccc9 80bc a81d 863d
00000170: c2d4 bbbe 7ba8 0d3c cf13 633e b5ce aabd
00000180: 222f 02c0 138c 233e 6008 f9bc 7e15 d9bd
00000190: 7905 c5bd b5e1 6a3d 40a7 45be a46b fabe
000001a0: 5e6c 71c0 30b7 6f3e 5155 34be bbae 4d3e
000001b0: 44d9 d9bd 902f e73e b251 89bd 8e43 ee3d
000001c0: 074c c63e ca8a 473d 74c5 7f3d ae6e 053e
000001d0: 8d77 2ebf 5be1 fd3e 9867 17bf 9ba3 d5be
000001e0: e605 05bf 706a 5abf 5386 14bf dd4a e6bd
000001f0: a69d d83d f1df 37bd cec9 27bb ad62 0ebf
00000200: 095c 05bf 30e9 b4bd d222 a03d a0ed 4d3d
00000210: fc91 0e3e 7a96 fd3d 94ba 3e3b 2b52 033d
00000220: eb9f a13d aafa d43e 933f 2a3d f83b 22bf
00000230: 3e9c 8e3d 1064 4c3d 2ccd 7d3e c777 6cbe
00000240: f4e7 dd3d e695 73be 69c5 873e 2809 36bf
00000250: e33b e9be abae abbe ce30 cc3d 8660 4f3e
00000260: 5632 49be 1b4a b1be 25c0 1e3e 5c10 0b3d
00000270: a6be df3e 2fbd 1f3e 6531 2fbf 0068 9d3d
00000280: b824 f9bd 6219 c33d 0174 aa3e 9a60 183e
00000290: 7abd cbbc ca16 00be 9d59 1abd 31f8 1bbf
000002a0: 3c61 513e c8fe 8abf eec1 6cbd ce56 9cbe
000002b0: 922e 0b3c 0493 b8bd 1c7f d83d 36e2 85bb
000002c0: 6c2f 85bf 6c76 f43d 2f69 e23d d673 c8be
000002d0: f112 2e3b d6e4 61c0 5eed a8bf 43f2 273e
000002e0: 20f0 1b3e d55f 3b3e 0c08 e6bd 903d 87be
000002f0: e18f a5bf 6966 9b3d b92e c7be 6cd2 0c3d
00000300: 9e6e 6d3c 5d51 c03d 5f4c f1bd 7db1 873d
00000310: 7c53 a5bd 24cc 863e 49cf d1be 9a47 e9be
00000320: 45ae 69bf 784c 4fbc 987e b23e 52c9 123d
00000330: 3a2f 093e aa63 54bf 7402 8b3e f3b9 a23d
00000340: 9b34 56bf 8d1e 0bbc 2784 85be 9bfe eabd
00000350: bfd8 bdbe 42f5 833c 3ecf a53d b289 f0be
00000360: e753 37be 0bac 0ebf 0a27 90be b2e6 79bd
00000370: c77b 773c 5680 22bf 17e9 9dbe ea94 273d
00000380: 10db 623e 86a5 ee3d 2881 2cc0 1e76 a9c0
00000390: 4072 adbb 2e6f e9be b0ed 053c c015 3fbf
000003a0: 3af4 183e 19c1 47bb 3bb2 e13c f1e8 593e
000003b0: 36ab ac3d 2b63 5b3e fe78 d03d d385 cb3d
000003c0: c501 00be 508f 3c3c 7e02 ddbc 55a6 023e
000003d0: 85d6 e93d d3da bb3d 95d2 17bd 4d72 33bf
000003e0: 3ff9 25bf 903d 31be f10b 12bf 6c5d 07bd
000003f0: 6f32 5f3e c5c6 c83d 6b0a fd3c cf92 673e
-0.124676734 0.1623895 0.028596256 0.22875568 0.031093096 0.2890181 0.06604778 -0.0019256171
0.1545464 0.4260352 0.38020647 0.08419731 -0.060196776 -0.10912008 0.03065801 -0.00898899
-0.11390036 0.4366518 0.0125261545 0.21448922 -0.20035039 0.12827034 0.24197453 -0.106940806
-0.085408986 0.060485557 -0.23916039 0.03433113 -0.17175014 -0.06624521 -0.18572026 0.077557735
0.048422843 0.06299419 -0.13126396 -0.029394312 -0.22959691 -0.014351381 -0.38851273 0.05891131
-0.059031427 -0.17801656 -0.2791269 -0.08297277 0.23652616 0.0674496 -0.062391922 0.028020324
0.058056906 0.8785503 -0.026209563 0.14118572 0.063554645 -0.27529353 0.23430105 0.1300382
0.11351484 0.14293806 0.0017332349 -0.005329216 -0.52562577 0.17143786 0.03495348 -0.8148486
0.10526328 0.11600519 -0.037856873 -0.6034321 0.122066475 -0.42799205 -0.046461243 0.012024328
-0.32444164 0.03502022 -0.46476108 -0.54120564 -0.0027040471 0.35887554 0.20409144 -0.021485247
0.050950617 0.004537046 0.19022167 0.33470997 -0.411469 0.1534931 0.2591162 -5.4046593
-0.08247061 -0.45893544 -0.015721224 0.06548625 -0.3668576 0.008646126 0.22175525 -0.083402075
-2.0341268 0.15971403 -0.030399501 -0.105998024 -0.096201845 0.057344157 -0.19302082 -0.48910248
-3.7722392 0.23409724 -0.1761067 0.20086186 -0.10637143 0.45153475 -0.06705035 0.11633979
0.3872988 0.048716344 0.062444165 0.13030502 -0.6815117 0.49585995 -0.59142447 -0.41726384
-0.51962125 -0.8531866 -0.5801746 -0.11244748 0.10576944 -0.0448913 -0.0025602463 -0.5561932
-0.5209356 -0.088335395 0.078191414 0.050275445 0.13922876 0.12382217 0.0029102908 0.032060783
0.0789183 0.41597492 0.041564535 -0.63372755 0.069633946 0.049900115 0.24785298 -0.23092566
0.10835257 -0.2378765 0.265178 -0.7110772 -0.45553502 -0.335317 0.09970246 0.20251665
-0.19648108 -0.3462685 0.15502985 0.03395115 0.4370014 0.15599512 -0.68434745 0.07685852
-0.12165207 0.09526326 0.3329163 0.148806 -0.024870623 -0.12508693 -0.037683118 -0.60925585
0.20447248 -1.0859003 -0.057802133 -0.30534977 0.00849499 -0.09012416 0.10571119 -0.0040858043
-1.0405097 0.1193665 0.110552184 -0.39150876 0.0026561583 -3.529592 -1.3197439 0.1640101
0.15228319 0.18298276 -0.112320036 -0.26414156 -1.2934533 0.075878926 -0.38902834 0.03438036
0.014491705 0.09390519 -0.11782145 0.0662565 -0.08072564 0.26327622 -0.4097846 -0.4556244
-0.9128154 -0.012652509 0.34862208 0.035836525 0.13396922 -0.82964575 0.2715031 0.07945623
-0.8367402 -0.008491171 -0.26077387 -0.114743434 -0.37079427 0.016108159 0.08096169 -0.46980053
-0.179031 -0.55731267 -0.28154784 -0.061011024 0.015105194 -0.63477075 -0.30841896 0.0409135
0.22153878 0.11652665 -2.695383 -5.2956686 -0.0052931607 -0.45592636 0.008174345 -0.7464256
0.14936915 -0.0030480085 0.027550807 0.21280266 0.084310934 0.21424548 0.101793274 0.09937634
-0.12500675 0.011508778 -0.026978727 0.12758763 0.114178695 0.09172597 -0.03706606 -0.70096284
-0.64833444 -0.1730864 -0.5704947 -0.03304808 0.21796583 0.09803537 0.030888757 0.22614597

bias f4 [10]
00000000: bfc3 05bf 5939 323d cdc1 e63b 5cae 85be
00000010: 83d2 793d 0c82 033e 34ca 493e 737a 0f3e
00000020: 4bc0 7b3d 1ee1 f7bc
-0.5225181 0.043511722 0.007042146 -0.26109588 0.060991775 0.12842578 0.1970604 0.14011554
0.06146268 -0.030258711
