NN Real data/final_trained_models/KTPM/KTPM2.pth (torch, 55855 bytes, 10 tensors)

weight f4 [60, 20]
00000000: fe5f fb3e a466 5bc0 7d3f 67c0 9f18 02c0
00000010: 0d83 283e c6b2 2ebe 0f27 c8bf 5b84 13c0
00000020: 0795 033e c2f5 6cbf ca39 973e 51cc af3d
00000030: 4ca5 27bf ee2c 113f f035 8b3f a70a 34bf
00000040: fd28 573d 99ba a3bf 44c7 8f3f 819e 093e
00000050: 39e8 83be f263 4bc0 1e56 b23f 7ce1 1dc0
00000060: 3e2d 93bf 9583 1f3f 797b 9bbf 2cd0 aabf
00000070: 22a4 453f e77d 2dbf c9b8 343e a216 693f
00000080: 8c6b 95be 39b7 f63e b654 403e 5d8c 543f
00000090: 6562 f63f 1cec d6bd c28a 973f 1669 a5bc
000000a0: 8076 3fbf 8f53 343b e0d1 913f a23e 0dc0
000000b0: 812d b7bf c855 d8be ec8f fd3e 09c4 7fbe
000000c0: 1673 d4bc 098c d8be 7b72 8e3e 0ba6 6fbf
000000d0: e616 40bf ee07 843f 8c22 ce3f 3029 10be
000000e0: d13c b2bf f6dd 73bf 21e1 c03f c83c 2040
000000f0: 16f9 8a3f 6701 583f 35f5 dabf 279d 5a3e
00000100: f8ac 32c0 9e61 9b3f 7e79 6d3f 592b b7bb
00000110: 8579 f8bd 69b0 9bbf 7de5 b63f a121 0abe
00000120: a7cd c8be 2d3d 7a3d 5fb1 46bf f109 dbbf
00000130: 3d71 6abd 4b93 17bf ae5e 56bf 7095 aa3e
00000140: cacd df3f ec0e 4ac0 c93d 45bf 5392 ef3f
00000150: 0e2f b83e 2efe 4bbf 161f 8a3f 7e1e f13d
00000160: a459 93be 054d e6be 93ee 4dbf 3695 603f
00000170: c103 f43e 43c8 2ebe d542 623d 56c5 95be
00000180: c758 3f3f cdfe 123d da77 e2bf 3b19 d33e
00000190: cce5 c03f 3795 343e 4bc3 853f de81 a1bf
000001a0: 243b 143f 8bf9 2a40 cc5d d0be a6d6 7d3f
000001b0: c9b3 5abf 24ac b23f 3046 0c40 14d9 47be
000001c0: 6d2f 30be 5e74 f6bd 00c4 80be 3e31 2c40
000001d0: 1b0e 0fbf 62f2 68be 5040 173f 0109 143e
000001e0: d19f dcbe dae7 243e 21bf 97bf 0e98 2ec0
000001f0: 5eb2 1bc0 46f0 18bf 5098 1040 3e14 16c0
00000200: 4ab9 b5bf b89b 0fbf 4c54 33bd 269d b13f
00000210: 7903 1cc0 bec2 bebd eedd f43e 5038 443d
00000220: 03c6 7f3f 5427 00c0 4de6 8e3f a43e 213f
00000230: a663 1c40 6ff9 ef3f d1b7 50c0 9e8e edbf
00000240: 47d3 d4bf d8db 2bbd fd9d 853e ff0f 293f
00000250: 41a5 22be 4d72 14bf 1da8 333e ad44 85be
00000260: 5a69 8c3f 996a b13e 100f e4be 39ec c2bf
00000270: 7c97 5e3e 31c7 893f 8382 1cbf 7623 173f
00000280: e708 503e 906e 6140 8567 883f 82df 61c0
00000290: b63b 5b3e 0fd0 d4be 5ec8 e43f 3594 7abf
000002a0: 47f3 46bf 27c2 febe 0a63 af3e 2b80 783f
000002b0: 40df 843e 21d2 313f 3c60 6c3f 6e39 f13d
000002c0: d795 793f 08c4 aabe b264 1b3f 88e0 eb3e
000002d0: 03ae 60bf d4f4 2440 5c07 6bbf 1044 23bf
000002e0: 3561 5dc0 d3be 283f d619 113f 4432 66be
000002f0: 280b d4bd 99c0 15bf 1c81 b83e f9e2 403e
00000300: 5e4c 36bf a475 1f3f fdb8 3abf 6b4f 8fbe
00000310: e517 2d3e 03b9 52bf c1b9 d8be ee28 b4bf
00000320: 3b0f 5940 2532 84bf c13e 14c0 2b6b bc3f
00000330: 23f5 563f efb7 9f3e a7a9 18bf 0540 20bf
00000340: 403e a43e 31c1 c5be 43c8 7c3e 704f b6be
00000350: ae63 33bf 9810 223f 262a 4abf 38fb 44bf
00000360: cbce 42bf 5825 adbf a1b7 99be cc27 8abf
00000370: d362 d43d 19af 17c0 38d9 c43f 8fa5 1940
00000380: 530c 66be c75a 003f 6bdf fabf 5b8a e53e
00000390: 28fe 4a40 3476 9b3f 4f73 71be 2299 f5bf
000003a0: f0cf c03f 04be cfbd 5ff9 e8be 3604 b2ba
000003b0: 5a5a 07c0 5391 463f 023c cc3e 149c f9be
000003c0: dd69 8cbf f35e 003f de33 15bf 7df7 413f
000003d0: fdcc 6c3f 49d4 bfbe df1c 6bbe cd70 e3bf
000003e0: 62ba e73e 5b5a a33f 9126 09bf 32d1 c1be
000003f0: 7578 cbbe 1d28 213f 896d 313f dfdb babe
0.49096674 -3.4281397 -3.61325 -2.0327528 0.16456242 -0.17060384 -1.563692 -2.3049533
0.12849818 -0.92562497 0.29536277 0.08583892 -0.654866 0.5670918 1.0875835 -0.70328754
0.052529324 -1.279132 1.1232686 0.1343937 -0.2576311 -3.1779752 1.3932531 -2.4668875
-1.1498182 0.62310153 -1.2147056 -1.3344779 0.7720357 -0.67770237 0.17648615 0.9105016
-0.29183614 0.48186663 0.18782315 0.8302668 1.9248778 -0.10494253 1.183922 -0.02019171
-0.7479019 0.0027515625 1.1392174 -2.2069478 -1.4310762 -0.42252946 0.49523866 -0.24977125
-0.025933784 -0.42294338 0.27821717 -0.93612736 -0.7503494 1.031492 1.6104293 -0.14078212
-1.392481 -0.9526056 1.5068704 2.5037098 1.0857265 0.8437714 -1.7106081 0.21349011
-2.7918072 1.2139165 0.9276351 -0.0055898842 -0.12132553 -1.2163211 1.4288784 -0.13489391
-0.392194 0.061093498 -0.77614397 -1.7112409 -0.0572369 -0.59209126 -0.8373822 0.33317137
1.7484677 -3.1571608 -0.770474 1.871653 0.359734 -0.7968472 1.0790737 0.11773394
-0.28779328 -0.44980636 -0.8044216 0.8772768 0.47659114 -0.17068581 0.055239517 -0.29252118
0.7474484 0.03588753 -1.7692826 0.41230187 1.5070128 0.17635046 1.0450224 -1.2617757
0.5790274 2.671481 -0.4069656 0.9915565 -0.8543058 1.3958783 2.191784 -0.19516402
-0.17205591 -0.12033914 -0.25149536 2.6905055 -0.558809 -0.22748712 0.5908251 0.1445656
-0.4309068 0.1610407 -1.1855203 -2.7280307 -2.4327617 -0.5974163 2.2592964 -2.3449855
-1.4197171 -0.5609698 -0.043781564 1.3876083 -2.437712 -0.09314488 0.4782557 0.047905266
0.99911517 -2.0024004 1.1164032 0.62986207 2.443582 1.8747996 -3.2612193 -1.8559148
-1.6626977 -0.041957706 0.26097098 0.66040033 -0.15883352 -0.5798691 0.17544599 -0.26028958
1.0969651 0.3465164 -0.44542742 -1.522834 0.21737474 1.0763913 -0.61136645 0.59038484
0.20315896 3.5223732 1.0656592 -3.5292668 0.21409497 -0.41564986 1.7873647 -0.97882396
-0.7771496 -0.497575 0.34255248 0.9707057 0.25951576 0.69461256 0.9233434 0.11778532
0.9749426 -0.33352685 0.60700524 0.4606974 -0.8776552 2.5774431 -0.91808105 -0.6377573
-3.459058 0.65916175 0.5668005 -0.22480112 -0.103536904 -0.58497006 0.36036003 0.18836583
-0.7121028 0.6228888 -0.7293852 -0.2799028 0.16903646 -0.82313555 -0.4232922 -1.4074991
3.3915546 -1.0327803 -2.3163302 1.4720205 0.839678 0.31195018 -0.5963387 -0.62597686
0.32078743 -0.38623956 0.24685769 -0.3560748 -0.70073974 0.6330657 -0.78970563 -0.7694583
-0.7609679 -1.3527021 -0.3002291 -1.0793395 0.10370412 -2.370062 1.537879 2.40073
-0.22465639 0.50138515 -1.9599432 0.4483212 3.1717625 1.2145448 -0.23579143 -1.9187357
1.5063457 -0.101436645 -0.45502755 -0.0013581577 -2.1148896 0.775655 0.39889532 -0.4875189
-1.0969807 0.5014488 -0.5828227 0.7576826 0.9250029 -0.37466648 -0.22960232 -1.7768799
0.45259386 1.2761949 -0.5357447 -0.37854916 -0.3974034 0.62951833 0.6930776 -0.36495873

bias f4 [60]
00000000: 449d eb3d c9e1 063e a732 c4be 5582 31be
00000010: 1aa0 d6bc 6828 5cbf fffc bfbe 7846 403d
00000020: 82ab d43d 2a93 b6be cdd4 563d 20d8 533e
00000030: 510d 89bf cab4 a23e cb66 5f3e 8cea 17be
00000040: d0e3 76bf 1ad2 eebc 1de9 07bf f0d4 b0bd
00000050: 6661 b83c 3b9d 00be b86c 303e fe05 bbbe
00000060: 8052 3bbe 97ba afbe aed0 5cbd df31 d4be
00000070: 0ea5 26bf 01ad 63be bc09 61bf 48ec 77bf
00000080: 4393 1cbf 7ece 50bd deeb a43e d069 94bd
00000090: 18d7 92bd 5803 9f3e af87 86bc 2547 84be
000000a0: cdf1 1ebf 5476 17bc b584 4cbf 1021 3ebf
000000b0: 0e30 59be bc46 4f3d 4e05 93be 00b7 693e
000000c0: 2924 b1be 6602 0a3e 7762 9d3d af15 2cbd
000000d0: d281 8dbe 3a57 25bf e7a2 d73d d785 83bd
000000e0: 1de6 84bf dfdc 07bb c81c 98bf db42 30bc
0.115046054 0.13172068 -0.38319895 -0.17334874 -0.02619939 -0.85999155 -0.37497708 0.046942204
0.10384275 -0.35659152 0.052449036 0.20687914 -1.0707189 0.31778556 0.21816556 -0.14835566
-0.96441364 -0.029152919 -0.5309008 -0.086343646 0.02250738 -0.12559979 0.17228973 -0.3652801
-0.1829319 -0.34322044 -0.05390995 -0.414443 -0.65095603 -0.22233965 -0.8790548 -0.9684491
-0.61162204 -0.050978176 0.32211202 -0.07246745 -0.07169932 0.3105724 -0.01642212 -0.2583553
-0.6208771 -0.00924452 -0.79889995 -0.742692 -0.21209738 0.050604567 -0.28714985 0.22823715
-0.345979 0.13477477 0.07684796 -0.042012867 -0.27638108 -0.6458622 0.10529118 -0.06422012
-1.0382725 -0.0020731015 -1.1883783 -0.010758127

weight f4 [60, 60]
00000000: e7fd 5dbd 5c2b e6bd d22b b33d b12d 45bd
00000010: b298 26be caad 2abe 7e90 2cbd c47b cb3c
00000020: d223 f4bd ff3a 3c3d c8dd 3e3e 3eb7 963d
00000030: 7601 59be 4666 d13b 6ff0 69bd cc5e 15be
00000040: 8c46 e7bb 3d43 f3bd c624 eebd fcd4 a1bd
00000050: b967 2abe 1b3a dd3d 2082 f33c d888 4a3d
00000060: 8fd6 463d 7401 ef3d f7a8 d5bd 0fcf 2dbe
00000070: 8059 cebd ec2a 5e3d 7b33 b23c 20be afbd
00000080: 56cd d5bd 52cc 1abe 4076 81be 9e35 babd
00000090: 1194 e1bd d09b 193b aa24 1ebe 3a15 6a3d
000000a0: e441 d0bd 601c 00be 2419 c5bc 1b04 a4bd
000000b0: 6d1f 5ebe 5b1a 36be 9138 20bd 84c9 39be
000000c0: 31bb 52be e19a 84be bd25 99bd c2fa 1bbe
000000d0: 15f1 0bbd 5a65 3abd 7ec4 df3d c56f 94bd
000000e0: 087b 1cbe f508 23be 65aa 00bc 6372 50bd
000000f0: 1b81 9d3e 5248 0140 f066 1c40 1f46 bcbf
00000100: 266d fdbf 6966 8b3f 8ab5 4ebf 3c2d b0bf
00000110: 5834 13bf 5833 23c0 fefa a33e 4cbc 44bf
00000120: 26a5 313f d320 113f b55b 203e ee68 093f
00000130: fd3e 2c3f 1c81 3dbe 903a a8be 4110 69be
00000140: f12a c1bd b352 a13e a763 393f 4613 a7be
00000150: ce81 3cbf 1138 653f d485 543e f085 e0be
00000160: eb27 2bc0 5f78 9d3d ad56 5a3f 13dd 563f
00000170: 537c 493f 3fb4 553f 3e9c 93bf e381 ecbe
00000180: 5b72 7fbf 336a 943e aef2 c63f aa2c 28bf
00000190: 791d 833e 3188 d7bc d780 1ec0 f7c3 3dbe
000001a0: c3c1 d73d 3cdd d9be c0e6 84bf e354 04bf
000001b0: 643f e8bc 1803 083f 6960 dbbe 4786 bebd
000001c0: 352e a23f d01d fbbe 7c9c 743f 7075 973e
000001d0: 2d18 29bf bddb 9fbf b260 f0bf 226a 5d3f
000001e0: 0711 373e 0b87 fd3e 5a21 ab3e 1b14 86be
000001f0: 2d26 753e ddc2 adbf 625f 32bd 1121 9dbe
00000200: 7359 aabe 1e07 903d 0c2d 153f 6cd7 613f
00000210: 1564 573f b176 833e 6a51 dfbe a1d6 32c0
00000220: 26d5 0ebc dd15 64bd 2c84 de3e 3e3e d13d
00000230: df21 51bf 0a9a 90bf 32ed 113f 5782 d03e
00000240: 0dd1 643e 6949 fc3e 0a35 843f f222 72bf
00000250: 8f04 19bf d94e ae3e f28a 2dbf f2a7 a53d
00000260: 69a7 383e 7bc1 0840 b129 673e 8110 c43d
00000270: fc07 213f fbec 93bd 5ec7 bf3e 1650 1abe
00000280: 98ff 2bbf 55d7 84bf 5a52 b8bf 822f 90bf
00000290: 4949 373f a9bc 95bf 2883 163f 5b00 ccbe
000002a0: 7a43 313d a61a c8bf 252d 553f f7ac 25bf
000002b0: 2d87 2e3e 7a73 e53e ea6d 10c0 7b19 463d
000002c0: 01b6 333e b1a6 d8be 1812 193f c56d 0ac0
000002d0: 7a36 e8bb 12b5 eb3d 7ca4 a1bd d506 973d
000002e0: 6b4a 933d 02c9 06bd 3c79 25be 59c5 27bd
000002f0: 345d 3ebe eb79 8dbc c74d 083e 9313 46be
00000300: d5e0 8fbc 5a7f 1bbe 35c9 24bd 920d f5bd
00000310: a527 e63c a407 713d 9ae6 b1bd 7ab2 14be
00000320: 4792 863d 50f1 153d 9889 53bd 465d 4e3c
00000330: 136f 29be 92be 1d3d 2c83 8abc 2707 183e
00000340: 6419 0ebe 8a51 963d 13bb 09bc f8e9 0fbc
00000350: ed79 b5bd b008 06be 6a62 70be 6493 08bd
00000360: ea71 953d 4038 00bd 1098 3cbd 9a07 02be
00000370: 386b 60be 5254 60bd 2c88 acbd 3df2 af3c
00000380: c0cf 53bc 4928 573d 5197 4dbe 5338 193d
00000390: 2551 85bd 7cec ce3d e43a e13c 8358 e33c
000003a0: e5cf b0bd 15c4 62be a6eb 0dbd c64c ebbc
000003b0: 4bda ffbd 9816 16be d2a0 59bd 4860 5bbd
000003c0: af27 81bf ff33 3a3f 76f0 aabf 7162 e03e
000003d0: d688 993e 5707 b6be 1dc9 66bf 7114 4cbe
000003e0: 45a9 923e 09fa f93b 4fda 413f c76b f13e
000003f0: 41c6 583f e152 0dbf a01e 443f 792f e0be
-0.05419722 -0.11238739 0.087485924 -0.048139278 -0.16269186 -0.16667858 -0.042129986 0.02483929
-0.11920895 0.0459547 0.1863929 0.073591694 -0.21191964 0.006390366 -0.05711406 -0.14586943
-0.0070579704 -0.11878059 -0.11628108 -0.07901952 -0.1664113 0.10802098 0.029725134 0.04944691
0.048544463 0.11670199 -0.10432618 -0.16973518 -0.100756645 0.054240152 0.021753063 -0.08581185
-0.10439555 -0.15117005 -0.2528553 -0.09092258 -0.110145696 0.0023438819 -0.15443674 0.05714915
-0.10168818 -0.12510824 -0.02405984 -0.080085956 -0.21691675 -0.17783491 -0.039116446 -0.18143278
-0.2057922 -0.25899413 -0.07477901 -0.15232375 -0.03416546 -0.045506813 0.1092615 -0.07247881
-0.15281308 -0.15921386 -0.007853125 -0.050890338 0.30762562 2.020039 2.4437828 -1.4708899
-1.9798934 1.0890628 -0.80745757 -1.3763804 -0.57501745 -2.5500088 0.3202743 -0.7684982
0.6939262 0.5669071 0.15659983 0.53675735 0.6728361 -0.18506283 -0.3285718 -0.22760107
-0.094320185 0.31508407 0.7241768 -0.32631892 -0.73635566 0.89538676 0.20754176 -0.43852186
-2.6743114 0.076889746 0.85288507 0.8393108 0.7870533 0.8347816 -1.1532056 -0.46192846
-0.9978387 0.28987274 1.554281 -0.6569315 0.25608423 -0.026310058 -2.4766138 -0.18531786
0.10535004 -0.425516 -1.0382919 -0.51692027 -0.02835054 0.5312972 -0.42846993 -0.09302955
1.2670351 -0.49046183 0.95551276 0.29581785 -0.66052514 -1.2488934 -1.8779509 0.8649007
0.17877589 0.49517092 0.33423883 -0.26187214 0.23940344 -1.3575093 -0.043547995 -0.3068929
-0.3327137 0.070326075 0.5827186 0.8821933 0.8413709 0.25676492 -0.43616802 -2.79435
-0.008717811 -0.055684913 0.43460214 0.1021695 -0.8169231 -1.1297009 0.57002556 0.4072444
0.22345372 0.49274758 1.0328686 -0.9458457 -0.5977258 0.3404453 -0.6779014 0.08088674
0.18032612 2.136809 0.22574498 0.0957346 0.6290281 -0.07222935 0.37456793 -0.15069613
-0.6718688 -1.0378214 -1.4400132 -1.1264498 0.715962 -1.16982 0.5879388 -0.3984402
0.04327724 -1.5633132 0.8327201 -0.6471705 0.17043753 0.44814664 -2.2567086 0.048364144
0.17549898 -0.42314675 0.59793234 -2.1629498 -0.0070865722 0.11509146 -0.07892701 0.0737435
0.071919285 -0.03290654 -0.16159528 -0.04095969 -0.18590242 -0.01727005 0.1331092 -0.19343404
-0.017563263 -0.151853 -0.04023095 -0.11965479 0.028095076 0.058845177 -0.08686562 -0.14521208
0.06570869 0.036607087 -0.05164489 0.01259548 -0.16546278 0.03851182 -0.01690825 0.14846478
-0.13876873 0.07339771 -0.008406418 -0.00878381 -0.08861146 -0.13089252 -0.23475042 -0.033343688
0.07297118 -0.031303644 -0.046043456 -0.12698212 -0.219159 -0.054767914 -0.0842441 0.021477813
-0.012927949 0.052528653 -0.20077254 0.03740723 -0.06509618 0.101036996 0.027493902 0.027752167
-0.08633403 -0.22145112 -0.03464856 -0.028723132 -0.12492808 -0.14657056 -0.053131886 -0.053558618
-1.0090235 0.7273559 -1.3354633 0.43825105 0.2998721 -0.35552475 -0.90150625 -0.19929673
0.28644767 0.0076286835 0.7572374 0.4715254 0.8467751 -0.5520459 0.7660923 -0.4378622

bias f4 [60]
00000000: de81 3abe f492 92bf 5769 a1be 803e 36be
00000010: 829c 003f eb7d 9dbf c086 31bf 0a9f 98bf
00000020: a6f2 86be 794a c53f aeda 57bf 44d3 073f
00000030: d9f7 95bf 639b d33e 2c30 99bf d7a6 a73e
00000040: 08d7 1f3e 0b63 afbf fcc5 6bbe 0529 44be
00000050: 8e53 41bf cfa9 23be 4783 92bf 9be7 38bd
00000060: 088c dcbd e332 f43e 9220 bf3e 3478 f73e
00000070: 125b 243e eefe 96be 1e41 5bbf 24b7 61be
00000080: 0b45 303f 2976 83bf b2be b23d 1d60 dfbe
00000090: 4b55 0a3e ae15 bdbe 460c 283e 9ace 14bf
000000a0: 2c0f 84bf 2b05 0b3d 4912 c6be 0f36 42bf
000000b0: 9972 1fbe 4fb1 dd3d 95bb 9cbe 62e5 cd3e
000000c0: cdad 83bf d7b0 4ebe dbf0 1b3f bcae 2e3e
000000d0: 0456 adbe 8f4f 77bf 65cf 9fbe 2a67 1dbe
000000e0: 4786 573d 6af9 bf3e 0f74 21bb 2ace 273f
-0.18213603 -1.1451097 -0.3152568 -0.1779728 0.5023881 -1.2304052 -0.6934624 -1.1923535
-0.26357 1.5413352 -0.84318054 0.5305674 -1.1716262 0.41329488 -1.1967826 0.32744476
0.15609372 -1.37021 -0.23024744 -0.19156273 -0.7551812 -0.15982746 -1.1446313 -0.04514275
-0.10768896 0.47695073 0.37329537 0.48333895 0.16050366 -0.2949137 -0.85646236 -0.22042519
0.6885535 -1.0270435 0.087277785 -0.43628016 0.13509099 -0.36930603 0.16410932 -0.5812775
-1.031713 0.033940475 -0.38685825 -0.75863737 -0.1557106 0.108248346 -0.30611864 0.40214068
-1.0287415 -0.20184647 0.6091439 0.17058843 -0.33854687 -0.9660577 -0.31212917 -0.15371385
0.05261829 0.37494975 -0.0024635827 0.65548956

weight f4 [60, 60]
00000000: 5795 993c c999 0dbf 274e bcbf 8a7b 1e3e
00000010: 89a1 55bf bb23 83bf 5f0c 873f 1eb8 d6bd
00000020: da3f d03c 7072 4e3f 2b17 4bbf 8a9c 1bc0
00000030: c22e c0bf a161 2fbf 82cd 01bf fe71 b43f
00000040: 6639 833e ed16 823d 0978 27c0 9fd0 b13b
00000050: 2da1 533f c0f8 bb3e 0cb4 153d 8ac5 b03f
00000060: 4c7d d23f d621 3fc0 113d 373f 456b 36bf
00000070: b225 ffbe eabc d23e 5615 c2be 7207 1a40
00000080: 1760 24c0 b278 f3bf 8254 67be 64d9 293e
00000090: 3328 943f d321 2040 745e b53f 6012 61bf
000000a0: 6047 15bf 7644 4e3f bac0 d63e dcba 1c3f
000000b0: 0e63 5f3d 3330 d23d c3c2 6f3f d53e e53f
000000c0: 1e7e d73e fb85 e4bf 2fdb c4bf 5c6c 743f
000000d0: 6780 81be 0b88 a6bf a830 adbd 704e 023f
000000e0: c0e5 febe e9d7 b7bf 62be 9e3d ed62 8bbf
000000f0: 7893 6bbd ff15 88bf 0f2a 91bf 4837 b43c
00000100: 7bea 4e3f 3ee9 e33e 93b7 89be 2437 9ec0
00000110: 34e6 b9be d614 33bd b9d2 cebe 26f1 8bc0
00000120: 18b3 523f b10a 61bf 2a6b 00c0 afde b93e
00000130: aefb b1bf 79d0 96be 1840 ed3e 8a5a 78bd
00000140: 8ab1 513f b3b5 6e3f aa65 e63f 538a e53e
00000150: a51e 46c0 9960 f03e 5e86 963e b5d2 493f
00000160: a57f a5bf 7c8b 83bd b6ee 4dc0 c3e4 44bf
00000170: 584f 44bf 5389 55bf d3b0 233f e57c 443e
00000180: fe65 903f 4bb1 e1bf 488c 02c0 bb2b ab3f
00000190: af85 353e da90 1f3f 5372 36c0 6a5b 3bc0
000001a0: 7ce5 fa3d 815e 0e3f 207e 8cbf d0a6 713f
000001b0: ef3f 24c0 4844 533f ff1d aa3d f0d4 e63e
000001c0: c1b6 ecbf 4b8f f7bf d9e0 7ec0 f398 3fbf
000001d0: fcd4 53be 5339 4bc0 67c5 68bf ca02 173e
000001e0: c56f 29bd dda0 543f 1659 f23e 7b19 573e
000001f0: cfd8 0ec0 bc71 50bf 431a 1b3e 7f36 7f3f
00000200: dfac 91be d6de 64be a361 393d 9d79 f3bf
00000210: 0190 1dc0 d1c6 92be 66db 223f e2c8 3abe
00000220: 79c3 c13e 4427 103e cb03 ca3d 767d a2bc
00000230: a7fd 3bbf 0043 adbf a0e4 d33d f041 3a3f
00000240: c857 18be 1cf0 7cbe 3958 0d3f a899 86bf
00000250: c91a 3fbe 30c3 82bf 5ff7 8abc 8e33 f63e
00000260: 260a c43c d1a9 b7be 62ef e93e b61d a33f
00000270: 7099 7bbf 9e18 803f d536 aebe cacf 0a3f
00000280: b28b 3ebf 2055 89bd fd23 be3e acc5 57bf
00000290: fe80 913d 833e 65bf 5ba7 3c3f de35 df3f
000002a0: 4e42 64be dd04 b9bf c1ea 8c3f b864 02be
000002b0: 5a41 20be d71a 8cbf 36be 6fbe d833 13bf
000002c0: 49b9 b13f b8fd d0bd 4a74 5e3f 9eaf a13f
000002d0: ecd2 4c3d 2b9c 53bc 3029 e2bd b1ef bbbd
000002e0: cf06 d4bc f6e4 1bbe 9544 56bc bb54 0ebd
000002f0: 48e4 04bc 6ba6 58bd f987 bbbd 1020 fabd
00000300: 8dbf f8bd c0b8 c1bd 2ec3 12be 0c07 dabd
00000310: 3977 c6bc 85cb c9bd 44f4 f2bc 1344 86bd
00000320: 5f6b c7bc 2895 1dbb 48ce 08be 863a 63be
00000330: 4bb2 1bbb 8c1b 9a3c 68dc 3b3d 7682 9ebd
00000340: 3e66 473c 2532 aabd 6c70 87bd 8b1e 4abd
00000350: 51f6 47be 3f81 01be b181 2ebe 8b92 bb3a
00000360: e14e 3bbe 6459 653d 4205 d93c fec9 35be
00000370: a9de 173d 7f25 42be e39e 02be ec63 1d3d
00000380: ca0b c03c 7583 26bc ed02 8a3c ab7e 38be
00000390: 7259 b8bd 5971 0dbe 69a6 49be 1de2 1abe
000003a0: 0cd4 02be 47f9 d03c 5cad 86bd e006 2abe
000003b0: 6aff 55be f64f c8bd 5ab8 8bbc f4af abbd
000003c0: 0507 c0bd 4a6d 5cc0 6216 233f db8c 973d
000003d0: 96a2 d33e 8bc7 a7be 69fb 3c3f 87e6 75be
000003e0: 35e4 1abf adb9 60bf 266d 58bf 215b 2fc0
000003f0: 14f6 d13e 564e d5be 55c9 b93e 41c1 263f
0.018747969 -0.5531278 -1.471135 0.15476814 -0.8344961 -1.0245279 1.055065 -0.10484336
0.025421072 0.8064337 -0.79332227 -2.4314294 -1.5014269 -0.68508345 -0.50704205 1.4097288
0.2562973 0.06352029 -2.6167014 0.005426481 0.8266781 0.3671322 0.03654866 1.3810284
1.6444488 -2.9864402 0.71577555 -0.7125743 -0.49833447 0.41159755 -0.37906903 2.4067044
-2.5683649 -1.9021208 -0.22590831 0.16586834 1.1574768 2.5020645 1.416945 -0.87918663
-0.58312035 0.80573213 0.41943914 0.61222625 0.054537825 0.102630995 0.9365656 1.79098
0.42088407 -1.7853388 -1.537939 0.95477843 -0.25293276 -1.3010267 -0.08456546 0.50900936
-0.4978466 -1.4362766 0.077511564 -1.0889565 -0.057513684 -1.0631713 -1.134096 0.021999016
0.8082654 0.44513887 -0.2689787 -4.944231 -0.36308444 -0.043721043 -0.40395144 -4.373187
0.82304525 -0.8790694 -2.0065408 0.36302707 -1.3904932 -0.29455927 0.46337962 -0.06063322
0.8191153 0.93246 1.7999775 0.44832096 -3.0956204 0.46948698 0.2939939 0.7883714
-1.2929579 -0.06423089 -3.2176948 -0.7691156 -0.7668357 -0.83412665 0.6394169 0.19188268
1.1281126 -1.763223 -2.039812 1.337272 0.17726777 0.623304 -2.8507278 -2.9274545
0.12250802 0.5561295 -1.097599 0.9439516 -2.5664022 0.82526064 0.083065026 0.45084333
-1.8493272 -1.9340605 -3.9824736 -0.74842757 -0.20686716 -3.1753738 -0.9092621 0.14747158
-0.041366357 0.8305796 0.47333592 0.21005814 -2.231983 -0.81423545 0.15146737 0.9969253
-0.28452203 -0.2235063 0.04525913 -1.9021488 -2.4619143 -0.2866731 0.63616025 -0.18240693
0.37844446 0.14077479 0.09864005 -0.019835215 -0.7343392 -1.3536072 0.10346341 0.7275686
-0.14877236 -0.2470097 0.5521274 -1.0515642 -0.18662561 -1.0215816 -0.016963659 0.48086208
0.02393062 -0.35871747 0.45690447 1.2743442 -0.98281 1.0007513 -0.3402621 0.5422331
-0.7443191 -0.067056894 0.37136832 -0.84286 0.071046814 -0.8954851 0.73692864 1.7438314
-0.22290918 -1.4454609 1.1009141 -0.12733734 -0.1564993 -1.0945691 -0.23412403 -0.5750098
1.388467 -0.10204643 0.86896193 1.2631719 0.05000584 -0.012915651 -0.11043012 -0.09176577
-0.025882153 -0.1522406 -0.013077875 -0.034748774 -0.008111067 -0.052893084 -0.09156794 -0.12213147
-0.121459104 -0.094590664 -0.14332268 -0.10645875 -0.024226772 -0.098532714 -0.02965749 -0.06555953
-0.02434319 -0.0024045203 -0.1335994 -0.22190294 -0.0023757394 0.018811963 0.045864493 -0.07739727
0.0121703725 -0.083103456 -0.0661324 -0.049345534 -0.19527556 -0.1264696 -0.17041661 0.0014310641
-0.18291809 0.055993453 0.026491765 -0.17752835 0.03707758 -0.18959616 -0.12755923 0.03842537
0.023443121 -0.010163178 0.016847098 -0.1801707 -0.09001435 -0.1381277 -0.19692387 -0.15125318
-0.12776202 0.02550949 -0.065760344 -0.16604185 -0.20898214 -0.09780876 -0.01705568 -0.0838317
-0.09376339 -3.4441705 0.6370603 0.07399913 0.4133498 -0.32769427 0.7382112 -0.2401372
-0.60504466 -0.8778332 -0.8454155 -2.739937 0.41008055 -0.41661328 0.36286417 0.6513863

bias f4 [60]
00000000: 8274 a8bf 882a 11bf 6fa8 a43e 56ba e3bd
00000010: 951c fa3d 8ef8 9cbf 353f 02bf 07f1 0bbf
00000020: 87a9 67be cead 103f d478 d6bd ab6f 32bf
00000030: eb05 53bf 1ea3 4fbe aea4 23c0 1b04 7d3e
00000040: e3a6 92be 6dcf 3bbe c5c1 c3be cbcb 13c0
00000050: 1a32 d93d d7d4 57bf daaa 6fbf 0ea6 4e40
00000060: eed6 df3b 9014 1240 b01e 133f c7f5 4bbf
00000070: a2cc 023f 6a47 183f 7ceb 983e aa5c d5bf
00000080: 18b1 1a3f 7d3f 15bf 158b 9ebf 082d 69bf
00000090: bfeb 7f3f 51d6 46be 2f80 81be 4662 92bf
000000a0: d884 8bbc 511c 9c3f 0d1d 933f ea6e 3ebd
000000b0: 3009 a2bf 9fef 07bf 1ceb b0bf 0a65 afbf
000000c0: 0460 a73e 9d9d 28c0 daaa e0be 1bda e53e
000000d0: e0c0 6cbe 705d 073f b789 0dc0 e30d 83bf
000000e0: 0625 15bf 03d8 d63d 897e 07bf 7ff1 22c0
-1.3160555 -0.5670552 0.32159755 -0.11119525 0.12212483 -1.2263353 -0.50877696 -0.54664654
-0.22623263 0.56515205 -0.10472265 -0.6970164 -0.82430905 -0.20277068 -2.5569263 0.24708597
-0.2864295 -0.18340845 -0.38233772 -2.3093135 0.10605259 -0.8430914 -0.93620074 3.2288852
0.0068310415 2.282505 0.574687 -0.796719 0.51093495 0.5948397 0.2986716 -1.6668904
0.60426474 -0.583 -1.2386194 -0.9108434 0.99969095 -0.19417693 -0.2529311 -1.1436241
-0.017031118 1.2196141 1.149324 -0.046492495 -1.2659054 -0.5310001 -1.382175 -1.370271
0.32690442 -2.63462 -0.4388035 0.44892964 -0.23120451 0.5287695 -2.2115304 -1.0238613
-0.5825962 0.1049042 -0.5292745 -2.5459898

weight f4 [60, 60]
00000000: f974 a5bf ef5f 29be 1ea7 1e3f 3a35 c53c
00000010: 7713 473f 9cb2 3dbf 7139 d8bc c2c6 903f
00000020: 98c2 473d 8d64 41c0 2042 493d dd0e 253e
00000030: c57d bcbf 9687 a43d 7b00 153f b030 36bf
00000040: 2a53 853f d9ed fbbc 497e 253f 6021 bcbe
00000050: 7875 df3e 7161 d83f 582c d73e bfb1 113e
00000060: 65ba d6bd 75ef 9abd 845c 0340 4316 ccbf
00000070: 9ecf 0940 9722 9dbf 62da f2bf b98d 443e
00000080: 2010 85bf d006 cd3f e6a6 aa3e 6c52 553f
00000090: 01bf 9bbf d6f0 9c3f ebb8 793d 2341 873f
000000a0: 60de 62bd eca8 ce3f 9f86 9bbe 6943 cd3d
000000b0: ff0a bebd 283a dbbf 4654 013f fad5 88bf
000000c0: 041e d5be 0721 893f 9600 c13e f3a9 693f
000000d0: 37bb 24c0 be3b df3e 31b2 26bf 389f b1bf
000000e0: 5c95 cf3e acb0 29bf 58a2 a2bf 1870 883e
000000f0: 7f6a 85b9 8a59 dc3d c246 13c0 f403 333d
00000100: 9a1e 55bf 4865 823f 543f fd3e 9d11 e63f
00000110: c224 a63d ada3 babf 5888 abbd 0baa 93be
00000120: 1d4a c63e bfa1 03be fbaa 72be d0a3 d43f
00000130: 59f5 ce3f 1016 fd3c 4c0f 983f d98c 39be
00000140: 9abf 02be 0a40 873d 3c9d 063e 6158 9ebe
00000150: d4ae 863d de3d b0be a21c d6be f8c7 a33f
00000160: 321d adbc dc99 ddbd 4780 b3be d3a1 273f
00000170: e526 92be aed6 273f 543b 29be 3ba8 453f
00000180: 3154 df3e 1a7e 3ebe 1cae 99ba 2725 513f
00000190: 0228 19bf 51e7 bd3f 8a36 14be b65b f8bd
000001a0: 9078 15bf 6d7b dd3f 6d27 773e 9b45 9d3e
000001b0: 4842 5dbf dbce a93f b96a 623f 5dc6 6abe
000001c0: 0e92 f23d 5a23 afbf b128 26be 401c 9b3e
000001d0: 6bce 3c3e 03de 0fbd a763 b83d 41ac ac3f
000001e0: 637f fbbd a081 973f 8383 0cc0 3c82 d83c
000001f0: a722 ea3e 56ae 8a3e 50c1 b33f 0617 86be
00000200: 6e54 aa3b b263 83bf cd73 91bd fe36 6bbe
00000210: ea24 6cbe 2fd1 b7bd d3e7 853e a00f e73f
00000220: 1b92 913f f268 5e3c 61f5 303f 746c ad3f
00000230: 8af4 1840 22f9 a3bf 953b 5e3e 148e 063f
00000240: d38d 2ebd 62ec acbf 91ac aa3e 3046 963f
00000250: 6201 203f 0085 953e 02f1 333f bc99 343f
00000260: dad9 bc3e a797 943f a6b3 5b3f 4418 59c0
00000270: 70e9 133f d734 16bf ba5b ecbd c707 1540
00000280: c8fc 5c3f 1687 4e3f e551 90be 5522 793d
00000290: 92bb 87bf dfd0 f6bc 34e5 393f dc41 eb3f
000002a0: b5d6 3fbf dfd1 ba3f 7f1a 34bd 3c14 6bbf
000002b0: 8678 f0bf 8e0e 04be 662b 1bbf c741 b43f
000002c0: e414 003f 25fa 89bf bed0 0b3e 9025 6c3e
000002d0: c325 c3be d2c6 993e 5a8e b53d 3ac0 e2bd
000002e0: e747 ea3b 9c4a a73f dabd 8c3f 5f43 03bf
000002f0: 38ea 7c3d 6219 2a3f 9ad2 91bd 966d e53e
00000300: 1b18 583f 8959 e2bd 1752 813f 83e4 98bd
00000310: 29f1 1a3f 1012 e03c 92c7 a23f 8611 303f
00000320: ffda 543e 89d0 e0be 0c0d 82bc 3210 3cbf
00000330: b8b5 313c 92ff cfbe 22c1 8e3e c0fb 393f
00000340: 76cc 233f c74c 86be 78bf 013f d246 df3e
00000350: e197 7cbd 9383 e03e 4101 fdbe 8be2 b9bd
00000360: 334b 5c3e 3964 abbd 85fc 103e 9783 a33e
00000370: 0b49 15be 32c1 5d3d 7609 4fbe e126 fb3d
00000380: 734a ae3e 8b3d 64be d108 7a3c b778 ea3c
00000390: d26e bf3e 9fb2 0d3f 373d b7be 470f 12bf
000003a0: a531 15be d4cd 833f 2525 3f3f 7dd8 e93e
000003b0: c746 5f3f ab4d 193e d708 bb3f 6e99 18bd
000003c0: afba 58bf 40e2 353d 7ecb e93d 4cba 623d
000003d0: 7b28 2bbf 4d91 da3c 000e 9f3f cfa4 d83d
000003e0: 1eff 6bbd 795e 663f 0409 cabd 7716 db3e
000003f0: 9db6 a53e d82f e8bc 5997 443f 1d3a 2f3e
-1.2926322 -0.16540502 0.6197375 0.024073232 0.77764076 -0.7410066 -0.026394578 1.1310656
0.048769563 -3.0217621 0.049135327 0.16118951 -1.4725882 0.080336735 0.5820386 -0.7116804
1.0416005 -0.030753063 0.6464582 -0.36744213 0.4364431 1.6904737 0.4202602 0.14227961
-0.10484771 -0.07565204 2.0525217 -1.5944294 2.153297 -1.2276181 -1.8972895 0.19194688
-1.0395546 1.6017704 0.33330458 0.8332889 -1.2167665 1.2260997 0.060967367 1.0566753
-0.055387855 1.6145301 -0.30376145 0.10022623 -0.09279441 -1.7127123 0.50519216 -1.06903
-0.41624463 1.0713204 0.3769576 0.91274947 -2.5739267 0.43600267 -0.6511565 -1.3876715
0.4054364 -0.66285205 -1.2705793 0.2664802 -0.00025447083 0.10759266 -2.3011937 0.043704942
-0.8324982 1.0187159 0.49462378 1.7974125 0.0811248 -1.45812 -0.08375615 -0.2884067
0.3872842 -0.1285467 -0.23698036 1.6612492 1.6168624 0.03089431 1.1879668 -0.18120135
-0.12768403 0.06604011 0.13145918 -0.30926803 0.065763146 -0.344222 -0.4181872 1.2795401
-0.021132085 -0.10820362 -0.35058805 0.654813 -0.285453 0.6556195 -0.16526538 0.77209824
0.4361892 -0.18602791 -0.0011724862 0.81697315 -0.5982667 1.4836217 -0.1447393 -0.121268675
-0.5838709 1.7303292 0.24136133 0.30717167 -0.8642926 1.3266252 0.88444096 -0.22927232
0.11844264 -1.3682663 -0.1622646 0.3029499 0.18438117 -0.035123836 0.09003382 1.3490068
-0.122801565 1.1836433 -2.1955268 0.026429288 0.45729563 0.27086133 1.4043369 -0.2618944
0.005198053 -1.02648 -0.07102165 -0.22970197 -0.23060957 -0.089754455 0.2615343 1.8051643
1.1372713 0.013574826 0.6912442 1.3548722 2.3899255 -1.2810404 0.21702416 0.52560544
-0.042615723 -1.3509638 0.33334783 1.174017 0.6250211 0.29203033 0.70289624 0.7054708
0.36884958 1.1608781 0.85820997 -3.392106 0.5777807 -0.5867438 -0.11540933 2.3285997
0.86323214 0.80674875 -0.2818748 0.060823757 -1.0604117 -0.030128894 0.7261536 1.8379474
-0.7493699 1.4595298 -0.04397058 -0.9182775 -1.8786781 -0.12896177 -0.60613096 1.4082574
0.50031877 -1.0779463 0.13653848 0.23061204 -0.38114747 0.300345 0.08865042 -0.110718206
0.0071496847 1.3069644 1.0995438 -0.51274675 0.061746806 0.6644498 -0.07120247 0.4481017
0.8441178 -0.11052234 1.0103177 -0.0746546 0.6052423 0.027352363 1.2717154 0.6877674
0.20786665 -0.439091 -0.015875362 -0.7346221 0.010846548 -0.40624672 0.27881724 0.72649765
0.6398386 -0.2623045 0.50682783 0.4360872 -0.06166828 0.43850383 -0.4941502 -0.09076413
0.21513061 -0.08368725 0.14158829 0.31936333 -0.14578645 0.054139324 -0.20218453 0.12263275
0.34041175 -0.22289102 0.015260891 0.028622014 0.37389237 0.5535068 -0.3578889 -0.5705456
-0.14569719 1.0297189 0.74666053 0.4567298 0.8721737 0.14971034 1.4612073 -0.037255697
-0.84659857 0.044405222 0.11415766 0.055353448 -0.66858643 0.026680613 1.2426147 0.1057831
-0.057616346 0.89987904 -0.09865001 0.42790577 0.32365885 -0.028343126 0.7679344 0.17112012

bias f4 [60]
00000000: d9c9 0d3f 7d5f 9cbe 15f9 88bf b9b7 50bf
00000010: 2039 d5bf 4895 0f3e c4cf bdbf 1980 89be
00000020: 051e 1dbf 05df 4bbf 575c a0be 78c1 8abe
00000030: 6980 00c0 c023 55bf eb3f dabe 9bd1 a2be
00000040: dcd5 a3be a84d 49bf c719 05be 94dc 0e3f
00000050: 7493 17be 68b3 8b3e 4b08 bcbf 26d1 60bf
00000060: d361 4abe 2acc 053e 2e75 79bf 5bd7 87bf
00000070: 19b5 bd3f 5dc6 21bf b5d8 bcbf 6512 45c0
00000080: 5508 8cbf 3a7d d6be 9302 47be db09 013e
00000090: f83d 1c3f 5975 9e3f 5370 0bbd 1d1f 0ebf
000000a0: bf30 27bf 0c91 acbf 640a 1b3e fee4 473f
000000b0: 3824 753e cc26 863f 6a52 af3d d45d b3be
000000c0: 3513 41be a8ac a6bf 93a2 1440 5663 33be
000000d0: 558c 15be f4c4 33bf 762a 963f 9bed a03f
000000e0: 2f9a 833f b6ef 18bd b6f3 c83f af5a e2bf
0.5538612 -0.30541602 -1.0701014 -0.8153034 -1.6658058 0.1402179 -1.482903 -0.26855543
-0.6137393 -0.79637176 -0.3132045 -0.2710073 -2.0078375 -0.83257675 -0.4262689 -0.3180054
-0.319991 -0.7863412 -0.12998115 0.55805326 -0.14802343 0.27285314 -1.4690031 -0.87819135
-0.1976388 0.13066164 -0.97444427 -1.0612596 1.4820892 -0.63193303 -1.4753634 -3.0792477
-1.0940043 -0.41892415 -0.19434576 0.12601416 0.61032057 1.2379562 -0.034042668 -0.55516225
-0.65308756 -1.3481765 0.15140682 0.7808379 0.23939598 1.048059 0.08560641 -0.35032523
-0.18854983 -1.302144 2.3224227 -0.17518362 -0.14604314 -0.702224 1.1731708 1.2572511
1.0281428 -0.03733798 1.5699375 -1.7683924

weight f4 [10, 60]
00000000: 79fa 09c0 c78c 02c0 ec81 dfbf bf99 d1bf
00000010: ae7c c9bf cb51 6fbf 6918 83c0 e835 0d3c
00000020: 2fc3 efbf 4c2f 87bf 5af3 92be 1942 7abf
00000030: 7854 b0be f232 e9bf b291 2bc0 1226 a3bf
00000040: 6294 a6bf 8578 85bf 2404 d1bf b4c6 11c0
00000050: 6b7f c1bc a895 15c0 a1aa 22bf 8405 2ebf
00000060: 6477 9cbc 11ef fdbf fdf8 9cbf cf82 26c0
00000070: 4457 ecbf 3245 2ec0 c731 74bf ba97 b1bf
00000080: 6aec 58bf 26b9 06c0 d9eb 10bd 6d71 b6bf
00000090: e621 d0bf d3d9 08c0 65c0 a4bf 50f8 f9bf
000000a0: 2670 22c0 8743 9fbf 84ee a8bf ee8d c8bf
000000b0: 7cf1 d6bf 5760 a5bf de1f 15c0 daa9 27c0
000000c0: 4570 81bc d98c 78bf f75f 25c0 95b5 6cbd
000000d0: 3865 313d 0fab bfbf 00e3 04c0 616b 5abf
000000e0: e663 11c0 314f 4bbf 2e70 d8bf e46a 7ebf
000000f0: 392f 37bf 8ec8 37c0 ba7e 37c0 10b6 d8bf
00000100: 965b 24c0 9f70 abbe 6356 a3c0 c228 6cbe
00000110: fda7 9ac0 35e7 32be b189 39bf bd1b 22c0
00000120: 494f 01be 9139 83c0 99ff fec0 4455 03c1
00000130: 3a7b 44c0 8759 19c1 1f51 12c0 e711 04c0
00000140: ba85 6d3c 1ed8 02c1 920a 53be 44c9 b3be
00000150: c2e2 f6bd ea50 4dc1 050f e7bf 92c2 05c1
00000160: c782 86bf d7b0 24c0 167e 9fc1 58c2 73c1
00000170: a522 51bf 78ed bcc0 65b7 38be df19 9fbe
00000180: 0453 e2bf a60a 89c0 e9a5 65c0 d718 24c0
00000190: d3d0 d8c0 971d c5c0 0320 f4bf d004 63c0
000001a0: eeae 96c0 c374 03c1 5c5a 73c0 d921 9fc0
000001b0: e5b1 973b f837 1bc0 4596 27c0 84ee 293d
000001c0: df98 9a3b 8e4f c8c0 a470 2fc1 3e1d 06bb
000001d0: 50e1 d0bf fd87 e4c0 5fe6 35bf ba4f 7dc1
000001e0: fe41 e3c0 d67c e5bf bf89 75c0 bac8 03c0
000001f0: 0ae1 5ac0 6e5f 77c1 8424 92c0 a23b 73be
00000200: 8441 e1bf 9b8d 9ac0 401d 81be fd09 02c1
00000210: 77a5 8dc0 ad03 d1c0 2f5a 123e c44c 9cc0
00000220: f8bb 4ac0 1123 5bbf 8b42 35c1 0a18 f3c0
00000230: 4e5e f93d f2ff b03e 349f 92c0 10dc 19c0
00000240: dc03 e83d 30ad ffc0 4c24 a1bf e684 23c0
00000250: 9abd 8ebf 5f2e 7fc0 0474 fec0 f730 7bc0
00000260: 9a04 d3bf b8ab e2be 66dc 0f3d 2071 afc0
00000270: 2582 01c1 748f c1c0 23ce 8fbf 95f1 36c0
00000280: be34 86c0 e890 dac0 d18a 25bf fb35 9ac1
00000290: da07 d0c0 37c7 4cc1 4264 8cc1 417f a7c0
000002a0: cdec 8abe 4a0e 49bf a688 5cc0 2e4b 29be
000002b0: 8dc6 023d 9fce 9bbe 10fc 10c1 9ccb 2fc1
000002c0: ecf7 39c0 a7a0 8ebf f636 febf b680 26bf
000002d0: ced8 76c0 2265 0ac0 2471 9bbf 0277 d4bf
000002e0: d0e0 25c0 4ff1 0ec1 c191 99c0 4279 073e
000002f0: 5994 27c0 29d7 0ac0 8032 83be 381b 0fc1
00000300: 791e 54c0 e79a 67c0 7edc 13c0 1a18 03c0
00000310: 3867 54c0 7c87 e9c0 fbf2 cfc0 0726 1ec1
00000320: 8010 0f3d 3e5b 81bf f87f aac0 95b7 8cbe
00000330: 9042 ae3b 75cf 05c1 649e 1dc1 53d9 3ec0
00000340: 7b56 83bf 5ca0 ffbf d8a2 f9c0 4bd5 08c0
00000350: 47e1 c1c0 25d4 b9bf 4bbe 3ebd d3fd f7c0
00000360: 7695 30c1 04d8 ccbf 18b3 27c0 b5ab e8bf
00000370: c90f f3c0 ad94 b7bf 015e 14c0 e1c8 3bc1
00000380: 04a5 bec0 bdfa 84c1 a410 60c1 247b 1dc1
00000390: 8551 2dbe ab47 35bf e112 5fc1 4391 1abe
000003a0: 69b6 a83c 31f4 0ac0 c515 5ec0 fca4 31c1
000003b0: 91a7 e3c0 20e0 85c0 b77f b2c0 4bdb 25c0
000003c0: df76 c3bd 857e edbf 33f5 3ec0 c5fe 22c0
000003d0: cf80 53c0 08ec 90bf f21c b6c0 4186 f7be
000003e0: 6630 62c0 197a 58bd c265 82be f530 a9c0
000003f0: 581e cdbf 503a dfbf ae42 cfc0 47b1 a2c0
-2.1559126 -2.0398424 -1.7461524 -1.6375045 -1.5741174 -0.9348418 -4.0967298 0.008618809
-1.873144 -1.0561309 -0.28701288 -0.97757107 -0.34439445 -1.8218672 -2.6807675 -1.2745993
-1.3014033 -1.0427405 -1.6329389 -2.2777529 -0.023620328 -2.3372593 -0.6354161 -0.67977166
-0.019099899 -1.9838582 -1.2263485 -2.601734 -1.8464131 -2.7229733 -0.95388454 -1.3874428
-0.8473574 -2.1050506 -0.03538117 -1.4253365 -1.6260345 -2.138295 -1.2871214 -1.9528904
-2.538095 -1.2442483 -1.3197789 -1.5668314 -1.6792445 -1.2920026 -2.33007 -2.619742
-0.015800605 -0.97089916 -2.5839822 -0.057790358 0.04330942 -1.4974078 -2.076355 -0.853201
-2.2717223 -0.7941771 -1.6909235 -0.9938185 -0.7155643 -2.871616 -2.8671098 -1.6930561
-2.56809 -0.3348436 -5.1042953 -0.23062423 -4.8330064 -0.17471011 -0.72475725 -2.532943
-0.12627901 -4.100777 -7.968701 -8.208317 -3.0700212 -9.584357 -2.2862012 -2.0635927
0.014497215 -8.177763 -0.20609501 -0.3511449 -0.12054969 -12.832254 -1.8051459 -8.3600025
-1.050866 -2.5732934 -19.936565 -15.234947 -0.8169349 -5.903988 -0.1803871 -0.31074426
-1.7681584 -4.28255 -3.5882514 -2.564016 -6.775491 -6.159862 -1.9072269 -3.5471687
-4.7088537 -8.216006 -3.80239 -4.972882 0.004629361 -2.425291 -2.6185467 0.04148723
0.0047179307 -6.2597113 -10.965 -0.0020464207 -1.631876 -7.1416 -0.71054643 -15.8319645
-7.1018057 -1.7928722 -3.8365324 -2.0591264 -3.4199853 -15.460798 -4.5669575 -0.23753217
-1.7598119 -4.829786 -0.25217628 -8.127439 -4.4264483 -6.5316987 0.14292215 -4.884371
-3.1677227 -0.8560038 -11.328746 -7.5966845 0.1217619 0.3457027 -4.581934 -2.4040565
0.11328861 -7.989891 -1.2589202 -2.5549865 -1.1151612 -3.9872053 -7.951662 -3.9248636
-1.6485779 -0.44271636 0.035122298 -5.482559 -8.094274 -6.0487614 -1.1234783 -2.858495
-4.1939383 -6.8301888 -0.6466494 -19.276358 -6.5009584 -12.798636 -17.548954 -5.234284
-0.2713379 -0.7853743 -3.4458404 -0.16532585 0.031927634 -0.30431077 -9.061539 -10.987209
-2.905757 -1.1142777 -1.9860523 -0.6504015 -3.8569827 -2.1624227 -1.2143903 -1.6598818
-2.5918465 -8.933913 -4.799042 0.1322985 -2.6184294 -2.1693823 -0.25624466 -8.944145
-3.31436 -3.6188295 -2.3103328 -2.048346 -3.3188 -7.2977886 -6.4984107 -9.884284
0.034927845 -1.010597 -5.328121 -0.27483812 0.0053179935 -8.363149 -9.85117 -2.9820144
-1.0260767 -1.9970813 -7.8011284 -2.1380184 -6.0587497 -1.4517866 -0.046568196 -7.7497344
-11.0364895 -1.6003423 -2.620306 -1.8177401 -7.595677 -1.4342247 -2.3182375 -11.736543
-5.9576435 -16.62243 -14.004063 -9.842564 -0.16925628 -0.7081248 -13.942109 -0.15094475
0.020594792 -2.1711543 -3.4700787 -11.102779 -7.114205 -4.183609 -5.57809 -2.5915096
-0.09544157 -1.8554236 -2.9837158 -2.5468 -3.3047369 -1.1322031 -5.6910334 -0.48344615
-3.534204 -0.052850816 -0.2546826 -5.287226 -1.6024885 -1.743967 -6.4768896 -5.0841403

bias f4 [10]
00000000: 4229 6940 b5bf 0ec0 b232 e9bf 3a05 30c0
00000010: d6e4 a6bf 2eed bcbf c16f 9dc0 ab2e aabf
00000020: 04f3 1cbf 7616 48c0
3.6431432 -2.2304509 -1.8218596 -2.750319 -1.3038585 -1.4759881 -4.919892 -1.3295492
-0.6130831 -3.126371
