NN Real data/final_trained_models/KTPM/KTPM_expLR.pth (torch, 56171 bytes, 10 tensors)

weight f4 [60, 20]
0.05254897 0.4055787 -4.471009 -1.6123409 -0.46274146 -0.62730247 1.7757115 -0.3126118
1.7244813 -1.6628706 -0.74712455 1.1612446 1.5361801 1.0890559 -0.6360629 -1.1171877
0.05439459 2.903243 2.2376783 -0.8755737 0.16531312 -0.3126823 -0.04922902 0.20288785
-0.12535788 0.20330146 -0.21665244 0.07584161 -0.120222 0.19151728 0.33180904 -0.036704484
-0.08362197 -0.14215922 -0.16065036 0.3003271 -0.07176235 -0.06783595 0.15244137 0.26751584
5.4550266 9.089771 0.8739647 -5.503817 2.452878 2.5589151 1.2167517 0.2551501
-0.7036082 -1.163402 0.5479481 -1.1600615 -0.41546747 0.04438444 -0.8768795 -0.37546366
-2.6348677 -0.11388207 0.08477218 -1.8597416 3.0576959 13.428451 -0.21833245 0.834863
3.1091316 0.8712251 4.356329 -0.78531057 2.3382263 -1.1237632 -0.21911293 2.0821774
-0.7840656 2.307475 -0.5910188 -1.0119768 0.4917726 -0.8406346 2.0206523 -1.4703312
-5.0805144 8.860464 -0.53027976 0.9481207 1.7246029 0.856339 3.5406694 -0.75429904
0.9174094 1.3402687 0.83924556 1.0794688 -0.6128588 -0.63878185 0.013326829 2.242254
1.2352186 1.2251796 0.38268006 -0.4928243 2.1192868 -3.6971345 -4.4190593 2.4721572
-1.9256023 -1.063717 -0.99512243 -0.3345315 0.56281984 0.1178392 -0.68069744 1.1276127
1.9460199 0.20617269 -0.44909507 -0.22969098 1.4954519 1.9790549 -2.0320244 0.13024089
-3.8308523 3.9490578 0.4766541 1.8045012 -0.3123894 1.6490883 -0.34382793 -1.3590825
-0.36779046 0.2782994 0.93396 -3.125078 -2.4086316 -1.3918895 0.82986814 0.99329644
-4.941394 -2.5009599 -1.2651733 1.5371698 -0.8190442 6.1658163 -2.9925828 -6.631637
-0.090091325 0.17391005 0.80648357 -0.70579594 -0.8267495 0.19522502 0.6639474 -0.15602612
-0.9192845 1.304322 0.9854246 0.7292271 -1.1983908 0.15429735 3.3518271 0.160473
0.9312395 2.556276 1.0368702 -1.3950338 3.0076602 1.684522 1.1365803 -0.5060609
0.37565 0.7796965 1.6899875 0.57006913 -0.07616915 0.9568391 0.08231847 1.4644156
0.2498972 1.0766759 2.1282506 -0.55018634 -2.8472908 0.01826497 2.3070052 2.128995
-1.6479632 0.14607824 -0.886985 0.53450996 2.875889 -0.055399664 -0.119851924 -0.5911979
1.4636753 4.580568 0.63255525 0.007017553 0.6417477 1.3894359 3.4849174 0.10442393
-0.15364401 -5.8654733 1.2456391 0.43268362 0.3933776 -1.2040824 -1.9524544 1.797237
0.034753405 -0.73279023 -0.8084576 -1.3498793 0.9550464 0.30631533 0.5171904 -0.49923834
-1.1767459 -0.68259573 -0.29220146 1.8757906 -2.3008056 1.8222824 2.954605 5.864388
-3.015374 0.75285786 -0.84806776 0.7208194 2.2752864 -1.1950164 0.61620444 -0.10938782
1.7223585 0.09670831 -2.7554348 0.61374825 0.94732714 1.0072229 1.2460212 -1.233201
-0.5593637 -3.2285979 -2.3196108 3.179826 5.4089875 0.036250066 -1.4443406 -2.4377325
1.4186723 1.9147543 -0.90225464 -1.5895369 -1.275049 -0.15624374 -1.3217343 0.09125129
00000000: 973d 573d 03a8 cf3e 8112 8fc0 3061 cebf
00000010: 73ec ecbe e596 20bf 844a e33f a70e a0be
00000020: cebb dc3f f2d8 d4bf 8e43 3fbf aaa3 943f
00000030: 8da1 c43f 2f66 8b3f 05d5 22bf 0200 8fbf
00000040: ddcc 5e3d bcce 3940 1f36 0f40 9925 60bf
00000050: d847 293e e517 a0be 5ea4 49bd d5c1 4f3e
00000060: d15d 00be 422e 503e 23da 5dbe d952 9b3d
00000070: f436 f6bd 1b1d 443e e0e2 a93e 7157 16bd
00000080: ff41 abbd 3092 11be 8781 24be 79c4 993e
00000090: 24f8 92bd 93ed 8abd 9719 1c3e d6f7 883e
000000a0: 948f ae40 b46f 1141 27bc 5f3f 451f b0c0
000000b0: f4fb 1c40 44c5 2340 85be 9b3f 09a3 823e
000000c0: ab1f 34bf 5bea 94bf 5446 0c3f e57c 94bf
000000d0: 27b8 d4be 75cc 353d 2d7b 60bf c63c c0be
000000e0: aca1 28c0 013b e9bd 099d ad3d 030c eebf
000000f0: 4ab1 4340 efda 5641 8b92 5fbe 95b9 553f
00000100: 03fc 4640 9c08 5f3f 0c67 8b40 1d0a 49bf
00000110: 80a5 1540 79d7 8fbf 245f 60be 6542 0540
00000120: 86b8 48bf acad 1340 024d 17bf 7588 81bf
00000130: 9ec9 fb3e d433 57bf 5e52 0140 d033 bcbf
00000140: 9393 a2c0 76c4 0d41 6ac0 07bf 0ab8 723f
00000150: cabf dc3f 0839 5b3f 549a 6240 be19 41bf
00000160: 58db 6a3f ed8d ab3f ccd8 563f 092c 8a3f
00000170: 50e4 1cbf 3587 23bf c658 5a3c 1781 0f40
00000180: a51b 9e3f afd2 9c3f a4ee c33e 7753 fcbe
00000190: 65a2 0740 da9d 6cc0 ef68 8dc0 d337 1e40
000001a0: 237a f6bf e127 88bf 58c0 7ebf b647 abbe
000001b0: f614 103f ae55 f13d 3042 2ebf 9d55 903f
000001c0: 2e17 f93f ef1e 533e caef e5be 1d34 6bbe
000001d0: f86a bf3f ac51 fd3f b00c 02c0 de5d 053e
000001e0: af2c 75c0 5dbd 7c40 020c f43e e5f9 e63f
000001f0: 81f1 9fbe 5315 d33f 370a b0be 6af6 adbf
00000200: 084f bcbe 427d 8e3e 0118 6f3f 4701 48c0
00000210: 0527 1ac0 6f29 b2bf 3d72 543f ad48 7e3f
00000220: e61f 9ec0 ba0f 20c0 33f1 a1bf fbc1 c43f
00000230: e1ac 51bf 5e4e c540 7a86 3fc0 5f36 d4c0
00000240: cd81 b8bd 7a15 323e b575 4e3f 0baf 34bf
00000250: dba5 53bf 11e9 473e 75f8 293f 50c5 1fbe
00000260: 3b56 6bbf 06f4 a63f c944 7c3f a1ae 3a3f
00000270: df64 99bf 2000 1e3e 5684 5640 0953 243e
00000280: b665 6e3f 079a 2340 2ab8 843f 7890 b2bf
00000290: 817d 4040 6b9e d73f 777b 913f 358d 01bf
000002a0: 3255 c03e 319a 473f 8351 d83f 0df0 113f
000002b0: 92fe 9bbd 68f3 743f 9696 a83d f871 bb3f
000002c0: 0de5 7f3e 84d0 893f 4235 0840 03d9 0cbf
000002d0: 033a 36c0 6ba0 953c f9a5 1340 7441 0840
000002e0: 75f0 d2bf 8995 153e 7311 63bf a5d5 083f
000002f0: 910e 3840 c2ea 62bd ed74 f5bd bf58 17bf
00000300: b659 bb3f 0394 9240 24ef 213f 80f3 e53b
00000310: 9449 243f 09d9 b13f e308 5f40 37dc d53d
00000320: db54 1dbe f5b1 bbc0 1a71 9f3f b588 dd3e
00000330: ca68 c93e 5f1f 9abf 07ea f9bf dd0b e63f
00000340: 9659 0e3d 2498 3bbf 14f7 4ebf d8c8 acbf
00000350: ec7d 743f 5dd5 9c3e 9766 043f 2b9c ffbe
00000360: 9c9f 96bf 98be 2ebf 6e9b 95be e819 f03f
00000370: 6640 13c0 8d40 e93f 4018 3d40 11a9 bb40
00000380: e3fb 40c0 4bbb 403f f81a 59bf 9f87 383f
00000390: 4b9e 1140 4cf6 98bf 93bf 1d3f b906 e0bd
000003a0: 3e76 dc3f 020f c63d 0b59 30c0 9b1e 1d3f
000003b0: 0884 723f aeec 803f 9f7d 9f3f 88d9 9dbf
000003c0: 7632 0fbf 59a1 4ec0 8174 14c0 4582 4b40
000003d0: 6d16 ad40 f37a 143d 27e0 b8bf cf03 1cc0
000003e0: 0e97 b53f ab16 f53f 29fa 66bf f275 cbbf
000003f0: ce34 a3bf 5cfe 1fbe 972e a9bf f5e1 ba3d

bias f4 [60]
-2.3735037 -0.5888102 0.6096543 0.5184584 0.03079723 0.084652565 -0.041382056 0.24601866
-1.1959622 -0.5931455 -1.5210692 0.13779941 -0.73739517 0.47575024 -1.675864 -0.17479676
-0.55560887 -1.3680085 -1.6231161 -0.5756228 -0.9287795 0.118512645 -1.7767603 -1.0832081
-1.5130553 -0.7006991 -2.2277827 -0.37891445 -1.6636143 -1.1731836 0.053818252 0.07987102
-0.4141819 -0.36359534 -1.9770625 0.041688114 -0.8657982 -1.0052289 0.20205277 -0.24314182
0.22815101 0.03766877 0.3627594 -0.86556417 -0.084803484 -0.08419406 -1.0036377 -1.4045943
-0.3272786 -0.42171082 -1.7234645 -2.942476 -1.1921527 0.16903642 -1.0118728 -3.0061314
-1.3174123 -0.51938987 -1.2948987 -0.18160927
00000000: 7ce7 17c0 44bc 16bf 4e12 1c3f b1b9 043f
00000010: 794a fc3c 535e ad3d 3b80 29bd 51ec 7b3e
00000020: 4a15 99bf 62d8 17bf 65b2 c2bf 4a1b 0d3e
00000030: eec5 3cbf 8995 f33e b682 d6bf ecfd 32be
00000040: 623c 0ebf e71a afbf 45c2 cfbf 045c 13bf
00000050: 7ec4 6dbf c2b6 f23d e26c e3bf 90a6 8abf
00000060: ccab c1bf 0461 33bf fe93 0ec0 1301 c2be
00000070: 50f1 d4bf e12a 96bf 8770 5c3d 6b93 a33d
00000080: a60f d4be 2b29 babe 6210 fdbf 28c1 2a3d
00000090: f3a4 5dbf 57ab 80bf ece6 4e3e 2bfa 78be
000000a0: 6ba0 693e 914a 1a3d 9abb b93e 9d95 5dbf
000000b0: 73ad adbd ef6d acbd 3377 80bf bfc9 b3bf
000000c0: 1091 a7be 7bea d7be 7c9a dcbf 8751 3cc0
000000d0: 7698 98bf e217 2d3e 0c85 81bf 7564 40c0
000000e0: f7a0 a8bf bcf6 04bf 3ebf a5bf c8f7 39be

weight f4 [60, 60]
-3.7499905 -0.04161956 -2.2991328 -1.4521477 2.6631835 -3.2701104 1.3873836 0.91726875
-2.02946 2.0969658 -0.47822607 1.3879848 -0.09746555 -3.1490586 -1.1411247 -1.6789447
0.26274765 -0.45147857 -2.9939854 0.0380493 0.85649276 4.057336 -1.0007819 -0.32231998
-1.4538333 0.020517154 -0.18366916 -0.09442509 -1.1019931 -2.8895345 -2.7172456 3.0047257
-0.1617385 -0.21788312 -3.6525748 -2.1985755 -0.2141702 0.0033673912 0.29621384 0.029365592
-0.091727294 -2.280972 1.1637375 0.13292971 -1.2971337 -4.943647 1.2879244 -0.8643802
0.08234854 2.0761127 -1.6488636 -4.4699135 -3.4916363 -3.6295388 -1.4847829 -1.5602787
0.05115618 0.26647255 -0.5984622 -0.18448764 -0.1509813 0.05490987 -0.24017027 -0.20880593
-0.3922046 -0.18747652 -0.58831567 -0.07790554 -0.123670064 -0.21872939 -0.0787949 -0.18099326
-0.13115658 -0.1677611 -0.15944129 -0.25964835 -0.26531428 0.03143634 -0.09397056 -0.22899076
-0.043512743 -0.19913894 -0.10011092 -0.03394695 -0.08032216 -0.045465663 -0.016207442 0.068580955
0.06883191 -0.16214734 -0.2967458 -0.28367874 0.0888437 -0.0760755 0.02412904 -0.06381021
-0.057334587 -0.012680043 -0.1714019 -0.0021122356 -0.092763215 -0.14195158 -0.16073658 0.08668877
-0.15883142 -0.15153092 -0.12499883 -0.13982926 -0.017577842 -0.12212824 -0.18827961 -0.045493867
-0.17690252 -0.22625023 -0.025155265 -0.12275812 -0.18342978 -0.028562395 -0.148207 -0.13203803
-0.0013417385 -0.12629691 -0.16639338 -0.044453595 -0.24950193 -0.20312265 -0.1801932 -0.099143445
-0.019975264 0.034300473 -0.05968101 -0.11953784 -0.016722474 -0.21421126 -0.044103313 -0.13798533
-0.0012387454 -0.04185205 0.011895821 -0.12999846 -0.10600756 -0.09792604 -0.15204287 -0.02830698
-0.06463765 -0.046694547 -0.024129406 0.038880788 -0.018228782 -0.042407095 -0.07707393 -0.17620865
-0.04164718 0.15164524 -0.0062274174 -0.16438925 -0.084882125 -0.004097617 -0.1234408 -0.03167212
-0.08375812 0.11781922 -0.09159554 -0.046164893 -0.051756386 0.052287817 0.017532764 0.069158755
-0.25665092 -0.02560375 -0.009296495 -0.08026506 -0.14382121 -0.010032851 0.102960296 -0.003197927
0.039701954 -0.10535521 -0.13610801 -0.0052295886 -3.4194565 0.165406 -2.8541691 -1.5558773
-4.3283668 3.5503907 -1.2213397 0.44836232 -0.8392931 0.20503378 -1.0624319 -3.4775836
0.63009053 0.4278617 -1.3282638 -2.1996217 1.0308138 -0.41183767 -3.1059477 0.19331695
-0.64121574 3.1057744 0.07660648 -0.76915044 1.4669904 -0.044487767 -1.7232367 0.063683674
-0.04500143 0.27720097 0.9437376 -1.4321792 -0.14299959 -0.0070685954 -2.5299344 2.2097673
0.1041567 -0.35325682 -2.339319 -0.0757124 -3.541522 -2.6104448 0.9470088 -3.245982
-1.2618531 2.4749181 -0.8489582 -2.2859766 -0.034054723 -2.9999766 -0.8509151 0.025411548
-2.2595193 -0.52944404 -0.73629296 0.012342857 0.296948 -0.108762115 -0.5657958 -0.061831597
-0.67819023 0.10922445 -1.7445204 -1.3225405 0.65355104 -0.1965261 -0.3233939 2.1965685
0.35864198 -7.1223464 -0.51875883 -1.5924007 -3.743559 -7.5162387 -1.694528 -0.091659606
00000000: d8ff 6fc0 4679 2abd fe24 13c0 fadf b9bf
00000010: 9971 2a40 7d49 51c0 c995 b13f 20d2 6a3f
00000020: ace2 01c0 b034 0640 0cda f4be 7ca9 b13f
00000030: 059c c7bd 2d8a 49c0 6010 92bf a9e7 d6bf
00000040: dc86 863e 3328 e7be 759d 3fc0 95d9 1b3d
00000050: 1c43 5b3f b2d5 8140 9f19 80bf 2007 a5be
00000060: 3617 babf 9713 a83c c513 3cbe f161 c1bd
00000070: 1c0e 8dbf 22ee 38c0 5ae7 2dc0 6d4d 4040
00000080: c79e 25be c11c 5fbe c9c3 69c0 76b5 0cc0
00000090: 6f4f 5bbe 73af 5c3b 57a9 973e 1c90 f03c
000000a0: 85db bbbd 72fb 11c0 5af5 943f ba1e 083e
000000b0: 7a08 a6bf 5b32 9ec0 b5da a43f 0548 5dbf
000000c0: 5aa6 a83d 08df 0440 f60d d3bf 8809 8fc0
000000d0: f876 5fc0 5d4a 68c0 5e0d bebf 36b7 c7bf
000000e0: 2589 513d 176f 883e d234 19bf 54ea 3cbe
000000f0: d89a 1abe 2ce9 603d 32ef 75be 39d1 55be
00000100: 0bcf c8be d8f9 3fbe db9b 16bf f18c 9fbd
00000110: bb46 fdbd 99fa 5fbe 385f a1bd 4c56 39be
00000120: e94d 06be 91c9 2bbe 9444 23be a1f0 84be
00000130: 46d7 87be 64c3 003d a373 c0bd 8e7c 6abe
00000140: 6b3a 32bd 14eb 4bbe f406 cdbd f50b 0bbd
00000150: f27f a4bd 343a 3abd 78c5 84bc 2c74 8c3d
00000160: bff7 8c3d f409 26be 11ef 97be 573e 91be
00000170: b0f3 b53d 79cd 9bbd 44aa c53c edae 82bd
00000180: acd7 6abd f4bf 4fbc fb83 2fbe 6f6d 0abb
00000190: a4fa bdbd c15b 11be 2198 24be e289 b13d
000001a0: b4a4 22be ec2a 1bbe 63ff ffbd 672f 0fbe
000001b0: 68ff 8fbc 5f1e fabd 5fcc 40be c757 3abd
000001c0: ef25 35be 24ae 67be 6a12 cebc 9c68 fbbd
000001d0: 04d5 3bbe affb e9bc 93c3 17be fa34 07be
000001e0: 46dd afba fa53 01be 0763 2abe f914 36bd
000001f0: 6f7d 7fbe 62ff 4fbe 9184 38be b80b cbbd
00000200: 2aa3 a3bc a77e 0c3d 1374 74bd 41d0 f4bd
00000210: 92fd 88bc 325a 5bbe ada5 34bd 074c 0dbe
00000220: 665d a2ba 0e6d 2bbd b1e6 423c 511e 05be
00000230: 7e1a d9bd 738d c8bd 20b1 1bbe 0ae4 e7bc
00000240: bf60 84bd c842 3fbd 08ab c5bc 7641 1f3d
00000250: 8754 95bc 10b3 2dbd f0d8 9dbd 0a70 34be
00000260: 3c96 2abd e448 1b3e 5d0f ccbb a855 28be
00000270: aed6 adbd 4e45 86bb 88ce fcbd a0ba 01bd
00000280: 6189 abbd 344b f13d 7196 bbbd 6617 3dbd
00000290: 81fe 53bd c02b 563d dfa0 8f3c 1ba3 8d3d
000002a0: c067 83be f5be d1bc 5350 18bc 0262 a4bd
000002b0: de45 13be d460 24bc d9dc d23d 5094 51bb
000002c0: 849e 223d 79c4 d7bd e65f 0bbe f85c abbb
000002d0: 60d8 5ac0 3160 293e b5aa 36c0 fd26 c7bf
000002e0: fb81 8ac0 9a39 6340 dc54 9cbf bf8f e53e
000002f0: eadb 56bf 60f4 513e c5fd 87bf bb90 5ec0
00000300: 9d4d 213f b010 db3e 8c04 aabf 9ac6 0cc0
00000310: b5f1 833f 63dc d2be d9c7 46c0 e1f4 453e
00000320: b726 24bf 02c5 4640 dce3 9c3d 0be7 44bf
00000330: 57c6 bb3f ce38 36bd 0593 dcbf 966c 823d
00000340: 6b53 38bd 49ed 8d3e ca98 713f a651 b7bf
00000350: 7c6e 12be ad9f e7bb 72ea 21c0 d46c 0d40
00000360: 1c50 d53d 14de b4be 67b7 15c0 1a0f 9bbd
00000370: 4ca8 62c0 8711 27c0 2b6f 723f 2bbe 4fc0
00000380: 6784 a1bf 0f65 1e40 5355 59bf 714d 12c0
00000390: f77c 0bbd 9eff 3fc0 92d5 59bf e12b d03c
000003a0: f79b 10c0 a589 07bf b27d 3cbf b239 4a3c
000003b0: 9109 983e acbe debd fed7 10bf 2143 7dbd
000003c0: e09d 2dbf 12b1 df3d 724c dfbf 0249 a9bf
000003d0: 1f4f 273f 233e 49be e393 a5be 9494 0c40
000003e0: ec9f b73e 43ea e3c0 61cd 04bf c9d3 cbbf
000003f0: 7896 6fc0 0785 f0c0 4be6 d8bf 08b8 bbbd

bias f4 [60]
1.2641017 -0.09059314 -0.06957729 0.45817685 1.05238 -0.10935004 -0.27805808 1.0283908
0.95856875 0.019906636 -0.8611555 -0.19805187 -1.2622545 -0.41191432 0.77985144 -0.8823781
-1.3567249 0.5591441 -0.6155182 -0.28114098 0.9089459 -0.15583605 -0.5023922 -0.41833043
-0.2336505 1.0514549 1.7152551 -0.2847528 -0.5869298 -0.5075174 -1.8204665 -0.06927812
0.693623 -0.30373818 -0.70886177 -0.27050242 -0.4743564 -0.14157312 -2.4915364 -0.25749198
-0.050987616 -0.3755678 0.30441394 -1.4696767 -0.37166333 -0.28286153 -0.13753869 -0.21652538
0.41443306 -0.13006432 -0.442931 -0.5618135 -0.33024946 -1.5250238 -0.43703103 -0.023328066
-0.40577132 -0.28988767 -0.18966866 -1.3874898
00000000: 16ce a13f e588 b9bd 8a7e 8ebd 2896 ea3e
00000010: 63b4 863f eaf2 dfbd a15d 8ebe 4fa2 833f
00000020: c364 753f 3e13 a33c b074 5cbf 1cce 4abe
00000030: 8e91 a1bf 6fe6 d2be 58a4 473f 88e3 61bf
00000040: 29a9 adbf 1124 0f3f 9a92 1dbf b6f1 8fbe
00000050: aeb0 683f 7c93 1fbe c69c 00bf 682f d6be
00000060: 1442 6fbe 1396 863f 7b8d db3f 1ecb 91be
00000070: 0841 16bf a9ec 01bf 0c05 e9bf b0e1 8dbd
00000080: 4791 313f 9283 9bbe f777 35bf 4b7f 8abe
00000090: d8de f2be 8bf8 10be 5575 1fc0 fdd5 83be
000000a0: 64d8 50bd 6c4a c0be 25dc 9b3e 5e1e bcbf
000000b0: a84a bebe 3ad3 90be f1d6 0cbe d4b8 5dbe
000000c0: 9230 d43e 952f 05be dac7 e2be 02d3 0fbf
000000d0: 7516 a9be fb33 c3bf 88c2 dfbe 801a bfbc
000000e0: 42c1 cfbe 286c 94be 8038 42be 4499 b1bf

weight f4 [60, 60]
0.22970001 -0.0034869686 -0.13398501 0.46454906 1.1231322 0.019442303 -0.22222269 -0.796079
-0.7157647 -0.57818353 -0.16720946 -0.049119636 -0.60958374 0.071529984 0.10591024 -0.33637604
-0.3880166 0.8568326 -0.0052574053 -0.07693971 -0.9525145 -0.03262359 -0.12033278 -0.030633472
0.04968457 -1.236134 -0.20572588 -0.0936183 0.098173365 -0.041540228 0.8226299 -0.028230742
-0.24366191 -0.094388396 -1.4809003 0.36811858 0.17143069 -0.1287323 -0.2521274 0.0717289
-0.025680665 0.08490467 0.7835256 -1.086931 -0.027651645 0.08424948 0.49645403 -0.009835146
0.43081638 -0.10807569 0.038730428 0.09480319 0.083056 1.576395 0.49482173 -0.10063885
-0.13738416 0.025472207 -0.037594143 -1.9961113 -0.17379515 -0.022697676 -0.1573365 -0.43329406
-0.04991027 -0.015372824 -0.005986387 -0.039412096 -0.16154557 -0.22358333 0.06009694 0.028213717
-0.056130722 0.2403315 -0.038590025 -0.07045664 -0.1294464 -0.24804848 0.080879316 0.095744684
-0.051704288 -0.07337503 0.11744194 -0.11880512 -0.17135297 -0.12656918 -0.11926595 0.14025567
-0.0025720904 -0.030164266 -0.1416157 -0.08658601 -0.24784684 0.015817976 -0.044927374 -0.001791667
-0.045272194 0.0069895177 -0.11849387 -0.018774116 -0.11350819 0.06076643 -0.05958001 -0.024514582
0.0473716 0.17440206 -0.15997612 -0.16392945 -0.091303684 0.024761405 -0.11495515 -0.015706459
0.0214988 -0.092589885 -0.13583872 0.031060535 -0.029861903 -0.0032538162 -0.0003481806 -0.119760565
-0.455313 -0.06105988 -0.1390963 -0.20072597 -0.27443615 -0.077732444 -0.084379695 0.025907086
0.21727346 1.668136 -0.33428898 -0.19841197 0.18418604 -0.121135265 -0.41300762 -0.07064902
-0.117465235 0.5000606 -0.116075926 0.028991662 -0.779143 -0.076470345 -0.08041153 -0.09368327
-0.057332866 0.28904256 1.1497233 0.00591599 0.05831462 -0.11078804 0.15734667 -0.034857113
-0.19834143 -0.2019835 0.06811606 0.5182875 -0.5308764 -0.1093177 -0.71547484 -0.08711851
-0.216328 0.033285618 -0.05371036 -0.25692177 0.050564017 0.05726306 0.017020602 -0.15102507
0.07594644 -0.22972403 -0.043801848 0.011931872 0.005124473 -0.5767996 -0.06762037 -0.075969525
0.072672516 -0.12347353 -0.12012101 -0.13487503 1.6094211 0.18771984 0.106294386 -2.7202463
-3.0749714 0.056390647 0.07336228 1.3368586 2.8288355 -3.758533 -0.5541362 0.20740956
-1.0132104 0.35260525 -1.6961356 -0.7311145 -0.03419476 -0.19504559 0.2890686 -0.09709481
0.90314686 0.011860593 -0.0815501 0.10708533 -0.13957718 0.19648093 0.17434546 -0.01008454
-0.45460925 0.09460345 0.09245688 -0.01976242 -0.48601875 0.14841807 -2.912748 -3.821662
0.05817346 -0.012647025 -1.0950872 0.075491674 0.09847309 -0.025230357 -1.689926 1.6295483
-0.23031427 0.18876453 0.71536136 -0.18078056 1.3605419 -0.13134171 0.01153081 -0.017902946
0.07980156 -1.2343279 0.4051619 -0.055837344 0.04575538 0.021543795 -0.1280221 -0.21874712
-0.9132232 -0.07342251 0.03200007 -1.0455327 -0.0805296 0.03999084 -0.007490739 -0.57896566
0.095866755 -0.03218176 0.2565547 0.12888938 0.21066065 0.017136771 -1.7095879 -0.12382225
00000000: 7b36 6b3e a085 64bb 5e33 09be 60d9 ed3e
00000010: ccc2 8f3f 7745 9f3c 588e 63be d5cb 4bbf
00000020: 5b3c 37bf d603 14bf f538 2bbe ac31 49bd
00000030: ae0d 1cbf 507e 923d 78e7 d83d 7b39 acbe
00000040: 1daa c6be 6259 5b3f 5046 acbb 9192 9dbd
00000050: fed7 73bf 50a0 05bd 0871 f6bd 0cf3 fabc
00000060: 0c82 4b3d a439 9ebf cea9 52be f4ba bfbd
00000070: 1e0f c93d 1626 2abd e097 523f 2844 e7bc
00000080: 8282 79be b44e c1bd 248e bdbf 0a7a bc3e
00000090: 878b 2f3e 66d2 03be d816 81be 9ae6 923d
000000a0: 4260 d2bc 80e2 ad3d 2295 483f 8e20 8bbf
000000b0: b485 e2bc fe8a ac3d 392f fe3e 9823 21bc
000000c0: f793 dc3e ca56 ddbd cca3 1e3d 2d28 c23d
000000d0: 4419 aa3d 50c7 c93f 4659 fd3e be1b cebd
000000e0: 6fae 0cbe 17ab d03c 51fc 19bd 9380 ffbf
000000f0: 5bf7 31be 7af0 b9bc d21c 21be b8d8 ddbe
00000100: b66e 4cbd 4cde 7bbc 7429 c4bb 946e 21bd
00000110: 346c 25be 07f3 64be 3528 763d 7420 e73c
00000120: 54e9 65bd 7619 763e 9310 1ebd 924b 90bd
00000130: 998d 04be 6c00 7ebe 0ea4 a53d ca15 c43d
00000140: e0c7 53bd a645 96bd 6685 f03d 1950 f3bd
00000150: 2777 2fbe 5a9b 01be b541 f4bd 2f9f 0f3e
00000160: 8490 28bb 0d1b f7bc b503 11be 0254 b1bd
00000170: 90cb 7dbe b394 813c c405 38bd 5ed6 eaba
00000180: 566f 39bd 5308 e53b eaac f2bd 2dcc 99bc
00000190: fb76 e8bd 38e6 783d 2b0a 74bd ced2 c8bc
000001a0: b908 423d 7496 323e c8d0 23be 1fdd 27be
000001b0: 6dfd babd 6ed8 ca3c 9b6d ebbd d5aa 80bc
000001c0: 401e b03c c49f bdbd 4e19 0bbe aa72 fe3c
000001d0: f3a0 f4bc fa3d 55bb 028c b6b9 0745 f5bd
000001e0: c91e e9be ed19 7abd 436f 0ebe 1c8b 4dbe
000001f0: e582 8cbe 3032 9fbd 43cf acbd 193b d43c
00000200: ef7c 5e3e 7b85 d53f ed27 abbe 822c 4bbe
00000210: 449b 3c3e c415 f8bd bc75 d3be 6fb0 90bd
00000220: 9d91 f0bd f903 003f 37b9 edbd ec7f ed3c
00000230: ea75 47bf 7c9c 9cbd cdae a4bd 04dd bfbd
00000240: ded5 6abd 63fd 933e 222a 933f ecda c13b
00000250: 50db 6e3d d7e4 e2bd 7c1f 213e 55c6 0ebd
00000260: 041a 4bbe c3d4 4ebe 6f80 8b3d 7dae 043f
00000270: 84e7 07bf f5e1 dfbd 5c29 37bf 306b b2bd
00000280: 1685 5dbe 8056 083d 65ff 5bbd 408b 83be
00000290: 371c 4f3d ac8c 6a3d ca6e 8b3c 51a6 1abe
000002a0: cf89 9b3d c73c 6bbe 9169 33bd e67d 433c
000002b0: 32eb a73b 23a9 13bf 8c7c 8abd e995 9bbd
000002c0: 54d5 943d b1df fcbd 0102 f6bd ae1c 0abe
000002d0: 8301 ce3f a139 403e dfb0 d93d 8418 2ec0
000002e0: 55cc 44c0 e1f9 663d f73e 963d 2f1e ab3f
000002f0: a40b 3540 ce8b 70c0 dfdb 0dbf 2c63 543e
00000300: e1b0 81bf ad88 b43e f91a d9bf 522a 3bbf
00000310: ce0f 0cbd 08ba 47be cd00 943e a5d9 c6bd
00000320: a234 673f ef52 423c bd03 a7bd 8e4f db3d
00000330: 52ed 0ebe 4c32 493e 9e87 323e a039 25bc
00000340: 8bc2 e8be 74bf c13d 085a bd3d cce4 a1bc
00000350: 73d7 f8be e8fa 173e 776a 3ac0 1c96 74c0
00000360: 4b47 6e3d 7835 4fbc d12b 8cbf 619b 9a3d
00000370: 42ac c93d e5af cebc 7f4f d8bf 0a95 d03f
00000380: 81d7 6bbe 7d4b 413e ec21 373f 8a1e 39be
00000390: 3d26 ae3f 717e 06be b9eb 3c3c 33a9 92bc
000003a0: 006f a33d 75fe 9dbf 6171 cf3e b3b5 64bd
000003b0: fe69 3b3d 9d7c b03c 3a18 03be 3fff 5fbe
000003c0: ffc8 69bf 8a5e 96bd 8112 033d 04d4 85bf
000003d0: b4ec a4bd 6fcd 233d e074 f5bb 1837 14bf
000003e0: ca55 c43d 05d1 03bd 235b 833e 94fb 033e
000003f0: 6db7 573e 6a62 8c3c c7d3 dabf 8596 fdbd

bias f4 [60]
-2.687911 -0.16850469 -0.49815077 -0.3442612 -0.8559139 -0.8751925 -1.376326 -0.5930448
-0.83482766 0.23354076 -0.52148426 -0.37992862 -0.4521952 -0.9180177 -1.8310676 -1.1516275
-0.624468 -0.43248522 -3.3190334 -0.31796166 -0.5186412 0.6763893 -1.3083154 -0.4015298
-1.8015295 -0.88194126 -3.151507 -3.1366978 -1.9959251 -1.0454335 -0.6668385 -0.6066861
-0.88989145 -1.1436098 -2.1907709 -3.6968527 -0.4881353 -0.19724531 -0.60717034 -0.66118664
-0.7305072 -0.55474716 -0.33662024 -3.0450094 -0.52454185 -1.9425863 -0.746941 -0.51992875
-0.79463965 -0.55145454 -2.8389974 -1.2827879 -2.0428379 0.35535744 -0.43965513 -0.46236545
-1.3892536 -3.1654387 -2.8028224 -0.6081829
00000000: bc06 2cc0 7e8c 2cbe 9e0d ffbe 0143 b0be
00000010: 2c1d 5bbf 9e0c 60bf 732b b0bf c9d1 17bf
00000020: 44b7 55bf 4f25 6f3e fe7f 05bf 0186 c2be
00000030: 2186 e7be 3503 6bbf 6c60 eabf 8868 93bf
00000040: 23dd 1fbf b46e ddbe 0b6b 54c0 dfcb a2be
00000050: abc5 04bf d927 2d3f e176 a7bf 5095 cdbe
00000060: 8598 e6bf e7c6 61bf 4ab2 49c0 a8bf 48c0
00000070: 797a ffbf c4d0 85bf eeb5 2abf c84f 1bbf
00000080: edcf 63bf ce61 92bf 9735 0cc0 3c99 6cc0
00000090: dfec f9be adfa 49be 846f 1bbf 8743 29bf
000000a0: 8502 3bbf e903 0ebf 7d59 acbe 6fe1 42c0
000000b0: 6048 06bf aba6 f8bf 8637 3fbf 0d1a 05bf
000000c0: 816d 4bbf 202c 0dbf 22b2 35c0 6532 a4bf
000000d0: dbbd 02c0 69f1 b53e 7a1a e1be 2abb ecbe
000000e0: 10d3 b1bf 8c96 4ac0 7161 33c0 e0b1 1bbf

weight f4 [60, 60]
0.14583607 -0.20019254 -0.020479873 -0.24611989 -0.22675647 0.046952844 0.050035737 0.124063864
-0.30582803 0.04134485 -0.060552515 0.07318056 -0.05525604 -0.30942485 -0.09818195 -0.16420121
-0.1031598 0.17546102 0.091254584 -0.10325096 -0.18076885 0.032271087 -0.033373207 0.05122272
-0.097972095 -0.08834559 -0.12544711 -0.17516708 -0.20253184 -0.08250499 0.076064155 0.06728813
0.0026890486 -0.109997615 -0.44890118 -0.018014612 0.05120798 -0.0040731467 0.070685126 -0.13099767
-0.2569922 0.018482849 0.037188064 -0.18879408 -0.11353184 -0.117901035 0.09506245 0.0035392162
-0.045038126 -0.24363519 -0.008266121 -0.095456846 0.050581373 -0.022725841 -0.0039126724 -0.054811977
0.005544484 -0.12851489 -0.17568654 -0.24025108 -0.9594711 0.03730701 -0.0048275604 -0.28357938
0.77327603 -0.07898256 -0.031649116 -0.046434112 -0.07004814 -0.91271424 0.0610112 0.0013961868
-0.04124096 0.11317897 -0.18249857 0.06260835 -0.38835257 -0.15726525 -0.1938648 0.09503673
0.07180535 0.03446604 -0.026097637 0.1651896 0.04263805 -0.1183552 0.121256836 -0.27919096
-0.2373241 0.09199784 0.014701977 -0.011629157 -0.020343587 -0.02864786 -0.8666316 -1.0454919
-0.18575813 -0.8386207 -0.014390896 -0.111418575 -0.15068771 -0.07542268 0.073791854 -0.7085343
-0.9801302 -0.7216321 -0.19011688 0.2829817 0.25464278 0.079227895 -0.19046022 -0.40412918
0.017249037 -0.5799898 0.0932143 0.023561388 -0.5708007 0.054849412 -0.17070921 -1.0021724
-0.061845377 0.0061676516 -0.008510829 -0.16024965 -0.06769611 -0.048638724 -0.11225026 -0.10030084
-0.060849402 -0.022411296 0.040073648 -0.03796151 -0.048584044 -0.010779776 -0.09453114 -0.02319777
-0.012335007 0.016251938 -0.05502505 -0.1071921 0.030867448 -0.044965 0.031759083 -0.0972652
0.067422755 0.10933069 0.055207986 -0.09234712 -0.01797771 -0.10606851 0.038182303 -0.008227229
0.07029915 -0.0031205039 -0.41333574 -0.015418902 -0.1593537 -0.28156158 -0.14428632 -0.048947502
-0.13204744 -0.08109416 -0.10205557 -0.36786914 -0.22664766 0.12243379 0.045356974 0.021038223
0.12037033 -0.07526143 0.11871879 -0.012352747 -0.12612632 -0.3883888 -0.113104016 -0.0247238
-0.05304311 0.085536316 -0.32635295 -0.24887742 1.0502629 -0.16131295 0.34386298 -0.40684333
-1.1883087 -0.020783953 -0.69893193 0.008450195 -0.25033462 1.4767153 -0.035605267 0.04613576
0.08322339 -0.11732653 0.5299108 1.6639326 -1.3225362 -0.053039994 1.3553737 -0.08287819
-0.050412867 0.25509694 -0.05342178 -0.17156535 0.6526275 0.09661473 0.5381965 0.22953257
-0.40085882 -0.0233252 -0.05624231 -0.08837898 -0.07052271 0.1945888 0.5852397 0.86239654
-0.15439259 -0.74907345 -0.21340337 -0.5345828 0.21555747 -0.11333914 -0.13780522 0.22556819
0.07391582 1.0958763 0.10166414 -0.7466741 0.02911812 0.03196107 0.2626808 -0.18284675
0.9031879 -0.6492187 -0.09238301 -0.116529875 0.3612608 -0.63039863 -0.8038522 0.5836745
0.20113884 -0.19328834 0.07924187 -0.43565363 0.2046969 -0.12854865 -0.0039385376 0.076222666
0.42099777 0.07739851 0.03343331 -0.023859981 0.09303923 -0.020479675 0.03072657 -0.067377485
00000000: 0d56 153e 46ff 4cbe 68c5 a7bc da06 7cbe
00000010: d932 68be a051 403d 46f2 4c3d 3215 fe3d
00000020: 7e95 9cbe 3859 293d ea05 78bd b0df 953d
00000030: 2854 62bd ef6c 9ebe 9e13 c9bd 5d24 28be
00000040: 7245 d3bd 0eac 333e afe3 ba3d 3d75 d3bd
00000050: 781b 39be b02e 043d 58b2 08bd eace 513d
00000060: 98a5 c8bd 88ee b4bd 3575 00be 005f 33be
00000070: 8264 4fbe 60f8 a8bd 86c7 9b3d 5cce 893d
00000080: c03a 303b 6e46 e1bd 60d6 e5be 6193 93bc
00000090: 75bf 513d 0878 85bb 5dc3 903d 4124 06be
000000a0: 7b94 83be 5869 973c 8352 183d 3c53 41be
000000b0: 6283 e8bd 1976 f1bd 1ab0 c23d 32f2 673b
000000c0: e679 38bd 817b 79be a06e 07bc e17e c3bd
000000d0: 6a2e 4f3d 8b2b babc e035 80bb 8682 60bd
000000e0: 81ae b53b 6899 03be 2ce7 33be 6104 76be
000000f0: e69f 75bf 3ccf 183d 8330 9ebb 5131 91be
00000100: 6bf5 453f 9cc1 a1bd 81a2 01bd b231 3ebd
00000110: 6675 8fbd a4a7 69bf e1e6 793d 4100 b73a
00000120: 48ec 28bd 60ca e73d e8e0 3abe ce38 803d
00000130: 26d6 c6be 240a 21be 7e84 46be 9ea2 c23d
00000140: af0e 933d 432c 0d3d b6ca d5bc 7627 293e
00000150: 3ca5 2e3d 3664 f2bd 8155 f83d 1ef2 8ebe
00000160: 1705 73be 5d69 bc3d 90e0 703c 3888 3ebc
00000170: 98a7 a6bc ebae eabc 92db 5dbf aed2 85bf
00000180: 6137 3ebe d9af 56bf cbc7 6bbc 6c2f e4bd
00000190: e14d 1abe 3577 9abd 2f20 973d 8162 35bf
000001a0: d0e9 7abf e2bc 38bf 00ae 42be fae2 903e
000001b0: 8a60 823e 3c42 a23d 0108 43be 05ea cebe
000001c0: da4d 8d3c 367a 14bf 24e7 be3d d003 c13c
000001d0: ff1f 12bf c7a9 603d 65ce 2ebe 2f47 80bf
000001e0: 9451 7dbd 031a ca3b 0171 0bbc 7c18 24be
000001f0: 42a4 8abd 6639 47bd 77e3 e5bd 876a cdbd
00000200: 393d 79bd e597 b7bc 4424 243d 877d 1bbd
00000210: 1000 47bd a89d 30bc 8b99 c1bd 4009 bebc
00000220: c518 4abc c922 853c f261 61bd 8887 dbbd
00000230: bbdd fc3c 382d 38bd d015 023d fa32 c7bd
00000240: f114 8a3d c5e8 df3d c521 623d 7d20 bdbd
00000250: fe45 93bc 723a d9bd 0c65 1c3d 80cb 06bc
00000260: 00f9 8f3d 5e81 4cbb bea0 d3be 909f 7cbc
00000270: 9e2d 23be d728 90be cbbf 13be 2d7d 48bd
00000280: 7237 07be b214 a6bd 8302 d1bd 5859 bcbe
00000290: 5316 68be 91be fa3d 3cc8 393d 5a58 ac3c
000002a0: b884 f63d aa22 9abd d622 f33d 2d63 4abc
000002b0: 4227 01be e6da c6be 14a3 e7bd 9189 cabc
000002c0: bb43 59bd aa2d af3d bc17 a7be b9d9 7ebe
000002d0: 046f 863f 392f 25be cf0e b03e c54d d0be
000002e0: 801a 98bf 1c43 aabc 34ed 32bf b072 0a3c
000002f0: dc2b 80be 0205 bd3f d4d6 11bd daf8 3c3d
00000300: 0671 aa3d e448 f0bd 3ca8 073f befb d43f
00000310: de48 a9bf 7740 59bd e37c ad3f 0abc a9bd
00000320: b97d 4ebd 119c 823e ccd0 5abd d4ae 2fbe
00000330: 9912 273f f2dd c53d 3fc7 093f 960a 6b3e
00000340: 5e3d cdbe 7d14 bfbc 565e 66bd 0a00 b5bd
00000350: 366e 90bd 4942 473e 45d2 153f 05c6 5c3f
00000360: 1719 1ebe 47c3 3fbf 6a86 5abe 6bda 08bf
00000370: 19bb 5c3e 5a1e e8bd d01c 0dbe 59fb 663e
00000380: 2d61 973d ad45 8c3f 4a35 d03d 0926 3fbf
00000390: 2089 ee3c 9ce9 023d 197e 863e 2e3c 3bbe
000003a0: 5237 673f 3233 26bf 4e33 bdbd 37a7 eebd
000003b0: 2df7 b83e ce61 21bf 42c9 4dbf b16b 153f
000003c0: 57f7 4d3e 61ed 45be 9049 a23d fe0d dfbe
000003d0: 109c 513e 42a2 03be d90e 81bb a11a 9c3d
000003e0: 058d d73e 1c83 9e3d 5ef1 083d 0276 c3bc
000003f0: 5a8b be3d fec4 a7bc 4ab6 fb3c 35fd 89bd

bias f4 [60]
-0.586305 -0.835161 -0.26934117 -1.6249751 -0.45987794 -0.85248315 -1.06418 -0.062833145
-1.6743332 -2.1495643 -1.1230246 -0.35005346 -1.6506796 -1.0904932 -0.6319859 -0.93738115
-1.4467573 -2.3109722 -0.3979418 -0.6692945 2.6565425 -0.81492466 -1.8347522 -0.511095
-2.541126 -0.6322061 -0.98244137 -0.34431013 -0.4520316 -0.42251155 -0.55809313 -3.1976972
-1.2559202 -1.8245507 -0.43995482 -0.9985374 -0.7533755 0.27279645 -1.3549553 0.28855494
-3.138447 -0.9653881 -1.9333276 1.3177295 2.6999893 -0.833573 -0.8320669 -0.35245776
-0.56145936 -0.25126642 -0.6193442 -0.4169735 -1.000627 -1.7908252 -0.20054911 -2.315107
1.1727955 -0.544495 -0.599276 -0.43680793
00000000: 1618 16bf 1ccd 55bf 16e7 89be 2fff cfbf
00000010: 1f75 ebbe 563c 5abf 0d37 88bf aaae 80bd
00000020: 8d50 d6bf 7692 09c0 45bf 8fbf 353a b3be
00000030: 7849 d3bf 4895 8bbf d4c9 21bf 36f8 6fbf
00000040: 582f b9bf f8e6 13c0 07bf cbbe e256 2bbf
00000050: cb04 2a40 e79e 50bf 29d9 eabf 1fd7 02bf
00000060: cfa1 22c0 42d8 21bf 4781 7bbf 6b49 b0be
00000070: b070 e7be 6f53 d8be 31df 0ebf 12a7 4cc0
00000080: fec1 a0bf e18a e9bf c241 e1be 26a0 7fbf
00000090: 37dd 40bf faab 8b3e 2d6f adbf 79bd 933e
000000a0: 51dc 48c0 ad23 77bf 4777 f7bf 5cab a83f
000000b0: a0cc 2c40 0a65 55bf 5602 55bf 5875 b4be
000000c0: cdbb 0fbf fea5 80be 578d 1ebf 8d7d d5be
000000d0: 8c14 80bf c339 e5bf bf5c 4dbe b72a 14c0
000000e0: 2a1e 963f 0664 0bbf 276a 19bf 4aa5 dfbe

weight f4 [10, 60]
-0.43332815 -1.0141915 -0.27036947 -2.8591201 -0.14823972 -1.1391845 -0.34453157 -1.5290151
-1.3094255 -1.9101619 -3.0254514 -0.13319357 -2.4072478 -0.55425906 0.048182845 -0.26863313
-0.38090348 -2.38289 -0.2189091 -1.6100281 -2.0240624 0.017305624 -3.0079417 -1.9233309
-0.06983341 -0.15549318 -1.7803642 -2.7269974 -0.026096107 -0.29635048 -0.17643264 -0.8658276
-1.1937985 -2.0095375 -0.40438238 -1.6662934 -0.56074125 -0.6078909 -3.347778 -1.9580393
-2.0605912 0.41290432 -3.7179155 -1.722308 -1.1371938 -0.37616327 -2.9104495 0.07617442
-0.19952747 0.019437956 -0.20052314 -3.0891776 -2.0024443 -2.003784 -1.2112596 -0.33386174
-0.8720634 -0.89796036 -4.1502833 -0.19650017 -0.26044428 -4.3552904 -0.14216663 0.6905861
-1.2144973 -1.4752904 -1.8567215 -25.68009 -13.241941 -9.056225 -4.023163 -0.012283002
-3.544893 -1.0422862 -0.30426726 -1.011074 -1.5997413 -3.1297739 -0.3236256 -0.824778
1.0743446 -0.510168 -3.785641 -4.090068 0.69909114 -0.18942997 -4.290709 -30.642984
-0.16400434 -0.07171335 -0.25775135 -5.771434 -7.2273216 -1.5920871 -0.28272057 -31.883862
-3.1958523 -0.5532996 -7.2608123 -17.061068 -3.433026 -0.1769789 -9.897955 -13.210687
0.057030424 -9.8662195 -11.869632 -0.1523234 0.13969381 -0.06216725 -0.057960603 -14.141703
-10.094986 0.39918286 -6.3928757 -3.0204613 -0.29257017 -3.5654445 -18.409922 -0.6985794
-0.52808124 -1.3020685 -0.08446524 -2.7689013 -0.09992297 -2.6095452 -0.7647312 -3.6841908
-12.583551 -5.2525 -6.9305344 -0.063263305 -1.4836543 -1.1343284 -0.60439026 -2.1303399
-0.6661209 -4.841833 -0.065836914 -7.030013 -0.31110895 -0.53945553 -4.936751 -5.649274
-9.767082 0.050372034 -10.164072 -26.832153 -0.032738052 -0.19102316 -0.20339118 -7.2467427
-4.396947 -7.1537704 -0.40419674 -20.666721 -2.0646496 0.30157268 -14.542671 -11.827024
-6.2528863 -0.12547798 -15.440366 -4.5008564 -7.656211 -3.5159664 -16.053686 -0.024589024
-0.23553719 0.042978708 -0.01981989 -5.2756677 -6.82737 -22.758606 -0.97408265 -3.683074
-2.7322314 -0.19531962 -5.7039886 -1.2296195 -0.8347556 -4.6065607 0.023152309 -5.4409423
0.21019165 -0.83716893 -0.2053689 -3.1349204 -5.5229397 -2.5275128 -2.9473872 -0.2912215
-2.2499394 -1.0397766 -0.5755284 -0.33625978 -0.41005757 -1.8723007 -0.23207095 -6.9574513
-5.9034944 -0.4752652 -3.5234067 -6.1249094 -17.515337 -0.34419447 -17.632387 -17.429543
-0.2299408 -0.3459115 0.08635494 -8.929353 -4.1214023 -3.3181956 -0.3356674 -8.359128
-5.333589 -0.24074197 -9.077252 -3.8969636 -1.7633924 0.36943287 -14.125422 -3.4473248
-5.1618724 -2.0116405 -7.3533535 0.05611229 -0.47286013 0.030460294 -0.5674029 -3.4283552
-6.132562 -21.332846 -0.36877906 -1.8661464 -14.4386425 -0.10178186 -3.436313 -0.6404307
-0.107119426 -2.996716 -0.10798644 -3.8134122 -0.24946003 -1.1229949 -0.12652571 -19.703148
-21.444527 -7.2662086 -5.5303497 -0.16269645 -1.1731653 -2.5306559 0.101828136 -1.9909484
00000000: 30dd ddbe 07d1 81bf de6d 8abe d3fb 36c0
00000010: 27cc 17be ccd0 91bf 7166 b0be c4b6 c3bf
00000020: 419b a7bf 2f80 f4bf ffa0 41c0 e563 08be
00000030: 5910 1ac0 ece3 0dbf 605b 453d 488a 89be
00000040: c805 c3be 4581 18c0 b529 60be 6715 cebf
00000050: 3d8a 01c0 86c4 8d3c 1e82 40c0 b52f f6bf
00000060: d204 8fbd 9b39 1fbe f9e2 e3bf 2087 2ec0
00000070: 81c7 d5bc 40bb 97be c2aa 34be e1a6 5dbf
00000080: 64ce 98bf 439c 00c0 350b cfbe 1a49 d5bf
00000090: bd8c 0fbf bd9e 1bbf ff41 56c0 08a1 fabf
000000a0: bae0 03c0 3268 d33e 54f2 6dc0 9774 dcbf
000000b0: 918f 91bf 7998 c0be ce44 3ac0 5601 9c3d
000000c0: ee50 4cbe 593c 9f3c f055 4dbe 16b5 45c0
000000d0: 0c28 00c0 ff3d 00c0 8e0a 9bbf edef aabe
000000e0: 8c3f 5fbf bbe0 65bf 1fcf 84c0 5737 49be
000000f0: f458 85be 8a5e 8bc0 2194 11be 40ca 303f
00000100: a674 9bbf 51d6 bcbf 0da9 edbf d370 cdc1
00000110: fede 53c1 4ce6 10c1 c0bd 80c0 a53e 49bc
00000120: 87df 62c0 a269 85bf ebc8 9bbe df6a 81bf
00000130: 53c4 ccbf 374e 48c0 41b2 a5be a724 53bf
00000140: 2084 893f 5f9a 02bf f147 72c0 d6e1 82c0
00000150: a3f7 323f eef9 41be 7d4d 89c0 d524 f5c1
00000160: c1f0 27be 73de 92bd fcf7 83be 96af b8c0
00000170: 3846 e7c0 83c9 cbbf c0c0 90be 2612 ffc1
00000180: d888 4cc0 0ba5 0dbf 9358 e8c0 117d 88c1
00000190: b3b6 5bc0 f539 35be 065e 1ec1 f95e 53c1
000001a0: bc98 693d 09dc 1dc1 03ea 3dc1 aafa 1bbe
000001b0: e50b 0f3e 16a3 7ebd 1968 6dbd 6a44 62c1
000001c0: 1085 21c1 b261 cc3e 7092 ccc0 3d4f 41c0
000001d0: c2cb 95be 3e30 64c0 8547 93c1 19d6 32bf
000001e0: 5530 07bf 2eaa a6bf 1dfc acbd ae35 31c0
000001f0: 6aa4 ccbd ca02 27c0 6dc5 43bf c8c9 6bc0
00000200: 3a56 49c1 7b14 a8c0 f0c6 ddc0 3190 81bd
00000210: 62e8 bdbf ac31 91bf 52b9 1abf 7d57 08c0
00000220: e686 2abf 4cf0 9ac0 81d5 86bd def5 e0c0
00000230: ac49 9fbe c219 0abf ddf9 9dc0 dac6 b4c0
00000240: f845 1cc1 e852 4e3d 0aa0 22c1 40a8 d6c1
00000250: 5618 06bd 939b 43be c745 50be 51e5 e7c0
00000260: cab3 8cc0 b0eb e4c0 e0f2 cebe 7255 a5c1
00000270: 3823 04c0 bc67 9a3e c8ae 68c1 7e3b 3dc1
00000280: a517 c8c0 4d7d 00be bd0b 77c1 0407 90c0
00000290: aeff f4c0 9805 61c0 f36d 80c1 ec6e c9bc
000002a0: a930 71be 710a 303d 525d a2bc 45d2 a8c0
000002b0: d179 dac0 a011 b6c1 7b5d 79bf 7cb7 6bc0
000002c0: e1dc 2ec0 de01 48be 1387 b6c0 2c64 9dbf
000002d0: 8bb2 55bf f268 93c0 e9a9 bd3c 331c aec0
000002e0: 7b3c 573e b450 56bf 3a4c 52be 89a2 48c0
000002f0: ecbb b0c0 c5c2 21c0 fea1 3cc0 fc1a 95be
00000300: 02ff 0fc0 6617 85bf d455 13bf 3e2a acbe
00000310: 11f3 d1be 8da7 efbf 02a4 6dbe 71a3 dec0
00000320: 6de9 bcc0 f655 f3be 7f7f 61c0 42ff c3c0
00000330: 691f 8cc1 423a b0be 210f 8dc1 b46f 8bc1
00000340: 9a75 6bbe 501b b1be dcda b03d a1de 0ec1
00000350: 87e2 83c0 515d 54c0 99dc abbe fdbe 05c1
00000360: c3ac aac0 1085 76be 6d3c 11c1 da67 79c0
00000370: d8b6 e1bf 4e26 bd3e ba01 62c1 f8a0 5cc0
00000380: 0f2e a5c0 b8be 00c0 ac4e ebc0 00d6 653d
00000390: b91a f2be de87 f93c 5141 11bf 2c6a 5bc0
000003a0: f33d c4c0 aba9 aac1 9cd0 bcbe e3dd eebf
000003b0: ae04 67c1 0273 d0bd 8dec 5bc0 44f3 23bf
000003c0: 6e61 dbbd 32ca 3fc0 ff27 ddbd f20e 74c0
000003d0: 7372 7fbe 4cbe 8fbf f58f 01be 0ca0 9dc1
000003e0: 648e abc1 c884 e8c0 a0f8 b0c0 e699 26be
000003f0: 482a 96bf 44f6 21c0 458b d03d 66d7 febf

bias f4 [10]
1.3255225 -5.053289 -0.3270306 -3.6261837 3.4215562 0.6153675 -2.0937822 0.36364916
-1.1240072 -3.076737
00000000: b9aa a93f 8bb4 a1c0 8e70 a7be 6513 68c0
00000010: c7fa 5a40 b988 1d3f 8700 06c0 3930 ba3e
00000020: 78df 8fbf 42e9 44c0
