NN Real data/final_trained_models/KTPM/KTPM_expLR1.pth (torch, 56183 bytes, 10 tensors)

weight f4 [60, 20]
-4.2780123 -4.6744676 1.9051666 6.967168 -1.582415 0.89372754 0.03745595 2.8185587
0.09289665 -1.1480514 0.18396467 0.54831576 3.9162297 -2.0212448 -2.869802 1.8771138
0.17250422 2.092943 -0.12335453 -2.3666642 -0.88506657 -0.6673077 4.050211 0.6625992
1.1917322 -0.7967518 2.5983012 0.5829652 3.8507314 -2.3291335 -0.7547723 0.6699081
-0.3073027 4.878739 -0.41453725 -0.69867676 3.8606462 0.70352495 4.236093 -2.78339
0.02408616 -0.0072501986 0.20172337 0.3037606 0.100995846 0.2471925 0.39011738 0.1129112
0.21315603 0.07920444 0.15663897 0.105134524 0.27844402 -0.24939215 0.10119705 0.503377
0.26654494 -0.10821571 -0.10238605 -0.061694145 12.916425 -1.386156 0.94432455 4.9651837
-3.7754993 1.951858 1.7203387 2.718628 1.0942911 -0.6429164 0.5120934 0.48206097
2.4541001 1.2137122 -1.365544 0.4556073 0.80389255 2.3224132 1.4420983 -1.1911488
1.0852579 -0.47682282 0.13003522 0.6217235 -0.22813427 0.52282435 0.81533426 0.44274077
-0.074122995 -0.6681185 0.52218074 -0.67361295 0.6270517 -0.17583258 -0.2237479 0.27751198
-0.71187264 0.069661476 0.60241115 0.23671512 7.940312 1.4626008 2.0286117 2.7893996
-6.431347 1.8952315 -1.4736612 1.2815585 -0.22629309 -0.14606802 0.35851064 0.21904726
0.6674333 -1.0908947 0.68701357 -1.1257797 0.20257878 -0.5595655 -0.30889645 0.22688791
3.576944 2.5679379 -5.296706 -1.4198613 -1.3824695 -1.4722029 -0.40331757 -0.3000119
-0.20164983 -0.45828536 -1.4329515 -0.32753465 2.3631284 0.74775773 -1.7544397 -2.9597514
0.6624719 2.9406686 0.95259994 -0.14896038 2.2477758 -12.170499 2.5833933 -5.730255
0.46212742 -2.4274533 -2.552082 -0.17300741 -0.5782116 -1.0856507 -0.1739687 1.9824467
2.9074576 1.7745986 2.9912481 -2.3324976 4.5017347 0.22660989 2.9078898 4.151466
1.100037 0.06856015 0.27186027 -0.014152588 -0.13863435 0.607313 0.0666939 0.42217273
0.20805411 -0.28201732 0.86845636 -0.035525024 0.2503365 0.32882366 -0.17416573 0.4836595
-0.1031381 0.33230183 -0.002556493 -0.21544996 3.8080463 4.165175 4.567413 4.1432714
-3.3526807 -2.2809527 2.187482 4.5743833 2.7197437 -3.679873 -1.4266412 -0.079947785
3.4294224 0.5745403 -0.11365522 0.43624395 1.1029524 0.68386596 1.8459835 0.041532263
3.8195345 4.93864 2.3018274 3.09961 -1.4025842 0.21504727 4.7080393 0.7904855
3.1014795 -1.1262667 0.94216746 1.6866393 0.8597184 0.67485994 0.0022648193 0.7360189
3.1714628 0.3405732 0.845825 -0.377525 8.275417 4.6382637 0.1464859 3.535037
9.261147 -1.67661 1.2477427 2.682327 -1.9614552 3.9894004 -1.9393727 -1.0942875
2.9251146 -2.0836022 0.7927395 0.9796342 -5.5687394 0.13389847 1.3174988 1.3703558
-2.6476285 5.162268 -1.007815 4.160341 -0.7056637 -1.137216 4.0677414 -0.99134004
0.60402304 1.4801222 -0.41052023 2.0155792 -0.043427993 -0.030023202 1.0680188 -1.1572587
00000000: 7ae5 88c0 3d95 95c0 80dc f33f 0af3 de40
00000010: 938c cabf 54cb 643f 696b 193d 4463 3440
00000020: 9940 be3d 59f3 92bf 3c61 3c3e 6c5e 0c3f
00000030: 82a3 7a40 135c 01c0 d6aa 37c0 4445 f03f
00000040: f2a4 303e c7f2 0540 4da1 fcbd 6d77 17c0
00000050: b993 62bf add4 2abf 549b 8140 1aa0 293f
00000060: ae8a 983f edf7 4bbf 914a 2640 353d 153f
00000070: 6272 7640 8610 15c0 c238 41bf 197f 2b3f
00000080: c856 9dbe a11e 9c40 3a3e d4be 7bdc 32bf
00000090: d414 7740 361a 343f 138e 8740 1023 32c0
000000a0: 5750 c53c 1393 edbb 9290 4e3e 8286 9b3e
000000b0: e9d6 ce3d 0820 7d3e 77bd c73e fd3d e73d
000000c0: 9345 5a3e f035 a23d f765 203e c550 d73d
000000d0: 3790 8e3e a860 7fbe 6640 cf3d 51dd 003f
000000e0: 9478 883e 33a0 ddbd c7af d1bd 00b3 7cbd
000000f0: ada9 4e41 8f6d b1bf 41bf 713f c9e2 9e40
00000100: c8a1 71c0 7cd6 f93f 0f34 dc3f 00fe 2d40
00000110: bb11 8c3f 2b96 24bf 8e18 033f b2d0 f63e
00000120: fa0f 1d40 ec5a 9b3f 25ca aebf 5c45 e93e
00000130: e7cb 4d3f 6ba2 1440 ad96 b83f 9077 98bf
00000140: bbe9 8a3f 1f22 f4be f427 053e 4529 1f3f
00000150: 089c 69be d1d7 053f bfb9 503f ebae e23e
00000160: cccd 97bd d009 2bbf a3ad 053f e671 2cbf
00000170: 7686 203f 750d 34be 2b1e 65be 0d16 8e3e
00000180: 493d 36bf adaa 8e3d 9e37 1a3f 7365 723e
00000190: 0917 fe40 8136 bb3f c6d4 0140 8685 3240
000001a0: 98cd cdc0 f296 f23f eea0 bcbf 1c0a a43f
000001b0: 60b9 67be db92 15be b58e b73e ed4d 603e
000001c0: e9dc 2a3f 70a2 8bbf 1fe0 2f3f 8d19 90bf
000001d0: d070 4f3e af3f 0fbf ad27 9ebe 4e55 683e
000001e0: a7ec 6440 1859 2440 9e7e a9c0 04be b5bf
000001f0: c3f4 b0bf 2571 bcbf a47f cebe 299b 99be
00000200: 4b7d 4ebe 61a4 eabe f46a b7bf 9fb2 a7be
00000210: 7f3d 1740 0d6d 3f3f 7b91 e0bf 916c 3dc0
00000220: c297 293f ea33 3c40 97dd 733f 1289 18be
00000230: 8fdb 0f40 5dba 42c1 5156 2540 405e b7c0
00000240: f79b ec3e 655b 1bc0 5055 23c0 db28 31be
00000250: ad05 14bf 9af6 8abf da24 32be d0c0 fd3f
00000260: c913 3a40 0c26 e33f 9c70 3f40 a447 15c0
00000270: 360e 9040 6c0c 683e de1a 3a40 cfd8 8440
00000280: 03ce 8c3f 4469 8c3d 4531 8b3e 42e0 67bc
00000290: 2af6 0dbe dd78 1b3f d096 883d 0627 d83e
000002a0: 230c 553e 9364 90be 2853 5e3f b082 11bd
000002b0: 1b2c 803e 935b a83e 8058 32be 38a2 f73e
000002c0: 113a d3bd 7723 aa3e d68a 27bb ea9e 5cbe
000002d0: 08b7 7340 1d49 8540 3f28 9240 ae95 8440
000002e0: 5292 56c0 21fb 11c0 b5ff 0b40 5961 9240
000002f0: 4810 2e40 0a83 6bc0 2e9c b6bf aabb a3bd
00000300: a87b 5b40 1315 133f 11c4 e8bd 5e5b df3e
00000310: 8b2d 8d3f d711 2f3f 3049 ec3f bc1d 2a3d
00000320: 4173 7440 5709 9e40 2451 1340 0360 4640
00000330: e187 b3bf 5a35 5c3e 42a8 9640 425d 4a3f
00000340: a47e 4640 8229 90bf e331 713f cce3 d73f
00000350: 8116 5c3f 9fc3 2c3f 5d6d 143b bc6b 3c3f
00000360: 3ff9 4a40 9c5f ae3e fd87 583f f54a c1be
00000370: 1c68 0441 a86c 9440 6600 163e 0c3e 6240
00000380: a82d 1441 289b d6bf 08b6 9f3f 3fab 2b40
00000390: f710 fbbf 5652 7f40 5d3d f8bf 9d11 8cbf
000003a0: 1435 3b40 bd59 05c0 faf0 4a3f 4fc9 7a3f
000003b0: 1d33 b2c0 ae1c 093e cda3 a83f d267 af3f
000003c0: bf72 29c0 4d31 a540 1500 81bf 8321 8540
000003d0: 60a6 34bf 4b90 91bf f02a 8240 76c8 7dbf
000003e0: 41a1 1a3f a574 bd3f b52f d2be 40ff 0040
000003f0: 8de1 31bd 38f3 f5bc d7b4 883f 0e21 94bf

bias f4 [60]
-0.29774496 -2.15266 -0.68427646 -0.016308453 -1.4675711 -1.8436487 -0.7604419 0.020757906
-1.1859597 -0.00691647 -3.4702735 -1.5771704 -2.082227 -1.3142364 0.5961298 -2.14229
-3.6473467 -0.1277359 -2.6215687 -2.1264284 -3.670854 -0.2535226 -0.5232637 -1.1585428
-0.40261254 0.12173247 -2.7173688 -0.0037774725 -1.7864693 -3.728376 -1.6885962 -0.5352587
-0.5681867 -1.1093999 -2.1018662 0.69880384 0.36272398 -0.9533614 -0.29783356 -3.6091008
-0.47372624 -2.2013617 -2.3406463 -1.033965 -2.2034423 -1.1491363 -3.1175215 -0.74090904
-2.2246869 0.72266436 -1.9850327 -0.61747 -0.4112406 -1.7749 -4.9387918 -3.006487
-0.4518505 -0.031449486 -0.4366349 -0.36560845
00000000: 0772 98be 2ec5 09c0 be2c 2fbf 4e99 85bc
00000010: 5fd9 bbbf aefc ebbf 52ac 42bf 7c0c aa3c
00000020: 87cd 97bf 8ea3 e2bb f618 5ec0 b8e0 c9bf
00000030: 3543 05c0 e638 a8bf f69b 183f 481b 09c0
00000040: 216e 69c0 33cd 02be c8c7 27c0 6717 08c0
00000050: 46ef 6ac0 b7cd 81be 9cf4 05bf 214b 94bf
00000060: 3b23 cebe e04e f93d 5fe9 2dc0 798f 77bb
00000070: 07ab e4bf b69d 6ec0 ec23 d8bf b706 09bf
00000080: af74 11bf d100 8ebf fa84 06c0 cfe4 323f
00000090: f5b6 b93e 7e0f 74bf a47d 98be 82fb 66c0
000000a0: 3f8c f2be 1ce3 0cc0 26cd 15c0 f758 84bf
000000b0: 3305 0dc0 e616 93bf 7985 47c0 37ac 3dbf
000000c0: 4561 0ec0 8800 393f 8d15 febf 8412 1ebf
000000d0: 218e d2be ec2f e3bf 950a 9ec0 486a 40c0
000000e0: f358 e7be 2dd1 00bd 9c8e dfbe 0831 bbbe

weight f4 [60, 60]
-0.0014614528 -0.13822676 -0.19041087 0.018497348 -0.15360692 -0.068044886 -0.12593319 0.029382452
-0.0058594868 -0.19121198 -0.02307312 0.072446615 -0.2351682 -0.19489694 -0.109932914 -0.13161413
-0.030308247 -0.32511017 -0.11650094 -0.0035881102 -0.1487031 -0.09679195 0.040306438 0.02568946
0.012375787 -0.064686954 -0.086062476 -0.022119202 -0.06306751 -0.05985449 -0.16779128 -0.072371215
-0.12956263 0.016370088 -0.080790736 -0.08837314 -0.05796648 0.1031768 -0.0649069 -0.12119814
-0.17069654 -0.120969616 -0.05961024 0.0069180867 0.08450937 -0.10898974 -0.04723774 0.12705667
-0.051537573 -0.2863534 -0.11568686 0.010980813 -0.12752569 -0.1534749 -0.032924294 -0.171007
-0.035259627 -0.07462091 -0.23560044 -0.06588847 -0.25720546 -0.93031037 0.31042507 -0.062328253
-0.23919657 -0.2743592 -0.8506224 -0.32464057 -0.21618716 -0.5198636 -0.72258544 -0.051802848
-0.24408722 -0.731786 -0.20821913 -0.1460105 -0.17198023 -0.8945328 -0.85109705 -0.27453744
0.029171633 -0.43347615 0.0013412352 -0.01856067 0.35260218 -0.40695587 -0.13251801 0.027833018
-0.47725168 0.006085913 -0.5302262 -0.1529472 -0.29840285 -0.094349615 -0.43008897 -0.3154775
-0.1600177 0.008436241 0.064792335 -0.43636686 -0.34912276 0.10508161 -0.57079226 -0.009507178
0.06655441 -0.4667455 -0.27646106 -0.31878328 -0.035507932 -0.4739665 0.08099916 -0.22281548
-0.080158964 -0.101742595 0.010119177 -0.6274513 -0.18248264 -0.7743088 -0.2557755 -0.12213992
-0.51288444 -0.8833865 0.21470596 -0.32029638 0.5509355 -0.23004164 -0.53378254 -0.8917195
-1.7274314 -0.10988505 -0.067771226 -0.36004388 -0.86436707 -0.17016748 -0.22157694 0.32749352
-0.69653004 -0.55414635 -0.41313794 -0.7552252 -0.11825682 -0.60972226 -0.14924505 0.17291342
-0.5096981 -0.64270586 -1.2201834 -0.73142433 -0.0646198 -0.22804731 -0.4433791 -0.22615157
-0.2901195 0.49350137 -0.36246333 -0.2490969 -0.55644304 -0.81138116 -0.12883875 -0.52436477
-0.33501798 -0.5316359 0.42464855 -0.8720397 0.28494278 0.56164306 -0.530902 -0.13018319
-0.13644442 -0.6366104 -0.1256555 0.48128307 -0.9427183 -0.41556725 -0.030304516 -0.19695698
-0.18480577 -0.8347711 -0.28843254 -0.009554882 3.975246 -0.9397218 -0.09906252 -2.5580018
-1.050134 -0.77692974 1.2540529 -2.3372436 -0.13295074 -10.399458 -0.37355694 -0.9711156
-2.6364717 -1.4659059 -8.047142 -0.20216812 -2.0946488 -1.6172704 -1.8494369 -10.288188
0.07290977 -0.024967821 0.12997928 0.18018728 4.2321405 3.620345 -0.6038896 -0.32559255
-0.59656566 -1.3223969 2.4261248 -0.11963746 -1.0253854 0.7102197 -2.9114983 -5.326826
-2.6023483 -0.35394076 0.25468597 -1.4416317 2.0808916 -0.42137358 -1.0318118 -0.4865179
-0.85066193 0.47227055 0.16403888 -0.03779159 -1.2808795 -1.6221389 -1.2775879 0.06103953
1.3145258 -0.98541266 -0.6160025 -0.124171056 -3.6537576 -0.72607845 -2.5803618 -0.07977526
-0.094490185 -0.036586896 -0.09231189 -0.16888517 -0.047234014 -0.0920041 -0.38888818 -0.47717088
-0.11885885 -0.20459262 -0.08600854 -0.45608634 -0.34222487 -0.20882118 -0.03639823 0.08138996
00000000: 388e bfba 518b 0dbe 11fb 42be c087 973c
00000010: 224b 1dbe 1e5b 8bbd a1f4 00be 78b3 f03c
00000020: f000 c0bb 13cd 43be d703 bdbc e45e 943d
00000030: efcf 70be 1093 47be 8224 e1bd dbc5 06be
00000040: 0049 f8bc d774 a6be 0b98 eebd 8026 6bbb
00000050: a045 18be dc3a c6bd 5d18 253d b472 d23c
00000060: d0c3 4a3c 987a 84bd 8641 b0bd 5433 b5bc
00000070: 8a29 81bd fb29 75bd 7ad1 2bbe 5c37 94bd
00000080: 11ac 04be 901a 863c 9d75 a5bd fafc b4bd
00000090: 426e 6dbd 5c4e d33d e9ed 84bd bb36 f8bd
000000a0: 13cb 2ebe ebbe f7bd de29 74bd 1eb1 e23b
000000b0: 4013 ad3d 0336 dfbd 5c7c 41bd 251b 023e
000000c0: 1019 53bd ea9c 92be 3ced ecbd dee8 333c
000000d0: 1896 02be 8628 1dbe a0db 06bd 761c 2fbe
000000e0: 666c 10bd d9d2 98bd 3e41 71be 89f0 86bd
000000f0: 6fb0 83be d228 6ebf 09f0 9e3e e94b 7fbd
00000100: f2ef 74be cf78 8cbe 64c2 59bf 4a37 a6be
00000110: 2b60 5dbe c815 05bf 5cfb 38bf 392f 54bd
00000120: 00f2 79be 5456 3bbf 6537 55be c783 15be
00000130: 961b 30be 1a00 65bf 7fe1 59bf 2c90 8cbe
00000140: 59f9 ee3c 96f0 ddbe 63cc af3a 8c0c 98bc
00000150: 4688 b43e 855c d0be cdb2 07be 1202 e43c
00000160: 555a f4be 576c c73b e7bc 07bf 319e 1cbe
00000170: 42c8 98be 5f3a c1bd 9f34 dcbe 4486 a1be
00000180: aedb 23be 2938 0a3c d8b1 843d 7a6b dfbe
00000190: 38c0 b2be 0735 d73d 711f 12bf ffc3 1bbc
000001a0: ae4d 883d 44f9 eebe 4e8c 8dbe 9037 a3be
000001b0: c470 11bd bdab f2be e3e2 a53d be29 64be
000001c0: 622a a4bd 6c5e d0bd e8ca 253c a6a0 20bf
000001d0: bbdc 3abe 1a39 46bf 02f5 82be 7f24 fabd
000001e0: 654c 03bf 9e25 62bf e1db 5b3e e3fd a3be
000001f0: 1c0a 0d3f 0990 6bbe f9a5 08bf bb47 64bf
00000200: 791c ddbf 6a0b e1bd a4cb 8abd ac57 b8be
00000210: 2947 5dbf 6240 2ebe 11e5 62be 3bad a73e
00000220: cb4f 32bf 89dc 0dbf d186 d3be 7056 41bf
00000230: a230 f2bd c216 1cbf b2d3 18be 3710 313e
00000240: 937b 02bf 5f88 24bf f82e 9cbf a03e 3bbf
00000250: 6357 84bd 3c85 69be 9602 e3be 4794 67be
00000260: 8b8a 94be 36ac fc3e cb94 b9be 4213 7fbe
00000270: 0d73 0ebf adb6 4fbf 4eee 03be c53c 06bf
00000280: 7a87 abbe 4a19 08bf 896b d93e fe3d 5fbf
00000290: 05e4 913e d7c7 0f3f 32e9 07bf be4e 05be
000002a0: 16b8 0bbe e6f8 22bf d6ab 00be bc6a f63e
000002b0: fd55 71bf 3bc5 d4be 2d41 f8bc 17af 49be
000002c0: b93d 3dbe 8fb3 55bf 6ead 93be 148c 1cbc
000002d0: 6e6a 7e40 9c91 70bf 4ae1 cabd 4db6 23c0
000002e0: ca6a 86bf dee4 46bf ce84 a03f 6695 15c0
000002f0: 3d24 08be 2e64 26c1 db42 bfbe 089b 78bf
00000300: f4bb 28c0 cea2 bbbf 18c1 00c1 2905 4fbe
00000310: ba0e 06c0 b702 cfbf 59ba ecbf 6b9c 24c1
00000320: b851 953d 5189 ccbc 4a19 053e 0483 383e
00000330: b26d 8740 bcb3 6740 8298 1abf 11b4 a6be
00000340: 87b8 18bf 4d44 a9bf a145 1b40 7c04 f5bd
00000350: d43f 83bf f5d0 353f fd55 3ac0 5c75 aac0
00000360: e08c 26c0 b937 b5be 3366 823e 6387 b8bf
00000370: 542d 0540 47be d7be 6912 84bf e018 f9be
00000380: fbc4 59bf 72cd f13e cff9 273e 5bcb 1abd
00000390: dcf3 a3bf 3fa2 cfbf 0088 a3bf 9604 7a3d
000003a0: 6242 a83f 0144 7cbf 57b2 1dbf 654d febd
000003b0: 2ad7 69c0 47e0 39bf a624 25c0 3661 a3bd
000003c0: 1284 c1bd 24dc 15bd 040e bdbd 3cf0 2cbe
000003d0: 7478 41bd a56c bcbd 5a1c c7be be4f f4be
000003e0: 456c f3bd ba80 51be 3f25 b0bd 2684 e9be
000003f0: 1938 afbe 38d5 55be 4f16 15bd c8af a63d

bias f4 [60]
-0.16888188 -0.7545349 -1.1938146 0.854629 -0.6406564 -0.2879795 -0.619254 0.76297104
-0.5933585 3.355498 -0.52541167 -0.90313846 -0.13506664 -0.09340586 -1.2555838 -0.6631956
-0.87025684 -0.5417945 -0.43391603 -0.49096647 -0.6253474 -4.565016 -3.3465056 -0.48785713
-0.5220348 -0.18879563 -0.2683704 -0.9172594 -0.2548846 -0.11862995 -0.9840493 -0.62195283
2.0747163 -0.47568524 -1.0649236 -0.5984051 -0.63781184 2.022099 -1.1393999 -0.6762299
-0.86931425 -0.26716214 -0.39331105 -0.23108564 -0.19542605 -0.32524174 -3.8668559 -0.26519182
-0.43372655 -0.61317044 -0.38190335 -0.5164353 -1.1399989 1.1811312 -0.16503811 -0.47465643
-0.3870063 0.77720517 -0.3048418 -0.39224932
00000000: 5fef 2cbe 3329 41bf ebce 98bf f7c8 5a3f
00000010: 0f02 24bf 0d72 93be 6e87 1ebf 1252 433f
00000020: 58e6 17bf 7bc0 5640 6181 06bf 1534 67bf
00000030: e94e 0abe 924b bfbd f8b6 a0bf 30c7 29bf
00000040: 27c9 5ebf 0bb3 0abf 3e2a debe f55f fbbe
00000050: c416 20bf 9c14 92c0 262d 56c0 69c8 f9be
00000060: 13a4 05bf a453 41be d867 89be 83d1 6abf
00000070: 3c80 82be 42f4 f2bd a8ea 7bbf 4d38 1fbf
00000080: 27c8 0440 048d f3be 6b4f 88bf 1431 19bf
00000090: a347 23bf 126a 0140 dbd7 91bf 671d 2dbf
000000a0: 618b 5ebf 7ac9 88be 1160 c9be b7a1 6cbe
000000b0: c41d 48be 1686 a6be 917a 77c0 39c7 87be
000000c0: 6811 debe bdf8 1cbf d688 c3be 1b35 04bf
000000d0: 7ceb 91bf 4f2f 973f c0ff 28be 2b06 f3be
000000e0: b125 c6be ebf6 463f 3914 9cbe e7d4 c8be

weight f4 [60, 60]
-0.029181145 -0.04013462 0.079956576 -0.11870035 0.1045804 0.015953392 -0.036213756 -0.009786099
-0.0564302 -0.29572734 -0.081999466 -0.048740216 -0.10804297 0.004546586 -0.015608586 -0.007943012
0.06841378 -0.37456667 -0.12393332 0.024825796 0.11575638 -0.056350794 0.010112211 0.11000369
-0.08885102 -0.020442754 0.024696706 -0.039077573 0.06302798 0.06580109 0.12310557 -0.023324234
-0.1836279 -0.16319902 -0.13181613 -0.10905028 -0.07082038 -0.031861782 -0.20826852 0.034612462
0.03418459 -0.06474214 0.059699725 -0.048550308 -0.15432617 -0.16438565 -0.109840825 0.0091023
-0.026495446 0.14136738 -0.03758369 -0.07715239 -0.38902014 -0.13461956 -0.11027185 0.119576395
-0.21684088 -0.13075523 0.011685625 0.08666147 0.0022152066 -0.19556282 0.121909186 -0.3369847
-0.044083834 -0.07280461 -0.09686884 -0.30791882 -0.21130125 -1.159098 0.097989455 -0.027784884
-0.13919725 -0.08377277 -0.028952865 0.080148354 -0.10915005 -0.0447848 -0.059967898 -0.07967265
-0.025054663 -0.32216716 -0.10236874 0.0018827126 0.084513396 -0.08194293 -0.00913626 -0.056830883
-0.047645368 -0.19676207 -0.024881512 -0.15017566 -0.5770005 -0.3806895 -0.113079265 -0.036022753
0.020455733 -0.21210264 -0.36138472 -0.12121456 -0.08999153 -0.0093885455 -0.10772686 -0.005056508
-0.13062944 -0.09537572 -0.11682269 -0.08466174 -0.0049463934 -0.03616043 -0.14896366 -0.002693624
-0.047689952 -0.41111937 -0.13987815 0.017002508 -0.05582302 0.5026253 0.056649 -0.12579969
-0.039145894 -0.13101569 0.03354734 2.2323403 -0.14482765 -0.04765596 -0.19660243 0.23961003
-0.21030352 -0.21988675 0.03669144 -0.11386882 -0.20709921 -0.19334869 0.08016869 -0.10431499
0.098330736 -0.70930105 -0.11863803 -0.21042117 0.02354148 -0.011593647 -0.23297787 -0.06140383
0.003360138 -0.06738847 0.019946054 0.5714275 -0.055722523 -0.16668862 -0.06919366 -0.020256124
-0.08757468 -1.7743629 -0.060032554 -0.11934237 -0.01663478 -1.90674 -0.6701784 -0.28931051
-0.07400149 -0.072382204 -0.21264933 0.1113096 0.06760825 -0.31700003 -0.5577922 -0.20470537
-0.13809334 -0.04208591 -0.07377468 -0.051712386 1.0406113 -0.7396396 0.10824378 -0.1567197
0.0155251315 1.3594027 -0.09868266 -0.11220677 -0.12815817 -0.12082136 0.021275714 -0.30879408
-0.033748686 -0.1661359 -0.038439684 -0.274416 -0.19604504 -0.33557436 0.045025155 0.073447645
-0.0541839 -0.16354421 -0.20279193 0.1100072 0.06563942 -0.03281223 0.022660539 0.08373566
-0.053645104 -0.6306444 -0.03692609 0.027813634 -0.03680177 -0.066294424 0.04844196 -0.36697766
0.08650009 -0.10309649 0.054366052 0.09375304 -0.44767538 -0.41512483 -0.032383613 0.12117909
-0.05378312 -0.39029843 -0.037967607 0.055708975 0.12800746 0.02880375 -0.20485237 -0.040826984
-0.088689536 -0.19810103 -0.5721913 -0.11201609 -0.052546237 -0.018589951 0.03442411 -0.05729498
-0.08933623 -0.0036760205 -0.12703992 -0.096535236 -0.08276088 0.017120201 -0.09476468 -0.002004069
0.10720743 -0.6180983 0.014315128 -0.2978991 0.0042826384 -0.18509385 -0.07512921 -0.2065797
0.0654612 -0.21858388 0.109917104 0.036035493 -0.13180448 -0.008902073 -0.5276282 -0.004216127
00000000: 4c0d efbc 3364 24bd 46c0 a33d 2b19 f3bd
00000010: 402e d63d b0b0 823c e054 14bd e055 20bc
00000020: 5a23 67bd 9369 97be 56ef a7bd d2a3 47bd
00000030: a245 ddbd 87fb 943b 28bb 7fbc 6823 02bc
00000040: 861c 8c3d 34c7 bfbe c1d0 fdbd 785f cb3c
00000050: ae11 ed3d 17d0 66bd b0ad 253c 9d49 e13d
00000060: 86f7 b5bd 9077 a7bc bf50 ca3c ce0f 20bd
00000070: d014 813d b9c2 863d c61e fc3d 7712 bfbc
00000080: f408 3cbe a51d 27be cffa 06be c155 dfbd
00000090: 460a 91bd 8081 02bd 5844 55be ccc5 0d3d
000000a0: 2405 0c3d 8797 84bd b387 743d b0dc 46bd
000000b0: ae07 1ebe b654 28be 3af4 e0bd d021 153c
000000c0: fa0c d9bc 9cc2 103e 5bf1 19bd 1202 9ebd
000000d0: a62d c7be b6d9 09be 35d6 e1bd 78e4 f43d
000000e0: 890b 5ebe b3e4 05be 1075 3f3c 927b b13d
000000f0: 002d 113b 9f41 48be 86ab f93d 4289 acbe
00000100: 4091 34bd 951a 95bd 2c63 c6bd 89a7 9dbe
00000110: 5b5f 58be 535d 94bf b2ae c83d 209d e3bc
00000120: b989 0ebe 0f91 abbd 8f2e edbc d224 a43d
00000130: 108a dfbd 4470 37bd e6a0 75bd 6a2b a3bd
00000140: 703f cdbc 18f3 a4be b4a6 d1bd 5ac5 f63a
00000150: 5c15 ad3d b2d1 a7bd 40b0 15bc 80c7 68bd
00000160: ca27 43bd ff7b 49be 50d4 cbbc a6c7 19be
00000170: 4eb6 13bf bce9 c2be 1a96 e7bd 988c 13bd
00000180: c892 a73c 6f31 59be 6b07 b9be 573f f8bd
00000190: 7b4d b8bd 6ad2 19bc e69f dcbd 10b1 a5bb
000001a0: b9c3 05be 5854 c3bd bc40 efbd 2263 adbd
000001b0: 5b15 a2bb f61c 14bd ee89 18be 8387 30bb
000001c0: 8a56 43bd 3d7e d2be 383c 0fbe d848 8b3c
000001d0: aea6 64bd 0dac 003f c808 683d a2d1 00be
000001e0: 7257 20bd fa28 06be f068 093d aade 0e40
000001f0: b34d 14be e532 43bd 2652 49be 555c 753e
00000200: ce59 57be fe29 61be c349 163d 0e34 e9bd
00000210: d111 54be 33fd 45be 7b2f a43d 19a3 d5bd
00000220: a061 c93d c194 35bf 7ff8 f2bd a678 57be
00000230: 10da c03c 48f3 3dbc c091 6ebe 9582 7bbd
00000240: c335 5c3b f702 8abd e865 a33c 1349 123f
00000250: 4d3d 64bd 6cb0 2abe 68b5 8dbd 2cf0 a5bc
00000260: 5b5a b3bd 531e e3bf b2e4 75bd c669 f4bd
00000270: aa45 88bc 0e10 f4bf d090 2bbf 8220 94be
00000280: 188e 97bd 1f3d 94bd bfc0 59be 4af6 e33d
00000290: 3276 8a3d d44d a2be 78cb 0ebf 499e 51be
000002a0: 5768 0dbe 4662 2cbd 2e17 97bd 5ed0 53bd
000002b0: c032 853f 0559 3dbf eaae dd3d 217b 20be
000002c0: 1f5d 7e3c e800 ae3f 221a cabd aacc e5bd
000002d0: e53b 03be 3071 f7bd 684a ae3c 421a 9ebe
000002e0: 103c 0abd 881f 2abe ee72 1dbd 4180 8cbe
000002f0: 08c0 48be 67d0 abbe 4c6c 383d b86b 963d
00000300: f0ef 5dbd 2278 27be b0a8 4fbe 744b e13d
00000310: f66d 863d 1e66 06bd 98a2 b93c 9a7d ab3d
00000320: f8ba 5bbd e971 21bf d03f 17bd 6bd9 e33c
00000330: 74bd 16bd 5fc5 87bd 146b 463d 7fe4 bbbe
00000340: f626 b13d 4124 d3bd f0ae 5e3d 9801 c03d
00000350: b535 e5be 3e8b d4be aea4 04bd be2c f83d
00000360: b04b 5cbd 32d5 c7be ec83 1bbd 182f 643d
00000370: 6314 033e d8f5 eb3c d2c4 51be 323a 27bd
00000380: dca2 b5bd ffda 4abe 217b 12bf b168 e5bd
00000390: b93a 57bd f449 98bc 4c00 0d3d 24ae 6abd
000003a0: eaf5 b6bd 64e9 70bb c116 02be 44b4 c5bd
000003b0: 897e a9bd aa3f 8c3c fc13 c2bd b356 03bb
000003c0: 928f db3d b13b 1ebf 008a 6a3c 3b86 98be
000003d0: 6055 8c3b 3e89 3dbe 58dd 99bd a189 53be
000003e0: 8610 863d 74d4 5fbe 381c e13d f499 133d
000003f0: c1f7 06be 00da 11bc a412 07bf 7027 8abb

bias f4 [60]
-0.3464875 -1.5749242 -1.6175672 -0.8266595 -1.1848855 -1.0376458 -1.1633453 -0.7192884
-1.5887808 -1.5759411 -2.850616 -0.34255186 -1.0392554 -0.27887863 -0.9262506 -1.035173
-2.1171517 -0.8740033 -4.182166 -0.22388507 -0.9918392 -0.9507535 0.628286 -1.5086491
-1.2765722 -0.9859198 -0.46393582 -1.9753475 -2.7483146 -2.3981075 -1.697876 -0.48135632
-0.5380685 -2.5741048 1.7757646 -2.7702868 -0.9308269 -1.9383781 -1.5643204 -0.9290444
-0.7354903 -1.4013225 -2.119021 1.1041214 -1.2063872 -0.29851905 -0.5615523 -2.2197516
-0.5514124 1.198525 -0.41215202 -2.3187354 -1.0094556 -1.0124 -0.5776858 -0.5936308
-2.5306096 -0.47965136 -0.6466697 -0.7707953
00000000: cf66 b1be 1e97 c9bf 710c cfbf f59f 53bf
00000010: 54aa 97bf 94d1 84bf 80e8 94bf 4923 38bf
00000020: 2b5d cbbf 70b8 c9bf 7e70 36c0 f562 afbe
00000030: 5206 85bf 2ec9 8ebe c21e 6dbf 8d80 84bf
00000040: 6a7f 07c0 aebe 5fbf 4ed4 85c0 2142 65be
00000050: 2ce9 7dbf 9564 73bf 5ad7 203f 6a1b c1bf
00000060: b866 a3bf 3d65 7cbf ff88 edbe 30d8 fcbf
00000070: 63e4 2fc0 987a 19c0 0054 d9bf 5674 f6be
00000080: dbbe 09bf 22be 24c0 414c e33f 614c 31c0
00000090: ac4a 6ebf c61c f8bf a73b c8bf dbd5 6dbf
000000a0: 1849 3cbf 895e b3bf 0a9e 07c0 da53 8d3f
000000b0: e56a 9abf 7dd7 98be e4c1 0fbf 6910 0ec0
000000c0: 5d29 0dbf 4469 993f 9705 d3be 2966 14c0
000000d0: d735 81bf 5396 81bf 37e3 13bf 30f8 17bf
000000e0: 82f5 21c0 dd94 f5be 258c 25bf d752 45bf

weight f4 [60, 60]
0.097959414 0.09650262 0.074158385 -0.10560703 0.11728126 0.027999535 -0.30397484 0.0994539
-0.014027208 -0.23232745 0.11919786 0.020232722 -0.036153026 -0.2320567 -0.24564661 -0.12129378
-0.14822876 0.10270568 -0.098138355 -0.27773434 -0.017281331 -0.24573174 -0.20106426 -0.19722478
-0.11484953 0.12837242 -0.08871309 -0.2794011 -0.3200199 -0.27067655 -0.24893162 -0.027242191
0.11811641 -0.07284603 -0.39874485 -0.18915486 0.10385254 -0.08205526 -0.17842002 0.007382065
-0.7008515 -0.34924757 -0.22873066 -0.30296504 -0.044122957 -0.043101393 -0.023624547 -0.43249062
-0.018119954 -0.27915567 -0.048984826 -0.1449554 0.0017041713 -0.21368816 -0.025192417 -0.026013039
-0.41065544 -0.022646122 -0.06784125 -0.3867738 -0.08129457 0.030826733 0.013611034 -0.016613945
-0.10636272 -0.03803139 -0.18590586 0.068941414 0.12059702 -0.21164154 -0.21142091 0.12790318
0.097939834 -0.055589426 -0.04032125 -0.1079507 -0.112994894 -0.106155336 -0.10574226 -0.26953432
0.033784594 -0.14282 -0.12552297 -0.31882674 0.04828139 -0.1277138 -0.044128124 -0.0051111057
-0.092354685 -0.19439049 0.044817425 -0.0014475435 -0.1974687 -0.2382447 -0.022971438 -0.23859549
-0.12936927 -0.29712236 -0.26921108 0.0987083 -0.062675595 -0.21509874 -0.07307458 0.0029263368
-0.13201591 0.027145728 -0.06650013 -0.24868311 -0.059138928 -0.09088657 -0.08335397 -0.049522456
-0.07188642 -0.041275516 0.12592657 -0.07392737 0.020773444 0.097963154 -0.12235591 0.025182456
-0.032753985 0.029048935 -0.07881233 -0.007606663 -0.11506166 0.12550695 -0.23286559 0.024007365
0.025340527 -0.0051531075 -0.1532219 0.029821172 0.119116694 -0.0811522 0.052465286 -0.040404104
-0.17500347 0.0999731 -0.06901473 -0.28211442 -0.062385783 -0.087353066 -0.37793282 -0.27855498
0.07001208 0.034026608 -0.90637994 -0.18636872 0.12208019 -0.22066553 -0.06951392 -0.04122577
0.079821765 -0.24064441 -0.022167055 -0.17114542 0.0086310115 -0.22345714 -0.23976444 0.07310769
0.034100145 -0.5695492 -0.23433992 0.03980041 -0.12420736 -0.044233344 -0.012631383 -0.052467346
-0.028741028 -0.87671274 0.08676028 -0.15809837 -0.0028401464 -0.12382417 0.09351921 -0.034005433
-0.13916181 -0.05601609 0.03265478 0.52897424 -0.13909169 0.15893951 -0.16975951 -0.1643607
0.5621639 0.1862398 0.17076686 0.32257417 0.012013765 0.50114274 -0.20466149 -0.54739046
0.33117703 -0.08415262 -0.25573236 0.004937537 -0.31682807 0.17031226 -0.17124608 0.06897892
0.047864858 -0.2427852 -0.2971761 -0.38273603 -0.5271968 0.21703349 -0.4557134 0.078692004
-0.58071643 -0.4108717 -0.17264082 -0.11226499 -0.06215107 0.08896628 -0.32681155 -0.35829207
0.0854569 -0.22412191 0.08703966 0.09730662 0.27403152 -0.26164293 -0.26066843 -0.16526411
0.10942188 -0.050036557 -0.3591745 -0.33726144 0.350543 -0.964374 0.24221872 -1.5148361
-0.035546273 -0.25543946 0.07381809 -0.02130616 -0.118437 0.01291608 -0.5351276 0.08776056
0.11347456 -0.382774 0.6004667 0.15249376 0.0733341 0.014010067 0.11072108 0.029071966
0.41610044 1.2791255 1.0652572 -0.033303637 0.5281543 0.2631482 0.19951601 0.036505822
00000000: f29e c83d 2aa3 c53d 5ae0 973d 8048 d8bd
00000010: 2831 f03d 485f e53c 97a2 9bbe 7cae cb3d
00000020: 60d2 65bc 3fe7 6dbe 021e f43d 18bf a53c
00000030: 3215 14bd 46a0 6dbe c98a 7bbe e068 f8bd
00000040: 48c9 17be 5b57 d23d c3fc c8bd 3233 8ebe
00000050: 9491 8dbc 1aa1 7bbe cae3 4dbe 4bf5 49be
00000060: 3b36 ebbd 0f74 033e 35af b5bd a90d 8fbe
00000070: a6d9 a3be 1e96 8abe eee7 7ebe 042b dfbc
00000080: 04e7 f13d 4d30 95bd 4928 ccbe d0b1 41be
00000090: a4b0 d43d 970c a8bd bdb3 36be 40e5 f13b
000000a0: 016b 33bf 94d0 b2be 5f38 6abe 3c1e 9bbe
000000b0: 46ba 34bd 168b 30bd 4488 c1bc 696f ddbe
000000c0: 4c70 94bc 7eed 8ebe 50a4 48bd 306f 14be
000000d0: 805e df3a 12d1 5abe 5460 cebc 4c19 d5bc
000000e0: 6e41 d2be 5c84 b9bc 5af0 8abd 3707 c6be
000000f0: c47d a6bd 5888 fc3c d000 5f3c f819 88bc
00000100: b3d4 d9bd cec6 1bbd 1b5e 3ebe 2831 8d3d
00000110: 92fb f63d 8fb8 58be b97e 58be 0df9 023e
00000120: ae94 c83d bdb1 63bd e527 25bd 4215 ddbd
00000130: de69 e7bd f867 d9bd 668f d8bd 6700 8abe
00000140: b761 0a3d 683f 12be 1889 00be 423d a3be
00000150: b5c2 453d 68c7 02be b1bf 34bd 107b a7bb
00000160: 7424 bdbd 4d0e 47be 7a92 373d 80bb bdba
00000170: 3c35 4abe 6bf6 73be 992e bcbc 6052 74be
00000180: 6179 04be 6c20 98be 09d6 89be 9427 ca3d
00000190: 105c 80bd d842 5cbe 20a8 95bd c9c7 3f3b
000001a0: 2e2f 07be b860 de3c 3831 88bd c9a6 7ebe
000001b0: a93b 72bd bd22 babd 7cb5 aabd 0fd8 4abd
000001c0: 3039 93bd 8410 29bd e5f2 003e 3c67 97bd
000001d0: 122d aa3c e8a0 c83d bc95 fabd 704b ce3c
000001e0: 0b29 06bd 08f8 ed3c 5c68 a1bd 5041 f9bb
000001f0: 73a5 ebbd e584 003e 5174 6ebe 18ab c43c
00000200: f096 cf3c 66db a8bb 34e6 1cbe 884b f43c
00000210: 74f3 f33d 2033 a6bd d7e5 563d c67e 25bd
00000220: 1c34 33be b2be cc3d 9857 8dbd 4d71 90be
00000230: 3c88 7fbd 2ae6 b2bd 6980 c1be c29e 8ebe
00000240: 7e62 8f3d 7c5f 0b3d 8408 68bf 71d7 3ebe
00000250: 2e05 fa3d 25f6 61be 505d 8ebd 5adc 28bd
00000260: 9879 a33d 7d6b 76be af97 b5bc bf40 2fbe
00000270: 1669 0d3c f3d1 64be cf84 75be 7cb9 953d
00000280: 98ac 0b3d facd 11bf cef6 6fbe c105 233d
00000290: 6e60 febd 062e 35bd dcf3 4ebc 00e8 56bd
000002a0: 4e72 ebbc 3f70 60bf 60af b13d 8ae4 21be
000002b0: c021 3abb 8797 fdbd 0087 bf3d 4849 0bbd
000002c0: 6f80 0ebe 2171 65bd 05c1 053d db6a 073f
000002d0: 0d6e 0ebe 0ac1 223e 70d5 2dbe 2c4e 28be
000002e0: f9e9 0f3f a5b5 3e3e 82dd 2e3e 7128 a53e
000002f0: 62d5 443c e44a 003f c892 51be c821 0cbf
00000300: 0990 a93e 3558 acbd 5aef 82be 10cb a13b
00000310: 4a37 a2be 5666 2e3e 225b 2fbe d244 8d3d
00000320: f10d 443d af9c 78be 7727 98be faf5 c3be
00000330: 5ff6 06bf 073e 5e3e 4453 e9be 4629 a13d
00000340: d5a9 14bf c75d d2be c1c8 30be 30eb e5bd
00000350: 1f92 7ebd f433 b63d d853 a7be 0f72 b7be
00000360: 0704 af3d 3780 65be d941 b23d b148 c73d
00000370: dc4d 8c3e 10f6 85be 5576 85be ff3a 29be
00000380: 9418 e03d 22f3 4cbd b8e5 b7be 88ad acbe
00000390: 5f7a b33e 37e1 76bf 2f08 783e 26e6 c1bf
000003a0: f898 11bd f6c8 82be f02d 973d 428a aebc
000003b0: 198f f2bd f79d 533c 1ffe 08bf cfbb b33d
000003c0: 5a65 e83d f4fa c3be 30b8 193f 5327 1c3e
000003d0: 3030 963d 7b8a 653c bcc1 e23d 5528 ee3c
000003e0: 1e0b d53e 62ba a33f 595a 883f 6569 08bd
000003f0: 1f35 073f 5cbb 863e ed4d 4c3e 2187 153d

bias f4 [60]
-0.34681472 -0.25111008 -0.8587987 -1.1021048 -1.4993062 -0.9131836 -0.81993675 -0.52780956
-0.75733995 -1.6948664 -1.3624114 -2.0065951 0.38171336 -0.88300407 -0.81837344 -0.9737422
-1.0554287 -0.7278117 -0.6199492 -3.3510635 4.7518234 -0.23000188 -0.09838272 -0.16006139
-0.87461597 -3.226021 -0.5892721 -0.28252378 -1.040048 -0.5624933 1.1609076 -1.4799137
-0.7532916 -0.3731764 -0.6893897 -0.6831893 -0.39209318 -0.5434941 -0.6169206 6.0752143e-05
-0.7611926 -0.87136 -0.67132545 -0.17914954 -0.50061613 -0.43488902 1.7098897 -0.5721599
-1.4537668 -1.5095856 -0.72666687 -0.21720953 -3.2915826 -0.66711 -4.668961 -2.6405122
0.14140862 -0.66291595 -1.5551511 -0.2581363
00000000: b391 b1be 8091 80be 3bda 5bbf c511 8dbf
00000010: 44e9 bfbf 67c6 69bf 60e7 51bf 871e 07bf
00000020: 08e1 41bf 62f1 d8bf 7f63 aebf 0e6c 00c0
00000030: ef6f c33e 8e0c 62bf ec80 51bf 2b47 79bf
00000040: 4a18 87bf de51 3abf feb4 1ebf d377 56c0
00000050: f00e 9840 9d85 6bbe e17c c9bd 22e7 23be
00000060: d5e6 5fbf 2177 4ec0 89da 16bf f5a6 90be
00000070: 4b20 85bf 90ff 0fbf 9f98 943f d06d bdbf
00000080: b8d7 40bf fa10 bfbe d87b 30bf 7ee5 2ebf
00000090: 70c0 c8be 6e22 0bbf 82ee 1dbf 1ed0 7e38
000000a0: 85dd 42bf 7311 5fbf fcdb 2bbf fa72 37be
000000b0: 6128 00bf c6a9 debe aadd da3f 1279 12bf
000000c0: 0815 babf 1a3a c1bf d706 3abf 2d6c 5ebe
000000d0: 4aa9 52c0 b9c7 2abf 2168 95c0 27fe 28c0
000000e0: 6ccd 103e dcb4 29bf 310f c7bf 712a 84be

weight f4 [10, 60]
-0.19107549 -0.318385 -0.3329404 -0.49219304 -0.6114619 -0.5630519 -1.3830973 -0.19062048
-0.11688983 -0.45375037 -0.22921328 -1.200889 -1.4161785 -0.34761244 0.16431467 -0.29458413
-0.43995687 0.08571932 -0.26479772 -0.23420395 -1.5854864 0.28481722 0.14795701 -0.13333935
0.090199724 -1.2643983 0.13896737 -0.5091273 -0.39802444 0.14922234 -3.568702 -0.9371905
-1.7962508 0.26681575 0.3350566 -0.2562472 -0.011679573 -0.26489496 -0.45794508 -0.4701717
0.20508404 -0.4287338 -0.7868496 0.061361685 -0.18890199 -0.48240095 -2.8658962 0.12538223
-1.2320055 0.10897172 0.29313973 -0.6091018 -1.5502161 -0.12450254 0.42470092 -0.9646815
-3.6425936 -5.0606165 -1.7569722 -0.031494517 -0.10075531 -0.013097448 -1.299758 -1.1578833
-25.12171 -0.39835584 -0.6220935 -0.25024864 -0.12765825 -0.7648259 -0.11243828 -4.1053596
-0.9982472 -0.061918255 -0.06002247 -0.86243343 -0.13674572 -0.065363884 -0.36895716 -1.5195204
-1.8429695 -0.22962709 -0.07806506 -0.08712032 -1.1000129 -1.1033494 -0.0014843835 -0.39037427
-0.13152008 -0.13590272 -46.838753 -1.2471868 -2.073418 -0.066504665 -0.10307554 -0.60367733
-2.4180677 -0.12370127 -0.07210695 -9.538955 -0.1339947 -1.1865267 -28.072763 0.0067830374
-0.2769241 0.0045282883 -53.037895 -1.2299256 -6.099731 -0.13426162 -0.029862205 -0.065439194
-4.0522003 0.2465524 0.809325 -23.032549 -29.924635 -15.113381 -2.0824666 -0.09204609
-0.09829586 0.00013968993 -0.54987884 -0.6194881 0.31891176 -1.9172966 -57.200264 -0.069526
-0.17541517 -0.3174809 -0.67368793 -3.1448016 -24.587843 -0.17671004 -1.167254 -0.5923268
-1.0053476 -0.15555419 -0.73568374 -3.6732357 0.29667202 -0.04709184 0.016839107 -0.030729655
0.19325903 -5.5782857 0.16362472 -0.56439483 -0.21019997 0.051880408 -25.319036 -0.9906117
-4.8531194 -0.012949295 -0.22562066 -0.0017678672 -2.688569 -0.15032227 0.005786378 -3.2950504
0.40218475 -3.9290595 -18.465088 -0.15141313 -0.26908308 -0.33331743 -45.708977 -7.765019
-2.039258 -0.23895608 -0.30411682 -0.4574991 -4.235133 -0.09083317 -24.029417 -8.093097
-2.0109136 -14.90557 -1.6338472 -0.051435985 -0.32691786 0.021466933 -0.30830562 -0.4786766
-0.37250543 -0.20076777 -19.445274 -0.15034127 0.12569267 -0.31480902 0.026838602 -1.1929427
-2.1629202 -0.27446237 -0.55160683 0.046503365 -0.8452481 -0.18096223 -0.3128799 0.15618572
-19.992554 -0.22583465 0.06293026 0.0040793363 -1.7742904 -7.6354876 -0.43744886 0.07665609
-0.20365454 -0.19197182 -10.199114 -1.1505774 -0.9089944 -0.22551225 -0.081761554 -0.90920424
-0.27352703 -0.63764054 0.1583504 -0.65712374 -0.06410747 -1.8226651 -8.87857 -0.15217316
-0.15542544 0.074271366 -15.650869 -12.148797 -0.4964484 0.032728326 -0.087850414 -0.2139654
-0.09185995 -0.15983282 -26.563578 -0.27939412 -5.890281 -11.8552685 -15.918515 -0.17109649
-0.48335823 -0.062644154 -1.6195163 -1.2985224 -15.884385 -1.1829926 -0.20018545 -0.38773623
-0.018884571 -0.22362033 -0.34941328 -3.1691525 0.16695735 -0.45455146 -0.306991 -0.5216262
00000000: 4ba9 43be 5c03 a3be 2a77 aabe ba00 fcbe
00000010: c488 1cbf 2b24 10bf 5509 b1bf 0432 43be
00000020: ef63 efbd f851 e8be e3b6 6abe bbb6 99bf
00000030: 5645 b5bf 42fa b1be 1b42 283e bbd3 96be
00000040: 0742 e1be 9c8d af3d 9193 87be 29d3 6fbe
00000050: 38f1 cabf 90d3 913e 0b82 173e 1c8a 08be
00000060: a2ba b83d ced7 a1bf 764d 0e3e 2b56 02bf
00000070: dcc9 cbbe becd 183e 9d65 64c0 b7eb 6fbf
00000080: 8ceb e5bf 139c 883e 8a8c ab3e d532 83be
00000090: ae5b 3fbc 50a0 87be c777 eabe 58ba f0be
000000a0: 8d01 523e ff82 dbbe fa6e 49bf 6456 7b3d
000000b0: 866f 41be 42fd f6be d86a 37c0 3364 003e
000000c0: 5bb2 9dbf 912c df3d 6916 963e 18ee 1bbf
000000d0: 7b6d c6bf 30fb febd 6672 d93e 5ef5 76bf
000000e0: 4120 69c0 92f0 a1c0 77e4 e0bf 6500 01bd
000000f0: cd58 cebd ae96 56bc 785e a6bf 8535 94bf
00000100: 43f9 c8c1 4cf5 cbbe 8541 1fbf 9720 80be
00000110: d8b8 02be a1cb 43bf 0a46 e6bd 1b5f 83c0
00000120: 218d 7fbf ff9d 7dbd 1fda 75bd 70c8 5cbf
00000130: 1207 0cbe 80dd 85bd f4e7 bcbe a57f c2bf
00000140: 6de6 ebbf 5d23 6bbe 93e0 9fbd 236c b2bd
00000150: 39cd 8cbf 8e3a 8dbf a58f c2ba 23df c7be
00000160: 33ad 06be 152a 0bbe e25a 3bc2 d1a3 9fbf
00000170: e1b2 04c0 9933 88bd 4519 d3bd 998a 1abf
00000180: 9fc1 1ac0 1757 fdbd cfac 93bd 8f9f 18c1
00000190: e835 09be 1be0 97bf 0595 e0c1 3e44 de3b
000001a0: ffc8 8dbe 0962 943b ce26 54c2 346e 9dbf
000001b0: ff30 c3c0 e17b 09be 95a1 f4bc fc04 86bd
000001c0: a0ab 81c0 3b78 7c3e ec2f 4f3f a942 b8c1
000001d0: a765 efc1 69d0 71c1 2247 05c0 a982 bcbd
000001e0: 574f c9bd bb79 1239 dcc4 0cbf c696 1ebf
000001f0: 6748 a33e fa69 f5bf 12cd 64c2 a663 8ebd
00000200: 09a0 33be db8c a2be d076 2cbf 6e44 49c0
00000210: e7b3 c4c1 7af3 34be 9468 95bf bba2 17bf
00000220: 3baf 80bf 9949 1fbe c555 3cbf 4b16 6bc0
00000230: 65e5 973e 60e3 40bd 2bf2 893c c2bc fbbc
00000240: b2e5 453e 5181 b2c0 3d8d 273e 2e7c 10bf
00000250: a93e 57be 8d80 543d 638d cac1 ba98 7dbf
00000260: c14c 9bc0 4829 54bc 1a09 67be c8b7 e7ba
00000270: 8411 2cc0 15ee 19be a89b bd3b 1be2 52c0
00000280: 29eb cd3e b675 7bc0 80b8 93c1 0b0c 1bbe
00000290: 42c5 89be 95a8 aabe fed5 36c2 097b f8c0
000002a0: 3483 02c0 e7b0 74be 33b5 9bbe 523d eabe
000002b0: 3686 87c0 be06 babd 3f3c c0c1 537d 01c1
000002c0: cfb2 00c0 377d 6ec1 e821 d1bf 8aae 52bd
000002d0: c761 a7be 6cdb af3c 3cda 9dbe 1915 f5be
000002e0: 08b9 bebe 1196 4dbe ec8f 9bc1 10f3 19be
000002f0: 94b5 003e a62e a1be a1dc db3c 59b2 98bf
00000300: 496d 0ac0 5586 8cbe 1b36 0dbf 507a 3e3d
00000310: 2e62 58bf 2a4e 39be cb31 a0be 26ef 1f3e
00000320: c0f0 9fc1 3341 67be 95e1 803d f4ab 853b
00000330: f31b e3bf ea55 f4c0 4cf9 dfbe defd 9c3d
00000340: d18a 50be 4394 44be 922f 23c1 1f46 93bf
00000350: dbb3 68bf afec 66be 9a72 a7bd 9cc1 68bf
00000360: bc0b 8cbe 693c 23bf 9b26 223e 4339 28bf
00000370: c74a 83bd 174d e9bf 9f0e 0ec1 48d3 1bbe
00000380: d927 1fbe 961b 983d f669 7ac1 7961 42c1
00000390: 7c2e febe 230e 063d ebea b3bd bf19 5bbe
000003a0: 1221 bcbd 37ab 23be 3582 d4c1 bf0c 8fbe
000003b0: 2f7d bcc0 2eaf 3dc1 3db2 7ec1 eb33 2fbe
000003c0: bb7a f7be 944b 80bd 4f4c cfbf fb35 a6bf
000003d0: 7126 7ec1 4d6c 97bf 6afd 4cbe 5d85 c6be
000003e0: d1b3 9abc bafc 64be 4ce6 b2be 65d3 4ac0
000003f0: def6 2a3e f8ba e8be ed2d 9dbe 4b89 05bf

bias f4 [10]
2.0829566 -0.11780685 -7.4105473 -0.26740906 3.2530727 5.09385 -3.6401803 0.19098502
-5.8336377 -4.8202004
00000000: 294f 0540 b844 f1bd 3423 edc0 d7e9 88be
00000010: 5832 5040 d200 a340 b7f8 68c0 9491 433e
00000020: 29ad bac0 153f 9ac0
