NN Real data/final_trained_models/TPSMk/TPSMk_expLR.pth (torch, 56183 bytes, 10 tensors)

weight f4 [60, 20]
-0.04076821 -0.023472153 -0.39130706 0.050403453 0.83413726 0.13942969 -0.3340469 -0.10586359
0.09505646 0.44689596 0.12696293 -0.7619648 -0.80062866 -0.20246595 0.2389413 0.8496102
-0.9785288 -0.88479406 -0.92560685 0.5853066 0.70291567 0.06117882 -0.40743873 -1.0393174
-0.62805593 0.20059912 -0.025135033 -0.20429741 -0.18392776 0.2402551 0.28243044 -0.31095847
-0.5540516 -0.18661958 0.22412272 -0.07189944 -0.3515943 -0.622725 0.4655753 0.5799898
3.5093367 1.0111042 2.323034 0.105070114 -0.061094467 1.0252554 0.66585517 0.6605566
0.0040494995 -0.2653146 0.028769892 0.41114378 0.23452435 0.044572927 0.24884784 -1.0790372
-0.15009494 -0.7765625 -0.1076883 -0.56938994 0.09482377 -0.2432018 -0.37484008 -0.26904112
-0.1647505 -0.10307111 -0.1689454 0.07669904 -0.15399908 0.069122575 0.12456543 0.19394189
0.013031296 0.042662833 0.35900274 -0.25323164 -0.22349837 -0.36196685 0.016314756 0.51640046
-1.3400558 0.29914862 -0.13963354 0.3324185 0.13688412 0.36007679 -0.508915 -0.8008226
-0.33292547 0.13247769 0.45570567 -0.4360396 -0.3362411 -0.68796086 -0.8347198 0.30557933
-0.5140268 0.018669637 -0.3052789 -0.17274545 0.5339789 -2.2771606 1.6519275 -0.24255341
-1.9838578 0.0005627178 -0.48136863 -0.48602197 0.35118604 -0.8989046 0.2956882 -0.10694512
-1.1489464 -0.04187467 -0.0811241 -0.2242871 -0.034043193 -1.3689475 0.4475238 -0.11061985
-1.9246737 -0.4110095 0.27843526 0.15167147 -0.12852947 0.085824564 -0.33874542 -0.16506246
-0.73424965 1.1338131 -0.41210556 -0.020750606 -0.21941184 -0.46410218 0.5272843 -0.7708744
0.45585203 0.7034813 0.9050793 0.00889092 3.0321212 0.58192945 -1.2589358 -0.045082472
-1.8547665 0.69039303 0.012828536 -0.56873536 -0.00082374504 -0.56719977 -0.09603768 -0.24784777
-0.043674216 -0.2256852 -0.4770417 -0.59843177 -0.30637553 0.90476847 -0.055584367 0.4419983
0.40275845 -2.1195183 1.0490904 -1.410169 2.4009674 1.7054282 -1.0014118 -0.005548505
0.40774497 -0.45596084 1.7374372 -1.2600294 0.04624759 0.812998 0.06809833 3.537104
-2.2774196 -0.24313684 1.147789 -0.023712683 1.0500811 -0.87060356 -0.046664502 -2.6800284
-0.18387645 -0.13983315 -0.107599445 -0.78945076 -0.46053538 -0.08532153 -0.40615574 -0.09699693
-0.847111 0.46401957 0.5740954 -0.45479605 0.12959038 -0.57836753 0.77677846 0.43193758
1.1939596 -0.70808876 0.43119448 -0.05408052 -0.011770631 0.025757438 -0.1336194 0.023368865
-0.16668199 0.037482552 0.29711667 0.2754973 -0.81708497 0.16007507 0.011315008 0.097275324
-0.43542868 -0.5979098 0.22836731 0.46776792 2.9273522 -3.7752028 -1.8033105 1.0907028
-1.4673129 -0.20832604 -1.2547038 -0.28932086 -0.02417212 0.3756812 -0.7508971 -0.36609513
0.23032433 -0.1644272 0.08035996 -1.1950635 -0.18290384 1.2289817 -0.8288061 0.38353083
-0.52383274 -0.28581074 -2.0316322 -1.361572 -0.9793954 0.10893683 -0.059509154 -1.2908361
-0.03656129 -0.56548065 0.9560734 -0.5491 -1.6308835 0.49608696 -0.51071316 1.9627919
00000000: 91fc 26bd ac48 c0bc 6659 c8be da73 4e3d
00000010: 058a 553f a8c6 0e3e 3208 abbe 03cf d8bd
00000020: f6ac c23d 8ccf e43e 9202 023e 2010 43bf
00000030: 00f6 4cbf 3c53 4fbe 07ad 743e 0e80 593f
00000040: dd80 7abf dd81 62bf 92f4 6cbf a7d6 153f
00000050: 48f2 333f a496 7a3d cf9b d0be 5a08 85bf
00000060: 46c8 20bf db69 4d3e fce7 cdbc 5733 51be
00000070: 8f57 3cbe 6f05 763e b99a 903e f335 9fbe
00000080: 53d6 0dbf 3419 3fbe 6d80 653e 0340 93bd
00000090: 2b04 b4be e86a 1fbf e35f ee3e 367a 143f
000000a0: f998 6040 dd6b 813f 97ac 1440 002f d73d
000000b0: 313e 7abd 923b 833f 7c75 2a3f 3d1a 293f
000000c0: aab1 843b 51d7 87be d6ae eb3c 7081 d23e
000000d0: 2727 703e 1a92 363d f8d1 7e3e e41d 8abf
000000e0: 7db2 19be cdcc 46bf af8b dcbd 8ac3 11bf
000000f0: f732 c23d e509 79be 0aeb bfbe c2bf 89be
00000100: 5bb4 28be f216 d3bd 0600 2dbe 6314 9d3d
00000110: efb1 1dbe 2390 8d3d 291c ff3d b498 463e
00000120: 3881 553c 39bf 2e3d 35cf b73e 94a7 81be
00000130: c2dc 64be b853 b9be 86a6 853c d232 043f
00000140: f386 abbf 022a 993e 18fc 0ebe c232 aa3e
00000150: 5a2b 0c3e fc5b b83e 4148 02bf b602 4dbf
00000160: 3575 aabe 3ba8 073e 4152 e93e 9540 dfbe
00000170: cb27 acbe 341e 30bf 32b0 55bf e574 9c3e
00000180: 4397 03bf 11f1 983c 844d 9cbe 2fe4 30be
00000190: d7b2 083f 00bd 11c0 5c72 d33f ec5f 78be
000001a0: 0def fdbf 5a83 133a f375 f6be dfd7 f8be
000001b0: a8ce b33e 9d1e 66bf 7264 973e 0b06 dbbd
000001c0: ad10 93bf c684 2bbd 6424 a6bd 84ab 65be
000001d0: e070 0bbd ac39 afbf d721 e53e a98c e2bd
000001e0: b55b f6bf d66f d2be 118f 8e3e c44f 1b3e
000001f0: 3b9d 03be cac4 af3d 0a70 adbe 2206 29be
00000200: c9f7 3bbf ca20 913f 80ff d2be 2dfd a9bc
00000210: 7fad 60be cd9e edbe 1bfc 063f 0658 45bf
00000220: 7065 e93e 5a17 343f 47b3 673f 39ab 113c
00000230: 460e 4240 54f9 143f cf24 a1bf 66a8 38bd
00000240: fd68 edbf 99bd 303f c82e 523c a498 11bf
00000250: 98f0 57ba 0134 11bf 67af c4bd cecb 7dbe
00000260: bce3 32bd 051a 67be cf3e f4be d332 19bf
00000270: 41dd 9cbe e89e 673f 6fac 63bd 9a4d e23e
00000280: 5b36 ce3e 30a6 07c0 9848 863f 6b80 b4bf
00000290: 73a9 1940 794b da3f 432e 80bf 3cd0 b5bb
000002a0: f3c3 d03e b373 e9be 5864 de3f a548 a1bf
000002b0: 1d6e 3d3d a320 503f 2377 8b3d e95f 6240
000002c0: 3ec1 11c0 ddf8 78be c0ea 923f 1a41 c2bc
000002d0: 0f69 863f e0df 5ebf 4723 3fbd 9685 2bc0
000002e0: 1c4a 3cbe 6c30 0fbe 195d dcbd 7219 4abf
000002f0: 4bcb ebbe 0ebd aebd a5f3 cfbe 54a6 c6bd
00000300: 44dc 58bf f993 ed3e ebf7 123f 07db e8be
00000310: 57b3 043e e50f 14bf f4da 463f ec26 dd3e
00000320: abd3 983f 4e45 35bf 86c5 dc3e 8983 5dbd
00000330: 9bd9 40bc 4301 d33c 86d3 08be 1070 bf3c
00000340: afae 2abe 4e87 193d ad1f 983e fb0d 8d3e
00000350: 7b2c 51bf b8ea 233e 9562 393c 4938 c73d
00000360: 82f0 debe 9e10 19bf 1fd9 693e 477f ef3e
00000370: bd59 3b40 ec9c 71c0 e1d2 e6bf 269c 8b3f
00000380: e9d0 bbbf 6c53 55be 229a a0bf dd21 94be
00000390: 9c04 c6bc 4959 c03e cb3a 40bf d270 bbbe
000003a0: 24da 6b3e 9b5f 28be c393 a43d d7f7 98bf
000003b0: 254b 3bbe 464f 9d3f a32c 54bf 275e c43e
000003c0: e719 06bf c955 92be 4306 02c0 fe47 aebf
000003d0: a8b9 7abf 461a df3d dfbf 73bd 1e3a a5bf
000003e0: 4bc1 15bd 57c3 10bf 3ac1 743f d191 0cbf
000003f0: cac0 d0bf 1cff fd3e 19be 02bf c43c fb3f

bias f4 [60]
-0.20138735 -0.28817204 0.12116875 -0.20773736 -0.20369123 0.03939165 -0.31003585 0.028130963
0.005406119 0.14940256 -0.2551159 0.29175395 0.4128784 -0.48396248 -0.22223608 0.105159156
0.124213375 -0.28067827 0.101915345 -0.015496005 -0.32192472 -0.24148756 -0.32305387 0.2212186
-0.069495484 0.1256707 -0.10919938 0.15814045 -0.35238385 -0.20002332 0.13686933 -0.040005315
0.0645215 0.063927 -0.5912338 -0.14686681 0.10756589 -0.17729889 -0.25111684 -0.1027208
0.0089572 -0.10318711 -0.23012476 0.06794067 -0.27948064 -0.29803517 -0.578227 0.17058113
-0.22988024 -0.09600315 0.32546946 0.15790153 -0.20642887 0.14759843 0.016158186 -0.15358047
-0.03452881 -0.61015826 0.1974984 -0.055105645
00000000: 7c38 4ebe 498b 93be 5227 f83d 1ab9 54be
00000010: 6f94 50be 2459 213d 05bd 9ebe e872 e63c
00000020: d025 b13b fcfc 183e 8d9e 82be c660 953e
00000030: cc64 d33e eec9 f7be db91 63be af5d d73d
00000040: 9563 fe3d 10b5 8fbe feb8 d03d f5e2 7dbc
00000050: 51d3 a4be 8448 77be 5167 a5be 2187 623e
00000060: a653 8ebd d2af 003e eda3 dfbd 92ef 213e
00000070: a86b b4be ead2 4cbe 7927 0c3e 9ddc 23bd
00000080: d923 843d 29ec 823d 195b 17bf 4164 16be
00000090: 814b dc3d d78d 35be 6392 80be 485f d2bd
000000a0: 38c1 123c c353 d3bd d3a5 6bbe 7a24 8b3d
000000b0: 1618 8fbe 1198 98be af06 14bf d2ac 2e3e
000000c0: ba65 6bbe 4d9d c4bd efa3 a63e f0b0 213e
000000d0: 1762 53be 0b24 173e 2c5e 843c 3344 1dbe
000000e0: 156e 0dbd 5533 1cbf 053d 4a3e 75b6 61bd

weight f4 [60, 60]
0.010076133 -0.19512641 -0.5801473 0.14642937 -0.18290691 -0.35863504 -0.16213517 0.52300674
-0.85232437 -0.043580096 -0.020279948 -0.0164575 0.014682357 0.06966571 -0.061496954 -0.0041210474
-0.5886409 0.15432845 -0.041396104 0.115670055 0.19440727 -0.19820148 -0.030140147 -0.2160248
-0.5967357 -0.11913001 0.2860247 -0.5877295 0.1756927 -0.26357833 0.16655712 -0.15743239
-0.33545128 0.16434428 -0.077420704 -0.1673289 -0.43561625 -0.41848123 0.12568352 -0.76346284
0.30506632 -0.09885135 0.15521508 -0.23288763 0.2767012 -0.039622746 -0.03964286 -0.106297776
0.057125036 -0.009943152 0.02964292 0.15466054 -0.11015854 0.0066732634 0.20105925 -0.012859795
0.08416444 0.013794927 0.059384163 -0.57313925 0.06641681 -0.040331207 0.048638582 0.28573608
-0.11001469 -0.086963855 -0.0036168243 0.5177258 -0.6967366 -0.43154514 -0.15802078 0.03576116
-0.031702507 0.15330197 -0.2309762 -0.097259015 0.0036680175 0.048294317 0.011381675 -0.09978385
0.16971976 -0.075572535 -0.10625541 -0.22951409 -0.54066646 -0.27992907 0.05618627 0.1456688
0.17595178 -0.23006937 0.18346813 -0.3661855 0.03770698 0.05765881 0.07068076 0.051359348
-0.23788776 -0.029467385 0.0782246 0.119239666 -0.06915097 -0.12261207 -0.0047584064 -0.44279572
-0.11892221 0.27057126 0.33289367 -0.22355777 -0.1359007 0.019034168 -0.14937781 -0.20046033
-0.40975827 0.023618748 0.22526066 0.28810585 -0.17531353 -0.005290568 -0.1224672 -0.5104476
0.09893971 -0.043674618 -0.2289605 0.07914737 -0.2496021 -0.25974184 -0.087053254 0.42358044
-0.47015044 -0.19639765 0.0038924583 -0.08231342 -0.0021076896 0.4394253 -0.19145016 0.04590897
-0.2518344 0.057687294 0.22381341 0.009410523 -0.07569654 -0.17461859 -0.15711358 -0.2271082
-0.5442476 -0.046797413 0.105180375 -0.30447507 -0.041477624 -0.34805354 0.13589035 -0.26859772
-0.247969 0.08162407 0.0037992245 -0.097118504 -0.42418113 -0.13099763 0.07873435 -0.55006784
-0.1038077 0.09323492 0.08407189 -0.293679 0.21689008 0.10591511 0.28449214 -0.2047361
0.07941382 -0.050538477 -0.07751044 -0.09206005 -0.3602543 0.23405282 0.22648236 -0.038140584
-0.1200653 -0.06267101 0.09050562 -0.5875443 -0.11306589 -0.28750327 -0.009730547 0.21639428
-0.20816916 -0.27879906 -0.033579867 0.11746444 0.33933532 -0.13430546 -0.073549286 -0.14729564
-0.03263126 0.1573172 0.09679971 -0.040279984 0.108331434 -0.0103485305 -0.13700266 0.13351317
-0.34744996 -0.11772672 -0.1767344 -0.88284725 -0.40203482 -0.23663053 0.031224536 -0.7483355
0.052577842 -0.3566532 -0.03639076 -0.060958188 0.08899556 -0.14146103 0.0122264195 -0.015203297
-0.372218 -0.23038523 0.028300967 -0.22800219 0.74618936 -0.0056726234 0.08717117 -0.3501399
-0.09188872 0.009534816 0.08550011 -0.19453771 0.024340948 -0.34386542 0.010134464 -0.11385283
-0.33271024 0.080009304 0.12802973 0.022107175 -0.17728898 -0.11916003 -0.26088256 -0.36889777
0.08911968 -0.1909967 -0.1302405 0.093153246 -0.58282065 -0.46861327 -0.011306132 0.55705416
0.7109532 -0.40510377 0.047415745 -0.7787346 -0.5148851 0.5131259 0.16469564 -0.30065277
00000000: 5d16 253c 38cf 47be 8984 14bf 95f1 153e
00000010: f34b 3bbe 039f b7be c306 26be c5e3 053f
00000020: ee31 5abf 0b81 32bd 2222 a6bc e1d1 86bc
00000030: 458e 703c e5ac 8e3d 3be4 7bbd da09 87bb
00000040: 2cb1 16bf 4708 1e3e f68e 29bd 6ce4 ec3d
00000050: b312 473e 54f5 4abe 78e8 f6bc 9b35 5dbe
00000060: acc3 18bf 6ffa f3bd d471 923e 7175 16bf
00000070: cae8 333e bdf3 86be f38d 2a3e f535 21be
00000080: 45c0 abbe de49 283e bf8e 9ebd 4458 2bbe
00000090: 1809 dfbe 2c43 d6be 2eb3 003e 4d72 43bf
000000a0: a731 9c3e 9472 cabd b4f0 1e3e 187a 6ebe
000000b0: c8ab 8d3e 764b 22bd 8d60 22bd a6b2 d9bd
000000c0: f1fb 693d 9ae8 22bc b5d5 f23c 555f 1e3e
000000d0: cd9a e1bd 64ab da3b 7ae2 4d3e e4b1 52bc
000000e0: 685e ac3d 1e04 623c cf3c 733d 41b9 12bf
000000f0: 8905 883d 5632 25bd 4039 473d 004c 923e
00000100: 624f e1bd 1b1a b2bd 3e08 6dbb ae89 043f
00000110: 545d 32bf 7cf3 dcbe 33d0 21be 4b7a 123d
00000120: 7dda 01bd 31fb 1c3e 0685 6cbe bc2f c7bd
00000130: 1f63 703b 43d0 453d 347a 3a3c 7a5b ccbd
00000140: 04cb 2d3e c6c5 9abd 709c d9bd be05 6bbe
00000150: 1e69 0abf dd52 8fbe 9323 663d 342a 153e
00000160: b42c 343e 4e97 6bbe 12df 3b3e aa7c bbbe
00000170: a272 1a3d a52b 6c3d 13c1 903d 2e5e 523d
00000180: d998 73be 9665 f1bc 3834 a03d ed33 f43d
00000190: 069f 8dbd 091c fbbd 68ec 9bbb 1fb6 e2be
000001a0: 7d8d f3bd 5188 8a3e 0a71 aa3e 54ec 64be
000001b0: 8e29 0bbe 8bed 9b3c 7ff6 18be 7945 4dbe
000001c0: d6cb d1be 1b7c c13c bbaa 663e 9c82 933e
000001d0: 6485 33be 805c adbb 15d0 fabd b2ac 02bf
000001e0: e7a0 ca3d 28e4 32bd 9f74 6abe 0418 a23d
000001f0: b197 7fbe e2fc 84be fa48 b2bd 89df d83e
00000200: 8fb7 f0be 771c 49be 9d18 7f3b f093 a8bd
00000210: 2a21 0abb 5afc e03e 830b 44be 0b0b 3c3d
00000220: 70f0 80be 8349 6c3d 582f 653e 982e 1a3c
00000230: ca06 9bbd 37cf 32be 62e2 20be 0d8f 68be
00000240: d053 0bbf a5ae 3fbd cf68 d73d 28e4 9bbe
00000250: 71e4 29bd 1334 b2be d726 0b3e a485 89be
00000260: 96eb 7dbe 852a a73d 69fc 783b 11e6 c6bd
00000270: 452e d9be 3e24 06be 7a3f a13d 3fd1 0cbf
00000280: 2299 d4bd f3f1 be3d e22d ac3d 185d 96be
00000290: 6f18 5e3e 05ea d83d f4a8 913e 57a6 51be
000002a0: b6a3 a23d 6f01 4fbd cbbd 9ebd fb89 bcbd
000002b0: 4073 b8be 8bab 6f3e feea 673e 4d39 1cbd
000002c0: cce4 f5bd a959 80bd 035b b93d 4e69 16bf
000002d0: 178f e7bd a133 93be df6c 1fbc 7696 5d3e
000002e0: 4c2a 55be c0be 8ebe 0b8b 09bd 3291 f03d
000002f0: 5cbd ad3e 5f87 09be 02a1 96bd abd4 16be
00000300: 5ba8 05bd c317 213e ed3e c63d a0fc 24bd
00000310: dfdc dd3d e28c 29bc 6d4a 0cbe adb7 083e
00000320: f6e4 b1be b51a f1bd ddf9 34be 4702 62bf
00000330: 82d7 cdbe 464f 72be 99ca ff3c ea92 3fbf
00000340: dd5b 573d 409b b6be 7a0e 15bd 4baf 79bd
00000350: 4e43 b63d 29db 10be 5251 483c 4017 79bc
00000360: 5c93 bebe 1bea 6bbe 6ed7 e73c 6879 69be
00000370: 4406 3f3f 6ae1 b9bb cc86 b23d 8945 b3be
00000380: 2730 bcbd eb37 1c3c af1a af3d e534 47be
00000390: ab66 c73c 210f b0be 060b 263c ac2b e9bd
000003a0: ff58 aabe ebdb a33d 3a1a 033e 1b1a b53c
000003b0: 3e8b 35be 2c0a f4bd 6692 85be 2be0 bcbe
000003c0: 6184 b63d a494 43be c45d 05be 21c7 be3d
000003d0: bc33 15bf 14ee efbe 5b3d 39bc 1a9b 0e3f
000003e0: 0701 363f c369 cfbe 0337 423d 275b 47bf
000003f0: 83cf 03bf 385c 033f f9a5 283e 29ef 99be

bias f4 [60]
-0.5622888 -0.34121037 -0.17079268 -0.57711333 0.007955988 0.3960028 -0.25311258 -0.84090674
0.34597322 -0.30375433 -0.13489142 -0.7114769 -0.37060884 -0.49352124 -0.9538125 -0.3221729
-0.5491817 0.09003948 -0.5273666 -0.05079906 0.07638671 -0.719877 0.23380287 -0.26171738
0.52694595 -0.457219 -0.35821784 -0.33886427 -0.53638446 -0.66542614 0.32318726 -0.22999932
-0.20670232 -1.3002452 -0.47519425 -0.40087008 -0.93993294 -0.08087461 -0.805578 -0.24880305
-0.15028994 -0.14292246 -0.4639733 -0.5027433 -0.14695735 -0.3679222 -0.7441535 -0.061130766
-0.60801363 -0.48590675 -0.27043444 -0.49849787 -0.5372305 -0.6116509 -0.6009776 0.03814748
-0.18267705 -0.38907427 0.034129467 -0.14033179
00000000: 29f2 0fbf 20b3 aebe 47e4 2ebe b3bd 13bf
00000010: d559 023c e1c0 ca3e f997 81be aa45 57bf
00000020: 6723 b13e b085 9bbe fa20 0abe 5a23 36bf
00000030: 71c0 bdbe d1ae fcbe 0e2d 74bf d9f3 a4be
00000040: 2c97 0cbf 9e66 b83d 7f01 07bf ad12 50bd
00000050: a370 9c3d dc49 38bf 056a 6f3e d2ff 85be
00000060: eee5 063f 9c18 eabe 5468 b7be 9e7f adbe
00000070: 7e50 09bf 5e59 2abf cd78 a53e f184 6bbe
00000080: c6a9 53be 6f6e a6bf a94c f3be d83e cdbe
00000090: 729f 70bf 96a1 a5bd 5c3a 4ebf 3ac6 7ebe
000000a0: 9be5 19be 445a 12be e98d edbe c9b3 00bf
000000b0: fd7b 16be 4c60 bcbe d880 3ebf 4164 7abd
000000c0: c8a6 1bbf c5c8 f8be 6276 8abe 1d3b ffbe
000000d0: f087 09bf 2795 1cbf abd9 19bf 8840 1c3d
000000e0: b10f 3bbe be34 c7be 57cb 0b3d 23b3 0fbe

weight f4 [60, 60]
0.28602466 0.08171416 0.11412347 -0.4103927 -0.79559696 -0.13217889 -0.15126073 -0.5173306
-0.19563094 -0.56635433 -0.21618135 -0.9624211 -0.3554445 0.17208555 -0.23680386 0.57791096
-0.37882486 -1.6406248 0.14303249 0.755674 -0.8718111 -0.4273319 -1.258402 0.19018984
0.60492486 0.052577082 -0.1425994 -0.9090866 -0.115490675 0.34489322 -0.49914786 -0.14968288
-0.057364374 -0.44869313 -0.086983085 0.108364135 -0.25875664 0.11632009 -0.18910043 -0.021727065
0.29295498 0.71582973 -0.054763455 0.026698187 -0.19362842 -0.037766337 0.12677644 -0.24844731
-0.14096785 0.09235794 -0.2988398 -0.5210203 -0.3621929 -0.5005554 -0.49676788 -1.2550899
-0.66528875 0.00449122 -0.55398375 0.038771614 -0.19205502 0.048806936 0.06862913 0.25521925
-0.21673565 0.031960305 0.34743595 -0.42556167 0.028480528 -0.38942865 0.16153732 -0.5739267
-0.25904498 0.08857906 -0.40951797 -0.28498492 -0.39154178 0.011589244 -0.07999414 -1.3497616
-0.6182154 -0.42873886 0.35253018 -0.1431846 -0.041807216 -0.10853791 -0.15377402 -0.114514835
-0.15980147 -0.06506995 -0.024966115 0.21778542 0.22353618 -0.3671286 -0.36219198 0.07310173
-0.1874382 -0.1168516 -0.22898576 0.08546433 -0.07934007 -0.77838063 -0.5948743 -0.18895842
-0.017361095 -0.326403 0.12565961 -0.18925257 -0.16447368 0.0036961685 0.038642272 -0.123591706
-0.25517675 -0.23755667 -0.20932925 0.117702 -0.06298414 0.07591714 -0.31395963 0.2689685
0.21522021 -0.06186828 0.16373801 -0.0686089 0.07428644 -0.21378562 -0.1492763 0.06199356
-0.19803299 0.056935832 0.0004121044 0.43124557 -0.19438156 -0.36705175 -0.57573074 0.074454
-0.9198965 -1.1648614 -0.11838199 0.04756293 -0.743522 -0.34008917 -0.35052845 -0.18217413
-0.14692192 0.090786494 -0.036751553 0.42690325 -0.28396708 0.019385032 0.06310629 -0.079665825
0.17745225 -0.11931091 -0.52472657 -0.10713829 -0.5609232 -0.121843085 0.48392388 -0.27416706
0.2860637 -0.9008141 0.09882742 0.459763 0.0065269563 -0.06422226 0.22218989 -0.04473357
0.076975875 -0.381545 -0.11118218 -0.17471252 -0.41878992 0.008925784 -0.28480485 -0.41148776
0.49048445 0.095959015 -0.33453327 -0.10420385 0.16572282 0.027720332 0.22572118 0.12289826
0.030992862 -0.3906974 -0.13575695 0.057750814 -0.26353204 -0.22326232 0.09381725 -0.31311926
-0.1361787 -0.1469504 -0.11662223 0.075772755 -0.5684287 -0.15344557 0.3149298 -0.36440808
-0.70127374 0.033279903 -0.15030947 0.22686663 -0.11952261 0.06825095 -0.22601907 -0.07513499
-0.045715008 -0.055179834 0.119481646 -0.15538214 0.082260884 0.26374874 -0.0717976 -0.16363914
-0.23393397 0.043937065 -0.13481039 -0.14350371 -0.15459032 -0.478605 0.08500861 -0.07442401
-0.27835307 0.05254759 0.15722434 0.027013693 0.063806474 -0.123035625 -0.17366797 -0.11502719
-0.11604039 -0.014907069 0.12363126 0.10932089 -0.29000098 0.10051825 -0.19533674 0.014257416
0.043260027 -0.028183402 0.06861841 -0.7775054 0.16222468 -0.23010059 0.076975554 0.52928644
-0.15381864 -0.32480988 0.051940642 -0.7184532 0.69697094 0.57647425 0.36739504 0.6431327
00000000: d371 923e c159 a73d 91b9 e93d fe1e d2be
00000010: 3eac 4bbf e759 07be 18e4 1abe c76f 04bf
00000020: 7a53 48be 99fc 10bf a55e 5dbe 3b61 76bf
00000030: d2fc b5be 3237 303e b67c 72be f9f1 133f
00000040: 55f5 c1be feff d1bf 1c77 123e da73 413f
00000050: 032f 5fbf 3fcb dabe 5113 a1bf 20c1 423e
00000060: 5bdc 1a3f 115b 573d 9405 12be e6b9 68bf
00000070: 6086 ecbd d895 b03e 4f90 ffbe 7846 19be
00000080: e8f6 6abd 1bbb e5be 3024 b2bd 04ee dd3d
00000090: c07b 84be 3a39 ee3d 8ba3 41be f5fc b1bc
000000a0: 32fe 953e 9e40 373f a54f 60bd 28b6 da3c
000000b0: 8746 46be e0b0 1abd afd1 013e f968 7ebe
000000c0: e059 10be 2926 bd3d 8801 99be 9661 05bf
000000d0: 5971 b9be 6624 00bf 5c58 febe c9a6 a0bf
000000e0: 5d50 2abf 162b 933b e1d1 0dbf fcce 1e3d
000000f0: 12aa 44be c8e9 473d 6e8d 8c3d 19ac 823e
00000100: f3ef 5dbe cfe8 023d 20e3 b13e 38e3 d9be
00000110: ff4f e93c 3163 c7be 0a6a 253e dcec 12bf
00000120: 8ba1 84be f068 b53d 57ac d1be 8be9 91be
00000130: 2a78 c8be d0e0 3d3c f8d3 a3bd fdc4 acbf
00000140: 5d43 1ebf a983 dbbe d67e b43e fc9e 12be
00000150: 0b3e 2bbd 2049 debd f076 1dbe c186 eabd
00000160: ffa2 23be 6543 85bd bd85 ccbc 2403 5f3e
00000170: abe6 643e 48f8 bbbe 3a71 b9be 5cb6 953d
00000180: cdef 3fbe e44f efbd 3e7b 6abe ec07 af3d
00000190: 0c7d a2bd f443 47bf af49 18bf 517e 41be
000001a0: db38 8ebc 4b1e a7be eaac 003e 6dcb 41be
000001b0: ca6b 28be 6b3b 723b 5c47 1e3d a61d fdbd
000001c0: 87a6 82be 0e42 73be 685a 56be bf0d f13d
000001d0: d4fd 80bd 727a 9b3d 51bf a0be 3db6 893e
000001e0: b062 5c3e 9869 7dbd f0aa 273e d382 8cbd
000001f0: 7d23 983d 9eea 5abe e3db 18be f6ec 7d3d
00000200: 29c9 4abe 8c35 693d b70f d839 38cc dc3e
00000210: f60b 47be 35ee bbbe 1763 13bf 577b 983d
00000220: 567e 6bbf 2e1a 95bf 4272 f2bd 59d1 423d
00000230: 7557 3ebf 2b20 aebe 7778 b3be db8b 3abe
00000240: b372 16be 45ee b93d cc88 16bd 1093 da3e
00000250: 2264 91be 5ccd 9e3c df3d 813d d627 a3bd
00000260: 0bb6 353e 4759 f4bd 7b54 06bf 526b dbbd
00000270: aa98 0fbf de88 f9bd dfc4 f73e a05f 8cbe
00000280: f176 923e c19b 66bf 0866 ca3d 0e66 eb3e
00000290: 14e0 d53b f686 83bd bf85 633e 8c3a 37bd
000002a0: 87a5 9d3d de59 c3be 7cb3 e3bd d7e7 32be
000002b0: a26b d6be 743d 123c f1d1 91be 86ae d2be
000002c0: c720 fb3e 2986 c43d f247 abbe d468 d5bd
000002d0: 3eb3 293e c015 e33c 7423 673e 15b2 fb3d
000002e0: bee4 fd3c 7d09 c8be df03 0bbe 1e8c 6c3d
000002f0: aced 86be e19e 64be 4223 c03d 2b51 a0be
00000300: 6e72 0bbe 2a7a 16be a3d7 eebd bf2e 9b3d
00000310: 8b84 11bf d620 1dbe 7b3e a13e b293 babe
00000320: ad86 33bf 8250 083d baea 19be ba4f 683e
00000330: 45c8 f4bd 27c7 8b3d 8b71 67be 60e0 99bd
00000340: a93f 3bbd 4004 62bd cbb2 f43d 7f1c 1fbe
00000350: 6578 a83d 130a 873e 9f0a 93bd 0591 27be
00000360: 638c 6fbe 5af7 333d bc0b 0abe a3f2 12be
00000370: ed4c 1ebe b70b f5be fe18 ae3d 9e6b 98bd
00000380: 4b84 8ebe 243c 573d 6bff 203e d24b dd3c
00000390: f8ac 823d 1afa fbbd 04d6 31be 6093 ebbd
000003a0: 96a6 edbd c73c 74bc 6332 fd3d a1e3 df3d
000003b0: 027b 94be 83dc cd3d 5b06 48be f097 693c
000003c0: 6d31 313d e1e0 e6bc cf87 8c3d 980a 47bf
000003d0: 3a1e 263e 7d9f 6bbe 5ca5 9d3d 517f 073f
000003e0: a282 1dbe 7b4d a6be b6bf 543d 8dec 37bf
000003f0: b06c 323f d193 133f 341b bc3e 58a4 243f

bias f4 [60]
-0.73652476 -0.27355492 -0.31480005 -0.53395444 -0.5717667 -0.6474865 -0.7369023 -0.8443186
-0.1721072 -0.71325994 -0.83791924 -0.2296202 -0.46619487 0.14742015 -0.23157272 -0.09494448
-0.176526 -0.44222152 -0.119605534 -0.27409357 -0.9897106 -0.35009086 -1.1800638 -0.8824376
-0.7071648 0.40265763 -0.5078259 -0.10017313 -0.39534464 -0.33148283 -0.23952809 -0.25452086
-0.33885592 -0.36615637 -0.72173434 -0.65445405 -0.48768577 -1.0204467 -0.28866482 0.5492119
0.17031842 -0.29306054 -0.042896908 -0.3493108 -0.5443111 -0.069312036 -0.17622454 -1.3683522
0.04036706 -1.3635066 -0.93422955 -1.0144442 -1.503741 -0.6751461 -0.47173598 -0.35019636
-0.12525561 -0.6557915 -0.632694 0.29660934
00000000: e38c 3cbf 640f 8cbe 792d a1be 3db1 08bf
00000010: 4d5f 12bf adc1 25bf a1a5 3cbf 4425 58bf
00000020: df3c 30be 3498 36bf e081 56bf 8f21 6bbe
00000030: 18b1 eebe 4ff5 163e 6621 6dbe 4072 c2bd
00000040: 3bc3 34be dc6a e2be bff3 f4bd fe55 8cbe
00000050: ad5d 7dbf 1c3f b3be 550c 97bf 6ee7 61bf
00000060: c108 35bf 2429 ce3e e100 02bf 9227 cdbd
00000070: 9d6a cabe 1eb8 a9be da46 75be 8f50 82be
00000080: 867e adbe d978 bbbe 95c3 38bf 4d8a 27bf
00000090: f3b1 f9be ff9d 82bf e0cb 93be 2799 0c3f
000000a0: f467 2e3e 080c 96be abb4 2fbd ddd8 b2be
000000b0: f957 0bbf 78f3 8dbd 3574 34be 2a26 afbf
000000c0: ee57 253d 6287 aebf ab29 6fbf 4fd9 81bf
000000d0: 967a c0bf 60d6 2cbf 6187 f1be f04c b3be
000000e0: 0243 00be f4e1 27bf 3cf8 21bf 2edd 973e

weight f4 [60, 60]
-0.07150611 -0.16390505 -0.19849254 -0.10276281 -0.19299622 -0.042909063 -0.15799774 -0.058594707
-0.038722437 0.03631492 -0.3388438 -0.008954653 -0.1319278 0.14988457 -0.48774856 -0.58705807
0.0056716106 0.3459003 -0.5332369 -0.24397676 -0.12184468 -0.3403043 -0.045529015 -0.15724036
-0.010940527 -0.25746384 -0.12750874 -0.38124633 0.018592367 -0.2871898 0.08864805 -0.24206671
-0.037393652 -0.12694152 -0.13704222 0.29192442 0.104203 0.06056221 0.051492844 -0.3639653
0.14025298 -0.015222378 -0.42648578 -0.10843002 0.07489125 -0.01228911 -0.06504179 -0.3430033
-0.18252133 0.03404918 0.14296262 -0.29613447 -0.020958401 -0.1385951 -0.023567079 -0.058488026
0.08507589 0.00545398 -0.14660773 -0.3189429 0.005540857 -0.045817 -0.008789601 -0.07773854
0.038216773 -0.094248116 -0.12590855 -0.18880142 -0.07729428 -0.028283503 -0.24394782 0.037381023
-0.17394315 -0.09945044 -0.07834177 -0.076139234 0.027184084 0.09514533 -0.22987127 -0.21954173
-0.18759859 -0.16755521 0.026364848 -0.020132462 -0.007843778 -0.07272749 -0.021267781 -0.022024313
0.043075964 0.055196226 0.032162875 -0.061285723 -0.074510984 0.07843534 -0.058334854 -0.04016798
-0.07249401 -0.09382628 -0.11626478 -0.037787132 -0.10024519 0.042882904 -0.13376299 0.07825632
-0.121845074 -0.1837043 0.10023472 -0.056876842 -0.28836077 0.015343621 -0.036185607 -0.0025712585
0.0452814 -0.06872317 -0.15124345 -0.107798636 0.10816447 -0.08712333 -0.067573704 -0.050643466
0.19204566 0.41476846 -0.5479497 0.30062371 -0.9898422 -0.2305695 -0.3057162 -0.51291007
0.20930544 0.5785355 -0.3989693 0.03638231 -0.2179627 1.309386 -0.50056684 -0.96158946
-0.19663714 -0.14743707 -1.4710125 0.088948384 0.44930932 -0.74053365 -0.85401505 -0.35991135
0.38707674 0.14073403 -0.41684794 -0.8299517 0.23190518 -1.0314398 0.056058343 -0.33397573
-0.36062488 -0.23665549 -0.007570258 0.03409989 0.14339742 -0.122720875 0.048136987 -0.2402966
1.1041836 0.23133254 0.109204896 -0.033270255 -0.98390615 0.3910913 0.116393566 -0.44444814
-0.36181808 0.6418777 -0.44240952 -0.26788995 -0.25177425 -0.365216 -1.2251103 0.3945274
-0.19679913 -0.27374828 -0.33247632 1.2601048 -0.2881289 -0.050882753 -0.16522878 0.023681927
-0.10835991 0.030486211 -0.15763152 -0.20925568 -0.0379954 -0.021543417 -0.1052338 0.0516134
-0.08997662 -0.2043077 -0.15754624 0.074648365 -0.056061246 -0.0024670828 -0.32603368 -0.053887118
0.08023988 -0.09973733 -0.31258506 -0.3089532 0.002871388 0.03849064 -0.020638019 -0.023763213
0.036655948 -0.28121632 -0.043336995 -0.022606233 -0.06114117 -0.03638601 -0.025669549 0.007441318
0.109018736 0.030097472 -0.059397552 0.06437952 -0.08431753 0.112550706 0.062690355 -0.062887356
0.015499473 -0.06537542 0.09994848 -0.08652684 0.055102095 0.06506713 -0.12301466 -0.13388853
-0.011977542 -0.039151724 0.021831142 0.007818699 -0.04327889 -0.19068499 -0.035094332 -0.08964528
-1.2260939 -0.058374587 0.7027315 -0.12800749 0.46021238 -0.03321384 0.4943136 -0.7199918
-0.026206112 0.39772573 -0.20756517 -0.08047686 0.2833383 0.07033123 -0.10749643 -0.30932227
00000000: cc71 92bd bad6 27be a141 4bbe 4f75 d2bd
00000010: cda0 45be 6ac1 2fbd 29ca 21be 0101 70bd
00000020: 6b9b 1ebd f4be 143d ef7c adbe 89b6 12bc
00000030: 1518 07be 577b 193e 2eba f9be 7049 16bf
00000040: ebd8 b93b d819 b13e 3782 08bf 0bd5 79be
00000050: b489 f9bd 5d3c aebe a27c 3abd 9e03 21be
00000060: e53f 33bc 4dd2 83be a791 02be b832 c3be
00000070: 054f 983c 8b0a 93be 1c8d b53d 56e0 77be
00000080: 162a 19bd f5fc 01be cc54 0cbe 1e77 953e
00000090: 6268 d53d 1410 783d 29ea 523d a959 babe
000000a0: 7a9e 0f3e 4867 79bc 585c dabe 8f10 debd
000000b0: 9560 993d 4358 49bc a134 85bd 219e afbe
000000c0: dfe6 3abe 2777 0b3d cb64 123e f09e 97be
000000d0: f4b0 abbc e0eb 0dbe bf0f c1bc 2491 6fbd
000000e0: 453c ae3d 4db7 b23b 5620 16be 7c4c a3be
000000f0: 1490 b53b 9baa 3bbd 4202 10bc 6235 9fbd
00000100: 3189 1c3d 2805 c1bd 2cee 00be 2955 41be
00000110: 774c 9ebd ceb2 e7bc 75cd 79be d81c 193d
00000120: 271e 32be acac cbbd a671 a0bd e3ee 9bbd
00000130: 28b1 de3c 8edb c23d 6063 6bbe 8ccf 60be
00000140: d819 40be 9893 2bbe 18fb d73c d5ec a4bc
00000150: 3083 00bc 26f2 94bd c539 aebc 556c b4bc
00000160: 6c70 303d 7015 623d 38bd 033d bd06 7bbd
00000170: 3799 98bd b5a2 a03d 87f0 6ebd 2e87 24bd
00000180: bd77 94bd fe27 c0bd 3b1c eebd aec6 1abd
00000190: 5a4d cdbd fca5 2f3d 2af9 08be d944 a03d
000001a0: e989 f9bd fb1c 3cbe dc47 cd3d b1f7 68bd
000001b0: 06a4 93be d063 7b3c 5c37 14bd 8f82 28bb
000001c0: fd78 393d bcbe 8cbd 90df 1abe 88c5 dcbd
000001d0: 5585 dd3d b76d b2bd 1564 8abd 866f 4fbd
000001e0: 9ea7 443e 885c d43e 6e46 0cbf 5aeb 993e
000001f0: 4c66 7dbf 691a 6cbe d586 9cbe 134e 03bf
00000200: 2a54 563e e71a 143f b445 ccbe 9e05 153d
00000210: 9d31 5fbe f699 a73f 2625 00bf ba2a 76bf
00000220: 3f5b 49be bef9 16be 234a bcbf 922a b63d
00000230: df0b e63e 9d93 3dbf bba0 5abf 4d46 b8be
00000240: ec2e c63e 951c 103e 186d d5be b777 54bf
00000250: 8d78 6d3e 3806 84bf 6f9d 653d defe aabe
00000260: d3a3 b8be d155 72be ed0f f8bb 54ac 0b3d
00000270: c6d6 123e 1555 fbbd 4a2b 453d 5010 76be
00000280: e355 8d3f 70e2 6c3e d1a6 df3d 6446 08bd
00000290: 46e1 7bbf 1e3d c83e c05f ee3d b58e e3be
000002a0: 3840 b9be 1952 243f 8083 e2be df28 89be
000002b0: 8ee8 80be 97fd babe 6ad0 9cbf 7fff c93e
000002c0: b685 49be bc28 8cbe 563a aabe 1d4b a13f
000002d0: a285 93be 6f6a 50bd bc31 29be 9a00 c23c
000002e0: cdeb ddbd 38be f93c 286a 21be 1f47 56be
000002f0: 11a1 1bbd d27b b0bc d284 d7bd 9368 533d
00000300: aa45 b8bd 0a36 51be cd53 21be 3ee1 983d
00000310: 7aa0 65bd c8ae 21bb e3ed a6be bdb8 5cbd
00000320: ce54 a43d 1643 ccbd 260b a0be 1d2f 9ebe
00000330: e62d 3c3b 5da8 1d3d 1011 a9bc 12ab c2bc
00000340: 8c24 163d 96fb 8fbe 2282 31bd b530 b9bc
00000350: 2a6f 7abd 7f09 15bd f248 d2bc 4dd6 f33b
00000360: 3745 df3d f98e f63c d94a 73bd 69d9 833d
00000370: abae acbd fc80 e63d cd63 803d 16cb 80bd
00000380: 80f1 7d3c 8ce3 85bd cab1 cc3d fc34 b1bd
00000390: bcb2 613d ea41 853d 1cef fbbd 131a 09be
000003a0: 743d 44bc 8f5d 20bd 39d7 b23c 001a 003c
000003b0: 3545 31bd ed42 43be 13bf 0fbd f297 b7bd
000003c0: a5f0 9cbf 311a 6fbd 36e6 333f 6514 03be
000003d0: f5a0 eb3e 3c0b 08bd ac16 fd3e 6251 38bf
000003e0: 33ae d6bc b5a2 cb3e f78b 54be 0dd1 a4bd
000003f0: b811 913e d209 903d 1727 dcbd 7d5f 9ebe

bias f4 [60]
-0.25889367 -0.34363288 0.4070221 -0.28812551 0.4208253 -0.39603117 -0.11257507 -0.5940792
-0.47140494 -0.515862 -0.09829671 -1.5528604 -0.77176404 -0.8948896 -0.26204845 -0.27995378
-1.3132337 -0.6822225 -0.13035378 0.7453096 -1.1427369 -0.8588131 -0.5271473 -0.43693477
-1.2345557 -0.21105795 0.53299475 -0.27242208 0.14211643 -0.39878798 -0.30906618 -0.18935008
-0.4824385 0.08794455 -0.45563543 -0.8327164 -0.73627436 -0.37253344 -0.3103031 -0.15911001
0.744959 0.54845953 0.64366585 -0.3280544 -0.7652873 0.5963016 -0.52219874 -0.6448368
-0.22937429 -0.4158272 -0.0394734 0.2911699 -0.04794372 -0.21314302 0.7701136 -0.74824965
-0.16072085 -0.22954273 -0.14262447 -0.7652426
00000000: b68d 84be a6f0 afbe 3365 d03e 3085 93be
00000010: 6a76 d73e 99c4 cabe c28d e6bd 9315 18bf
00000020: fd5b f1be 880f 04bf c94f c9bd 21c4 c6bf
00000030: 5492 45bf 7c17 65bf 372b 86be 1a56 8fbe
00000040: 0b18 a8bf 22a6 2ebf 767b 05be 9ccc 3e3f
00000050: 3445 92bf 2ddb 5bbf 20f3 06bf eab5 dfbe
00000060: ec05 9ebf 931f 58be 5872 083f e87a 8bbe
00000070: f886 113e f02d ccbe ec3d 9ebe fde4 41be
00000080: 2e02 f7be 461c b43d 0c49 e9be e72c 55bf
00000090: 7a7c 3cbf b4bc bebe 0ce0 9ebe bced 22be
000000a0: a2b5 3e3f d867 0c3f 49c7 243f bff6 a7be
000000b0: dee9 43bf 39a7 183f d1ae 05bf 0614 25bf
000000c0: 18e1 6abe 4ee7 d4be dcae 21bd 3914 953e
000000d0: a260 44bd 2a42 5abe 2a26 453f 4a8d 3fbf
000000e0: 0294 24be 400d 6bbe 260c 12be f0e6 43bf

weight f4 [10, 60]
-0.19378504 -0.12209986 -0.508266 -0.1528508 -0.08434857 -0.40183613 -0.13450992 -0.4533207
0.0420793 0.2074782 -0.3000217 -0.050924934 -0.6276953 -0.045425255 -0.30687594 -0.2741332
0.03200422 0.06395565 -0.7865184 0.3059023 -0.07742942 0.014038276 -0.93437344 0.1540542
-0.39738443 -0.075734705 0.07560147 -0.44711787 0.24452405 -0.255564 -0.09339766 0.078250095
0.19938262 -0.52240604 -0.048585124 -0.10293249 -0.08551688 -0.3404584 -0.04623444 -0.117806
-0.47686523 -0.22393842 -0.020273231 -0.5913462 0.0006240024 -0.11555311 -0.07381387 -0.36814523
-0.20123169 -0.194227 -0.3580879 0.010005638 -0.31663442 -0.18908285 -0.49944836 -0.25551564
-0.050089914 0.07128892 0.04659315 -0.19850726 0.008933813 -0.2954021 -0.04771437 -1.1154548
-0.5895651 -1.2338762 -0.5494969 -0.11610332 -1.0228126 -0.6099705 -0.4257978 -0.22151563
-1.0176338 -2.9999306 -1.0534838 -0.039782982 -0.52804035 -0.35750255 -1.7317849 0.31140563
-0.21259758 -0.8159044 -0.93775284 0.3297361 -1.8178306 0.029295186 0.14585331 -0.75288975
-1.0869552 0.0028714004 0.11148973 -0.14262566 -0.21225952 0.15678275 -0.060622364 6.939481e-05
-0.007212419 0.17393324 0.28965038 -0.11337663 0.30505648 0.22618239 -0.2813223 -0.06101064
-0.26610097 0.09486689 0.21181804 -1.8811674 -0.17923112 0.049417913 -4.4262934 -0.862359
-0.25049254 -0.12575671 0.1122336 -2.624925 -0.032979134 -0.08007874 -0.61534065 -0.10741292
-0.053693183 -0.028201276 -1.8980222 -0.3794865 0.46658772 0.035787616 -0.37419724 0.2414099
0.27154744 -0.10841119 -1.9336325 -2.002558 -1.1216656 -1.463787 -0.65991074 -0.35999334
0.039956033 0.3598261 -0.57405275 0.03569891 -0.3376106 0.17090102 0.1120394 -0.65750945
-0.17870952 -0.18911976 -0.146884 -0.3003459 0.1303321 -1.1282704 0.25302494 0.15339088
0.2252833 -0.667777 0.027625818 -0.13416664 -1.3521945 -1.2836233 -0.2998639 0.04005749
-0.81618583 -0.7981301 -0.5880675 -1.1685189 0.3623425 -1.9376018 -1.1171497 -0.055427216
0.124070294 -1.5001292 -1.1540359 -0.76396185 -1.2036176 0.064836256 -0.03227694 0.16153777
-0.682666 -0.13461958 -0.40721238 -0.10472714 -0.07538326 -0.034699533 -0.44701934 -0.3455716
0.15048948 -0.10218223 -1.9642394 0.15038276 -0.08966153 -0.50757253 -2.1083357 -0.14308906
-0.30211508 0.26236898 -1.1376058 0.032386612 -0.25262764 0.0048914785 -0.58535635 -0.013376679
-0.70367587 -0.06304853 -0.5834103 -0.09461509 0.25158572 -0.01952282 -2.4093819 -0.44101867
0.24553767 -0.14876167 -0.026603188 0.08216092 0.08799056 -0.105266474 0.21639921 -0.33665776
-1.1203551 -0.6561915 -0.17610523 -0.106461756 -1.1614504 -2.4053938 -3.1548169 0.031203344
0.08097301 -2.2917635 -0.3345949 0.20196201 0.072495535 -0.8303243 -0.8723923 -1.0189116
-3.7949128 -0.033758942 -1.055635 -0.24851806 0.06446411 -1.9428712 -1.9960071 -0.25790358
-0.21948917 0.13448787 0.10009947 -0.40480018 0.035592627 -0.63659406 -0.9529724 -0.12690057
-1.1352466 -0.41760558 -0.22367848 -2.4453752 -4.2925267 0.025100296 -0.16890271 0.16809393
00000000: 966f 46be 7e0f fabd b81d 02bf ec84 1cbe
00000010: f1be acbd 77bd cdbe f8bc 09be a719 e8be
00000020: 585b 2c3d 2a75 543e 729c 99be aa96 50bd
00000030: a4b0 20bf d50f 3abd d81e 9dbe 305b 8cbe
00000040: db16 033d 2efb 823d 4559 49bf 3a9f 9c3e
00000050: 5193 9ebd cc00 663c 1933 6fbf 62c0 1d3e
00000060: f975 cbbe cc1a 9bbd f2d4 9a3d a2ec e4be
00000070: 8364 7a3e 49d9 82be 4647 bfbd 9641 a03d
00000080: f52a 4c3e 67bc 05bf 3201 47bd 45ce d2bd
00000090: 7923 afbd 9050 aebe 5360 3dbd 4644 f1bd
000000a0: ae27 f4be 1d50 65be 0c14 a6bc 7762 17bf
000000b0: 1894 233a 1ca7 ecbd ba2b 97bd 887d bcbe
000000c0: ae0f 4ebe 71e3 46be 4c57 b7be b0ee 233c
000000d0: e81d a2be ef9e 41be b2b7 ffbe f2d2 82be
000000e0: 152b 4dbd edff 913d 75d8 3e3d 7d45 4bbe
000000f0: 215f 123c f23e 97be 2570 43bd 39c7 8ebf
00000100: bded 16bf a8ef 9dbf d4ab 0cbf 94c7 edbd
00000110: 86eb 82bf 0727 1cbf 2b02 dabe fed4 62be
00000120: d341 82bf ddfe 3fc0 8fd8 86bf 7bf3 22bd
00000130: a72d 07bf 930a b7be 21ab ddbf 8f70 9f3e
00000140: 2eb3 59be 1cdf 50bf 9210 70bf 2cd3 a83e
00000150: acae e8bf 75fc ef3c 925a 153e 62bd 40bf
00000160: 5921 8bbf 1b2e 3c3b ba54 e43d 760c 12be
00000170: 8f5a 59be a88b 203e 284f 78bd 0e88 9138
00000180: 2856 ecbb 8e1b 323e 0e4d 943e 0232 e8bd
00000190: 5d30 9c3e 5b9c 673e 7a09 90be 4be6 79bd
000001a0: 633e 88be 9249 c23d d4e6 583e 18ca f0bf
000001b0: 5d88 37be 706a 4a3d 32a4 8dc0 8fc3 5cbf
000001c0: 8f40 80be 5ec6 00be bbda e53d c5fe 27c0
000001d0: 2115 07bd 5300 a4bd f786 1dbf 4efb dbbd
000001e0: 62ed 5bbd 5d06 e7bc 64f2 f2bf 0e4c c2be
000001f0: 96e4 ee3e 0996 123d c896 bfbe 2834 773e
00000200: 4408 8b3e b006 debd 4581 f7bf e929 00c0
00000210: bd92 8fbf 5f5d bbbf e9ef 28bf 0c51 b8be
00000220: f0a8 233d 203b b83e 1ff5 12bf 0539 123d
00000230: 4cdb acbe ad00 2f3e ea74 e53d 8a52 28bf
00000240: a1ff 36be 9ca8 41be c268 16be f0c6 99be
00000250: c775 053e 2a6b 90bf 7c8c 813e 8012 1d3e
00000260: aab0 663e 6ff3 2abf 8a4f e23c fb62 09be
00000270: b614 adbf c54d a4bf c387 99be 5313 243d
00000280: 8ef1 50bf 4152 4cbf 978b 16bf 0792 95bf
00000290: f584 b93e 5603 f8bf c3fe 8ebf a607 63bd
000002a0: 9118 fe3d 3c04 c0bf 73b7 93bf 0193 43bf
000002b0: 2410 9abf dfc8 843d d334 04bd 286a 253e
000002c0: 33c3 2ebf b7d9 09be 247e d0be 2f7b d6bd
000002d0: 8a62 9abd 1921 0ebd b8df e4be c3ee b0be
000002e0: ea19 1a3e eb44 d1bd 326c fbbf f0fd 193e
000002f0: 77a0 b7bd 46f0 01bf f9ee 06c0 f085 12be
00000300: d4ae 9abe 3a55 863e 119d 91bf d3a7 043d
00000310: 6958 81be b248 a03b ead9 15bf dc29 5bbc
00000320: 1a24 34bf 961f 81bd 615a 15bf 8ec5 c1bd
00000330: d8cf 803e 52ee 9fbc 5033 1ac0 33cd e1be
00000340: 3a6e 7b3e fb54 18be eeee d9bc fc43 a83d
00000350: 6534 b43d f395 d7bd c197 5d3e 685e acbe
00000360: cc67 8fbf 2bfc 27bf ee54 34be 9f08 dabd
00000370: 68aa 94bf f9f1 19c0 85e8 49c0 289e ff3c
00000380: 2dd5 a53d 41ac 12c0 0650 abbe 21cf 4e3e
00000390: 8a78 943d 2290 54bf 1a55 5fbf b26b 82bf
000003a0: dadf 72c0 d146 0abd 0c1f 87bf 857b 7ebe
000003b0: c205 843d 01b0 f8bf 297d ffbf f00b 84be
000003c0: c5c1 60be 30b7 093e f300 cd3d f841 cfbe
000003d0: 93c9 113d d4f7 22bf 00f6 73bf 39f2 01be
000003e0: c34f 91bf 66d0 d5be f90b 65be 0781 1cc0
000003f0: 615c 89c0 239f cd3c d5f4 2cbe d120 2c3e

bias f4 [10]
0.88454324 -0.12177598 -0.4612464 -0.74444884 0.15250404 -0.0008717422 0.5547171 0.24611089
-0.026729923 -1.6765798
00000000: 6d71 623f af65 f9bd 7d28 ecbe 3394 3ebf
00000010: 052a 1c3e a185 64ba f101 0e3f 7e04 7c3e
00000020: b6f8 dabc 2b9a d6bf
