NN Real data/final_trained_models/TPSMk/TPSMk_expLR1.pth (torch, 56195 bytes, 10 tensors)

weight f4 [60, 20]
0	0x407f4270	3.98843
1	0x3eb3b48b	0.3509868
2	0xbf5e2639	-0.86777073
3	0xbfcd3d02	-1.6034243
4	0xbfcb28f3	-1.5871872
5	0x3fc07aa2	1.5037425
6	0x3f08614d	0.5327347
7	0xbcabfb4a	-0.020993847
8	0x3e877087	0.2645304
9	0xbf583286	-0.8445209
10	0x3fe64d0c	1.7992263
11	0xc00a4308	-2.1603413
12	0x3e3f572f	0.18685602
13	0xbf4b2df8	-0.7936702
14	0x3efd4b2a	0.49471408
15	0x401834ad	2.378215
16	0xc075ae7b	-3.8387744
17	0x4030cf08	2.7626362
18	0xbf335dab	-0.700648
19	0x406fecf1	3.7488368
20	0x40360134	2.8438234
21	0xbfd9df59	-1.7021285
22	0xc0262c6a	-2.5964608
23	0xc022da29	-2.5445654
24	0x3f87a56e	1.059736
25	0xbe5492e6	-0.20759162
26	0x3ef29b84	0.47384274
27	0x3d54f0f2	0.051987596
28	0xbf5dbf8f	-0.8662042
29	0xbe9450fc	-0.28968036
30	0xbf584358	-0.8447776
31	0x3fb97941	1.4490129
32	0xbf1b771d	-0.6072863
33	0x3ebd8874	0.37018168
34	0x3f195c5a	0.5990654
35	0xc01689be	-2.352157
36	0x403faf02	2.9950566
37	0x3ebdef7a	0.3709677
38	0x3fa9204c	1.3212981
39	0x40083133	2.128003
40	0x3eeffe76	0.46873826
41	0xc08c48eb	-4.383901
42	0xbffcb793	-1.9743522
43	0xc04075bb	-3.0071857
44	0xbeb0fcdf	-0.34567925
45	0xbe01e945	-0.12686642
46	0xc042f710	-3.0463295
47	0x3f9969b9	1.1985389
48	0xbeb3f6ba	-0.35149175
49	0x3f0725a6	0.5279182
50	0xbf14a037	-0.5805697
51	0xbfdad30c	-1.7095656
52	0x3fcaa509	1.5831615
53	0x3f427f86	0.75975835
54	0x3f40e154	0.75343823
55	0xbfe39016	-1.7778347
56	0xbde2e11c	-0.110780925
57	0x400dd04a	2.215838
58	0x3fb51f3c	1.4150157
59	0x3fb7d0f9	1.4360648
60	0x4034e989	2.8267539
61	0x3f73c8eb	0.9522845
62	0xbfee1051	-1.8598729
63	0xc041bfe8	-3.027338
64	0xbf359b68	-0.70940256
65	0xbeb07e1d	-0.34471217
66	0x3f93a106	1.1533515
67	0xbf013307	-0.50468487
68	0xbf7b1d1d	-0.980913
69	0xbf7a177c	-0.97692084
70	0xbf7db974	-0.99111104
71	0xbe2ba70e	-0.16762945
72	0x3e5fe9ab	0.21866481
73	0xbf7d7b25	-0.9901603
74	0xbfb20437	-1.3907536
75	0xbf8e5afe	-1.1121519
76	0xbf08afb6	-0.53393114
77	0xbfbc2894	-1.4699883
78	0xbff3ba44	-1.9041219
79	0xbfe1f1cd	-1.7651917
80	0xbe1ee164	-0.15515667
81	0xbe32c5e4	-0.17458302
82	0xbda49188	-0.080355704
83	0x3dc9e86c	0.09858784
84	0x3cb70238	0.022339925
85	0x3df9da94	0.121998936
86	0x3e18ede2	0.14934495
87	0x3e16eafa	0.14738074
88	0x3e3b14c6	0.18269643
89	0x3c1e5650	0.009664133
90	0x3e4a0676	0.19729027
91	0xbd596384	-0.05307342
92	0x3d2429e8	0.040079027
93	0xbe4ec547	-0.20192443
94	0x3e3ebf06	0.18627557
95	0x3e300c36	0.17192158
96	0x3d67f538	0.056630343
97	0xbdc3a62a	-0.09553178
98	0x3d83c270	0.064335704
99	0x3db4dedc	0.088315696
100	0x3f9937ae	1.1970117
101	0xc08100ce	-4.031348
102	0xbfc531e0	-1.5405846
103	0xbd89c1a5	-0.06726388
104	0x3fc820cb	1.5635008
105	0xbf1c6d07	-0.6110386
106	0xc0865d8e	-4.1989202
107	0xbfb03bb3	-1.3768219
108	0xc001aa65	-2.026025
109	0x4003c33b	2.058791
110	0xbe256f22	-0.16155675
111	0xc053f6c5	-3.3119366
112	0x3ef6ad07	0.48178884
113	0xbf998c40	-1.1995926
114	0xbe74d58a	-0.23909584
115	0xbe45f785	-0.19332702
116	0xc0015c2a	-2.0212502
117	0x3e759a52	0.2398465
118	0xbfcda705	-1.6066595
119	0xbf5c8177	-0.8613505
120	0x3f4152f5	0.7551721
121	0xbe882019	-0.2658699
122	0x3cfb7c1a	0.030698825
123	0x3da89659	0.082318015
124	0xbc387691	-0.011258737
125	0x3e9be021	0.30444434
126	0xbdadf33e	-0.084936604
127	0x3dd0c364	0.10193518
128	0x3db6ac44	0.08919576
129	0x3d823e2b	0.06359514
130	0x3e5b4faa	0.21417108
131	0xbeccb0aa	-0.39978534
132	0x3c4a0e1e	0.012332467
133	0x3e7fc7c5	0.2497855
134	0x3e1f9be4	0.15586811
135	0x3d480e90	0.048842013
136	0x3d265b08	0.040614158
137	0xbf010664	-0.50400376
138	0x3da37d84	0.079829246
139	0x3e1ae442	0.15126136
140	0x3e9cf6c1	0.30657008
141	0xbf44cf8b	-0.76879185
142	0xbf27b1e9	-0.65505844
143	0x3f748612	0.95517075
144	0x3f8b8ed5	1.0902964
145	0x3e74e7bb	0.23916523
146	0xbf65e019	-0.8979507
147	0xbec8a254	-0.39186347
148	0x3f76c8e9	0.96400315
149	0x3f7fc3f6	0.9990839
150	0x3dd0940a	0.10184486
151	0xbf23b934	-0.6395447
152	0xbee92995	-0.45539537
153	0x3e207727	0.15670453
154	0x3f2c961d	0.67416555
155	0xbec185b0	-0.37797308
156	0xbf5a640e	-0.8530892
157	0xbf205e0d	-0.6264351
158	0xbed6f6be	-0.41985124
159	0x3f801dbb	1.0009073
160	0xbebbfc9d	-0.36716166
161	0xc04aac00	-3.166748
162	0xbd9f4804	-0.07777408
163	0x3ecf8eb4	0.4053856
164	0xbf547785	-0.8299487
165	0x3f823a37	1.0174016
166	0xc037f386	-2.8742385
167	0xbf279ce1	-0.65473753
168	0x3f9a8f64	1.2075009
169	0xbf35331b	-0.70781106
170	0xbcecdbc7	-0.028913392
171	0x3fa67e99	1.3007385
172	0xbf00e482	-0.50348675
173	0x3ef81af8	0.48458076
174	0x3e855955	0.26044717
175	0x3ee8b397	0.45449516
176	0x4014893e	2.3208766
177	0xbf8af4b8	-1.0855932
178	0xbf809217	-1.0044583
179	0x3e32d91c	0.17465633
180	0xc043032b	-3.0470684
181	0x403a6afc	2.9127798
182	0xc1171aca	-9.44404
183	0xc04494d1	-3.071583
184	0x40471b7f	3.1110532
185	0xbf3b1ed6	-0.73093927
186	0x3f934841	1.1506425
187	0xc0975b14	-4.729868
188	0x3af81f69	0.0018930259
189	0xbd1cf746	-0.038321756
190	0xbf1439d3	-0.5790073
191	0x3f5abb7e	0.8544234
192	0xc0783e6a	-3.8788095
193	0x3f65baf7	0.8973841
194	0x3ef4b151	0.47791532
195	0xbf7f2464	-0.996649
196	0xc02741f2	-2.6134
197	0xbd5258de	-0.05135428
198	0x3fbf0d9c	1.4926028
199	0xbf3fdeba	-0.7494923
200	0x3f094833	0.5362579
201	0xbd05aff3	-0.0326385
202	0x3cf049d7	0.029332085
203	0x3ebab325	0.364648
204	0x3e6a6f8d	0.22894116
205	0x3f1e5b61	0.61858183
206	0xbdcdea76	-0.100544855
207	0x3e27340f	0.16328453
208	0x3e019ff0	0.12658668
209	0x3e3a4315	0.18189652
210	0x3f1487d4	0.5801976
211	0xbcf3f1ac	-0.029778324
212	0xbdb345d1	-0.08753551
213	0xbba149d3	-0.0049221306
214	0xbd9197a8	-0.07109004
215	0x3ee5cee6	0.44884413
216	0xbe5a6cb1	-0.21330525
217	0xbebfdf89	-0.3747523
218	0x3d2b3e39	0.041807387
219	0xbdfaba21	-0.122425325
220	0x3eafe5fa	0.34355146
221	0xc0de2cff	-6.9429927
222	0xbf6391f1	-0.88894564
223	0x3f2049c7	0.62612575
224	0x3f4e7e73	0.80661696
225	0x3e1a0285	0.15040024
226	0xc0cff733	-6.4989257
227	0xbe11298a	-0.14176002
228	0x3efae2be	0.49001116
229	0xbdff5c5f	-0.1246879
230	0xbf9e7fc5	-1.2382742
231	0xbf9b2e1a	-1.2123444
232	0xbe800718	-0.25005412
233	0x3f14e361	0.5815945
234	0x3ebd9759	0.37029532
235	0xbfcd4ab8	-1.6038427
236	0x3f29d26c	0.66336703
237	0x3f2adc44	0.6674235
238	0xbb4fcef2	-0.0031709042
239	0x3e030cfb	0.1279792
240	0xc0cd5bee	-6.417472
241	0x3f3e8a26	0.7442955
242	0xc09b7cff	-4.8590083
243	0x3f887127	1.0659531
244	0x406b7f81	3.6796572
245	0x3f04a9ba	0.5182148
246	0xbfb1a524	-1.3878522
247	0xc0169291	-2.3526957
248	0x4020f809	2.5151389
249	0x3d89699b	0.06709596
250	0x4080b346	4.021884
251	0xc012085d	-2.2817605
252	0xbcfd25b7	-0.030901773
253	0x401b563f	2.427139
254	0xbfb54d9e	-1.4164312
255	0x410980c4	8.593937

bias f4 [60]
0	0x3dc4f5a1	0.096171625
1	0xbf8c47ad	-1.0959374
2	0xbf53966c	-0.826514
3	0xbfa36fe8	-1.2768526
4	0xbe1e0997	-0.15433346
5	0xbf3ed01a	-0.7453629
6	0xbf5b60f8	-0.8569484
7	0xbf0e7997	-0.5565428
8	0xbf8ad5bf	-1.084648
9	0xbe68b670	-0.22725844
10	0xbee9f6c0	-0.45696068
11	0xbf5a56a2	-0.8528844
12	0xbf02e63a	-0.5113255
13	0xbf7f6a47	-0.9977154
14	0xbe802933	-0.25031433
15	0xbe6cc462	-0.23121789
16	0xbee7a8c3	-0.45245942
17	0xbf005127	-0.5012383
18	0xbd94541a	-0.072426036
19	0xbfb92caa	-1.4466755
20	0xbe03182b	-0.12802188
21	0xbeaae2dd	-0.33376208
22	0xbf5983ec	-0.8496692
23	0xbfce485b	-1.6115831
24	0xbe4858e8	-0.19565165
25	0xbfad1691	-1.3522512
26	0xbf1ce3e0	-0.6128521
27	0xbf634490	-0.88776493
28	0x3ec4e930	0.38459158
29	0x3ea69d78	0.32542014
30	0xbf4de44a	-0.80426466
31	0xbfc1c83d	-1.5139233
32	0xbf911b8e	-1.1336534
33	0xbf852b44	-1.0403829
34	0xbe4f86bf	-0.20266245
35	0xbfcf7d3f	-1.6210097
36	0x3e6bdec2	0.23034194
37	0xbe7d4a85	-0.24735458
38	0xbf91b052	-1.1381934
39	0xbfa98490	-1.324358
40	0x3da269b8	0.079303205
41	0x3f1a03f6	0.60162294
42	0xbeef8faa	-0.46789294
43	0xbe3b81d8	-0.1831125
44	0xbec8aaa8	-0.391927
45	0xbf3f8488	-0.748116
46	0x3e18a67a	0.14907256
47	0x3eb321c6	0.34986705
48	0xbe53242d	-0.20619269
49	0xbf0d62cc	-0.5522888
50	0xbd97c66a	-0.07410891
51	0x3e85335e	0.26015753
52	0xbf922c34	-1.141974
53	0x3e87c997	0.26520988
54	0xbe768769	-0.24075092
55	0xbee23c81	-0.44186786
56	0xc0096d74	-2.1473055
57	0xbeb57a44	-0.35444844
58	0xbfaa44e0	-1.3302269
59	0xbf0f5319	-0.5598617

weight f4 [60, 60]
0	0x3e7b0f50	0.2451756
1	0xbf926b38	-1.143897
2	0xbfadded4	-1.3583627
3	0x3f99f97e	1.2029264
4	0x3d08551c	0.03328429
5	0xc0598e6c	-3.3993177
6	0xbb540658	-0.0032352414
7	0xbd230437	-0.03979894
8	0xbf88d7f3	-1.0690902
9	0x3ff3b26a	1.9038823
10	0xbea4ceed	-0.32189122
11	0xbf983f9c	-1.1894412
12	0xba36465e	-0.00069532346
13	0x3f5bac44	0.8580973
14	0x3d928c75	0.07155696
15	0xbdc5f792	-0.09666361
16	0x3fc48b34	1.5354981
17	0xbe410907	-0.188511
18	0xbeff8312	-0.49904686
19	0xbddf5801	-0.10905457
20	0xbfe2190d	-1.7663895
21	0xbfdf4231	-1.7442075
22	0x3e55fbf1	0.2089689
23	0x3fe8de42	1.8192828
24	0xbf84885f	-1.0354117
25	0x3fc349a1	1.5256845
26	0xbeebad85	-0.46030822
27	0xc095ba2a	-4.678975
28	0xbe484859	-0.19558848
29	0x3f504489	0.81354576
30	0x3f47bf37	0.78026146
31	0xbf6e60fc	-0.93116736
32	0x3ec593fa	0.3858946
33	0x3ff91a75	1.9461199
34	0x3e025535	0.12727816
35	0xbf62621b	-0.8843095
36	0x3fac03ba	1.3438637
37	0xbdb74a59	-0.089497276
38	0x3fb7e32a	1.43662
39	0x3f58bb82	0.84661114
40	0x4033004b	2.796893
41	0x3f93b853	1.1540626
42	0xbe9ce7bc	-0.3064555
43	0x3e10c626	0.14138088
44	0xbfdaa236	-1.7080753
45	0x3e8245b9	0.2544382
46	0x3f5801e3	0.8437788
47	0xbf3fbd50	-0.7489824
48	0x3d5bc9fd	0.053659428
49	0x3e0b21fc	0.13587183
50	0x3e1fe1c0	0.1561346
51	0x3dfddba4	0.12395409
52	0x3e6e7081	0.23285104
53	0x3e459656	0.1929563
54	0x3de6abb4	0.112632185
55	0x3f015119	0.5051437
56	0x3ee834c2	0.4535275
57	0xbd11967b	-0.0355439
58	0x3f6e3b2b	0.93059033
59	0x3fcc7e69	1.5976077
60	0xbd9a13e6	-0.075233266
61	0xbd8fbce8	-0.07018453
62	0xbdade19a	-0.08490296
63	0x3d16693e	0.03672146
64	0x3da94be4	0.08266428
65	0xbe02d2eb	-0.12775771
66	0x3cdd3f30	0.02700767
67	0xbd108d42	-0.035290964
68	0xbdb1f736	-0.0868973
69	0xbc99d16c	-0.018776618
70	0x3da3d060	0.07998729
71	0x3df969b2	0.12178363
72	0xbeb564af	-0.35428378
73	0xbd327bc0	-0.04357505
74	0xbdd6e3fa	-0.10492702
75	0xbb0bce40	-0.0021332651
76	0xbdb7b864	-0.089707166
77	0xbd9dfd3a	-0.07714315
78	0xbd86865e	-0.06568597
79	0xbd70218e	-0.05862575
80	0x3d9d320e	0.07675563
81	0xbec6bd28	-0.3881619
82	0x3ce64120	0.028107226
83	0x3cf0261d	0.029315049
84	0xbef1ba10	-0.47212267
85	0xbeb35b74	-0.3503071
86	0xbd9b7639	-0.075909086
87	0xbe9550a7	-0.29163095
88	0xbe283d48	-0.16429627
89	0xbdeba050	-0.115051866
90	0x3d0a5bdc	0.03377901
91	0xbd679fab	-0.056548756
92	0x3c8c50d4	0.017128386
93	0xbe04efb4	-0.12982064
94	0x3da0801c	0.07836935
95	0xbed12d7a	-0.40855008
96	0xbdd97bc2	-0.10619308
97	0xbd18b6ca	-0.037283696
98	0xbe095184	-0.13410002
99	0x3ccd925f	0.02509421
100	0xbae7bbf1	-0.0017679912
101	0xbeb972fc	-0.3622054
102	0xbdabe1ce	-0.08392678
103	0xbd048934	-0.03235741
104	0xbe903008	-0.28161645
105	0x3d7f8018	0.06237802
106	0xbdfd9826	-0.12382536
107	0xbe9ff1db	-0.3123921
108	0x3da3438a	0.079718664
109	0xbdeaa112	-0.11456503
110	0xbdeccec2	-0.115628734
111	0xbce6ee28	-0.028189734
112	0xbb0c8840	-0.0021443516
113	0xbed7baed	-0.421348
114	0xbde8c413	-0.11365523
115	0xbd4651a8	-0.048417717
116	0xbe28383a	-0.16427699
117	0x3d9fe710	0.078077435
118	0xbed885aa	-0.42289478
119	0xbe12f605	-0.14351662
120	0xbe462e8d	-0.19353695
121	0xbd84d6ea	-0.06486304
122	0xbe5fa18e	-0.21838972
123	0xbb9459a5	-0.004527288
124	0x3dec4c06	0.11537938
125	0xbc2c102d	-0.0105019035
126	0xbdb392ab	-0.08768209
127	0xbd0fc796	-0.03510245
128	0x3bb43b52	0.0055002356
129	0xbdc854ea	-0.09781821
130	0xbca4fcb0	-0.020140022
131	0xbd911b68	-0.070853055
132	0xbd34deec	-0.044157907
133	0xbd7da88b	-0.061928313
134	0x3b99e112	0.00469602
135	0x3d161724	0.036643162
136	0xbeb9d25e	-0.3629331
137	0xbdb9c552	-0.09070839
138	0xbc3b2c90	-0.011424199
139	0xbe61204c	-0.21984977
140	0x3de840e4	0.11340502
141	0xbe227eec	-0.1586873
142	0xbce22e4c	-0.027609967
143	0xbe086da2	-0.13323072
144	0xbb01674d	-0.001974541
145	0xbdbb8b89	-0.091574736
146	0xbc6ca986	-0.014444714
147	0xbdd9a700	-0.10627556
148	0xbd2f353d	-0.04277538
149	0xbdfda964	-0.12385824
150	0xbdcd63b1	-0.1002878
151	0xbe1c4429	-0.15260376
152	0xbc69db9b	-0.014273549
153	0xbe3f7af8	-0.18699253
154	0x3d42ae94	0.047529772
155	0x3dd46262	0.103703275
156	0xbeb9c35d	-0.36281863
157	0xbe666553	-0.2249959
158	0xbdce9015	-0.10086075
159	0xbe491736	-0.1963776
160	0xbda52ef2	-0.08065595
161	0xbe513e8d	-0.20434017
162	0x3d88b28e	0.066746816
163	0xbd5ce34c	-0.053927705
164	0xbd0ad6ff	-0.033896443
165	0xbd5447d4	-0.051826313
166	0xbe194570	-0.14967895
167	0xbcf33640	-0.029688954
168	0xbe35f2d4	-0.17768413
169	0xbd06d6eb	-0.032919805
170	0xbe37dd73	-0.1795557
171	0xbe0497c5	-0.1294852
172	0xbee750e8	-0.45178914
173	0xbed84b1b	-0.422448
174	0xbe3ff8f6	-0.18747315
175	0xbd85863f	-0.06519746
176	0xbe074eaa	-0.13213602
177	0xbd7200b2	-0.059082694
178	0xbe69c7f4	-0.22830182
179	0xbe215de8	-0.15758479
180	0xbf05a391	-0.5220271
181	0xbea9392a	-0.33051425
182	0xbf2cd799	-0.67516476
183	0xbe5c30aa	-0.21502939
184	0xbd9097ce	-0.070602044
185	0xbe661cb5	-0.22471888
186	0xbe6e8285	-0.23291977
187	0x3e4eeffc	0.20208734
188	0x3c83530d	0.016030813
189	0xbe170dc2	-0.14751342
190	0xbe9a4baa	-0.30135852
191	0xbe77f85b	-0.24215834
192	0x3e1d33fc	0.15351862
193	0xbe88b1e3	-0.26698217
194	0xbdc77d6a	-0.09740718
195	0xbd3ab5bc	-0.04558347
196	0xbf5ecc14	-0.8703015
197	0x3dcd82a1	0.10034681
198	0x3d6625b9	0.05618832
199	0xbe8b7756	-0.27239484
200	0xbe5882e4	-0.21143681
201	0xbe976c4e	-0.29574817
202	0xbdd70525	-0.10499028
203	0xbee7bbba	-0.45260412
204	0xbd8a0bbe	-0.06740521
205	0xbcf9ac23	-0.030477589
206	0xbefaa7a3	-0.48956022
207	0xbead8063	-0.33887014
208	0xbee36938	-0.44416213
209	0xbe7b2e48	-0.24529374
210	0xbea7a8b6	-0.32745904
211	0x3e087156	0.13324484
212	0xbe63a52e	-0.2223098
213	0xbece96f4	-0.40349543
214	0xbd5e33aa	-0.05424849
215	0x3deeada5	0.11654214
216	0xbef95b9f	-0.48702714
217	0xbe748503	-0.23878865
218	0xbe395e02	-0.18102267
219	0xbe8b4b16	-0.27205724
220	0x3e42c11c	0.19018978
221	0xbee7f552	-0.45304352
222	0x3e66d82f	0.22543405
223	0x3e5281ea	0.20557371
224	0xbd5e74fd	-0.054310787
225	0xbd5be215	-0.053682406
226	0xbe49986c	-0.1968705
227	0x3ad3bef2	0.0016154929
228	0xbd4a227b	-0.04934929
229	0xbdaa1e1f	-0.083065264
230	0xbe2df760	-0.16988897
231	0xbe82c687	-0.2554209
232	0x3e1cbd54	0.15306598
233	0xbe80d89f	-0.2516527
234	0xbe213338	-0.15742195
235	0x3e97deb8	0.29662108
236	0x3e51221d	0.2042317
237	0xbde9bcf4	-0.11412993
238	0xbebe39c7	-0.37153456
239	0xbe1db727	-0.15401898
240	0xbe7ed38e	-0.24885389
241	0xbe57e956	-0.21085104
242	0xbded344b	-0.1158224
243	0xbdffa6f1	-0.124830134
244	0xbd81bcd5	-0.06334845
245	0x3d90d6ee	0.070722446
246	0xbe6b0848	-0.22952378
247	0xbc50cf8c	-0.0127447955
248	0xbc1f6070	-0.009727582
249	0xbe8f6706	-0.28008288
250	0xbe0926a0	-0.1339364
251	0x3e47a40e	0.19496176
252	0xbeb2a102	-0.34888464
253	0xbdf00c55	-0.11721102
254	0xbc9857ca	-0.018596549
255	0xbda28ca5	-0.07936982

bias f4 [60]
0	0x3dcbaf9e	0.09945606
1	0xbf0150ef	-0.5051412
2	0xbec2e632	-0.3806625
3	0xbebd49b6	-0.369703
4	0xbe50672c	-0.20351857
5	0xbe2cab1e	-0.16862151
6	0xbe496280	-0.19666481
7	0xbea0c2fa	-0.31398755
8	0xbf071fd8	-0.52782965
9	0xbed36ad3	-0.41292438
10	0xbf1b9780	-0.60778046
11	0xbfc5cb65	-1.5452696
12	0xbeb0ff22	-0.3456965
13	0xbf091179	-0.53542286
14	0xbed4b3bf	-0.41543385
15	0xbeb2a99f	-0.34895036
16	0xbea64e8b	-0.324818
17	0xbf9cda3a	-1.2254097
18	0xbf718214	-0.9433911
19	0xbf3bfe95	-0.73435336
20	0xbe6a8899	-0.2290367
21	0xbf0a3298	-0.5398345
22	0xbe970ecb	-0.29503474
23	0xbe964e21	-0.29356483
24	0xbd94cd94	-0.072657734
25	0xbe6d14ca	-0.23152462
26	0xbf27484d	-0.653447
27	0xbef81b35	-0.48458257
28	0xc059ed54	-3.4051104
29	0xbe9bd1e1	-0.30433562
30	0xbe0cdad1	-0.13755347
31	0xbff37e8c	-1.9022994
32	0xbf1d7d94	-0.6151974
33	0xbad6c5b7	-0.0016385828
34	0xbff91bbb	-1.9461588
35	0xbeec3e68	-0.46141362
36	0xbf7369bc	-0.9508321
37	0xbf931915	-1.149203
38	0xbfce9227	-1.6138352
39	0xbf413733	-0.7547485
40	0xbe91c0a4	-0.28467286
41	0xbd112a35	-0.035440642
42	0xbf7e7d70	-0.9941015
43	0xbe28896e	-0.16458675
44	0xbeda0e14	-0.42588866
45	0x3f422985	0.75844604
46	0x3f525e6f	0.82175344
47	0xbed8fd5e	-0.42380804
48	0xbed33c8f	-0.4125714
49	0xbeedbd70	-0.46433592
50	0xbed467ef	-0.41485545
51	0xbefede62	-0.4977904
52	0xbecd46ed	-0.40093175
53	0xbeca5da4	-0.39524567
54	0xbeaff8c6	-0.34369487
55	0xbe82e174	-0.25562632
56	0xbe52e8a7	-0.20596562
57	0xbf4d3f90	-0.80175114
58	0x3f89d918	1.0769377
59	0xbec67d81	-0.38767627

weight f4 [60, 60]
0	0xbda50e94	-0.08059421
1	0xbd1f740c	-0.03892903
2	0xba5a4c25	-0.00083273865
3	0x3ef1455c	0.4712323
4	0x3eac5329	0.33657196
5	0x3bb59df4	0.005542511
6	0x3e024ccf	0.12724613
7	0x3dde2b87	0.10848146
8	0xbeccf7b4	-0.40032732
9	0x3d5ab454	0.05339463
10	0x3dcef8a6	0.1010602
11	0xbe512f19	-0.20428123
12	0x3edee07d	0.43530646
13	0xbe694bdc	-0.22782844
14	0xbc2df078	-0.010616414
15	0x3c63a9f5	0.013895501
16	0x3e8a7ff3	0.27050743
17	0xbddfe88f	-0.10933029
18	0xbe6f7e21	-0.23387958
19	0x3d59431c	0.053042516
20	0x3ebb319f	0.36561295
21	0xbd4039da	-0.04693017
22	0x3ee36deb	0.44419798
23	0xbe24a8bc	-0.16079992
24	0xbe051759	-0.12997188
25	0x3d57f3c0	0.052722692
26	0xbc4d6db1	-0.0125383595
27	0xbc81cd4c	-0.015844963
28	0xbe3c6fff	-0.18402098
29	0xbdb836f8	-0.089948595
30	0x3d80e974	0.06294528
31	0xbed2944f	-0.41128775
32	0xbe3b4185	-0.18286712
33	0x3d841b60	0.06450534
34	0x3de47b28	0.11156303
35	0xbd8e8c0e	-0.06960307
36	0xbc495bd2	-0.012289958
37	0xbbf93a98	-0.007605862
38	0xbb385b19	-0.002813047
39	0xbd2c3268	-0.04204026
40	0x3eb34032	0.35009915
41	0x3c4f531e	0.012654094
42	0x3d09f51b	0.033681016
43	0x3eaa1122	0.33216196
44	0x3e20720b	0.15668504
45	0xbe59f68b	-0.21285455
46	0xbe6be4ce	-0.23036501
47	0x3d1f17ec	0.038841173
48	0x3d8de992	0.069293156
49	0x3d3ee41c	0.04660426
50	0x3e20b6fd	0.15694804
51	0xbdde426f	-0.10852515
52	0x3eaeafe6	0.34118575
53	0x3dfc5ef3	0.123227976
54	0xbd41829f	-0.04724371
55	0x3d844056	0.064575836
56	0x3e82eee6	0.2557289
57	0x3e15aec9	0.14617456
58	0xbedfbc52	-0.43698364
59	0xbd6aa2e0	-0.057284236
60	0xbdf274e3	-0.118387006
61	0x3c94eb28	0.018178537
62	0xbd5480ef	-0.051880773
63	0x3ddc9016	0.1076967
64	0xbe08322d	-0.1330039
65	0x3cc87afb	0.024472704
66	0xbd51a22c	-0.05118005
67	0x3ceaebf1	0.028676959
68	0xbdb2cf59	-0.08730955
69	0xbd82ad09	-0.0638066
70	0x3d9462b2	0.07245387
71	0xbcf4ebb1	-0.029897543
72	0xbd8fe7cc	-0.070266336
73	0xbde0b3fd	-0.1097183
74	0x3ded998e	0.11601554
75	0x3b5aca39	0.0033384694
76	0xbced0ebb	-0.028937688
77	0xbe462481	-0.19349863
78	0xbc69a2c7	-0.014260001
79	0x3dc064a2	0.09394194
80	0x3da9beac	0.08288321
81	0x3c26da20	0.010183841
82	0x3c8fdfa0	0.017562687
83	0xbd7865c6	-0.060643934
84	0xbd20d996	-0.039270006
85	0x3d2e0928	0.0424892
86	0xbd8a529d	-0.067540385
87	0x3de18438	0.11011547
88	0xbcbb3a92	-0.022855077
89	0xbc78b4a0	-0.015179783
90	0xbdd8aad8	-0.10579461
91	0xbe0d9acd	-0.13828583
92	0xbe01c8b6	-0.12674221
93	0xbdb38f12	-0.08767523
94	0xbd0a8392	-0.03381688
95	0xbd521c9a	-0.051296808
96	0xbe4fa904	-0.20279318
97	0xbdce6642	-0.10078098
98	0x3d4df6f8	0.050284356
99	0xbdeeab43	-0.11653759
100	0x3cc92116	0.02455191
101	0xbe57ef65	-0.21087416
102	0x3dda8381	0.10669614
103	0xbd80c0c6	-0.062867686
104	0x3d7901ea	0.06079284
105	0xbcf3b454	-0.029749073
106	0xbdf0d900	-0.117601395
107	0xbc2b9e68	-0.010474779
108	0xbda855d3	-0.08219495
109	0xbda463a0	-0.080268145
110	0x3da53f7b	0.080687486
111	0xbe30308f	-0.17206024
112	0xbcb8bc6c	-0.022550784
113	0xbdb128e5	-0.08650378
114	0xbe06c23e	-0.13160035
115	0x3df6c816	0.12049882
116	0xbe139ee9	-0.14416088
117	0xbdbcc472	-0.092171565
118	0xbd9fa620	-0.07795358
119	0x3c9b8eea	0.018989045
120	0xbf6fe4f1	-0.9370871
121	0x3dd8ec84	0.10591987
122	0xbdfb98ee	-0.122850284
123	0x3d1e50de	0.03865134
124	0xbd09e678	-0.033667058
125	0xbd517260	-0.051134467
126	0x3df5ea18	0.120075405
127	0xbdba5275	-0.09097759
128	0x3d84397e	0.06456278
129	0x3de642a0	0.112431765
130	0xbd8ca512	-0.06867422
131	0xbcf40194	-0.029785909
132	0xbddbf9bc	-0.107409924
133	0xbf80d06f	-1.0063609
134	0xbb883d40	-0.004157692
135	0xbd9e3464	-0.077248365
136	0xbe1c8324	-0.15284401
137	0x3f343344	0.70390725
138	0x3b0411ad	0.0020152137
139	0x3e891834	0.26776278
140	0x3c9a66f3	0.018847918
141	0xbd136581	-0.035985474
142	0xbd871b51	-0.06597007
143	0x3dc60326	0.09668569
144	0xbcbf79b2	-0.023373459
145	0xbde6429b	-0.11243173
146	0x3cf806c0	0.030276656
147	0xbd3cff0c	-0.04614167
148	0x3ea1da8f	0.3161206
149	0xbd0f982e	-0.03505724
150	0xbdf0b1ac	-0.11752638
151	0xbee9501a	-0.45568925
152	0x3d9337c0	0.07188368
153	0xbd05d73c	-0.032675967
154	0xbe716c1e	-0.235764
155	0xbe00d0ef	-0.12579702
156	0xbe273321	-0.16328098
157	0x3e913f1d	0.28368464
158	0x3dec615e	0.11542009
159	0xbdffc397	-0.12488478
160	0xbc0a4a8d	-0.008440626
161	0x3dd66078	0.10467619
162	0x3d08c3e8	0.033389956
163	0xbd795dbe	-0.060880415
164	0xbd297498	-0.041370958
165	0x3e3d652e	0.18495628
166	0xbf9a8186	-1.2070777
167	0x3c0d5d40	0.00862819
168	0x3da217b8	0.0791468
169	0x3cf85be8	0.030317262
170	0xbd8678f7	-0.06566041
171	0xbdd637b6	-0.10459845
172	0xba304452	-0.00067240477
173	0xbe2e555c	-0.1702475
174	0x3dcae65e	0.0990722
175	0xbdf5d31d	-0.12003157
176	0x3cda1084	0.026619203
177	0x3e3c94c7	0.18416129
178	0xbde5446c	-0.11194691
179	0x3d31525c	0.043291435
180	0xbe7cea13	-0.24698667
181	0xbd3d09a5	-0.046151776
182	0xbb02c656	-0.0019954643
183	0xbd735a54	-0.059412315
184	0xbe25982b	-0.16171329
185	0x3d30b042	0.043136843
186	0x3de203fc	0.11035916
187	0xbe07f4a8	-0.13276923
188	0xbea1969e	-0.31560224
189	0xbcb7f12f	-0.022453872
190	0x3d27c113	0.040955614
191	0x3eae8314	0.3408438
192	0x3cd4f465	0.025995443
193	0xbfdc4c25	-1.7210737
194	0xbc3ef143	-0.011654201
195	0x3d425e11	0.04745299
196	0xbd65532a	-0.055987515
197	0xbeccada8	-0.3997624
198	0xbf18eb5c	-0.5973413
199	0x3d777228	0.060411602
200	0xbe036a2c	-0.1283347
201	0xbddc105a	-0.10745306
202	0x3dda608f	0.10662948
203	0x3cc035e8	0.023463205
204	0x3d74aa18	0.059732527
205	0x3dde7453	0.10862031
206	0xbeccce7d	-0.40001288
207	0x3e44da02	0.19223788
208	0xbed56348	-0.41677308
209	0xbd565b32	-0.052333064
210	0xbdd95214	-0.10611358
211	0x3f48a1fd	0.78372175
212	0xbdde8b76	-0.10866444
213	0x3cf9b438	0.030481443
214	0xbdf70dba	-0.12063165
215	0x3ee2c7a2	0.44292933
216	0xbda09f58	-0.078428924
217	0x3b3c2193	0.0028706535
218	0xbede25f9	-0.43388346
219	0xbde9a587	-0.11408525
220	0x3dfff61b	0.12498113
221	0x3dfdf479	0.12400145
222	0x3d825f16	0.063657925
223	0x3d013b03	0.03155042
224	0x3d610948	0.054940492
225	0xbf328ff7	-0.6975092
226	0xbf6cd2ee	-0.92509353
227	0xbdddb60e	-0.1082574
228	0x3e26510d	0.16241856
229	0xbe887b5e	-0.26656622
230	0x3d6e2228	0.058138043
231	0xbed62b84	-0.41830075
232	0xbe701fe0	-0.2344966
233	0x3d0e497a	0.03473804
234	0x3dcbd383	0.09952452
235	0xbcd2b141	-0.025719287
236	0xbdb51dc6	-0.088435695
237	0x3e530bc7	0.20609961
238	0xbe886ea5	-0.26646915
239	0xbbfce557	-0.007717769
240	0xbef6a71e	-0.48174375
241	0x3e0975ad	0.13423796
242	0x3e6a4c9c	0.22880787
243	0x3c5c4690	0.013444558
244	0xbe580f7e	-0.2109966
245	0x3e564ce9	0.20927776
246	0xbda8146a	-0.08207019
247	0xbe5238aa	-0.20529428
248	0xbcadd7d6	-0.021221083
249	0x39bd43f3	0.00036099515
250	0x3e12f409	0.14350905
251	0x3e244ecd	0.16045685
252	0xbe48f948	-0.19626343
253	0xbf542851	-0.8287402
254	0xbd07eb3f	-0.033183333
255	0x3de2b13e	0.110689625

bias f4 [60]
0	0xbead97e0	-0.33904934
1	0xbe358fd7	-0.17730652
2	0xbfdeb27e	-1.7398221
3	0xbf89fab5	-1.0779635
4	0xbf8def68	-1.1088686
5	0xbf5d4072	-0.8642646
6	0xbfaa49e1	-1.3303796
7	0xbe161821	-0.14657642
8	0x3eb4c7be	0.3530864
9	0xbef60752	-0.4805246
10	0xbf3f0da2	-0.7463018
11	0xbee5bef4	-0.44872248
12	0xbe8efd98	-0.27927852
13	0xbf8eeccf	-1.1166018
14	0xc005eaf3	-2.0924652
15	0xbf299a0a	-0.6625067
16	0xbf1bf44f	-0.6091966
17	0xbfcbfe9f	-1.5937079
18	0xbf44b2d3	-0.76835364
19	0xc0422cff	-3.0339963
20	0xbef6464c	-0.48100507
21	0xbe8005c0	-0.25004387
22	0xbf3f9904	-0.7484286
23	0xbfe9f76a	-1.827863
24	0xbebd1ee0	-0.36937618
25	0xbf0684da	-0.52546465
26	0xc0072629	-2.111704
27	0xbffc5c2f	-1.9715632
28	0xbfd0aac8	-1.6302118
29	0xbee55c18	-0.44796824
30	0xbf4f5dc4	-0.8100245
31	0xbf50265a	-0.8130852
32	0xbff40119	-1.9062835
33	0x400279b8	2.0386791
34	0xbfa0f596	-1.2574947
35	0xbf8660ea	-1.0498326
36	0xbf8b4ba6	-1.0882461
37	0xc028f6c9	-2.6400626
38	0xbe181296	-0.1485084
39	0xbfa4445f	-1.2833365
40	0xbfaa0aa0	-1.3284492
41	0xbf86d4ef	-1.0533732
42	0xbee900f7	-0.4550855
43	0xbec56a39	-0.38557604
44	0xbf106513	-0.56404227
45	0xbfe8014f	-1.8125399
46	0xbff8ecce	-1.9447267
47	0xbf6fb4fa	-0.93635523
48	0xbece9e4b	-0.40355143
49	0x3deb949f	0.115029566
50	0xbf685a87	-0.90763134
51	0xbe4a6929	-0.19766678
52	0xc02c8c72	-2.696072
53	0xbeb366b5	-0.35039297
54	0xbe06031d	-0.13087125
55	0xbf844635	-1.0333925
56	0xbfe4117e	-1.7817838
57	0xbefad30d	-0.48989144
58	0xbe8f6b58	-0.28011584
59	0xbf2b95fc	-0.67025733

weight f4 [60, 60]
0	0x3e3be68e	0.18349668
1	0x3d8babba	0.068198636
2	0x3e13dfda	0.14440861
3	0xbe5644d8	-0.209247
4	0xbe78e1c3	-0.24304871
5	0xbf2e5db8	-0.68111753
6	0xbeb10ffc	-0.34582508
7	0xbd1964aa	-0.037449516
8	0xbf221968	-0.63320017
9	0x3da943f0	0.08264911
10	0xbcd8ea38	-0.026478872
11	0xbe005337	-0.12531744
12	0x3cc5bf26	0.024138998
13	0x3ee99bb9	0.4562662
14	0x3d9bb7bd	0.07603405
15	0xbe962dba	-0.29331762
16	0xbf1caa65	-0.611975
17	0x3d68efb4	0.056869224
18	0xbe791185	-0.2432309
19	0x3ea42942	0.32062727
20	0x3da48466	0.080330655
21	0x3db1a9b0	0.086749434
22	0xbf106e67	-0.5641846
23	0xbdf07955	-0.11741892
24	0xbe05a889	-0.13052572
25	0xbdf28f9b	-0.11843797
26	0x3f30b720	0.69029427
27	0x3dbc9e64	0.09209898
28	0xbdc3c2e2	-0.09558655
29	0xbd9aa14d	-0.07550297
30	0x3f3370ba	0.7009388
31	0xbdf7d204	-0.12100604
32	0x3f557622	0.8338338
33	0xbf1e2577	-0.61775917
34	0xbe038df3	-0.12847118
35	0x3c6feec1	0.014644326
36	0xbec51723	-0.38494214
37	0xbf002d30	-0.5006895
38	0x3d137408	0.035999328
39	0x3cbdd674	0.023173548
40	0xbecd65d3	-0.40116748
41	0x3dea141e	0.11429618
42	0x3d3ea96c	0.046548292
43	0xbf3ff847	-0.74988216
44	0xbe8138bf	-0.25238606
45	0xbea7be48	-0.3276236
46	0xbe37f785	-0.17965515
47	0xbe9032b9	-0.28163698
48	0xbf505754	-0.8138325
49	0xbe778e94	-0.24175483
50	0x3d0e7bc9	0.03478602
51	0xbd9ee35e	-0.077582106
52	0xbe081a39	-0.13291253
53	0xbcc9f70f	-0.02465394
54	0xbd0b1b18	-0.033961385
55	0xbdf3d891	-0.11906541
56	0x3e4a2bf3	0.19743328
57	0xbddb9244	-0.10721257
58	0xbea097c1	-0.3136578
59	0xbdf14719	-0.11781139
60	0xbeb2eedf	-0.3494787
61	0xbc43f758	-0.011960827
62	0xbecc5ff3	-0.39916953
63	0xbec21a42	-0.37910658
64	0xbd0959bc	-0.033532843
65	0xbe28d780	-0.16488457
66	0xbd73e0d9	-0.059540603
67	0x3db984c6	0.09058528
68	0xbead3e86	-0.33836764
69	0x3df16ea2	0.1178868
70	0xbd856d05	-0.065149345
71	0x3d0e8041	0.03479028
72	0x3d2e8e2f	0.042616066
73	0x3d8ecc6d	0.06972585
74	0xbd869967	-0.06572228
75	0xbc02e54c	-0.007989239
76	0xbd5db199	-0.05412445
77	0x3dd1de38	0.10247463
78	0xbe86d30f	-0.263329
79	0xbde82312	-0.11334814
80	0x3c7a6132	0.015281962
81	0x3d8773b9	0.06613869
82	0x3c990138	0.018677339
83	0x3c292f84	0.01032627
84	0xbce72ad4	-0.028218664
85	0xbdbb41aa	-0.09143384
86	0x3d2fe1b4	0.042939857
87	0xbe03e935	-0.1288193
88	0xbe34c68e	-0.17653868
89	0xbe20792e	-0.15671226
90	0xbdff21db	-0.12457629
91	0x3b5aee80	0.0033406317
92	0xbea025e0	-0.31278896
93	0xbeac02b7	-0.3359582
94	0xbdf3d9b7	-0.1190676
95	0x3d1b3213	0.03788955
96	0x3c5e4737	0.013566784
97	0xbea27957	-0.317332
98	0xbdd8e444	-0.10590413
99	0xbdcd97e7	-0.10038739
100	0xbea81168	-0.3282578
101	0x3dce111d	0.10061858
102	0xbceaaa54	-0.028645672
103	0xbebfb785	-0.37444702
104	0xbe05c616	-0.13063845
105	0xbcc0203d	-0.023452872
106	0x3d679b7f	0.056544777
107	0x3ca948d1	0.020664604
108	0xbe43b056	-0.19110236
109	0xbf046239	-0.51712376
110	0x3e18973f	0.14901446
111	0x3da76b78	0.08174795
112	0xbe370aa5	-0.17875154
113	0x3cc46e67	0.023978425
114	0x3d8b2de8	0.06795865
115	0x3a678200	0.0008831322
116	0xbe513872	-0.20431688
117	0xbd7cc194	-0.061708048
118	0x3d9004cb	0.07032164
119	0x3da32f80	0.07968044
120	0xbeb46723	-0.35234937
121	0x3d4ab365	0.04948749
122	0xbe87c02d	-0.26513806
123	0x3eae2e08	0.34019494
124	0xbcfa79a6	-0.030575585
125	0x3ea8a87e	0.3294105
126	0x3e92bd14	0.2865988
127	0xbeb35b16	-0.3503043
128	0xbf40b21f	-0.7527179
129	0xbe9c5705	-0.3053514
130	0x3ebcd4b3	0.36881027
131	0xbf950781	-1.1642915
132	0x3d976b4e	0.073935136
133	0x3e4d9984	0.20078093
134	0xbd55ec4f	-0.052227315
135	0xbda23aa3	-0.0792134
136	0xbde0cdfe	-0.1097679
137	0x3f8fa4f1	1.1222211
138	0x3a0abfdb	0.0005292871
139	0xbddc9871	-0.107712634
140	0xbd9e09af	-0.07716691
141	0xbe0858f8	-0.13315189
142	0x3eba4e0d	0.36387673
143	0xbeb03142	-0.3441258
144	0x3ce5cc28	0.02805145
145	0xbee9ab14	-0.45638335
146	0x3f0980ab	0.53711957
147	0xbd840a34	-0.064472586
148	0xbfd55e50	-1.6669407
149	0x3f028f7c	0.5100019
150	0xbe885bb1	-0.26632455
151	0xbf29854f	-0.6621904
152	0x3dcbda42	0.09953739
153	0x3f14ac15	0.58075076
154	0xbe24a1bc	-0.16077322
155	0x3f414579	0.7549663
156	0x3f0c3b1d	0.547777
157	0x3ea4bedb	0.3217686
158	0x3e50893b	0.2036485
159	0x3ea4e6e4	0.32207406
160	0xbed8df18	-0.42357707
161	0xbe479d34	-0.19493562
162	0x3e3eee1c	0.18645519
163	0xbfcd0f9b	-1.6020387
164	0x3f1e7fa9	0.61913544
165	0x3cad3c10	0.021146804
166	0xbf9f8bde	-1.2464559
167	0x3e06c60c	0.13161486
168	0xbf24e74d	-0.64415437
169	0xbf5313b8	-0.82451963
170	0x3e3a8e27	0.1821829
171	0x3d73aa90	0.059488833
172	0xbf79d410	-0.97589207
173	0xbd03fc85	-0.032223243
174	0x3c70f3d7	0.014706573
175	0xbeefe5ae	-0.4685492
176	0x3ed26929	0.41095856
177	0xbd3d4ac4	-0.04621388
178	0x3d86b008	0.06576544
179	0xbe266139	-0.16248025
180	0x3e8519a7	0.25996134
181	0xbd304880	-0.04303789
182	0x3bb6ca5a	0.0055783214
183	0xbe6417f3	-0.22274761
184	0x3c0cecdf	0.008601396
185	0x3df1f5dc	0.11814472
186	0xbe22cc38	-0.15898216
187	0x3d786e4e	0.06065207
188	0xbe7f24a6	-0.24916324
189	0x3d975964	0.07390097
190	0x3c01f420	0.007931739
191	0x3ce00d7d	0.027350182
192	0xbb80b617	-0.003927957
193	0xbdbc48bb	-0.0919356
194	0x3e7355a8	0.23763144
195	0xbe6bba1d	-0.23020215
196	0xbdd59ad0	-0.10429919
197	0xbde0f944	-0.10985044
198	0xbe9bbb99	-0.30416563
199	0xbd6aa94b	-0.057290357
200	0xbd82d2f6	-0.06387894
201	0xbe8df188	-0.27723336
202	0x3cdd2289	0.026994007
203	0xbe546722	-0.20742467
204	0xbe7e9297	-0.24860607
205	0x3d8f4dec	0.06997284
206	0xbe4427cf	-0.19155811
207	0xbd93854d	-0.072031595
208	0xbe1704a3	-0.14747863
209	0xbd1f2209	-0.038850818
210	0x3ebdb5f6	0.37052888
211	0xbd4b0ecf	-0.04957467
212	0xbd2e2067	-0.04251137
213	0xbdc4bb50	-0.096060395
214	0x3d64ecf5	0.055890042
215	0xbd419820	-0.04726422
216	0xbb4dcf8c	-0.0031404225
217	0xbdeb6f51	-0.11495841
218	0xbdab8093	-0.08374133
219	0xbde83ddc	-0.11339924
220	0xbe4db84a	-0.20089832
221	0x3e63fde4	0.2226482
222	0xbd93e401	-0.07221223
223	0xbe8108c9	-0.25202015
224	0xbc7e1628	-0.015508212
225	0xbe7b062c	-0.24514073
226	0x3ddc2e3a	0.107510045
227	0xbe23412d	-0.15942831
228	0xbc7136c3	-0.014722529
229	0xbe7f406a	-0.24926916
230	0x3c4c5bba	0.012473041
231	0xbe51df12	-0.20495251
232	0xbe152efe	-0.14568707
233	0xbdace320	-0.08441758
234	0xbe2833d5	-0.16426022
235	0xbdf11185	-0.1177092
236	0xbe8d4f44	-0.27599537
237	0x3dea3ef7	0.11437791
238	0xbdb701e3	-0.08935907
239	0xbc3e0672	-0.011598216
240	0x3e31edf2	0.17375925
241	0xbde2471b	-0.110487185
242	0xbdcd7401	-0.100318916
243	0xbd4c01e9	-0.04980651
244	0xbd86a6aa	-0.065747574
245	0xbe53e5b5	-0.20693095
246	0xbec7a583	-0.38993463
247	0xbd389dad	-0.045072246
248	0xbef40646	-0.47661036
249	0x3e8fa07d	0.2805213
250	0x3e0182fc	0.12647623
251	0x3d817fa8	0.063231766
252	0xbdd06026	-0.10174589
253	0x3f2591fc	0.6467588
254	0x3de35bac	0.111014694
255	0xbeb68ff1	-0.35656694

bias f4 [60]
0	0xbf18ab39	-0.59636265
1	0xbf3748f0	-0.7159567
2	0x40294e9f	2.6454237
3	0xbe45784f	-0.19284175
4	0xbfa63a88	-1.2986612
5	0xbffe4461	-1.9864618
6	0xbfad410e	-1.3535478
7	0xbf83724d	-1.0269257
8	0xbf4596f5	-0.7718347
9	0xc0ac02de	-5.37535
10	0xc008664e	-2.1312442
11	0xbf84a9d2	-1.0364325
12	0xbf9e5bea	-1.23718
13	0xbefbb2e8	-0.49159932
14	0xbe92fd09	-0.28708676
15	0xbf7e36cf	-0.9930238
16	0xc027874a	-2.6176324
17	0xbff80211	-1.9375631
18	0xc100b976	-8.045279
19	0xbfd42e69	-1.6576663
20	0xbe91a79f	-0.28448197
21	0xbf02182b	-0.5081813
22	0xbe01777d	-0.12643237
23	0xbfbc2633	-1.4699157
24	0xbf5e1b37	-0.86760277
25	0xbe172baa	-0.1476275
26	0xbf77a71a	-0.9673935
27	0xbf6ce718	-0.9254012
28	0xbf752060	-0.95752525
29	0xbf9038e3	-1.126736
30	0xbeaf13c3	-0.34194764
31	0xc005e25d	-2.091941
32	0xbece0b6d	-0.40243092
33	0x40015bba	2.0212235
34	0xbfa855c7	-1.3151177
35	0xbf024750	-0.50890064
36	0xbf9bdb5f	-1.2176322
37	0xc0382d5c	-2.8777685
38	0x3f266012	0.6499034
39	0xbf330735	-0.6993287
40	0xbf3488d3	-0.7052128
41	0xbe4c863c	-0.19973081
42	0xc068daee	-3.6383624
43	0xc09646c5	-4.696139
44	0xbfacac1d	-1.3490025
45	0xbfdb82cd	-1.7149292
46	0xbe8c2e16	-0.2737891
47	0xbffe5acb	-1.9871458
48	0xbf741791	-0.9534846
49	0xbebf73d3	-0.37393054
50	0xbf9d707e	-1.2299955
51	0xc019fd94	-2.4061022
52	0xbd9738ab	-0.073838554
53	0xbea161d3	-0.31519946
54	0xc0c9e627	-6.309345
55	0xbeb8b082	-0.36072165
56	0x3eaa3156	0.33240765
57	0xc0095f0b	-2.146426
58	0xc030a432	-2.7600217
59	0xbf54ff11	-0.832017

weight f4 [10, 60]
0	0xbfe391ff	-1.777893
1	0xbd11359f	-0.035451528
2	0xbfc19c2d	-1.5125786
3	0xbeb984cf	-0.36234137
4	0xbf98dfac	-1.1943259
5	0xbfce91de	-1.6138265
6	0xbf122976	-0.57094514
7	0xbf3514d6	-0.7073492
8	0xbf1ca67f	-0.6119155
9	0xbf87c4f2	-1.0606978
10	0xbfd73787	-1.6813821
11	0xbeb219ca	-0.347853
12	0x3efdc99e	0.49567884
13	0xbeb8868f	-0.3604016
14	0xbdb9546e	-0.09049307
15	0xbf1ccab3	-0.61246794
16	0xbfa24517	-1.2677335
17	0xbfb38fc5	-1.402825
18	0xbf2a947c	-0.6663282
19	0x3e7cbb32	0.24680784
20	0xbd791e89	-0.060820136
21	0xbe33a42b	-0.17543094
22	0x3ea9c414	0.33157408
23	0xbeffab24	-0.49935257
24	0xbee224d4	-0.44168723
25	0xbb88b43a	-0.0041718753
26	0xbeb51e55	-0.35374704
27	0xbe05a3a3	-0.13050704
28	0x3da480ee	0.08032404
29	0xbf91ddd2	-1.1395819
30	0xbe296201	-0.16541292
31	0xbdabbe35	-0.083858885
32	0xbe2fb184	-0.1715756
33	0xbf4e9029	-0.8068872
34	0xbe2184ea	-0.15773359
35	0xbdd80b76	-0.10549061
36	0xbf6a10e4	-0.91432023
37	0xbfdfbaa5	-1.7478834
38	0xc097df7a	-4.74603
39	0xbec4ceba	-0.3843897
40	0xbe920334	-0.2851807
41	0xbfe1e14c	-1.764688
42	0xbe63e048	-0.22253525
43	0x3f0ff99d	0.56240255
44	0xbff3873d	-1.9025646
45	0xbf4dcd42	-0.80391324
46	0xbf7dbe31	-0.99118334
47	0xbf316d5e	-0.69307506
48	0xbf41ab7b	-0.75652283
49	0x3ddbb134	0.10727158
50	0xbec514e8	-0.38492513
51	0xbed87a89	-0.42280987
52	0xbd784fef	-0.060623106
53	0x3e29c787	0.1658002
54	0x3e17f7d7	0.14840637
55	0x3e0710f0	0.13190055
56	0xc09280aa	-4.578206
57	0xbf3eecfe	-0.7458037
58	0xbf56e22f	-0.8393888
59	0xbe405096	-0.18780741
60	0xbf55db88	-0.83538103
61	0x3cd62ae9	0.026143508
62	0xc0b60904	-5.6886005
63	0xbf1b7808	-0.6073003
64	0xbf0d873a	-0.55284464
65	0xbedfc064	-0.4370147
66	0xbf9803b0	-1.1876125
67	0xbeea1da2	-0.45725733
68	0x3d8bfa5b	0.06834861
69	0x3ceb813f	0.028748153
70	0xc09bb930	-4.866356
71	0xbf26944b	-0.6507003
72	0x3d66a80b	0.056312602
73	0x3d30c6f7	0.043158498
74	0xbe43effa	-0.19134513
75	0xbf922a61	-1.1419183
76	0xc09ca663	-4.895311
77	0xbed070fc	-0.407112
78	0xbd66cd7c	-0.05634831
79	0x3e99419d	0.2993287
80	0xbea787b5	-0.32720724
81	0x3c8cb942	0.017178182
82	0xbe76fb4f	-0.24119304
83	0xbfc75160	-1.5571709
84	0xbf31423b	-0.69241685
85	0xbe060002	-0.1308594
86	0xbf9d4ba2	-1.2288706
87	0xbdcc8dc5	-0.09987978
88	0xbea77652	-0.3270746
89	0xc004de8a	-2.0760827
90	0xbd8d11b2	-0.06888141
91	0xc01caf4c	-2.4481993
92	0xbdfbfb25	-0.123037614
93	0xbf088422	-0.5332662
94	0x3e8797db	0.26483044
95	0xbf4eb591	-0.807458
96	0xc0dd62e5	-6.918322
97	0xc0d2bbaf	-6.5854106
98	0xc05759f3	-3.364865
99	0xbea4fb51	-0.3222299
100	0xbe2d0c4e	-0.16899225
101	0xc114c5aa	-9.298258
102	0x3de6ad54	0.112635285
103	0x3f505a29	0.81387573
104	0xbf987d68	-1.1913271
105	0xbfc82820	-1.5637245
106	0xc0920981	-4.56366
107	0xbfa63fb7	-1.2988194
108	0xbf2bac36	-0.6705965
109	0xbc85025d	-0.016236478
110	0xbe533ee7	-0.20629464
111	0xbe3926ac	-0.18081158
112	0xbf4756c2	-0.77866757
113	0xbe4ca425	-0.19984491
114	0xbfb4f77f	-1.413803
115	0xbdfd1ca2	-0.12358977
116	0xc1ae92dd	-21.82171
117	0xc06aba94	-3.6676378
118	0x3de38fb1	0.11111391
119	0xbf025eef	-0.5092611
120	0xbe500187	-0.20313083
121	0xbe648ff2	-0.22320536
122	0xc0f25da6	-7.5739317
123	0xbe798ce4	-0.24370152
124	0x3dc8fdf4	0.09814063
125	0xc021a828	-2.5258884
126	0xc1626608	-14.14991
127	0x3e089ce4	0.13341099
128	0xbf13b51f	-0.57698244
129	0xbed562ff	-0.4167709
130	0xbf0cb7a2	-0.549677
131	0xbf8684c3	-1.0509266
132	0xbf86e352	-1.0538123
133	0xbf0389bc	-0.5138204
134	0x3e864a43	0.26228532
135	0x3e583350	0.21113324
136	0xbf731af4	-0.94963
137	0x3ed6f9d8	0.4198749
138	0xc0abd410	-5.3696365
139	0xbef57314	-0.4793936
140	0xbdd083dd	-0.10181401
141	0xbdee24f6	-0.116281435
142	0xbd8867f5	-0.06660453
143	0xc00aa983	-2.1665962
144	0xbe4a2752	-0.19741562
145	0xbf17a0a3	-0.5922949
146	0xbf183ec2	-0.5947076
147	0xbeaf01f1	-0.3418117
148	0xbf28c731	-0.6592894
149	0xc0318c05	-2.774171
150	0xbd3c436e	-0.045962743
151	0xc08898c1	-4.2686467
152	0x3dddf856	0.10838382
153	0xc042a91d	-3.0415719
154	0x3d4b967f	0.04970407
155	0xbf164e1e	-0.5871295
156	0xc0c57e1b	-6.1716437
157	0xbee4bb7c	-0.4467429
158	0xbf023330	-0.50859356
159	0x3e03b642	0.12862495
160	0xbee1a49e	-0.44070905
161	0xc007d23a	-2.1222062
162	0xbff0805d	-1.8789173
163	0xbf0b2e9d	-0.54368
164	0xbf375e16	-0.7162794
165	0x3d4b9e47	0.049711492
166	0xc0d6288f	-6.692451
167	0xbec32a84	-0.38118374
168	0xbeeb607a	-0.45972043
169	0x3d02614e	0.03183108
170	0xbd03e25b	-0.03219829
171	0xbe5512f0	-0.20808005
172	0xbfd96ed4	-1.6986947
173	0x3b62fe04	0.0034636268
174	0xbf905521	-1.1275979
175	0xbe1cf8d9	-0.15329303
176	0xc11234cc	-9.13789
177	0xc04ffe17	-3.2498834
178	0xbfdc6958	-1.7219648
179	0xbed1cd82	-0.40977103
180	0xbf283a10	-0.65713596
181	0x3c2f6a65	0.010706519
182	0xc1216c58	-10.088951
183	0xbe6a851c	-0.2290234
184	0xbde28ebc	-0.11062381
185	0xbfa03465	-1.251599
186	0xc05fc93a	-3.496657
187	0xbe8df94f	-0.2772927
188	0xbd90406a	-0.07043536
189	0xbee51f5e	-0.44750494
190	0xbe1d2ffa	-0.15350333
191	0x3d97df8e	0.074156865
192	0x3d8d3c1c	0.068962306
193	0xbdfccfd8	-0.123443305
194	0xbd813af6	-0.06310074
195	0xbcf868cc	-0.030323409
196	0xbf821cd5	-1.0165049
197	0xbf0030f4	-0.50074697
198	0xbf7bd86a	-0.98377097
199	0xbe27f944	-0.16403681
200	0xbd84960d	-0.064739324
201	0xbe1600f1	-0.14648797
202	0x3d4ec3a5	0.05047955
203	0xbfa04602	-1.2521365
204	0xbe935289	-0.28773907
205	0xbe212290	-0.15735841
206	0xbdc98add	-0.09840939
207	0xbe64990e	-0.2232401
208	0x3e276983	0.16348843
209	0xc0260095	-2.5937855
210	0xbf021999	-0.5082031
211	0xbf56bd9f	-0.8388309
212	0x3d9a74c1	0.075418
213	0xc131d854	-11.1153145
214	0xbdf98d40	-0.121851444
215	0xbf3c32d4	-0.7351506
216	0xbfcc0136	-1.593787
217	0xbfb57d36	-1.4178836
218	0xbec05fa6	-0.37572974
219	0x3a5d1e02	0.00084349525
220	0xbf43fd52	-0.7655841
221	0xbfffbcf3	-1.9979538
222	0xbe6906bc	-0.22756475
223	0xba8eeeba	-0.0010904886
224	0xbee5d4d2	-0.44888932
225	0x3f3d46fa	0.73936427
226	0xc0daa208	-6.832279
227	0xbf0b3ad9	-0.5438667
228	0xbec9106f	-0.3927035
229	0xbe3a0638	-0.18166435
230	0x3e1d6917	0.1537212
231	0x3f3d499e	0.73940456
232	0xc026351d	-2.5969918
233	0xbd42cd37	-0.04755899
234	0xbe00a5ef	-0.12563299
235	0x3dbb3fc2	0.0914302
236	0xc0a782d8	-5.234722
237	0xbf3f62ba	-0.7476002
238	0xbf0a1e98	-0.5395293
239	0xbecd8c83	-0.40146264
240	0xbded9e5c	-0.1160247
241	0x3e19306f	0.14959882
242	0xc08b0013	-4.343759
243	0xbe1150e0	-0.14191008
244	0xbf590fb7	-0.84789604
245	0xbfddc3f8	-1.732543
246	0x3e3a8d8f	0.18218063
247	0xbf2cff46	-0.67577016
248	0x3dc51a4c	0.09624156
249	0xc04bc0c1	-3.1836398
250	0xc07eca5f	-3.9811018
251	0xbf33b302	-0.7019502
252	0xbeaeccbb	-0.34140572
253	0xbf07fed8	-0.53123236
254	0xbdc28c5e	-0.09499429
255	0xbf95d745	-1.170632

bias f4 [10]
0	0x4005756d	2.085292
1	0xbe34ec3d	-0.17668243
2	0x3f4bbe32	0.7958709
3	0xbe53fd65	-0.20702131
4	0xbf137d30	-0.57612896
5	0xbf7f5f07	-0.99754375
6	0xbfd3e09e	-1.6552923
7	0xbff39b37	-1.9031743
8	0xbf6fbc64	-0.93646836
9	0xc01d5671	-2.458401
