NN Real data/final_trained_models/TPSMk/TPSMk2.pth (torch, 55867 bytes, 10 tensors)

weight f4 [60, 20]
0	0x3f31f5da	0.69515765
1	0x3d323357	0.043505993
2	0x3f8ac966	1.0842712
3	0xbe98345b	-0.29727444
4	0x3ff1d495	1.8893
5	0x3f81301e	1.0092809
6	0x3e28c8c9	0.16482843
7	0x3ec9868b	0.3936046
8	0xbe8b5d24	-0.27219498
9	0x3fba1ba4	1.4539685
10	0x3fae00e4	1.3594022
11	0xbf940c03	-1.1566166
12	0xbf722219	-0.9458328
13	0xbf85dbee	-1.0457742
14	0x3e5c5285	0.21515854
15	0x3fe1f038	1.7651434
16	0xbf7c9265	-0.9866088
17	0xc007415b	-2.113364
18	0xbf6a4cd1	-0.9152346
19	0x3f8a8d8a	1.0824444
20	0x403d2fd6	2.9560447
21	0x3f13df2c	0.5776241
22	0xbfce9a3f	-1.6140822
23	0xc010d761	-2.2631457
24	0x3ff05884	1.8777013
25	0x40121e14	2.2830858
26	0xbf7b74ae	-0.98224914
27	0xbfbee376	-1.4913166
28	0xbfb8a4b1	-1.442526
29	0x40598a35	3.3990605
30	0x402767bd	2.6157067
31	0xbfe8b510	-1.8180256
32	0xc0018682	-2.0238347
33	0xbe9d88dc	-0.30768478
34	0x3f6a5b34	0.91545415
35	0x401c3c97	2.441198
36	0xbf5b82de	-0.8574656
37	0xc00fdd98	-2.2479
38	0x3fa5a1f1	1.2940046
39	0x3f1ff6d3	0.62486
40	0x40d5d2ea	6.6819963
41	0xbf716468	-0.9429383
42	0x408adf4f	4.3397593
43	0x3fda0207	1.7031869
44	0xbe88b9cd	-0.26704255
45	0x3f96dfd6	1.1787059
46	0x4004796e	2.0699115
47	0x3e3d67a8	0.18496573
48	0x3eed49c0	0.4634533
49	0xc0269acf	-2.6031988
50	0xbe026724	-0.12734658
51	0x3f6be745	0.92149764
52	0xbf8afb83	-1.0858005
53	0x3f012551	0.50447565
54	0xc009f9d2	-2.1558728
55	0xbfb1a922	-1.387974
56	0xc0021d6c	-2.0330458
57	0xc026bb29	-2.6051733
58	0xbee7f50d	-0.45304146
59	0xbfe6deee	-1.8036783
60	0x400332d1	2.0499766
61	0xbec18273	-0.37794837
62	0xbe862a6b	-0.26204237
63	0xbf1707a5	-0.5899604
64	0xbf559b54	-0.83440137
65	0x3f8d9057	1.1059674
66	0x3e3723c5	0.17884739
67	0xbeaf7864	-0.34271538
68	0xbdad3bcc	-0.08458671
69	0x3b315587	0.0027059035
70	0x3f931799	1.1491576
71	0x3f507771	0.81432253
72	0xbf28379a	-0.6570984
73	0x3ec43d38	0.38327956
74	0x3d7feb4a	0.06248025
75	0x3f30965a	0.6897942
76	0xbdee59b9	-0.11638207
77	0xbf769261	-0.96317106
78	0x3f808a6d	1.0042244
79	0x3f90e73d	1.1320568
80	0xc03b043e	-2.922134
81	0xbeee2f8f	-0.4652066
82	0x3f0e8b3a	0.5568119
83	0x4012cf5b	2.293906
84	0x3fd7d28f	1.6861132
85	0x3ea58fb0	0.32336187
86	0x3e49ab9a	0.19694367
87	0x3f44f314	0.7693341
88	0x3fbe11b8	1.4849157
89	0x3f6ff281	0.93729407
90	0x40439530	3.0559807
91	0x3f05e19d	0.52297384
92	0x3f131fe0	0.5747051
93	0x3fe16e22	1.7611735
94	0xbf09cde0	-0.53829765
95	0x40d334bc	6.6001873
96	0xc0ff940c	-7.986822
97	0x3f1fabc3	0.6237146
98	0xbf7c78c7	-0.9862179
99	0x40b70a3b	5.719999
100	0x3f43e776	0.76525056
101	0xc034b60c	-2.8236113
102	0x40031bf2	2.0485806
103	0x401e54aa	2.4739175
104	0xbff1bfaa	-1.8886616
105	0x3f6dd544	0.9290354
106	0x40146d3d	2.3191674
107	0xc074d1c0	-3.8253021
108	0x3f59dba8	0.85100794
109	0x4096cde2	4.712632
110	0x3f7b4593	0.98153037
111	0x3fec9e12	1.8485739
112	0xc05ab41a	-3.4172425
113	0x3f9157cb	1.1354917
114	0x401fc5ca	2.496447
115	0xbf19d036	-0.6008333
116	0x3f8ed6cf	1.1159304
117	0xc04b89a0	-3.180275
118	0xbf333bfd	-0.7001341
119	0x408327ce	4.098609
120	0xbf63315d	-0.887472
121	0xbfcae373	-1.5850662
122	0xbf91f8e0	-1.1404076
123	0x3e6a50fd	0.22882457
124	0xbecdcd7f	-0.40195844
125	0x3f816e01	1.0111696
126	0xbfaa5e10	-1.3309956
127	0xbfc2a9bd	-1.520805
128	0x3f74288a	0.9537436
129	0x3fc68f57	1.5512494
130	0xbdb3bb10	-0.08775914
131	0xbf95539f	-1.1666144
132	0xbf05f437	-0.5232577
133	0x3e816386	0.25271243
134	0x3f8b38ff	1.0876769
135	0xbe6a5ea0	-0.22887659
136	0xbfe9e6e3	-1.8273586
137	0xbe01aa9c	-0.12662739
138	0xbf478aa4	-0.77945924
139	0x3fb4f217	1.413638
140	0x41062944	8.385075
141	0xbfa44096	-1.283221
142	0xc08dfb49	-4.4369245
143	0xbf3e380a	-0.7430426
144	0xc08000e1	-4.0001073
145	0x3e32e493	0.17470007
146	0x3f252640	0.6451149
147	0xbf96c8ec	-1.1780066
148	0xbfb18c30	-1.3870907
149	0xbec58061	-0.38574508
150	0xbfaeddf2	-1.3661482
151	0x3f5f84fd	0.873123
152	0xbf7d0040	-0.98828506
153	0xbef59085	-0.47961822
154	0xbf9d1680	-1.2272491
155	0xbff0087c	-1.8752589
156	0x3f0c4b5a	0.5480248
157	0x400e8571	2.2268946
158	0xbfc89a77	-1.5672139
159	0x402cc971	2.699795
160	0x3fbdf06b	1.4838995
161	0xbebd95f6	-0.37028474
162	0xbe94351a	-0.28946763
163	0xbf08d7ad	-0.53454095
164	0x40189fcf	2.384754
165	0x40364f3a	2.8485856
166	0xbece4064	-0.402835
167	0xbf1771f8	-0.5915828
168	0x3f154076	0.58301485
169	0x3e894bfc	0.26815784
170	0x404babd0	3.1823616
171	0xbe8e0d1a	-0.2774437
172	0xbe96a313	-0.2942129
173	0x3f39877a	0.72472346
174	0x3f3ccde9	0.73751694
175	0x409536b2	4.6629267
176	0xbfa2278a	-1.2668316
177	0xbf758b6f	-0.95915884
178	0x3faaacf0	1.3334026
179	0x3eb87e8d	0.3603405
180	0x4064fd32	3.5779538
181	0xbf384150	-0.7197466
182	0xc096589c	-4.6983166
183	0xc06793f0	-3.6184044
184	0xbe9fbde9	-0.31199577
185	0x3f4210ca	0.7580687
186	0xbfcdd13d	-1.607948
187	0x3f0fcf75	0.5617593
188	0xbf2a1ee9	-0.66453415
189	0x3e418aeb	0.18900649
190	0xbc1ce022	-0.009574922
191	0xbf6f5695	-0.9349149
192	0x3fb41b31	1.4070798
193	0x3f8fc0b6	1.1230686
194	0x4009b27e	2.1515193
195	0xbf9e03f7	-1.234496
196	0x3f66f26d	0.9021366
197	0xbf1b66cb	-0.60703725
198	0x404daea4	3.2137842
199	0x3fd2baf5	1.6463305
200	0x3f73618c	0.9507072
201	0xbf3f6a73	-0.74771804
202	0xbdc6ecff	-0.09713172
203	0x3cf82fd8	0.030296251
204	0x3e1a732a	0.15082994
205	0x3c87eee2	0.0165934
206	0xbe967f68	-0.29394078
207	0xbee3759e	-0.44425672
208	0x3d2cdb82	0.042201526
209	0x3e906aed	0.28206578
210	0x3f340e6d	0.7033451
211	0x3e200c0c	0.15629596
212	0xbf7e11ee	-0.9924611
213	0x3ec2a456	0.38016003
214	0x3ed71f96	0.42016286
215	0x3dcbfe6d	0.09960637
216	0xbea904f8	-0.33011603
217	0xbf6e1a7d	-0.9300917
218	0x3eb74986	0.3579828
219	0x3f6b3411	0.9187632
220	0x40c9e252	6.308877
221	0xc106caff	-8.42456
222	0xc073748e	-3.803989
223	0x4044f409	3.0773947
224	0xc080debe	-4.02719
225	0x3f73d020	0.9523945
226	0xc0671a33	-3.610974
227	0xc04239e7	-3.034784
228	0x3fc41d6a	1.5321476
229	0x3e15e60e	0.1463854
230	0xbe8c17e2	-0.2736197
231	0xc0363bdb	-2.8474033
232	0xbfad4ec7	-1.3539666
233	0xbf1d9e96	-0.6157011
234	0xbfcc8e52	-1.5980933
235	0xbf5df5c2	-0.8670312
236	0xc06d3f1b	-3.7069767
237	0xc035cd7c	-2.8406668
238	0x3f3acb73	0.7296669
239	0x3f7b2086	0.980965
240	0xc086e57d	-4.2155137
241	0xbed9a63f	-0.42509648
242	0xc06d60dd	-3.709037
243	0xbfad60ad	-1.3545128
244	0x403c567f	2.9427793
245	0x3fbdebc0	1.483757
246	0xbf99dfed	-1.2021462
247	0xc00307be	-2.0473475
248	0x3f42ce4f	0.7609605
249	0x3f6aa599	0.9165893
250	0x409ff984	4.9992085
251	0xc02d75b3	-2.7103088
252	0xbe87dc8e	-0.26535457
253	0x3ff19484	1.8873448
254	0xbd06012c	-0.03271596
255	0x40e91daa	7.284871

bias f4 [60]
0	0xbf99570f	-1.1979693
1	0xbf9e5f32	-1.2372801
2	0xbd353971	-0.044244234
3	0xbf41bdf5	-0.75680476
4	0xbe48332f	-0.19550775
5	0xbf6632ad	-0.89921075
6	0xbfa1666a	-1.2609379
7	0x3f054081	0.5205155
8	0xbfab42c0	-1.3379745
9	0xbeacc238	-0.33741927
10	0xbf1cfa2a	-0.6131922
11	0x3f2ab221	0.66678053
12	0xbee7ff7c	-0.45312107
13	0xbf13a8be	-0.57679355
14	0xbf221d81	-0.6332627
15	0xbf3a513e	-0.72780216
16	0x3e1d23e6	0.15345725
17	0xbfa50e8d	-1.2895066
18	0xbf7cb655	-0.98715717
19	0xbf72adca	-0.9479643
20	0xc00252cb	-2.0363033
21	0xbf2a48fe	-0.6651763
22	0xbf88b783	-1.0681003
23	0x3ee0d1f1	0.43910173
24	0xbf5d3a9d	-0.8641756
25	0x3e9c6479	0.30545405
26	0xbf832980	-1.024704
27	0xbf41c7b3	-0.7569534
28	0xbf92d7f6	-1.1472156
29	0xbf9ac78a	-1.2092144
30	0xbfe27e58	-1.7694807
31	0x3c113ff0	0.008865342
32	0x3ee6b201	0.4505768
33	0xbf543490	-0.82892704
34	0xbf7b2b13	-0.981126
35	0xbf19d8a5	-0.600962
36	0x3e5804d7	0.21095596
37	0xbdf3ee31	-0.11910666
38	0xbfa453b0	-1.2838039
39	0x3f4d9d16	0.8031782
40	0xbed306c6	-0.41216105
41	0xbfd5d37c	-1.6705165
42	0xbf5d437f	-0.86431116
43	0xbfe07163	-1.7534603
44	0xbf30e547	-0.6909985
45	0xbfcd72b1	-1.6050626
46	0xbf4f245f	-0.8091487
47	0x3e8f1275	0.2794377
48	0xbfc9ac10	-1.5755634
49	0xbe4fb4a0	-0.20283747
50	0x3f14af8a	0.5808035
51	0xbe90a366	-0.28249663
52	0x3d9fbcf0	0.07799709
53	0x3ec4a1ad	0.384046
54	0x3e63c1da	0.22241917
55	0xbf2ec1f4	-0.682647
56	0xbe826913	-0.2547079
57	0xbe38b9cf	-0.1803963
58	0x3f335293	0.70047873
59	0xbedfc657	-0.4370601

weight f4 [60, 60]
0	0x3e873d62	0.2641402
1	0x3f3641a9	0.7119394
2	0xc0256ba0	-2.584694
3	0x3ee9b7f9	0.45648172
4	0xbd34548d	-0.044025946
5	0xbf27e47a	-0.65583
6	0xbb8e75d6	-0.004347543
7	0x3edd2348	0.4319098
8	0x3e7e41a4	0.24829727
9	0x3f369210	0.71316624
10	0xbd90502f	-0.07046544
11	0x3edcda45	0.43135276
12	0xbeb601ba	-0.35548192
13	0x3d1ba1ba	0.03799603
14	0x3f4355c2	0.7630273
15	0xbea750c3	-0.32678804
16	0x3f34089b	0.7032563
17	0x3feee8bd	1.8664776
18	0xbf768249	-0.9629255
19	0xbf09f525	-0.53889686
20	0x3e931fda	0.28735238
21	0xbd9cd97e	-0.07658671
22	0xbf6bde8b	-0.9213645
23	0xc0345421	-2.8176348
24	0xbfb2278f	-1.3918322
25	0xc0359741	-2.8373568
26	0x3cf2698a	0.02959134
27	0xbfdea31a	-1.7393525
28	0xbe0c28f5	-0.13687499
29	0xbffe6df4	-1.9877305
30	0x3e83bc20	0.25729465
31	0xbeea28e3	-0.4573432
32	0x3e98a436	0.29812783
33	0x3f1aeeb9	0.6052051
34	0xbfd87e45	-1.6913534
35	0xbdbfa597	-0.09357756
36	0x3fcb3518	1.5875578
37	0xc004b0a5	-2.0732815
38	0x3f8ced91	1.101
39	0xbf648174	-0.8926003
40	0xbf0d5514	-0.55207944
41	0xbdca7294	-0.09885135
42	0xbe795ec9	-0.24352564
43	0xbf416ca4	-0.755564
44	0xbf27b2df	-0.6550731
45	0xbfdd5971	-1.729292
46	0x3dcc8c3b	0.09987684
47	0xbf63b523	-0.8894827
48	0xbe11e23c	-0.14246458
49	0xbf933bb0	-1.150259
50	0xbfa316d3	-1.274134
51	0xbe4be9d4	-0.19913417
52	0xbfa52629	-1.290227
53	0xbf8673db	-1.0504106
54	0xbfaed76a	-1.3659489
55	0xbc52b1e7	-0.012859798
56	0x3f40cd9b	0.7531373
57	0x3c466440	0.012108862
58	0x3d0a3ee3	0.03375138
59	0xbee1cb55	-0.44100443
60	0x3d69cc0c	0.05707936
61	0xbd0470cd	-0.032334138
62	0xbe600767	-0.21877824
63	0x3e9243a2	0.28567225
64	0xbdd16bbd	-0.102256276
65	0xbda33da8	-0.07970744
66	0x3d7fd5c0	0.062459707
67	0x3e8bc2af	0.2729697
68	0xbf984923	-1.189732
69	0xbf0c7255	-0.54861957
70	0xbe2b179b	-0.16708224
71	0xbed4a1e9	-0.41529778
72	0xbd1eb7d8	-0.038749546
73	0x3ea6c0ed	0.32569066
74	0xbd277a6e	-0.040888242
75	0xbe023894	-0.12716895
76	0xbe3fbd5d	-0.1872458
77	0x3cff321c	0.031151824
78	0xbe66a589	-0.22524084
79	0xbdc82caa	-0.09774144
80	0x3e399e73	0.1812685
81	0xbe4a6c44	-0.19767863
82	0xbd0ccc49	-0.03437451
83	0xbe26890f	-0.16263221
84	0xbf0aa6d4	-0.5416081
85	0xbe9123d8	-0.2834766
86	0x3d4485b7	0.047979083
87	0x3e913bb6	0.28365868
88	0x3f304156	0.68849695
89	0x3da19554	0.0788981
90	0x3e687573	0.22701053
91	0xbe664b29	-0.22489609
92	0xbe3e4cdf	-0.18584011
93	0xbe36b63c	-0.17842954
94	0x3d946261	0.07245327
95	0xbd6e745a	-0.05821643
96	0xbe987332	-0.29775387
97	0xbecb494d	-0.39704362
98	0x3db1ff69	0.08691294
99	0xbd9caf88	-0.076506674
100	0x3d8996d5	0.06718222
101	0xbe80497e	-0.2505607
102	0xbd4cbc8c	-0.0499845
103	0xbe8f884f	-0.28033683
104	0xbe0c5f04	-0.1370812
105	0x3e741e34	0.23839647
106	0x3ecd5bbc	0.4010905
107	0x3c87594a	0.016522069
108	0xbebfbe61	-0.37449935
109	0x3b5a6fe9	0.0033330864
110	0xbe96ea91	-0.29475835
111	0xbeaae78f	-0.3337979
112	0xbf38c912	-0.7218181
113	0xbdeb99c7	-0.1150394
114	0x3e98cd3a	0.29844075
115	0x3e939349	0.28823307
116	0xbe1efaf9	-0.15525426
117	0xbc2ae0c9	-0.0104295695
118	0xbebc3270	-0.3675723
119	0xbef0ce81	-0.4703255
120	0x3dcaa0e7	0.09893971
121	0xbd10284c	-0.03519468
122	0xbed512f0	-0.4161601
123	0x3da2521a	0.07925816
124	0xbe69b57f	-0.22823142
125	0xbe5fb146	-0.21844968
126	0xbd9d62ad	-0.076848365
127	0x3e18566e	0.1487672
128	0xbea2f403	-0.3182679
129	0xbe8327b2	-0.25616223
130	0x3c5b68b9	0.013391667
131	0xbc099745	-0.008397882
132	0x3ba6176e	0.005068711
133	0x3e112865	0.14175566
134	0xbe474a04	-0.19461828
135	0x3d015ae7	0.03158083
136	0x3e9e54f6	0.30924195
137	0x3d888df6	0.06667702
138	0x3e7a2325	0.24427469
139	0xbe430624	-0.19045311
140	0xbd3220d0	-0.043488324
141	0xbf08c753	-0.53429145
142	0xbe20e51a	-0.15712395
143	0xbf27ee74	-0.65598226
144	0xbf0a9a06	-0.5414127
145	0xbf076a7a	-0.52896845
146	0x3dc19d87	0.09453874
147	0xbed2cf57	-0.41173813
148	0xbc883974	-0.016628958
149	0xbee05028	-0.43811154
150	0x3cc3e848	0.023914471
151	0xbf19e9fd	-0.6012266
152	0xbdcefea4	-0.101071626
153	0xbdae676c	-0.0851582
154	0xbbc82e15	-0.006109009
155	0x3d47f51d	0.048817743
156	0xbf0489f8	-0.51773024
157	0xbed6702f	-0.41882464
158	0x3d9fd57d	0.078043915
159	0xbf8b592d	-1.0886589
160	0xbe828e2d	-0.25499097
161	0x3dbef1f3	0.09323492
162	0x3b61aa39	0.0034433736
163	0xbe17151e	-0.1475415
164	0x3e5e4a69	0.21708073
165	0x3d4528e6	0.048134707
166	0x3e99d4ca	0.30045158
167	0xbf115fde	-0.56786907
168	0x3d54bd16	0.05193814
169	0xbd5c1faf	-0.053741153
170	0xbefd803a	-0.49511892
171	0xbebbb90c	-0.36664617
172	0xbfad8338	-1.355567
173	0x3e77a959	0.24185695
174	0xbe065a4d	-0.13120385
175	0xbd1c394d	-0.038140584
176	0xbe40e082	-0.18835643
177	0xbd803bdc	-0.06261417
178	0xbea3055c	-0.31840026
179	0xbf0f585e	-0.5599421
180	0xbde78f17	-0.11306589
181	0xbe9333a1	-0.28750327
182	0xbe4cc378	-0.1999644
183	0x3e5d92d0	0.21638036
184	0xbe5beb99	-0.21476592
185	0xbe46f2cd	-0.19428559
186	0xbd16bd1d	-0.036801446
187	0xbdb27939	-0.08714528
188	0xbf05e1fb	-0.52297944
189	0xbe053887	-0.13009845
190	0xbdfa6a13	-0.12227263
191	0xbcafee61	-0.021475973
192	0xbd08e890	-0.033424914
193	0x3e21121d	0.15729566
194	0x3dd25450	0.102699876
195	0xbd033ad8	-0.03203854
196	0xbedf91db	-0.43665966
197	0xbb83a639	-0.004017618
198	0xbe5f5527	-0.21809827
199	0x3cbf2471	0.023332806
200	0xbe0540ea	-0.13013044
201	0xbdf5acf9	-0.119958825
202	0xbe34f9dd	-0.1767344
203	0xbf5c2730	-0.85997295
204	0xbeccc1e2	-0.3999167
205	0xbd9cd4aa	-0.0765775
206	0x3d005885	0.03133442
207	0xbe3ce84c	-0.18447989
208	0x3dbc6d4b	0.092005335
209	0xbe2dc59e	-0.16969916
210	0x3e158f52	0.14605454
211	0xbd8691b6	-0.06570761
212	0xbde55580	-0.111979485
213	0x3d49c246	0.04925754
214	0x3c379856	0.011205753
215	0xba0e1cca	-0.000542116
216	0xbe362d96	-0.17790827
217	0xbe5d639a	-0.21620026
218	0x3ce7d76e	0.028300967
219	0xbe63ec86	-0.22258195
220	0xbd0452cc	-0.032305524
221	0xbbb9e16a	-0.0056726234
222	0x3db2964f	0.08720075
223	0xbe2c72e6	-0.16840705
224	0xbdbb9ace	-0.09160386
225	0x3c251497	0.01007571
226	0x3d921564	0.07132986
227	0xbe9b6a24	-0.30354416
228	0x3cf1d458	0.029520199
229	0xbeb09ad1	-0.34493116
230	0x3d04a01b	0.03237925
231	0xbd9ecb96	-0.07753675
232	0xbeefc243	-0.46827897
233	0x3da3dbeb	0.080009304
234	0xbe434d44	-0.19072443
235	0x3cb51a1b	0.022107175
236	0xbe34d5f5	-0.17659743
237	0xbdf40a2c	-0.11916003
238	0xbddd7752	-0.10813774
239	0xbea9ed42	-0.33188826
240	0x3f9a3479	1.2047263
241	0xc004a2fc	-2.0724478
242	0x3fd158e0	1.6355247
243	0x3dbc3e0d	0.09191523
244	0xc004077b	-2.0629566
245	0xbec2104f	-0.37903067
246	0xbf13b92a	-0.5770441
247	0xbd256c8b	-0.040386718
248	0x3ee196e2	0.44060427
249	0x3df69de5	0.12041835
250	0xbdf11dba	-0.11773248
251	0xc0590f9b	-3.3915775
252	0xbfaeaf9c	-1.3647342
253	0xbdce190d	-0.10063372
254	0xbe102279	-0.1407565
255	0x3c02689f	0.007959514

bias f4 [60]
0	0xbfb489b1	-1.410452
1	0xbf596184	-0.8491442
2	0xbf091c13	-0.5355846
3	0xbf15bc9d	-0.58490926
4	0x3f37eb72	0.71843636
5	0xbece290c	-0.4026569
6	0xbeeb3dc8	-0.45945573
7	0xbf8729c6	-1.0559623
8	0x3f356a8f	0.7086572
9	0xc016b6cf	-2.3549078
10	0xbe59c0e3	-0.21264987
11	0xc0367d67	-2.851404
12	0xc06e578d	-3.7240937
13	0xc04ec6b6	-3.2308784
14	0xc032273f	-2.7836454
15	0xbf286a79	-0.65787464
16	0xbf60a280	-0.87747955
17	0x3f05ea95	0.5231107
18	0xbf0f296a	-0.5592257
19	0xc0425670	-3.0365257
20	0x3ef596ea	0.479667
21	0xbf8f5b64	-1.1199765
22	0xbf85eedc	-1.0463519
23	0xbf240d45	-0.6408275
24	0x3fcfbbc5	1.6229178
25	0xbf94dfcc	-1.1630797
26	0xbf4c679f	-0.79845613
27	0xbfc9ed91	-1.5775625
28	0xc03a61c3	-2.912217
29	0xbfa4094e	-1.281534
30	0xbe36fa58	-0.17868936
31	0xc01d2391	-2.4552958
32	0xc0082609	-2.1273215
33	0xc05d8d83	-3.4617622
34	0xc00e131d	-2.2199166
35	0xbebefb0e	-0.37300915
36	0xbf009f9b	-0.5024354
37	0xbf2bfbce	-0.671811
38	0xbf40fc84	-0.7538531
39	0xbf81d248	-1.0142298
40	0xc0186fef	-2.381832
41	0x3c482be3	0.012217495
42	0xbf981e0e	-1.1884172
43	0xc01657ca	-2.3491082
44	0xbfc8f128	-1.5698595
45	0xbf898370	-1.0743237
46	0xbf6d4397	-0.9268126
47	0xc03eee18	-2.983282
48	0xbf677da6	-0.904261
49	0xbf67896d	-0.9044407
50	0xbf6a7fb8	-0.91601133
51	0xc00ab73c	-2.1674337
52	0xbf0d8558	-0.5528159
53	0xbf8eaf35	-1.1147219
54	0xc0577a54	-3.3668413
55	0xbfde1fee	-1.7353494
56	0xbf9f7104	-1.2456365
57	0xc00a44f0	-2.1604576
58	0x3ff5a5e5	1.9191252
59	0xbe0fb741	-0.1403475

weight f4 [60, 60]
0	0x3f025389	0.50908715
1	0x3daa8b5a	0.083273605
2	0x3e10de6e	0.1414735
3	0xbecc16ff	-0.39861295
4	0xbf0e35fe	-0.55551136
5	0x3d864a19	0.06557102
6	0xbe3c90bc	-0.18414587
7	0xbe4f2996	-0.20230708
8	0x3ffb5729	1.9635974
9	0x401ce415	2.451421
10	0xbf948ada	-1.1604874
11	0x401785ed	2.3675492
12	0x3fc94135	1.5723025
13	0xbf344ad2	-0.70426667
14	0x3ebfe8c1	0.37482265
15	0x3dea7bcf	0.11449396
16	0x3fad65ce	1.3546693
17	0xbf97f5fe	-1.1871946
18	0x3c1cb38b	0.009564291
19	0x3f93fcd5	1.1561533
20	0xc0200c61	-2.5007555
21	0xbf9456c5	-1.158898
22	0xbc805e72	-0.015670035
23	0x3e9a7b75	0.30172315
24	0xbe717a95	-0.23581918
25	0x3dfb7fb2	0.12280215
26	0x3eb14eae	0.3463034
27	0x3fca1bda	1.578975
28	0xc0156eb4	-2.3348818
29	0x3f8f1ce8	1.1180696
30	0xbe2d5589	-0.1692716
31	0x3fae1cef	1.360258
32	0x3fb68bfe	1.4261472
33	0xbfc4a1ad	-1.536184
34	0x3f90ea4d	1.1321503
35	0x3e9606f7	0.2930219
36	0x4029b503	2.651673
37	0x3e8350a7	0.2564747
38	0x3edfb8a2	0.4369555
39	0x3f4445b6	0.7666887
40	0x3fb06698	1.3781309
41	0xbf2f6a09	-0.6852117
42	0x3d6e6582	0.058202274
43	0x3f01a3ee	0.5064076
44	0xbf759164	-0.95924973
45	0xbb5b3979	-0.0033451004
46	0x3e87fff7	0.26562473
47	0xbe6e9c6e	-0.2330186
48	0x3ebd29f4	0.3694607
49	0x3ec93ccf	0.39304206
50	0xbf08b1c7	-0.53396267
51	0xbdb32dd4	-0.087489754
52	0x3e530739	0.20608224
53	0xbe46e503	-0.19423299
54	0x4052367a	3.284575
55	0xbffa1fea	-1.9540989
56	0xbfe98071	-1.8242322
57	0xbff7c2ee	-1.9356363
58	0x3f82d66a	1.0221684
59	0x3d1ecefc	0.038771614
60	0xbefb9b19	-0.49141768
61	0x3d6383c4	0.055545583
62	0x3d88f204	0.06686786
63	0x3e8a3b97	0.26998588
64	0x3f44f44b	0.7693526
65	0x3e689b82	0.22715572
66	0x3ec2cfd6	0.3804919
67	0xbe251004	-0.1611939
68	0x3f268c8b	0.650582
69	0xc00b7d52	-2.179524
70	0x3f1c1b57	0.6097922
71	0xbf3d9b6f	-0.740653
72	0xbfa22d4e	-1.2670076
73	0xbeda61ce	-0.42652744
74	0xbf85385d	-1.0407826
75	0xbe93054a	-0.28714973
76	0xbf556ddd	-0.83370763
77	0xbfac12b9	-1.3443214
78	0xbd5aa423	-0.05337919
79	0xbf872d1d	-1.0560642
80	0x3ce81193	0.028328693
81	0xbe241d10	-0.16026711
82	0xbe958021	-0.29199317
83	0xbe12c558	-0.14333093
84	0xc00534eb	-2.0813549
85	0xbbb9e563	-0.005673097
86	0x3e846d9d	0.25864878
87	0xbce24291	-0.027619632
88	0xbf2060df	-0.62647814
89	0xbe05b511	-0.13057353
90	0xbf9e6e16	-1.2377346
91	0x3f73c197	0.9521727
92	0xbda8f7ff	-0.082504265
93	0x3e081b7e	0.13291737
94	0xbed49e7c	-0.41527164
95	0x3db99ac3	0.090627216
96	0xbf34352d	-0.7039364
97	0x3e2378ad	0.15964003
98	0xbd43efce	-0.047836117
99	0x3e1e23c8	0.15443337
100	0xbd02df5c	-0.031951293
101	0xc03832b7	-2.8780954
102	0xbe59ae3f	-0.21257876
103	0x3eb1da33	0.34736785
104	0xbe9b0917	-0.30280373
105	0xbea7ed23	-0.32798108
106	0xbf024196	-0.50881326
107	0xbd4a570f	-0.04939943
108	0x3d5c16be	0.053732626
109	0xbe42621e	-0.18982741
110	0x3d325d3c	0.043545946
111	0xbca37281	-0.01995206
112	0x3e1a1106	0.15045556
113	0xbe3ec52e	-0.18629906
114	0xbeaed891	-0.34149602
115	0xbe3819d5	-0.17978604
116	0xbf95a1da	-1.1690018
117	0xbf817054	-1.0112405
118	0xbf5cd276	-0.8625864
119	0x3e89b849	0.2689841
120	0x3ec6ad5c	0.38804138
121	0xbd7d6998	-0.06186828
122	0x3e27aaf0	0.16373801
123	0xbd8c82d3	-0.0686089
124	0xbf08e2c7	-0.53471035
125	0xbd86f250	-0.06589186
126	0xbe18dbe3	-0.1492763
127	0xbc50871a	-0.012727523
128	0x3f5d0317	0.8633284
129	0x3d890ed2	0.0669228
130	0x3e17dd00	0.14830399
131	0xbda8e663	-0.08247068
132	0x3f9c7dbf	1.2225875
133	0x3eb0c5bb	0.34525856
134	0xbebf2abb	-0.37337288
135	0x3d987b57	0.074454
136	0xbf8973b8	-1.073844
137	0xbf9e1ecc	-1.2353148
138	0xbdf27242	-0.11838199
139	0xbe997405	-0.29971328
140	0xbff809b0	-1.9377956
141	0xbee1ad5b	-0.44077572
142	0xbefb0979	-0.49030665
143	0x3d08322d	0.033250976
144	0xbee909ae	-0.45515198
145	0x3d8e7413	0.06955733
146	0xbf07c206	-0.5303043
147	0xbef8d274	-0.48598063
148	0xbec9fd06	-0.39450854
149	0x3e4cc2e2	0.19996217
150	0xbf8aded4	-1.0849252
151	0x3e49eee7	0.1972004
152	0xbe633ea5	-0.22191866
153	0x40014142	2.019608
154	0xbf1eeb15	-0.62077457
155	0xbdd8710b	-0.10568436
156	0xbf367ba6	-0.7128242
157	0xbd0cf713	-0.034415316
158	0x3e22ca3e	0.15897462
159	0xbbfdce6d	-0.007745555
160	0x3eb86955	0.36017862
161	0x3f0be5db	0.54647607
162	0x3dca6608	0.09882742
163	0x3d4574f8	0.048207253
164	0x3fb29546	1.3951805
165	0xbd8386f6	-0.06422226
166	0xbf20c127	-0.6279473
167	0x402b7184	2.6788034
168	0x3dc1b467	0.09458237
169	0xbe07a5f9	-0.13246907
170	0xbde3b37c	-0.11118218
171	0x3dde3fa3	0.108519815
172	0xbed66ba2	-0.41878992
173	0xbe910b21	-0.28328803
174	0x3f1323ca	0.57476485
175	0xbf826853	-1.0188087
176	0xbf68b713	-0.9090435
177	0xbf9ee060	-1.2412224
178	0xbf810223	-1.0078777
179	0xbdd568d4	-0.10420385
180	0x3d6705fe	0.0564022
181	0x3f24465d	0.64169866
182	0x3e6785d1	0.2260964
183	0x3dfbb215	0.12289826
184	0x3e347755	0.17623647
185	0xbf33d20a	-0.7024237
186	0xbe0b03df	-0.13575695
187	0x3d6c8c1e	0.057750814
188	0x3ed8566d	0.42253438
189	0x3da97f43	0.08276226
190	0xbf55b8e8	-0.8348527
191	0x3e775cb5	0.24156459
192	0x3db6edad	0.08932052
193	0xbe199120	-0.14996767
194	0xbf509c8e	-0.81488883
195	0x3d9b2eba	0.07577272
196	0xbf4393fa	-0.7639767
197	0xbe9481bb	-0.29005226
198	0x3ea13e72	0.31492954
199	0x3e0dd9a3	0.13852553
200	0xbe93786a	-0.28802806
201	0xbf3b3a02	-0.7313539
202	0xbe111f77	-0.14172159
203	0x3e684fba	0.22686663
204	0xbfaea09c	-1.3642764
205	0x3ef037b0	0.46917486
206	0xbe677196	-0.22601923
207	0xbd9a585d	-0.07536385
208	0xc00b2afb	-2.1744983
209	0x3e8ce33c	0.27517116
210	0x3ebf2c07	0.37338278
211	0x3df2ce5a	0.11855765
212	0x3e3bd1d8	0.18341768
213	0x3f681651	0.9065905
214	0x3dd24c33	0.1026844
215	0xbe279105	-0.16363914
216	0xbf143d08	-0.57905626
217	0x3d340461	0.04394949
218	0x3e0bdfd6	0.13659605
219	0x3e2e2af2	0.1700857
220	0xbd5e651e	-0.05429565
221	0xbfc030be	-1.5014875
222	0xbea7b312	-0.32753807
223	0xbd10c5ed	-0.035345007
224	0xbf9f6189	-1.245164
225	0x3cff500c	0.031166099
226	0xbeb4af14	-0.35289824
227	0xbeecdbea	-0.4626153
228	0x3d82b324	0.063818246
229	0x3e4e2be2	0.20133927
230	0xbe31d60f	-0.17366813
231	0xbdfc969e	-0.123334154
232	0xbdeda6ad	-0.116040565
233	0xbc743d73	-0.014907229
234	0xbeeb52cc	-0.45961607
235	0x3e898268	0.26857305
236	0x3d09e9ae	0.03367012
237	0xbef31313	-0.4747549
238	0xbf46aa90	-0.7760401
239	0x3c6997f0	0.014257416
240	0xbeb8e808	-0.36114526
241	0xbf1e201b	-0.6176774
242	0x3e2ea0e6	0.17053565
243	0xbe49acc0	-0.19694805
244	0x3ecf9acc	0.40547788
245	0xbe014b0f	-0.12626289
246	0x3df2cb88	0.11855227
247	0xbe0edbfe	-0.13951108
248	0xbf1dfa58	-0.6171012
249	0x3fa4ccaa	1.2874959
250	0x3f39bb56	0.72551477
251	0xbe31aa05	-0.17350014
252	0x3dae0c92	0.08498491
253	0x3fc96daa	1.5736592
254	0x3f1c74e7	0.6111588
255	0x3e7f55b6	0.2493504

bias f4 [60]
0	0xc0a3e089	-5.121159
1	0xc02bb80a	-2.6831079
2	0xbfb1d7e5	-1.3894011
3	0xbfeb13b0	-1.8365383
4	0xc036e2c2	-2.8575902
5	0xbf6e91f4	-0.93191457
6	0xbfe027d5	-1.7512156
7	0xbd767260	-0.06016767
8	0xbf53680a	-0.82580626
9	0xbff7f67c	-1.9372096
10	0xc0595bf2	-3.396237
11	0xbfd740e8	-1.6816683
12	0xc0173026	-2.3623137
13	0xc026eb03	-2.608094
14	0xc090fb4a	-4.530675
15	0xc0037778	-2.0541668
16	0xc0a0a8ca	-5.020604
17	0xbf36ea26	-0.7145103
18	0xbfb1bae2	-1.3885157
19	0xbfd3eb2e	-1.6556146
20	0xc0171212	-2.360478
21	0xbfbad258	-1.4595442
22	0xbfcf4e04	-1.6195683
23	0xbf4726dd	-0.77793676
24	0xc06e7009	-3.725588
25	0xbd6b180a	-0.057395972
26	0xbf761355	-0.9612325
27	0xc080f7b8	-4.030239
28	0xbf1ef81e	-0.62097347
29	0xbee2e9c1	-0.44318965
30	0xbeee015c	-0.46485412
31	0xbfa08945	-1.2541891
32	0xbf2968cb	-0.66175526
33	0xc05f3245	-3.4874432
34	0xbf9aee48	-1.2103968
35	0xc00745e6	-2.1136413
36	0xc03670d7	-2.8506372
37	0xbfca9505	-1.5826727
38	0xbfb3d31d	-1.4048802
39	0xbd893e57	-0.067013435
40	0xbf482873	-0.7818672
41	0xbf23ef54	-0.6403706
42	0x3fe1baf4	1.7635179
43	0xc0275a19	-2.6148741
44	0xc0795eb0	-3.8964043
45	0x3e82f193	0.25574932
46	0xbf041e9d	-0.5160921
47	0xc001606f	-2.0215108
48	0xbf5109ea	-0.8165575
49	0xc00d5183	-2.2081
50	0xc055f8e5	-3.3433163
51	0xc0548f31	-3.3212397
52	0xc01eadfc	-2.4793692
53	0xc0212907	-2.518129
54	0xc003710d	-2.053775
55	0xbe80e3b5	-0.25173727
56	0xbfcafa47	-1.5857629
57	0xbf48f95e	-0.78505504
58	0xc03a0056	-2.9062705
59	0xbf9f790b	-1.2458814

weight f4 [60, 60]
0	0xbec79cdd	-0.38986865
1	0x3e7b0c86	0.24516496
2	0xbe4b41a1	-0.19849254
3	0xbdd2754f	-0.10276281
4	0x3f155966	0.58339536
5	0xbd2fc16a	-0.042909063
6	0x3bed313a	0.0072385343
7	0xbf91038b	-1.1329206
8	0xbd1be908	-0.038064033
9	0xbe879527	-0.26480982
10	0xbf04c5e4	-0.5186446
11	0xbc0c2495	-0.008553644
12	0xbe0a003d	-0.13476653
13	0x3e214e50	0.1575253
14	0xbf36dc4e	-0.7142991
15	0xbf3933c7	-0.7234463
16	0x3d477010	0.048690856
17	0x3e511c42	0.20420936
18	0xbf141279	-0.5784069
19	0xbe77abc2	-0.24186614
20	0x3f15fab1	0.5858565
21	0xbfb3e8b0	-1.4055386
22	0xbe94e9bd	-0.29084578
23	0xbe21f45e	-0.15815875
24	0x3e036a76	0.1283358
25	0xbf6fa4e1	-0.9361096
26	0xbdcd12b9	-0.10013337
27	0xbd98c4a6	-0.07459383
28	0x3c984f05	0.018592367
29	0x3e9d65d0	0.3074174
30	0x3db58d1c	0.08864805
31	0xbe77e1e2	-0.24207261
32	0xbf26b265	-0.6511596
33	0x3e4a0359	0.1972784
34	0xbcffc53a	-0.031221975
35	0x3f8ee600	1.116394
36	0xbe0f9daf	-0.14024995
37	0x3d717579	0.05894992
38	0xbf994421	-1.1973916
39	0xbf3e3cee	-0.7431172
40	0x3deb1236	0.11478083
41	0xbc796748	-0.015222378
42	0xbf36c703	-0.7139742
43	0x3f115377	0.5676798
44	0xbdef654a	-0.11689241
45	0xbe056a1b	-0.13028757
46	0xbd8534a1	-0.06504179
47	0xbde07dc1	-0.10961486
48	0x3de53039	0.11190838
49	0xbf86f9a5	-1.0544935
50	0x3e4dc74a	0.20095554
51	0xbd8f1412	-0.0698625
52	0xbd49f088	-0.049301654
53	0xbd23f4a4	-0.04002823
54	0xbe922b67	-0.28548738
55	0xbf067162	-0.5251676
56	0x3e75aca8	0.23991644
57	0x3cc8fdb9	0.024535047
58	0xbe1850b5	-0.14874537
59	0xbe797f8c	-0.24365062
60	0xbe969688	-0.2941172
61	0xbd3baa9b	-0.045817
62	0xbc100242	-0.008789601
63	0xbd9f3562	-0.07773854
64	0x3d1c8931	0.038216773
65	0xbdc10528	-0.094248116
66	0xbe00ee2c	-0.12590855
67	0xbee3487c	-0.4439124
68	0xbd9e4c77	-0.07729428
69	0xbce7b2ce	-0.028283503
70	0xbe79cd75	-0.24394782
71	0x3d191cd8	0.037381023
72	0xbe785e89	-0.24254812
73	0xbdcbacac	-0.09945044
74	0xbda071a6	-0.07834177
75	0xbd9beee3	-0.076139234
76	0x3cdeb128	0.027184084
77	0x3dc2db8e	0.09514533
78	0xbe6b6360	-0.22987127
79	0xbe60cf8c	-0.21954173
80	0xbe4019d8	-0.18759859
81	0xbe2b9398	-0.16755521
82	0xbe950f53	-0.29113254
83	0xbea64680	-0.32475662
84	0xbc008330	-0.007843778
85	0xbd94f226	-0.07272749
86	0xbead62d9	-0.33864477
87	0xbcb46c55	-0.022024313
88	0x3d30706c	0.043075964
89	0x3d621570	0.055196226
90	0x3d03bd38	0.032162875
91	0xbd7b06bd	-0.061285723
92	0xbd989937	-0.074510984
93	0xbe5f228e	-0.21790525
94	0xbd6ef087	-0.058334854
95	0xbd24872e	-0.04016798
96	0xbd9477bd	-0.07249401
97	0xbdc027fe	-0.09382628
98	0xbdee1c3b	-0.11626478
99	0xbd1ac6ae	-0.037787132
100	0xbdcd4d5a	-0.10024519
101	0x3d2fa5fc	0.042882904
102	0xbe08f92a	-0.13376299
103	0x3da044d9	0.07825632
104	0xbdf989e9	-0.121845074
105	0xbe8118d6	-0.2521426
106	0x3dcd47dc	0.10023472
107	0xbd68f7b1	-0.056876842
108	0xbd3865bd	-0.0450189
109	0x3c7b63d0	0.015343621
110	0xbd14375c	-0.036185607
111	0xbb28828f	-0.0025712585
112	0x3d3978fd	0.0452814
113	0xbec5c444	-0.386263
114	0xbe1adf90	-0.15124345
115	0xbddcc588	-0.107798636
116	0x3ddd8555	0.10816447
117	0xbdb26db7	-0.08712333
118	0xbd8a6415	-0.067573704
119	0xbd4f6f86	-0.050643466
120	0x3e24d2ca	0.16096035
121	0x3f7360d0	0.950696
122	0xbf242e00	-0.6413269
123	0x3f7de3e5	0.99175864
124	0xbf3c22b2	-0.7349044
125	0x3e841b6b	0.25802168
126	0xbfa15a6d	-1.2605721
127	0xc004a0e2	-2.0723195
128	0x3ddf9348	0.109167635
129	0xbf97f679	-1.1872092
130	0xbf288c43	-0.6583902
131	0x3e1bf28c	0.15229243
132	0x3ec2a600	0.38017273
133	0xbe9e5326	-0.30922812
134	0xbd199d96	-0.0375038
135	0xbeea1be6	-0.4572441
136	0xbd1729b0	-0.03690499
137	0x3e27c69c	0.16384357
138	0xbf4e9548	-0.80696535
139	0x3eaee5ab	0.34159598
140	0xbe085474	-0.13313466
141	0x3e433b03	0.1906548
142	0xbfafaa32	-1.3723814
143	0xc00bd741	-2.185013
144	0xbca7d3c2	-0.020486716
145	0xbfd6816e	-1.6758249
146	0xbd550ffc	-0.052017197
147	0x3f2d1989	0.6761709
148	0xbea8e1e5	-0.32984844
149	0xc09efc2c	-4.9682827
150	0x3d659d6f	0.056058343
151	0x3f57bebe	0.84275424
152	0xbd85322e	-0.06503712
153	0x3c95b004	0.018272407
154	0xbe2f67fb	-0.17129509
155	0xbe1cf6b7	-0.15328489
156	0x3f2a5d62	0.6654874
157	0x3f8e8210	1.1133442
158	0xbe4a9b04	-0.19785696
159	0xbfc6a833	-1.552008
160	0x3f7ebdc0	0.99508286
161	0x3e84fc8b	0.25973925
162	0x3f24ecd0	0.6442385
163	0x3f8d768f	1.1051806
164	0x3f2305f4	0.6368096
165	0xbfa94128	-1.3223009
166	0x3dee5fc0	0.116393566
167	0xbe49c987	-0.19705783
168	0x3e55e528	0.20888197
169	0xbf86cfe4	-1.0532193
170	0x3eeb7bd6	0.45992917
171	0x3f8ecfb1	1.1157132
172	0xbf7a9cec	-0.97895694
173	0x3f724bd0	0.9464693
174	0xbf7841d8	-0.9697547
175	0xc00ea08d	-2.2285492
176	0x3f9d1dac	1.227468
177	0x3d861aac	0.06548056
178	0xbeb6779d	-0.35638133
179	0xbe6f63b1	-0.23377873
180	0xbe9385a2	-0.2881289
181	0xbd60cc0b	-0.05488209
182	0xbe2931bc	-0.16522878
183	0x3cc2009a	0.023681927
184	0xbdddebcd	-0.10835991
185	0x3cf9be38	0.030486211
186	0xbe2ec2bb	-0.17066471
187	0xbe6bd290	-0.23029542
188	0xbd1ba111	-0.0379954
189	0xbdbd1b98	-0.09233779
190	0xbe0b834d	-0.13624306
191	0x3d536893	0.0516134
192	0xbdb845aa	-0.08997662
193	0xbe51360a	-0.2043077
194	0xbe323285	-0.17402084
195	0x3d7c9089	0.061661277
196	0xbeaeafa2	-0.34118372
197	0xbbdc1d25	-0.0067173415
198	0xbefc23bc	-0.49246013
199	0xbd4393d2	-0.047748394
200	0x3e09c01f	0.13452195
201	0xbdb60a46	-0.08888678
202	0xbea00bf1	-0.3125911
203	0xbea47755	-0.32122293
204	0xbe51e5b0	-0.20497775
205	0xbee69ead	-0.45042935
206	0xbca91110	-0.020638019
207	0xbd05349c	-0.032520875
208	0x3d16248c	0.036655948
209	0xbf7993eb	-0.9749133
210	0xbd318222	-0.043336995
211	0xbcf34e3f	-0.029700397
212	0xbd7a6db3	-0.061139774
213	0xbd333c84	-0.043758884
214	0xbcd248f2	-0.025669549
215	0x3eaae4ea	0.33377773
216	0x3e199ebe	0.15001962
217	0xbddb64b6	-0.107125685
218	0xbd734ad9	-0.059397552
219	0x3d2d9692	0.042379923
220	0xbdacaeab	-0.08431753
221	0x3de680fc	0.112550706
222	0x3d8063cd	0.062690355
223	0x3b30a47e	0.0026953514
224	0x3ed68858	0.41900897
225	0xbd85e38c	-0.06537542
226	0x3dccb1ca	0.09994848
227	0xbdc145fe	-0.09437178
228	0x3d606530	0.054784
229	0x3da5a4ba	0.0808806
230	0xbc489ccf	-0.012244417
231	0xbe0919d7	-0.13388763
232	0xbc443d74	-0.011977542
233	0xbd205d8f	-0.039151724
234	0xbee4951b	-0.44645008
235	0x3c58b70b	0.013227235
236	0xbe26b6d0	-0.16280675
237	0xbe4342ed	-0.19068499
238	0xbd0fbf13	-0.035094332
239	0xbdc161d5	-0.09442488
240	0x3f0f2e86	0.55930364
241	0xbdb7c9e3	-0.08974054
242	0x3d89a5f3	0.067211054
243	0x3e856cb4	0.26059496
244	0x3fbe7cdd	1.4881855
245	0x3e8de77f	0.2771568
246	0x3efaec67	0.49008486
247	0x3da77cbd	0.08178089
248	0x3dd8aa82	0.10579397
249	0xbfa093dc	-1.2545123
250	0x3d958899	0.073014446
251	0xbda4df52	-0.080504075
252	0xbe22c5dd	-0.15895791
253	0xc00bebfd	-2.1862786
254	0x3eb9ba8a	0.3627513
255	0xbe826f73	-0.25475654

bias f4 [60]
0	0xbf8df8c6	-1.1091545
1	0xbf103e50	-0.5634508
2	0xbfa7280e	-1.3059099
3	0xbf3f8556	-0.7481283
4	0xc03c221f	-2.9395826
5	0xbfd6887b	-1.67604
6	0xc04df6ea	-3.2181954
7	0xbe45f8d1	-0.19333197
8	0xbf43ec4d	-0.7653244
9	0xbebf3c77	-0.3735082
10	0xbe80360f	-0.25041243
11	0xc0a154d1	-5.0416036
12	0xc10013f7	-8.004874
13	0xbf83e50d	-1.0304276
14	0xc03f3440	-2.987564
15	0xbf7d4cc0	-0.98945236
16	0xc01d5676	-2.4584022
17	0xbf9eb7eb	-1.2399877
18	0xbfb3e699	-1.4054748
19	0xbf006ca0	-0.5016575
20	0xc0a48713	-5.1414886
21	0xbfac992e	-1.3484247
22	0xbfab3962	-1.3376887
23	0xc00afb0f	-2.1715734
24	0xbf9184a7	-1.1368607
25	0xbf5168e9	-0.81800705
26	0xc052ef5b	-3.295859
27	0xbfc2cd11	-1.5218831
28	0xbfc8c408	-1.5684824
29	0xbf12779d	-0.57213765
30	0xbf2bd7b4	-0.6712601
31	0xbf00d5d4	-0.50326276
32	0xc057be42	-3.3709874
33	0xc03e418e	-2.9727511
34	0xbf48d38a	-0.78447783
35	0xc023d48c	-2.5598478
36	0xc061456a	-3.5198617
37	0xbfa7475f	-1.3068656
38	0xc00e6526	-2.2249236
39	0xbee7a1cc	-0.4524063
40	0x40312c2e	2.7683215
41	0xbfe82ccf	-1.8138674
42	0xc059925d	-3.3995583
43	0xbff8baab	-1.9431967
44	0xbfa77c05	-1.3084723
45	0xc005c3ea	-2.0900826
46	0xbfb8cf87	-1.4438332
47	0xbe2e6008	-0.1702882
48	0xc04c283a	-3.1899552
49	0xbebf1e8c	-0.37327993
50	0xbf9b917a	-1.2153771
51	0xbfd22152	-1.6416419
52	0xc043ce39	-3.0594618
53	0xbfd4465a	-1.658397
54	0x4061a070	3.5254173
55	0xbfde0aa9	-1.7347003
56	0xbec49f1d	-0.38402644
57	0xbf015e3f	-0.50534433
58	0xbe9bd9dd	-0.30439654
59	0xbfb2d36e	-1.3970773

weight f4 [10, 60]
0	0xbf5c8acf	-0.86149305
1	0xbea79503	-0.32730874
2	0xbf8f1ba5	-1.1180311
3	0xbe270cce	-0.16313478
4	0x3e61745d	0.22017045
5	0xbfb658da	-1.4245865
6	0xbf786a9f	-0.9703769
7	0xbfd80df0	-1.6879253
8	0xbe4ae540	-0.19814014
9	0x3e872b8d	0.26400414
10	0xbf6ec4fb	-0.9326932
11	0xbf65ffdc	-0.89843535
12	0xbfa857f8	-1.3151846
13	0xbf40b7e3	-0.7528059
14	0xbf848faf	-1.0356349
15	0xbef84861	-0.4849272
16	0xbec26fac	-0.37975824
17	0xbf883b82	-1.064316
18	0xbfc50c86	-1.5394447
19	0xbf82a89b	-1.0207704
20	0xbfc764d6	-1.5577648
21	0xbf1327d0	-0.57482624
22	0xbecde2b8	-0.40212035
23	0xbe4b206f	-0.19836591
24	0x3eb103c1	0.34573177
25	0xbdb2014d	-0.08691654
26	0xbfb0864a	-1.3790982
27	0xbdf2efca	-0.118621424
28	0xbfbd8c3e	-1.4808424
29	0x3d837a71	0.06419838
30	0x3d3a52f5	0.04548927
31	0xbdcae95a	-0.099077895
32	0xbde2e269	-0.110783406
33	0xbfcf24c5	-1.6183096
34	0xbe69b579	-0.22823133
35	0x3e979768	0.296077
36	0xbfaf80ff	-1.3711241
37	0xbf943c66	-1.1580932
38	0xbfd711f5	-1.6802355
39	0x3e2b09b6	0.16702923
40	0xbf7a041f	-0.9766254
41	0xbff45be1	-1.9090539
42	0xbfcb8c13	-1.5902122
43	0xbe8bb735	-0.27288213
44	0xbf22d7f7	-0.63610786
45	0xbed37bbb	-0.41305336
46	0xbf54f2a3	-0.83182734
47	0xbfa518e8	-1.2898226
48	0xc001042d	-2.0158799
49	0x3d2f24c1	0.04275966
50	0xbfd29bba	-1.6453774
51	0xbf942384	-1.1573339
52	0xbff7712a	-1.933141
53	0xbf8ba9b0	-1.091116
54	0xbf82b839	-1.021247
55	0xbf5b37fd	-0.85632306
56	0xbe90c2bd	-0.28273574
57	0x3d92d259	0.07169027
58	0x3d825a9b	0.06364938
59	0xbea9ddfd	-0.33177176
60	0xbf379f17	-0.71727127
61	0x3e7e7e42	0.24852851
62	0xbf8456bc	-1.0338969
63	0xbfad4559	-1.3536788
64	0xbf2f7b5f	-0.68547624
65	0xc05da36b	-3.4630992
66	0xc08998b0	-4.2998886
67	0xbfdadd09	-1.7098705
68	0xbfa7eaf8	-1.3118582
69	0xbe5f96aa	-0.21834818
70	0xbe1ab75d	-0.1510901
71	0xbf8dd194	-1.1079583
72	0xbff19825	-1.8874556
73	0xc072a8f6	-3.7915626
74	0xbf9824c4	-1.188622
75	0xbf6d0e7d	-0.9260023
76	0xbfcffe8a	-1.6249554
77	0xc0b5400d	-5.6640687
78	0xbf828aba	-1.0198586
79	0xbe9113a9	-0.28335312
80	0xc077e9b5	-3.8736393
81	0xc08be928	-4.3722115
82	0xc0343762	-2.8158803
83	0xbee9d880	-0.4567299
84	0xbffc9c9d	-1.9735295
85	0x3d0ab091	0.033859793
86	0xc0044584	-2.066743
87	0xbe825299	-0.25453642
88	0xbf6056c2	-0.8763238
89	0x3c926255	0.017869154
90	0x3e463d50	0.19359326
91	0xbeeb92fa	-0.46010572
92	0xc0591d1c	-3.3924017
93	0xc039b406	-2.9016128
94	0xbd9930f7	-0.074800424
95	0x3e924f22	0.28576
96	0xbfecb60c	-1.8493056
97	0xbfb74ac7	-1.4319695
98	0xc050b9f9	-3.2613509
99	0x3c04aad9	0.008097374
100	0x3dd734d1	0.10508121
101	0xc094f623	-4.655046
102	0xc063fd30	-3.5623283
103	0xbf439d40	-0.7641182
104	0xbf8ac868	-1.0842409
105	0xc03b7372	-2.9289212
106	0x3f19e9ce	0.6012238
107	0xc0829c86	-4.081607
108	0xc00dae29	-2.213755
109	0x3c8f3ae0	0.017484128
110	0xc0975d4c	-4.730139
111	0xbfc67e4a	-1.550729
112	0xc04fc432	-3.2463498
113	0xbfb353df	-1.400997
114	0xbfa52880	-1.2902985
115	0xc0b22404	-5.5668964
116	0x3d9ec2da	0.07752009
117	0xbe9937f6	-0.29925507
118	0xbe0f1b79	-0.13975324
119	0xbef04f16	-0.46935338
120	0xbeddbb28	-0.4330685
121	0xbcfaa0eb	-0.03059431
122	0xc07afd7c	-3.9217215
123	0xbeb1eaa2	-0.34749323
124	0xbe7d7097	-0.24749981
125	0xbfb13f7c	-1.3847499
126	0xc07f7b9d	-3.9919198
127	0xbf891e5f	-1.0712394
128	0x3dd0af63	0.10189702
129	0xbe1c35b0	-0.15254855
130	0xc0681078	-3.6260052
131	0xc08e55e4	-4.4479847
132	0xc0b6317c	-5.6935406
133	0xbf30b138	-0.69020414
134	0xc07a1026	-3.9072356
135	0xc0583523	-3.3782432
136	0x3e9a0981	0.30085376
137	0x3d40bc0d	0.04705434
138	0xc0d33630	-6.6003647
139	0xbe90d779	-0.28289393
140	0xbfb4f288	-1.4136515
141	0x3f78e5a9	0.97225434
142	0xbf184bca	-0.59490645
143	0x3e450f02	0.19244006
144	0x3db295a7	0.0871995
145	0x3e0bb24d	0.13642235
146	0xc02004d3	-2.5002944
147	0xc03d987c	-2.962432
148	0xbf8753ca	-1.0572445
149	0xbf906b2a	-1.1282704
150	0xbe630ce3	-0.22172885
151	0xbe0d2c42	-0.13786414
152	0xbf82a6a0	-1.02071
153	0xc03bdf73	-2.9355133
154	0x3d47a8b7	0.048744883
155	0x3e055f9b	0.13024752
156	0xc019900a	-2.3994164
157	0xbefd063a	-0.49418813
158	0xc063e4d6	-3.560842
159	0x3b58a71d	0.0033058592
160	0xbf46c520	-0.7764454
161	0xc08a1a75	-4.3157296
162	0xc0adb0d8	-5.4278374
163	0xbfc36560	-1.5265312
164	0xbc94a596	-0.018145364
165	0xc0fcfa3c	-7.905546
166	0xc03ed882	-2.9819646
167	0xc1019a0c	-8.100109
168	0xbfbb3c44	-1.4627767
169	0xbfdbe16d	-1.717817
170	0xbfb65b4e	-1.4246614
171	0xbfc645f5	-1.5490099
172	0xc0318cb3	-2.7742126
173	0xbfc03fec	-1.5019507
174	0xbf8144ba	-1.0099099
175	0xbfac37ed	-1.3454567
176	0xbf2ec333	-0.682666
177	0xbe09d9b7	-0.13461958
178	0xbf16e328	-0.5894036
179	0xbdeabe62	-0.11462094
180	0xbf8c6205	-1.0967413
181	0xbd580bc4	-0.052745596
182	0xc04700bc	-3.1094198
183	0xbedabcf5	-0.42722288
184	0x3f0e572b	0.5560176
185	0xbfc48cfc	-1.5355525
186	0xc01a525f	-2.4112775
187	0xbf2fac58	-0.6862235
188	0xbdb0df80	-0.08636379
189	0xbe91c1dc	-0.28468215
190	0xc157daec	-13.490948
191	0xbf2c5952	-0.6732379
192	0xc0215e8c	-2.5213957
193	0xbe49f812	-0.19723538
194	0xc0ac4c96	-5.384349
195	0xc02fab2f	-2.7448232
196	0xbf787a10	-0.9706125
197	0xbf91b565	-1.1383482
198	0xc0a601fc	-5.187742
199	0xbf8c6900	-1.0969543
200	0xbfefc268	-1.8731203
201	0xbfef6510	-1.8702717
202	0xbfdd8547	-1.7306298
203	0x3f065e4d	0.5248764
204	0x3d807dda	0.06274004
205	0xbd9f4c01	-0.077781685
206	0xc09dab45	-4.927157
207	0xbf1f219a	-0.62160647
208	0xbeec2c7c	-0.4612769
209	0xbe1855aa	-0.14876428
210	0xbeffa2ab	-0.49928793
211	0x3d5d1054	0.05397065
212	0xbf80c653	-1.0060524
213	0xc0726adf	-3.787773
214	0xbea42e96	-0.32066792
215	0xbf01b46c	-0.50665927
216	0xc08ab8b1	-4.3350453
217	0xbf97c5f2	-1.1857283
218	0xc02d1735	-2.7045414
219	0xbddaea66	-0.10689239
220	0xc12b904a	-10.722727
221	0xbfe538c2	-1.7907946
222	0xc091a481	-4.551331
223	0xbfa26873	-1.2688125
224	0x3dcb52ec	0.099279255
225	0xc1a45778	-20.54271
226	0xc02daf10	-2.71381
227	0xc140dabc	-12.053402
228	0xbfdcdc84	-1.7254796
229	0xbf5716d4	-0.8401921
230	0xc06c51de	-3.6924968
231	0xc0192b77	-2.393278
232	0xc0e9a564	-7.3014393
233	0xc0063933	-2.0972412
234	0xc1b1d174	-22.227272
235	0xbf9e8641	-1.2384721
236	0x3d81d368	0.06339151
237	0xbffa2c77	-1.954482
238	0xbffa674a	-1.9562771
239	0x3e1d1fbf	0.15344141
240	0xbf814e8e	-1.0102098
241	0xbedb467a	-0.42827207
242	0xbf39d7e8	-0.7259507
243	0xbeff8cc7	-0.49912092
244	0xbeac84a5	-0.3369495
245	0xc119f651	-9.622636
246	0xc0eb90ef	-7.361442
247	0xbf5cf134	-0.86305547
248	0xbf99293e	-1.1965711
249	0xbed77674	-0.4208256
250	0xbf06c7bc	-0.5264852
251	0xc01fea8b	-2.4986904
252	0xc0df98af	-6.987388
253	0xbfb01622	-1.3756754
254	0xc0abb672	-5.366021
255	0xbef24ac7	-0.47322676

bias f4 [10]
0	0x3fefcf23	1.8735088
1	0xbf6f561e	-0.9349078
2	0x3d3ba45a	0.045811035
3	0x3f0f0f61	0.5588284
4	0xbe9962a2	-0.29958063
5	0xbfc67e30	-1.5507259
6	0xbfa44972	-1.2834914
7	0xbf9bcfbc	-1.217277
8	0xbfe1da10	-1.7644672
9	0xbed88c33	-0.42294464
