NN Real data/final_trained_models/TPSMk/TPSMk1.pth (torch, 55867 bytes, 10 tensors)

weight f4 [60, 20]
-0.33611488 0.23693843 0.012548541 0.74194217 0.1903907 -0.48824885 -0.20208319 -0.09345617
-0.00079892174 0.6883337 0.3145621 -0.75238913 -0.24793321 -0.5272462 1.0969383 2.3345027
-0.998087 -0.29189974 -0.53746396 0.99077696 0.8677101 0.06395025 -0.9499161 -0.14113483
-0.19076152 0.6070262 -0.2201975 -0.35180402 -0.40273574 0.49728382 0.6067215 -0.2728337
-0.31011233 -0.5698709 0.08120295 0.06423946 -0.17845003 -0.7248545 -0.09453891 -0.14074136
1.2578326 0.5463201 -0.28979325 -0.05654001 0.6554891 -0.3114108 0.07462973 0.22740063
0.36108074 -0.13419318 -0.25783634 0.14603455 0.09566763 0.15008172 0.013579471 -0.5440885
-0.29950622 0.2591195 -0.18385307 0.19380303 -0.16437788 -0.89459777 -0.38387427 -0.25460166
-0.09594377 -0.5038811 0.022008594 -0.109138235 -0.6099079 0.4852504 -0.036282163 0.5318235
-0.15772882 -0.20192452 0.4993503 -0.5537788 0.2332732 -0.046136394 -0.15735833 0.5013792
-1.3127052 0.7153575 0.19128779 0.34065148 0.96164614 0.1140097 -0.120574005 -0.22448075
-0.38976103 -0.16767296 0.23689686 -0.07022903 -0.40302384 -0.24116497 -0.26742658 0.80384946
-0.5325392 -0.33562344 0.04553903 -0.10971647 0.002139295 -1.3403779 0.64898896 -0.028146664
-1.1504427 -0.4453677 -0.4066965 -0.029179035 0.16101202 -0.32741252 -0.010454815 0.015349261
-0.052365065 0.025740696 -0.21645698 -0.16279382 0.049590264 -0.4861712 0.08236963 -0.39754927
-1.0338991 -0.38875824 0.0649386 0.16419785 0.5582912 -0.4363462 -0.60480917 0.10703404
-0.315112 0.6284983 -0.5309963 -0.45432448 -0.22711362 0.09474686 0.50578535 -0.5486143
-0.36695328 0.2936106 0.16086023 0.02302018 0.7539248 -0.5369034 -0.7280624 -0.09737836
-1.195031 -0.53420824 0.65816206 -0.102869116 -0.14844349 -0.44681412 -0.27299467 0.28812855
-0.093947016 -0.12854806 -0.3015516 -0.17498745 0.24524675 0.52478814 0.5660985 0.031887908
0.29607216 -0.9109301 0.5053326 -0.37868637 0.24454463 0.42967856 -0.6100179 -0.11899764
0.8311456 -0.8874398 0.38169995 -0.3649879 0.076267764 0.60254633 -0.32019562 1.2860706
-0.74252087 -0.3687066 1.7140503 -0.37394333 -0.31549194 -1.0490413 -0.040688995 -1.2685062
-0.38604015 0.17495595 -0.5936154 -0.11690029 -0.35298353 -0.221793 0.1941012 -0.45956478
-0.5902383 0.66840756 0.17536314 -0.00065662136 -0.2990499 -0.6174154 0.4007818 0.1927167
-0.026248114 -0.71036637 -0.6635823 -0.059395786 -0.2165728 -0.8424074 -0.059095196 0.06998836
-0.1763722 0.009669848 0.034497127 0.059945006 -0.18237562 -0.3629179 0.16473395 0.5237087
-0.33315685 0.42078793 -0.07294064 0.64047 1.3303843 -0.5878093 -0.7854562 0.7629913
-0.45155102 -0.34846562 0.30118206 0.06931733 0.07512166 0.2555688 -0.12821086 0.17873386
0.060471404 -0.15950015 0.47248682 -0.26775032 -0.09733253 0.35159802 -0.4854943 0.20165022
-0.335089 -1.0552374 -0.7917504 -0.63090914 0.07244606 0.19496742 -0.19094265 -0.4035051
-0.054082878 -0.25745937 0.514138 0.034667574 -0.4779486 0.49592325 -0.052691665 1.0670115
00000000: 4017 acbe fd9f 723e 6598 4d3c ecef 3d3f
00000010: c8f5 423e c1fb f9be e5ee 4ebe f365 bfbd
00000020: bb6e 51ba a336 303f 490e a13e 939c 40bf
00000030: 34e2 7dbe 9bf9 06bf 7968 8c3f 7e68 1540
00000040: a182 7fbf e273 95be 3d97 09bf 8fa3 7d3f
00000050: 4022 5e3f 59f8 823d b42d 73bf a685 10be
00000060: fd56 43be 1266 1b3f 747b 61be a81f b4be
00000070: 6133 cebe fc9b fe3e 1a52 1b3f dcb0 8bbe
00000080: 0bc7 9ebe 0fe3 11bf bb4d a63d fa8f 833d
00000090: 9bbb 36be 1190 39bf 9e9d c1bd 811e 10be
000000a0: a900 a13f a2db 0b3f c85f 94be 7f96 67bd
000000b0: 22ce 273f 3d71 9fbe 79d7 983d b6db 683e
000000c0: 93df b83e f069 09be 2003 84be 158a 153e
000000d0: 64ed c33d 06af 193e 6e7c 5e3c 6249 0bbf
000000e0: e158 99be 50ab 843e fb43 3cbe 4d74 463e
000000f0: ad52 28be 5c04 65bf 2b8b c4be 265b 82be
00000100: 2b7e c4bd 5afe 00bf 5e4b b43c de83 dfbd
00000110: ed22 1cbf be72 f83e 9b9c 14bd 9625 083f
00000120: aa83 21be 4dc5 4ebe d8aa ff3e 73c4 0dbf
00000130: 2bdf 6e3e 84f9 3cbd 8b22 21be 635a 003f
00000140: b906 a8bf ab21 373f f2e0 433e df69 ae3e
00000150: 712e 763f eb7d e93d 81ef f6bd 48de 65be
00000160: c28e c7be 76b2 2bbe 1795 723e 3dd4 8fbd
00000170: 2459 cebe f3f3 76be 23ec 88be 14c9 4d3f
00000180: 7d54 08bf d6d6 abbe 2287 3a3d 07b3 e0bd
00000190: 6a33 0c3b 8191 abbf 2424 263f d593 e6bc
000001a0: b541 93bf 3c07 e4be 863a d0be df08 efbc
000001b0: 56e0 243e 9da2 a7be ac4a 2bbc 787b 7b3c
000001c0: c07c 56bd 27de d23c e6a6 5dbe 6cb3 26be
000001d0: 291f 4b3d 6eeb f8be 69b1 a83d 948b cbbe
000001e0: ce56 84bf 520b c7be 87fe 843d 7b23 283e
000001f0: 2cec 0e3f c568 dfbe c6d4 1abf aa34 db3d
00000200: 5c56 a1be 44e5 203f 60ef 07bf 389d e8be
00000210: 7990 68be a40a c23d 267b 013f fd71 0cbf
00000220: 4de1 bbbe 2154 963e 8bb8 243e d194 bc3c
00000230: 3701 413f 8072 09bf 4c62 3abf 4e6e c7bd
00000240: c7f6 98bf dfc1 08bf 4f7d 283f 0bad d2bd
00000250: 9201 18be d2c4 e4be f5c5 8bbe 9685 933e
00000260: 4b67 c0bd 1aa2 03be f964 9abe e92f 33be
00000270: f721 7b3e 8458 063f d5eb 103f e59c 023d
00000280: c596 973e b732 69bf 7a5d 013f 2ee3 c1be
00000290: e869 7a3e d4fe db3e 222a 1cbf 09b5 f3bd
000002a0: f5c5 543f 412f 63bf 2d6e c33e b2df babe
000002b0: 4632 9c3d 7a40 1a3f aef0 a3be f69d a43f
000002c0: d915 3ebf 1dc7 bcbe 0066 db3f 8075 bfbe
000002d0: 2988 a1be fc46 86bf 81a9 26bd 695e a2bf
000002e0: 0ea7 c5be a727 333e 2ef7 17bf 6b69 efbd
000002f0: 42ba b4be b41d 63be 77c2 463e 134c ebbe
00000300: db19 17bf c21c 2b3f 6592 333e 1d21 2cba
00000310: 121d 99be f00e 1ebf 4633 cd3e 8757 453e
00000320: 4906 d7bc 92da 35bf 88e0 29bf ff48 73bd
00000330: 43c5 5dbe 03a8 57bf ce0d 72bd 0f56 8f3d
00000340: ea9a 34be 486e 1e3c dc4c 0d3d e588 753d
00000350: adc0 3abe 60d0 b9be 04b0 283e c611 063f
00000360: 8993 aabe 8471 d73e e761 95bd d8f5 233f
00000370: 084a aa3f ac7a 16bf a813 49bf 6653 433f
00000380: b231 e7be 166a b2be 8934 9a3e 3ff6 8d3d
00000390: 63d9 993d ead9 823e b549 03be 0206 373e
000003a0: ddb0 773d 0254 23be cbe9 f13e 9216 89be
000003b0: 4756 c7bd a804 b43e b592 f8be 657d 4e3e
000003c0: c990 abbe 0512 87bf 27b0 4abf 4383 21bf
000003d0: 9a5e 943d 8aa5 473e 7886 43be 3898 cebe
000003e0: 0286 5dbd b7d1 83be 8c9e 033f 96ff 0d3d
000003f0: aeb5 f4be a7e9 fd3e 37d3 57bd d593 883f

bias f4 [60]
-0.054604843 -0.013784332 0.045325555 -0.19840372 0.07555125 -0.06368823 -0.21085231 -0.02225274
0.06801438 0.13016784 0.040520463 0.101676136 0.13465863 -0.035153206 -0.0911818 0.021120103
0.18596853 0.27472612 0.09688545 0.14538643 0.069783695 -0.14626475 -0.13044444 -0.054602537
0.017764755 0.034772348 -0.03967991 -0.11054722 -0.0765266 0.0017867631 0.04344249 -0.19337307
0.024923716 0.16656664 -0.10528339 0.13966748 0.00013889762 0.06842115 -0.16200678 0.07980089
0.22273958 0.06734091 -0.05499671 -0.07208335 -0.14291193 0.13912871 0.052619632 0.116273575
0.101208575 0.03393185 0.20137736 0.12917322 -0.2796337 0.24851307 -0.02707917 0.04788853
0.13899636 0.022165092 0.05857976 0.19324543
00000000: 54a9 5fbd aed7 61bc 4aa7 393d 582a 4bbe
00000010: 9dba 9a3d fa6e 82bd abe9 57be 614b b6bc
00000020: 204b 8b3d b84a 053e c9f8 253d 943b d03d
00000030: f4e3 093e cffc 0fbd 86bd babd 1104 ad3c
00000040: 896e 3e3e e7a8 8c3e e16b c63d 2ee0 143e
00000050: c1ea 8e3d 6dc6 15be 3a93 05be e9a6 5fbd
00000060: 6487 913c 736d 0e3d 6787 22bd 9566 e2bd
00000070: fab9 9cbd d231 ea3a c1f0 313d 9703 46be
00000080: d22c cc3c 7290 2a3e d19e d7bd fe04 0f3e
00000090: 0ca5 1139 6320 8c3d 1be5 25be a66e a33d
000000a0: d815 643e 08ea 893d 3b44 61bd 6fa0 93bd
000000b0: 8157 12be c277 0e3e af87 573d d720 ee3d
000000c0: 7146 cf3d 20fc 0a3d de35 4e3e fc45 043e
000000d0: 262c 8fbe 367a 7e3e 23d5 ddbc c326 443d
000000e0: 1055 0e3e 9193 b53c 55f1 6f3d 21e2 453e

weight f4 [60, 60]
1.0442628 -0.2510918 -0.18278414 -0.57663023 -0.09667899 0.17122898 -0.35323113 0.7977569
-0.711032 0.05882737 0.43137336 0.089275144 -0.09132899 -0.15186039 -0.1944867 0.035376474
-0.10089194 0.39874607 0.1430662 -1.0804222 0.09313425 0.022710131 0.25889722 -0.21465896
-0.6267586 -0.18052986 0.34809 0.12187294 0.69914603 -0.27088726 0.6368935 0.3227117
-0.76985645 0.42087492 0.19915952 -0.37833574 0.3184601 -0.81917673 0.5152659 -1.485184
0.6123686 -0.10805617 0.25707802 0.14833859 0.34384313 -0.15119648 0.42591104 0.06122547
-0.4014732 0.1673249 -0.12026709 0.5553281 -0.041657466 -0.46604708 0.7569811 0.06087783
0.22673626 -0.07132663 0.6439028 -0.7372391 0.7429568 0.022218632 0.1871243 0.15208818
-0.7291997 -0.4705467 0.11736938 0.42855173 0.041790556 -0.6348499 0.26606002 0.23029079
-0.036191553 0.5699918 -0.14594315 -0.30814585 -0.42334452 -0.1323066 0.12731723 -0.63923186
0.06736383 0.0045397365 0.17479405 -0.17306314 -0.28626645 -0.3189962 0.07903801 0.43011898
0.6328474 -0.30744985 0.19534336 -0.30887052 -0.40062684 0.4293622 -0.1168591 -0.1887127
-0.41173685 -0.2730238 0.15753083 0.0031661654 -0.064099826 -0.219124 0.17117414 -0.9401782
-0.054089 0.3611883 0.59957874 0.2066825 -0.44288564 -0.28174058 -0.4288095 0.37946147
-0.5665986 -0.321343 0.08135793 0.21765867 -0.21914545 0.14127374 -0.019792335 -1.0106006
0.8164142 -0.019577662 -0.11837953 0.29444435 -0.56132025 -0.294284 -0.2587177 0.52949965
-0.4036496 -0.27492154 0.012215653 0.024375819 0.030282058 0.81313413 0.1531527 -0.17236419
-0.6381092 0.030106962 0.030545669 0.4643885 0.0653363 -0.17556629 0.01587869 -0.10810374
-0.526701 -0.36609575 0.20842832 0.9477401 0.30994207 -0.42628714 0.32078886 -0.4474888
-0.34939837 0.2855266 0.34387073 -0.079263575 -0.41782486 -0.16567613 0.029922696 -0.7756897
-0.032854833 0.8907821 0.13977817 -0.24820209 0.61521196 -0.2391626 0.8505835 -0.108381175
0.21241492 0.1648704 -0.6284137 -0.07470212 -0.0736602 0.5884323 1.3008959 -0.090801954
-0.22210024 0.11447535 0.31872874 -0.7686679 0.34370628 -0.65854937 0.53280133 0.122307226
-0.31912535 -0.37175298 0.3619959 0.36651018 -0.25092447 -0.20048009 -0.07033833 0.27878356
0.12584303 0.48843604 -0.4862541 0.042874336 -0.24738568 -0.59100145 0.6975336 0.30814925
-0.45125836 -0.09992826 -0.24043962 -0.5064356 -0.863223 0.045712348 -0.17707758 0.5542666
-0.34514743 0.14843018 0.23750904 0.11052061 0.31410977 -0.14110437 0.039165035 0.049433745
-0.41399992 -0.65365225 0.039954815 -0.04590343 -0.12858573 0.21904017 0.11309064 -0.20503248
0.009097742 0.34336942 0.45439276 0.44679883 -0.1392352 -0.24652739 0.10185016 -0.10963386
-0.05490821 0.15857913 0.88170666 -0.392557 -0.17422476 0.7388552 -0.08657485 -0.4581668
0.9462774 -0.049512997 -0.023929086 0.054934528 0.031105941 0.13846175 -0.65525234 0.6478626
-0.5355243 -0.10618806 -0.28956488 0.08334819 -0.3031972 -1.6263801 -0.50975806 -0.04053034
00000000: 67aa 853f 1b8f 80be c42b 3bbe 0a9e 13bf
00000010: a2ff c5bd a656 2f3e b6da b4be cc39 4c3f
00000020: 3106 36bf f8f4 703d f8dc dc3e e3d5 b63d
00000030: b20a bbbd 4a81 1bbe 8627 47be ece6 103d
00000040: 6fa0 cebd 7228 cc3e f27f 123e 464b 8abf
00000050: 2bbd be3d 990a ba3c 2d8e 843e 8fcf 5bbe
00000060: 4073 20bf d2dc 38be da38 b23e 8598 f93d
00000070: 3cfb 323f bcb1 8abe 740b 233f 783a a53e
00000080: 5015 45bf eb7c d73e 79f0 4b3e 39b5 c1be
00000090: 340d a33e 91b5 51bf 77e8 033f 821a bebf
000000a0: 30c4 1c3f 8e4c ddbd bb9f 833e 12e6 173e
000000b0: 350c b03e 40d3 1abe 0311 da3e 8fc7 7a3d
000000c0: e58d cdbe 3857 2b3e 984e f6bd fb29 0e3f
000000d0: 05a1 2abd b99d eebe 83c9 413f 085b 793d
000000e0: 8d2d 683e b213 92bd d0d6 243f b4bb 3cbf
000000f0: 6b32 3e3f d903 b63c 839d 3f3e 01bd 1b3e
00000100: d5ac 3abf 7feb f0be 5c5f f03d 226b db3e
00000110: 932c 2b3d 8685 22bf 0539 883e 59d1 6b3e
00000120: 983d 14bd fcea 113f 1f72 15be 4bc5 9dbe
00000130: 9dc0 d8be 627b 07be 735f 023e b3a4 23bf
00000140: 0cf6 893d 12c2 943b 36fd 323e 7737 31be
00000150: 8491 92be 7853 a3be aede a13d 8e38 dc3e
00000160: 4a02 223f 116a 9dbe 1708 483e 4724 9ebe
00000170: f61e cdbe 5dd5 db3e d353 efbd e73d 41be
00000180: 2ccf d2be c7c9 8bbe c34f 213e 717f 4f3b
00000190: c546 83bd 0b62 60be 4648 2f3e 85af 70bf
000001a0: 6d8c 5dbd aced b83e fe7d 193f 94a4 533e
000001b0: e8c1 e2be 4d40 90be eb8c dbbe c648 c23e
000001c0: 9b0c 11bf 1287 a4be fd9e a63d eae1 5e3e
000001d0: aa67 60be 10aa 103e 8923 a2bc 5c5b 81bf
000001e0: 8500 513f 5561 a0bc f870 f2bd 69c1 963e
000001f0: afb2 0fbf 64ac 96be a576 84be 4a8d 073f
00000200: 29ab cebe 84c2 8cbe 2a24 483c ccaf c73c
00000210: 1412 f83c 8f29 503f 10d4 1c3e 3d80 30be
00000220: 205b 23bf e0a2 f63c e93a fa3c 54c4 ed3e
00000230: 0acf 853d a6c7 33be 0714 823c 7e65 ddbd
00000240: e0d5 06bf e770 bbbe 3c6e 553e 189f 723f
00000250: bab0 9e3e 4f42 dabe 703e a43e 411d e5be
00000260: 58e4 b2be 8b30 923e d30f b03e f154 a2bd
00000270: 24ed d5be 01a7 29be 7120 f53c 9a93 46bf
00000280: ca92 06bd 4c0a 643f 0222 0f3e b028 7ebe
00000290: 887e 1d3f 0ae7 74be d7bf 593f f3f6 ddbd
000002a0: 4c83 593e c9d3 283e b8df 20bf 6dfd 98bd
000002b0: 29db 96bd 80a3 163f c283 a63f 60f6 b9bd
000002c0: 3f6e 63be 0d72 ea3d 6a30 a33e 6bc7 44bf
000002d0: 45fa af3e b196 28bf ab65 083f 367c fa3d
000002e0: 6664 a3be 6856 bebe 8757 b93e 39a7 bb3e
000002f0: 2c79 80be a74a 4dbe 8b0d 90bd b8bc 8e3e
00000300: ffdc 003e 4a14 fa3e 4cf6 f8be 009d 2f3d
00000310: ac52 7dbe df4b 17bf 9091 323f bdc5 9d3e
00000320: 560b e7be 30a7 ccbd ce35 76be c3a5 01bf
00000330: 2ffc 5cbf df3c 3b3d d353 35be 6ae4 0d3f
00000340: 2ab7 b0be 15fe 173e 9235 733e a158 e23d
00000350: ffd2 a03e aa7d 10be 846b 203d 0a7b 4a3d
00000360: ccf7 d3be c155 27bf a9a7 233d 3c05 3cbd
00000370: faab 03be 114c 603e 119c e73d 09f4 51be
00000380: b20e 153c 1ece af3e 2ba6 e83e d1c2 e43e
00000390: ac93 0ebe ad71 7cbe d196 d03d b887 e0bd
000003a0: 6ee7 60bd 9162 223e 87b7 613f 3bfd c8be
000003b0: fa67 32be 9d25 3d3f 284e b1bd d794 eabe
000003c0: 3c3f 723f 24ce 4abd ee06 c4bc 0703 613d
000003d0: e3d1 fe3c ebc8 0d3e 9ebe 27bf 53da 253f
000003e0: 1f18 09bf 2079 d9bd d941 94be 75b2 aa3d
000003f0: aa3c 9bbe 392d d0bf 817f 02bf 2403 26bd

bias f4 [60]
-0.10517548 -0.012122355 -0.15784533 0.12449236 0.19959883 0.29978117 0.21628278 -0.106797226
0.2131002 -0.055531964 0.09068074 -0.3415447 -0.48605707 -0.02703563 -0.18668401 -0.11019618
0.16365743 0.18243146 -0.28845528 0.059099123 0.20001823 -0.19187254 0.019448405 -0.49010268
0.20814145 -0.035729628 -0.16647582 -0.33729652 0.076079115 -0.15393545 0.17167102 0.1546398
-0.10575276 -0.16514365 -0.19681741 0.18412602 0.038259014 0.1235144 -0.30585587 0.23884447
0.1314278 0.10912186 -0.4256007 -0.091763094 0.025876451 -0.2933161 -0.20444015 -0.14268446
-0.45006746 0.055482272 0.084852815 -0.26349413 -0.1980286 -0.40739554 -0.15283568 0.024813253
0.2551732 -0.18711595 -0.16279143 0.023251696
00000000: 3e66 d7bd d89c 46bc 35a2 21be daf5 fe3d
00000010: a363 4c3e eb7c 993e 3c79 5d3e 81b8 dabd
00000020: f036 5a3e 7c75 63bd d3b6 b93d f2de aebe
00000030: 79dc f8be d379 ddbc 182a 3fbe 89ae e1bd
00000040: d095 273e 50cf 3a3e 69b0 93be ec11 723d
00000050: 94d1 4c3e 3c7a 44be 4352 9f3c bdee fabe
00000060: 0823 553e 3b59 12bd a378 2abe 21b2 acbe
00000070: 5ecf 9b3d 41a1 1dbe 87ca 2f3e e559 1e3e
00000080: e794 d8bd 6b1b 29be 818a 49be 888b 3c3e
00000090: 7cb5 1c3d 1ef5 fc3d 2499 9cbe a593 743e
000000a0: 0295 063e 487b df3d 56e8 d9be 4aee bbbd
000000b0: dafa d33c 872d 96be c258 51be e01b 12be
000000c0: 3e6f e6be 6141 633d 50c7 ad3d b4e8 86be
000000d0: 02c8 4abe 2696 d0be f580 1cbe 2a45 cb3c
000000e0: 10a6 823e 539b 3fbe ccb2 26be 577a be3c

weight f4 [60, 60]
0.31895453 0.272136 0.085915156 -0.56266946 0.36658373 0.27931905 -0.36955535 -0.1486349
0.1510818 0.36608422 0.20328367 -0.27962723 0.3842318 0.012346487 0.27719375 0.016704611
0.17927928 -1.1180972 0.15760309 0.93894416 0.034229074 -0.25903744 -1.667551 -0.11251174
-0.044829275 0.043909468 0.21280572 0.43129414 -0.2709626 0.27466065 -0.33332518 0.22316884
-0.118020624 -0.2698551 -0.037767492 -0.027873006 0.0068850988 0.101861805 0.2552381 -0.1435783
0.2478113 0.7403549 0.5789091 0.10751929 -0.015466263 0.042394597 0.44482636 0.43634313
0.4682212 0.23366445 0.21605879 0.089436635 0.13616884 -0.057680745 -0.16260825 -0.056701295
-0.31203935 0.19612272 0.022637896 -0.39017162 -0.013388696 0.01887111 -0.17884484 0.49175233
0.3045022 0.56447953 0.65416 0.091899924 0.24561286 -0.234886 0.23346144 -0.61265606
-0.49036622 0.06804792 -0.42232248 -0.59594005 -0.39397705 0.60478896 -0.19597208 -0.57202303
-0.40967914 0.20375918 0.48053008 -1.1211671 -0.18267705 0.31034398 0.031493057 -0.27636468
0.47292566 -0.22279415 0.42605865 0.47991684 0.32976127 -0.063973226 -0.5987768 0.32889718
-0.111316286 -0.23624817 -0.117568545 -0.1356569 -0.55287 -0.7504999 0.17056 0.21221487
0.026373537 -0.42469886 -0.14711942 -0.57582635 -0.32392028 0.14095138 0.5715217 -0.45256457
-0.024037246 -0.21168156 0.58302265 -0.09785654 0.23138879 0.41438448 0.0947875 0.23255184
0.10118705 -0.05319248 0.065063894 0.05572588 -0.25952768 -0.3000553 -0.22602555 0.06762063
0.17898387 0.42690298 0.12493438 -0.34450653 -0.101709135 0.1768896 -0.2416719 0.61703235
-1.5428498 -0.6336768 -0.60574454 0.3870897 -1.5613539 -0.4274641 -0.43341407 -0.17388307
-0.3988894 0.19814226 0.18497574 0.46071994 -0.012905251 0.45038843 0.020942863 -0.045602486
0.5446987 0.041342873 -0.05981713 -0.1118911 0.089315034 -0.6002758 0.4847062 0.4014334
0.008461625 -0.42746228 -0.3390701 0.13391544 0.09077314 -0.030668028 0.5876716 0.22504242
0.48694822 0.40280864 0.12787306 -0.23335718 -0.13011503 -0.09830419 0.21879672 0.2832303
0.23725311 0.7612142 0.57372266 0.18868046 0.26196545 -0.13082586 0.33564374 0.106024966
-0.46408555 -0.7410731 -0.36627707 -0.009128812 -0.73358864 -0.07408185 0.12712336 0.298941
0.5344035 0.13057809 0.028190894 -0.20515485 -0.58712083 -0.35634136 0.7463727 -0.17691405
-0.71525854 0.14298733 -0.6796533 0.29567817 -0.32996613 0.23408727 -0.027037 1.0432116
-0.4076584 -0.10944283 0.25878912 -0.15491503 0.5192008 0.46108592 0.337218 -0.81840724
-0.06285627 -0.082516864 0.76639754 0.08507098 -0.18704136 -0.27512342 0.39347997 0.20892648
-0.28213415 0.05517564 0.4181811 0.379724 0.4013466 0.020944925 0.35650775 0.33768272
0.17325178 0.7160933 0.48632488 0.5030217 0.1492493 0.29586163 0.10391134 0.4472394
0.18400319 0.122389875 0.028835773 -0.04578136 0.5101441 0.15725647 0.13138925 -0.075528346
0.23023412 0.4616941 0.23910512 -0.3435225 0.41423497 -0.06653334 0.062752865 0.25083715
00000000: 024e a33e 6955 8b3e 49f4 af3d 1b0b 10bf
00000010: ddb0 bb3e e802 8f3e 5c36 bdbe bf33 18be
00000020: 30b5 1a3e 646f bb3e 9829 503e 4d2b 8fbe
00000030: 08ba c43e eb48 4a3c 57ec 8d3e 1cd8 883c
00000040: fd94 373e cf1d 8fbf b462 213e a55e 703f
00000050: c933 0c3d 8ea0 84be 5072 d5bf 8e6c e6bd
00000060: e79e 37bd 6ada 333d bee9 593e 96d2 dc3e
00000070: 9cbb 8abe 52a0 8c3e 99a9 aabe 5f86 643e
00000080: ccb4 f1bd 732a 8abe 16b2 1abd ee55 e4bc
00000090: 659c e13b ec9c d03d 91ae 823e 3106 13be
000000a0: 3fc2 7d3e e687 3d3f 6333 143f 1333 dc3d
000000b0: 3566 7dbc f5a5 2d3d 48c0 e33e 5e68 df3e
000000c0: b0ba ef3e bc45 6f3e 843e 5d3e 8e2a b73d
000000d0: d86f 0b3e a542 6cbd c782 26be 9e3f 68bd
000000e0: 9fc3 9fbe 65d4 483e 1c73 b93c 93c4 c7be
000000f0: 435c 5bbc 9697 9a3c 1a23 37be f6c6 fb3e
00000100: b6e7 9b3e bb81 103f 0877 273f 0736 bc3d
00000110: f081 7b3e f585 70be 8410 6f3e 07d7 1cbf
00000120: 4811 fbbe b55c 8b3d a73a d8be 878f 18bf
00000130: 5cb7 c9be 73d3 1a3f e8ac 48be 1a70 12bf
00000140: 77c1 d1be 3fa6 503e 0a08 f63e 6782 8fbf
00000150: b10f 3bbe 68e5 9e3e ddfe 003d ac7f 8dbe
00000160: 5023 f23e 2624 64be 5c24 da3e a9b7 f53e
00000170: 78d6 a83e 6504 83bd 7049 19bf 3665 a83e
00000180: cbf9 e3bd 0aeb 71be c7c7 f0bd a4e9 0abe
00000190: e388 0dbf c320 40bf 48a7 2e3e db4e 593e
000001a0: 510d d83c 2172 d9be 79a6 16be 5b69 13bf
000001b0: e1d8 a5be 8f55 103e 3f4f 123f 8bb6 e7be
000001c0: c2e9 c4bc 0dc3 58be f940 153f 0269 c8bd
000001d0: 2ff1 6c3e 342a d43e f31f c23d 1222 6e3e
000001e0: 283b cf3d 5ce0 59bd 3840 853d d240 643d
000001f0: d0e0 84be d9a0 99be 3e73 67be af7c 8a3d
00000200: 8c47 373e 0793 da3e 99dd ff3d 2963 b0be
00000210: e14c d0bd 8c22 353e d778 77be d5f5 1d3f
00000220: 1a7c c5bf a538 22bf 1312 1bbf 9f30 c63e
00000230: 72da c7bf 93dc dabe 73e8 ddbe 670e 32be
00000240: 3b3b ccbe cee5 4a3e 486a 3d3e 7ce3 eb3e
00000250: 8c70 53bc 5099 e63e 5e90 ab3c acc9 3abd
00000260: 6071 0b3f 2557 293d cf02 75bd 2927 e5bd
00000270: cdea b63d adab 19bf 692b f83e ae88 cd3e
00000280: a1a2 0a3c 56dc dabe 999a adbe 2121 093e
00000290: 45e7 b93d 843b fbbc a571 163f 8571 663e
000002a0: 4751 f93e ef3c ce3e 28f1 023e 2ff5 6ebe
000002b0: e03c 05be b553 c9bd 3f0c 603e 9003 913e
000002c0: 7bf2 723e efde 423f 7ddf 123f 7335 413e
000002d0: 5620 863e 37f7 05be 7fd9 ab3e 9e23 d93d
000002e0: 9f9c edbe f7b6 3dbf ab88 bbbe 0391 15bc
000002f0: 77cc 3bbf 3ab8 97bd a02c 023e cb0e 993e
00000300: abce 083f 43b6 053e 97f0 e63c 1d14 52be
00000310: 8d4d 16bf 6072 b6be 4812 3f3f f528 35be
00000320: 2f1b 37bf 456b 123e c2fd 2dbf 2163 973e
00000330: 52f1 a8be 93b4 6f3e b37c ddbc f587 853f
00000340: 9ab8 d0be 9023 e0bd 0280 843e 0ca2 1ebe
00000350: 58ea 043f 7413 ec3e d6a7 ac3e 2383 51bf
00000360: caba 80bd 9afe a8bd a132 443f b239 ae3d
00000370: c587 3fbe fadc 8cbe 3576 c93e d3f0 553e
00000380: e373 90be daff 613d d51b d63e 2f6b c23e
00000390: 4d7d cd3e b194 ab3c 2f88 b63e c0e4 ac3e
000003a0: ea68 313e e451 373f 93ff f83e 08c6 003f
000003b0: cfd4 183e 2d7b 973e 78cf d43d 90fc e43e
000003c0: 556b 3c3e 8ba7 fa3d 0039 ec3c 3c85 3bbd
000003d0: ce98 023f d707 213e e78a 063e 9bae 9abd
000003e0: 7ec2 6b3e 2b63 ec3e f9d7 743e 2ee2 afbe
000003f0: 9b16 d43e a242 88bd 9384 803d ba6d 803e

bias f4 [60]
0.10464712 0.22619961 -0.3449571 -0.41478935 -0.13100755 -0.21597075 0.26600733 0.3373172
-0.18396433 -0.14932501 0.009783348 -0.4118571 0.10650395 -0.37748554 -0.052722767 -0.0025385765
0.28078693 0.2556889 -0.10497685 0.31230348 -0.31571525 -0.01744705 -0.56391346 -0.112750664
-0.15201975 0.335434 0.15855126 -0.40086532 0.22620244 0.039875537 -0.11298758 0.0311597
-0.19487202 -0.5273086 -0.19498448 -0.31225172 -0.31240934 -0.0034772025 0.2845014 0.10504239
0.18003581 -0.19911167 0.23756324 -0.40204874 -0.04672164 0.2645209 0.32247418 -0.37441018
-0.25056785 -0.22915685 -0.4951737 -0.0531053 -0.2108042 -0.24150786 -0.017728698 0.5906202
-0.18909658 -0.39700586 0.16014336 0.09543183
00000000: 3b51 d63d dfa0 673e 389e b0be 455f d4be
00000010: d826 06be 7027 5dbe 1d32 883e d7b4 ac3e
00000020: 2561 3cbe a8e8 18be 564a 203c efde d2be
00000030: be1e da3d c945 c1be d4f3 57bd 3f5e 26bb
00000040: 4ec3 8f3e a8e9 823e 1afe d6bd 3ee6 9f3e
00000050: 6ea5 a1be 1eed 8ebc a25c 10bf d2e9 e6bd
00000060: 11ab 1bbe 01be ab3e 435b 223e 383e cdbe
00000070: 9da1 673e 8854 233d 0866 e7bd a142 ff3c
00000080: 888c 47be b2fd 06bf 03aa 47be 75df 9fbe
00000090: 1ef4 9fbe c7e1 63bb 2baa 913e 7720 d73d
000000a0: 4f5b 383e eee3 4bbe c743 733e 55d9 cdbe
000000b0: 315f 3fbd 496f 873e 561b a53e b1b2 bfbe
000000c0: 6e4a 80be 18a8 6abe 6887 fdbe f184 59bd
000000d0: 0edd 57be d64d 77be c63b 91bc e332 173f
000000e0: 89a2 41be 5a44 cbbe 9ffc 233e c371 c33d

weight f4 [60, 60]
-1.1261227 0.2998213 -0.09827578 -0.533662 -1.1516033 -0.020115705 -0.61985266 0.2071247
0.047090996 -1.1466985 -0.7244791 0.28046584 0.26580772 0.03967861 -0.9592429 -0.17850251
-0.12998351 0.7952998 -1.1658938 -0.42255542 0.050968338 -1.8212453 -0.09472443 -0.8995484
-0.028361797 -0.018608257 0.4140045 0.4695946 -0.23653834 0.0988881 0.08864805 0.093706585
-0.6768774 -0.09388538 0.015672356 0.33971637 -0.14379756 0.7499872 0.35974067 -0.3386367
0.38145167 -0.02793589 0.29099792 0.100400664 -0.6307074 0.5385234 0.13356286 -0.8370856
0.008523459 -0.25651136 0.6924338 0.59177333 -0.058526948 0.57496333 -0.16668952 0.111449994
0.03837681 0.20061786 0.1100742 0.19984281 -0.5551177 0.023362953 -0.18620074 -0.5183954
-0.28746337 -0.094248116 -0.58689743 -0.29850587 -0.222954 0.030705262 -0.10067914 -0.05581985
0.07234508 -0.22462922 -0.09671851 -0.061302338 -0.07170064 -0.1209861 -0.5337991 -0.22261219
0.011526118 -0.09236763 -0.31784362 -0.27193496 -0.007843778 -0.028741434 -0.3531382 -0.034348127
0.1394783 -0.21337177 0.032162875 -0.16611952 -0.21923248 0.2178293 -0.058334854 -0.04016798
0.08264809 0.20945495 -0.42383048 0.2888222 -0.056348946 0.042882904 -0.09136173 0.1544459
0.1418618 -0.33339968 -0.050768495 0.17461206 -0.3463106 -0.19573192 -0.24360548 -0.13895392
-0.11966596 -0.11574752 -0.45287594 -0.080541834 0.10816447 -0.44086707 -0.28649947 0.047295067
0.36361033 0.15469977 0.3449117 0.52330464 0.1657666 0.075423114 0.2693198 -0.23353091
0.71830696 -1.0795714 -1.2066799 0.23819648 -0.43163303 0.1330215 0.3056412 -0.8309141
0.44161057 -0.17078783 -0.31082466 0.5785115 -0.36698797 -0.5834415 -0.6763886 -0.02633948
-0.073207214 -0.072646946 0.25848567 0.26993364 -0.24388053 0.08728632 0.056058343 -0.09172204
-0.019878652 0.044656735 -0.041228335 0.16076897 0.21664447 -0.5510532 0.3066339 -0.13494568
-0.1946798 0.12215487 -0.18043219 0.44295958 0.653226 0.37405258 -0.24269025 -0.07696483
-0.2710973 -0.36325467 -0.81853944 -0.061631743 0.37783182 -0.3805182 -1.0040059 0.7581607
-0.116534196 -0.54128855 0.21757169 0.11469978 -1.2491995 0.081650995 -0.41521227 -0.4505373
-0.50157195 0.10975962 -0.81909066 0.21619684 -0.8429751 0.27743396 0.21443145 -0.15664491
0.57391185 -0.55357057 -0.31664932 0.44648427 -0.7436099 0.04765638 -0.65259343 -0.15861821
-0.27171546 -0.24300487 -0.8377993 -0.8099392 -0.04843852 0.14911763 0.3371206 0.13579656
-0.017300215 -0.18562566 -0.043336995 0.28340533 -0.33323404 -0.28795445 0.02197178 -0.045971956
-0.09865524 0.3663631 0.031030897 0.43848398 0.03373166 0.112550706 0.7125851 0.20494181
0.36597693 0.23945028 0.35550138 0.38566962 -0.12653835 0.08527818 -0.079704344 0.06432345
0.58263177 -0.2615175 0.29214504 -0.044933546 -0.0019794214 -0.7740054 -0.0057687154 0.45903212
-0.33585382 0.12350734 0.06784674 -0.2659634 0.24794787 0.08399034 -0.086779214 -0.29407048
-0.45388398 0.46183267 0.19219308 -0.38788837 -0.005737933 -0.14517468 -0.7703064 -0.32753566
00000000: ca24 90bf 2d82 993e d044 c9bd 139e 08bf
00000010: bd67 93bf b1c9 a4bc aaae 1ebf 7f18 543e
00000020: 7de2 403d 04c7 92bf 7677 39bf 3899 8f3e
00000030: f317 883e 0a86 223d f190 75bf 5dc9 36be
00000040: 661a 05be c598 4b3f 023c 95bf 2f59 d8be
00000050: 2dc4 503d 911e e9bf e2fe c1bd ce48 66bf
00000060: 0057 e8bc 5870 98bc 66f8 d33e b46e f03e
00000070: 1b37 72be d885 ca3d 1c8d b53d 3de9 bf3d
00000080: d647 2dbf fa46 c0bd 5063 803c 4eef ad3e
00000090: ab3f 13be 29ff 3f3f ee2f b83e ca61 adbe
000000a0: a24d c33e cfd9 e4bc aefd 943e dd9e cd3d
000000b0: 0a76 21bf abdc 093f b4c4 083e 3e4b 56bf
000000c0: faa5 0b3c 7555 83be 5743 313f 757e 173f
000000d0: f4b9 6fbd cc30 133f a8b0 2abe e53f e43d
000000e0: 0031 1d3d c56e 4d3e 956e e13d 98a3 4c3e
000000f0: 321c 0ebf aa63 bf3c 68ab 3ebe 90b5 04bf
00000100: 662e 93be 2805 c1bd e93e 16bf c3d5 98be
00000110: 0e4e 64be 9a89 fb3c dd30 cebd 5ba3 64bd
00000120: a829 943d 3405 66be 5b14 c6bd 2918 7bbd
00000130: c9d7 92bd 8fc7 f7bd 0fa7 08bf 73f4 63be
00000140: 0bd8 3c3c 3d2b bdbd 66bc a2be 0f3b 8bbe
00000150: 3083 00bc 2873 ebbc 88ce b4be 9fb0 0cbd
00000160: 66d3 0e3e 217e 5abe 38bd 033d 3c1b 2abe
00000170: 7b7e 60be a50e 5f3e 87f0 6ebd 2e87 24bd
00000180: 6743 a93d 5c7b 563e 4f00 d9be 81e0 933e
00000190: 27ce 66bd fca5 2f3d dc1b bbbd 1127 1e3e
000001a0: 3844 113e 5db3 aabe a0f2 4fbd 81cd 323e
000001b0: 9f4f b1be f36d 48be b773 79be f049 0ebe
000001c0: 6d13 f5bd 090d edbd 5bdf e7be 1ef3 a4bd
000001d0: 5585 dd3d 54b9 e1be 0fb0 92be 79b8 413d
000001e0: 222b ba3e 9e69 1e3e 4498 b03e 4bf7 053f
000001f0: b8be 293e 6f77 9a3d 49e4 893e ba22 6fbe
00000200: f7e2 373f 652f 8abf 7d74 9abf c7e9 733e
00000210: 01ff dcbe ca36 083e 017d 9c3e c9b6 54bf
00000220: c81a e23e 01e3 2ebe 6924 9fbe 5419 143f
00000230: d9e5 bbbe 6c5c 15bf ce27 2dbf e5c5 d7bc
00000240: aaed 95bd ecc7 94bd 3c58 843e be34 8a3e
00000250: d1bb 79be 2cc3 b23d 6f9d 653d c4d8 bbbd
00000260: 8ed8 a2bc fbe9 363d 0bdf 28bd 9fa0 243e
00000270: 0cd8 5d3e d311 0dbf 1eff 9c3e 332f 0abe
00000280: 245a 47be 552c fa3d 37c3 38be 99cb e23e
00000290: d239 273f d283 bf3e cb83 78be bd9f 9dbd
000002a0: 44cd 8abe 84fc b9be cd8b 51bf 9171 7cbd
000002b0: 2c73 c13e 48d3 c2be 4483 80bf d216 423f
000002c0: 7ba9 eebd e391 0abf 1dcb 5e3e b8e7 ea3d
000002d0: c5e5 9fbf a338 a73d b496 d4be d3ac e6be
000002e0: 0567 00bf a7c9 e03d edaf 51bf b462 5d3e
000002f0: 37cd 57bf d30b 8e3e eb93 5b3e 8667 20be
00000300: e3eb 123f cdb6 0dbf dc1f a2be 9699 e43e
00000310: 385d 3ebf 5633 433d 5d10 27bf d06c 22be
00000320: 4a1e 8bbe 45d6 78be 047a 56bf 2d58 4fbf
00000330: 7867 46bd 4bb2 183e 129b ac3e 410e 0b3e
00000340: 2eb9 8dbc a714 3ebe 2282 31bd 811a 913e
00000350: a79d aabe c46e 93be 2afe b33c 174d 3cbd
00000360: c20b cabd f293 bb3e 8234 fe3c f980 e03e
00000370: 362a 0a3d fc80 e63d fa6b 363f 44dc 513e
00000380: 5461 bb3e 7432 753e 4704 b63e 7d76 c53e
00000390: 4593 01be 54a6 ae3d 083c a3bd 03bc 833d
000003a0: 5b27 153f 9fe5 85be 0994 953e 3d0c 38bd
000003b0: 2eb9 01bb 3825 46bf 7e07 bdbb 4206 eb3e
000003c0: 08f5 abbe 6bf1 fc3d 3bf3 8a3d 5b2c 88be
000003d0: 0ce6 7d3e 2103 ac3d 4db9 b1bd 6890 96be
000003e0: 7b63 e8be 5575 ec3e 43ce 443e 4e99 c6be
000003f0: 4505 bcbb aca8 14be cd32 45bf c1b2 a7be

bias f4 [60]
-0.35219857 -0.2042553 -0.12473983 -0.24363741 0.03986416 -0.34402528 -0.0102500385 0.25130492
-0.6536751 -0.12982838 0.007046366 -0.11853036 -0.7079365 -0.24914584 0.53013474 -0.50429463
-0.26660413 -0.44006282 -0.5283096 0.571304 -0.37413737 -0.40256223 -0.61308366 0.027902463
-0.5448891 -0.30313715 -0.07569772 -0.7332423 -0.343019 -0.084231436 -0.22732332 0.38934723
-0.1298035 -0.25799254 0.22519358 -0.44503826 -0.34847358 -0.0291668 -0.35420403 -0.23136082
-0.1524394 0.4325174 0.014439728 -0.10752519 -0.15553296 -0.5621619 0.073742524 -0.2032188
-0.46749347 -0.196859 0.049598508 -0.15109278 -0.20817421 -0.07957526 -0.12249278 -0.055530578
0.087491915 -0.43906388 0.55327564 -0.1758068
00000000: 5f53 b4be 4d28 51be 9977 ffbd 167c 79be
00000010: 9a48 233d 1524 b0be c7ef 27bc 0aab 803e
00000020: 4057 27bf bbf1 04be 34e5 e63b 0cc0 f2bd
00000030: 543b 35bf 1620 7fbe e9b6 073f 7419 01bf
00000040: 5680 88be ea4f e1be 4c3f 07bf fb40 123f
00000050: ef8e bfbe a31c cebe 0df3 1cbf b593 e43c
00000060: da7d 0bbf cb34 9bbe 6807 9bbd c4b5 3bbf
00000070: 30a0 afbe 8881 acbd 72c7 68be 8558 c73e
00000080: 35eb 04be 9917 84be 2599 663e 0edc e3be
00000090: 216b b2be 37ef eebc 3b5a b5be dae9 6cbe
000000a0: 1319 1cbe ec72 dd3e 9c94 6c3c 2b36 dcbd
000000b0: 0844 1fbe d8e9 0fbf 5206 973d 9718 50be
000000c0: 4e5b efbe 6895 49be ce27 4b3d 11b8 1abe
000000d0: 9f2b 55be 5bf8 a2bd 7fdd fabd 0874 63bd
000000e0: f62e b33d fbcc e0be 79a3 0d3f b306 34be

weight f4 [10, 60]
0.16149625 -0.22010265 -0.58922875 -0.15858774 0.1288805 0.051687445 0.04206222 -0.41991585
-0.6841395 -0.020367682 -0.14209 0.027498286 -0.21102448 -0.15506783 -0.02146327 -0.07229936
-0.21839984 -0.21441342 -0.12111192 -0.3181557 -0.16969985 -0.02999553 -0.36293945 0.2407588
0.05747166 -0.029083109 0.3266541 -0.10520688 0.010003812 -0.40494323 -0.27999815 -0.46590033
0.045264956 -0.13253237 0.15969634 -0.15347546 0.11357558 -0.17470379 -0.08508748 -0.5260976
-0.04353295 -0.28377613 0.33126202 -0.39001602 0.023215653 -0.2173103 -0.20862354 -0.01125277
-0.26331136 -0.09391625 -0.37867525 0.053869087 -0.110377505 -0.8424201 0.059646726 -0.43803865
0.01922977 0.13922204 -0.24316323 0.0016690603 0.2477776 -0.5319872 -0.9653783 -2.639034
-0.017615205 -0.56571645 -2.0777802 0.20773752 -1.1833248 -0.1288707 -1.0606776 -0.3059545
-7.1609445 -2.2351031 -0.5393257 -0.25512353 -1.0978994 -0.8882716 -0.70322305 0.15783663
-1.6957043 -0.72111976 -0.6928419 -1.2016159 -0.0527821 -0.10894431 -1.0476121 -0.2436679
-0.21071935 0.21959886 -0.42702043 0.24124786 0.06531036 0.056884833 -0.048777144 0.4623487
0.1800651 -1.5667619 0.204682 -3.6788542 0.34677267 0.2721211 -1.422162 0.5078913
0.3426239 -2.212132 -0.32740137 -3.5870497 -0.5199392 -0.024324302 -6.825183 -2.9216466
0.02646984 -0.6002475 0.29638734 -4.287066 -0.048723597 0.0653008 -0.21478026 -0.06360751
-0.669856 -0.3826097 -1.6937063 -0.9999021 0.16000836 -0.04345486 -0.12874016 0.1474768
-0.11195252 -0.06883078 -3.1844127 -1.9266355 -1.8538781 0.11826271 -1.8541825 -0.4109145
0.20494309 0.3862859 -0.66748303 -0.23914513 0.555501 0.3524089 -0.45448512 -0.72424275
-0.19091485 -0.41543302 0.1003275 0.12165129 0.23345321 -2.0038774 0.3191294 -0.37429267
-0.03526836 -0.44138804 -0.077296354 -1.1382563 -1.6365923 -3.2158139 -0.7033922 -1.7197504
-0.9182619 -1.6474806 -0.43042532 -2.2951539 0.46518043 -2.4858508 -2.120214 -3.8647358
0.0152247995 -2.6428857 -0.95201397 0.13237643 -1.704483 -0.29052877 -0.021349873 0.22700574
-1.0319568 -0.17649825 -0.33307764 -0.027761685 -0.23482019 -0.23991491 0.03653954 -0.74533355
-0.03091346 -0.15371281 -2.437774 0.45485172 0.13307793 -0.20324524 -2.127011 -0.63841796
0.22419134 0.28979406 -2.87459 0.18442875 -0.021167817 0.29179624 -0.6067415 -0.839775
-1.3283678 -0.3855062 -0.20282432 -0.026325325 -0.009749161 -0.022203082 -2.5982592 0.138063
0.16979201 -0.21387935 -0.4317761 -0.050536934 0.05113657 -0.14247169 0.10277088 -1.3366145
-1.1568794 -0.28195485 0.2821414 0.0458772 -0.56328976 -4.3127313 -0.8707902 -0.13498192
0.16781808 -1.5449238 -0.6174845 0.30854872 0.22293063 -0.68292207 -0.21071517 0.023462279
-0.44749647 -0.5827622 -1.2321388 -1.0619165 -0.11506636 -1.9173455 -3.335048 0.10502144
0.06772408 -0.5042911 0.33580133 -0.1534464 -0.20084395 0.020288592 -2.4263666 -0.15211329
-1.7788373 -0.06810962 0.085818365 -2.8116457 -4.0808926 0.28790012 -0.09685164 -0.4062506
00000000: 465f 253e 9762 61be b2d7 16bf d364 22be
00000010: 40f9 033e 37b6 533d 6f49 2c3d 36ff d6be
00000020: c423 2fbf 20da a6bc 0a80 11be 1644 e13c
00000030: cd16 58be 1aca 1ebe bdd3 afbc b011 94bd
00000040: 35a4 5fbe 318f 5bbe 8709 f8bd 4ee5 a2be
00000050: ccc5 2dbe 30b9 f5bc 33d3 b9be 7a89 763e
00000060: 6767 6b3d b33f eebc 353f a73e b476 d7bd
00000070: 07e7 233c b854 cfbe eb5b 8fbe 7d8a eebe
00000080: bf67 393d 91b6 07be 7087 233e ac28 1dbe
00000090: 509a e83d 8de5 32be 5842 aebd 55ae 06bf
000000a0: 9b4f 32bd 1b4b 91be 2d9b a93e 2eb0 c7be
000000b0: c12e be3c 9786 5ebe 69a1 55be 8a5d 38bc
000000c0: bfd0 86be 2a57 c0bd b9e1 c1be d5a5 5c3d
000000d0: 9a0d e2bd d8a8 57bf 2050 743d 9a46 e0be
000000e0: c087 9d3c 3990 0e3e c8ff 78be 5fc4 da3a
000000f0: 69b9 7d3e 5030 08bf 0823 77bf efe5 28c0
00000100: c34d 90bc cbd2 10bf 5afa 04c0 25b9 543e
00000110: 3077 97bf aef6 03be 49c4 87bf 11a6 9cbe
00000120: 7526 e5c0 ee0b 0fc0 4011 0abf 8d9f 82be
00000130: f887 8cbf c465 63bf 6d06 34bf ed9f 213e
00000140: d70c d9bf 4e9b 38bf 165e 31bf 8dce 99bf
00000150: 0b32 58bd 321e dfbd 2718 86bf 1484 79be
00000160: d0c6 57be 86de 603e 6ca2 dabe ae09 773e
00000170: 70c1 853d 1200 693d 8bca 47bd f8b8 ec3e
00000180: fc62 383e a78b c8bf 2998 513e 5972 6bc0
00000190: 308c b13e 7553 8b3e 6809 b6bf 2a05 023f
000001a0: 666c af3e 9293 0dc0 27a1 a7be 3992 65c0
000001b0: bc1a 05bf c243 c7bc e667 dac0 42fc 3ac0
000001c0: 47d7 d83c d2a9 19bf 15c0 973e a52f 89c0
000001d0: 6592 47bd 6dbc 853d 5bef 5bbe a744 82bd
000001e0: af7b 2bbf 6be5 c3be 5ecb d8bf 96f9 7fbf
000001f0: 3bd9 233e b9fd 31bd 76d4 03be 2904 173e
00000200: 5d47 e5bd 27f7 8cbd 6bcd 4bc0 fe9b f6bf
00000210: e14b edbf b833 f23d da55 edbf 6363 d2be
00000220: 9adc 513e 44c7 c53e 2be0 2abf 76e2 74be
00000230: 5035 0e3f f06e b43e 46b2 e8be f967 39bf
00000240: 2f7f 43be a3b3 d4be 8178 cd3d 5024 f93d
00000250: 5c0e 6f3e 873f 00c0 ee64 a33e 4aa3 bfbe
00000260: 8e75 10bd 9dfd e1be 8d4d 9ebd 62b2 91bf
00000270: db7b d1bf e5cf 4dc0 8311 34bf c820 dcbf
00000280: 3613 6bbf a5e0 d2bf b560 dcbe cde3 12c0
00000290: 212c ee3e 2e18 1fc0 96b1 07c0 d557 77c0
000002a0: 7071 793c 0a25 29c0 30b7 73bf b08d 073e
000002b0: 802c dabf 30c0 94be eee5 aebc 3174 683e
000002c0: 2917 84bf f5bb 34be 2789 aabe 796c e3bc
000002d0: b474 70be 41ac 75be 7caa 153d 2ece 3ebf
000002e0: 393e fdbc e466 1dbe 7d04 1cc0 53e2 e83e
000002f0: 9545 083e 851f 50be f320 08c0 5c6f 23bf
00000300: 6a92 653e e35f 943e 48f9 37c0 e4da 3c3e
00000310: 2168 adbc 5166 953e 6953 1bbf 7ffb 56bf
00000320: f507 aabf 1261 c5be 2eb1 4fbe 35a8 d7bc
00000330: f2ba 1fbc 3de3 b5bc e149 26c0 6360 0d3e
00000340: f5dd 2d3e 3003 5bbe c211 ddbe d1ff 4ebd
00000350: 9474 513d 19e4 11be 8a79 d23d 2f16 abbf
00000360: a014 94bf 635c 90be d674 903e bbe9 3b3d
00000370: c233 10bf e501 8ac0 1bec 5ebf b338 0abe
00000380: 81d8 2b3e 10c0 c5bf 7713 1ebf 19fa 9d3e
00000390: ed47 643e fbd3 2ebf b8c5 57be f733 c03c
000003a0: 421e e5be e72f 15bf b9b6 9dbf e1ec 87bf
000003b0: e9a7 ebbd 946b f5bf 6d71 55c0 7b15 d73d
000003c0: ecb2 8a3d 3919 01bf 27ee ab3e 0e21 1dbe
000003d0: 09aa 4dbe 4334 a63c 9749 1bc0 96c3 1bbe
000003e0: f1b0 e3bf 0e7d 8bbd 8ac1 af3d 01f2 33c0
000003f0: ac96 82c0 a567 933e 275a c6bd 1400 d0be

bias f4 [10]
-0.026080012 0.23202117 -0.2932532 -0.4878794 -0.2186157 0.23951001 0.65965354 0.48388597
0.012056139 -0.8090233
00000000: c0a5 d5bc f596 6d3e 4925 96be 54cb f9be
00000010: cbdc 5fbe 1d42 753e 0edf 283f e7bf f73e
00000020: 1d87 453c 271c 4fbf
