NN Real data/final_trained_models/TPSMk/TPSMk.pth (torch, 55855 bytes, 10 tensors)

weight f4 [60, 20]
000000 50 32 82 be 35 0a 8e 3d 4d cb 60 be 15 f3 9b 3e
       -0.2542901 0.069355406 -0.21952553 0.30458894
000010 b8 86 42 3f c7 aa 45 be 08 f5 2c bd 11 d3 5b 3d
       0.75986814 -0.19303428 -0.042225868 0.053668085
000020 56 8a 02 3e d3 19 d5 3e 33 5f a8 bc d7 14 ab be
       0.12748083 0.41621265 -0.020553207 -0.33414337
000030 1c 48 5d be ce 4f 87 be 02 e2 dd 3e 7b ed e2 3e
       -0.21609539 -0.26428074 0.43336493 0.44321808
000040 30 bd c8 be 54 2b a0 be 89 09 ac be 04 b9 4e 3e
       -0.3920684 -0.31283057 -0.33601025 0.20187765
000050 fd 2d fe 3e f9 4e f5 3d 7e 30 cd be ca 97 d5 be
       0.4964446 0.119779535 -0.4007606 -0.41717368
000060 d8 b1 43 be e5 0b ed 3c 6c 27 8e bd 96 31 3b 3c
       -0.19110811 0.028936336 -0.06941113 0.011425396
000070 c4 cd b0 be e7 69 85 3e ad 65 1f 3e 3a 16 a5 be
       -0.34531987 0.2605736 0.1556613 -0.3224352
000080 45 b0 15 be 42 30 da be 3c cb 5c bd 9a 54 ae bd
       -0.14618023 -0.42614943 -0.053904757 -0.0851223
000090 00 b6 8e be 0e 53 d1 be 06 a3 37 be 80 a4 68 be
       -0.2787323 -0.40883678 -0.17933282 -0.22719002
0000a0 bf ba 48 3f 80 8e 38 3e 60 87 19 3e 1a 64 0a be
       0.7840995 0.1802311 0.14993048 -0.13514748
0000b0 27 82 e7 3e 57 ee b1 3c c6 bf 28 be d0 94 da 3e
       0.45216486 0.021720095 -0.16479406 0.4269166
0000c0 23 ab 2d 3d 5f 79 c2 3b 3a 1d 82 bc c4 80 8c 3d
       0.042399537 0.0059348787 -0.015883077 0.068604976
0000d0 5b 40 ec 3e 34 e7 5c be 61 6d 90 bd 59 a1 2a be
       0.4614285 -0.21572572 -0.07052112 -0.16663112
0000e0 dd 06 7a be 6f 31 15 3f a3 e7 34 be 40 1d e4 bc
       -0.2441668 0.58278555 -0.17666487 -0.027845979
0000f0 0f cd 83 bc ae a8 01 bd 7e 63 69 be 20 79 86 be
       -0.01608899 -0.031655006 -0.2279186 -0.26264286
000100 1b ad 44 be de 48 af be ea 7d 83 3e aa 2e cb 3e
       -0.1920666 -0.3423528 0.25682002 0.3968404
000110 df 8b 8b be 83 09 90 3c b2 69 13 bd 3e 81 29 3f
       -0.2725515 0.01758266 -0.03598947 0.6621283
000120 a3 1f 9a 3e 40 1b 71 bc f6 e2 24 3e 69 a4 b9 be
       0.30102262 -0.01471597 0.16102204 -0.36258247
000130 2f 42 9f 3e 37 ae 31 3e 78 a3 4b be f4 64 d3 3e
       0.31105182 0.17351614 -0.19886577 0.4128796
000140 ad c6 1b bf ce b4 36 3f b0 f3 81 3e f5 82 bd 3d
       -0.6085003 0.71369636 0.2538123 0.09253494
000150 8a 77 03 3f 8e 1f 9f bd c2 72 dd bd 32 31 b7 3d
       0.5135428 -0.077696905 -0.10812904 0.0894493
000160 1b 65 c6 be f2 a3 28 3e 10 d2 2d 3e ec 6a fe bd
       -0.38749012 0.1646879 0.16974664 -0.124227375
000170 cb 69 95 be fd c0 3c be e2 fc a3 3d 94 0b 1c 3e
       -0.29182276 -0.18432994 0.08007218 0.15238792
000180 bc 28 db be be 8e 26 bd f3 e4 67 be 30 85 01 be
       -0.42804515 -0.040663473 -0.22645931 -0.12648463
000190 17 f2 63 bd 08 a8 16 bf 2d b2 d6 3e 36 4a 33 be
       -0.055650797 -0.58850145 0.41932812 -0.17508778
0001a0 41 d7 3c bf ec 59 a2 be 8c 2a ab be 6f 91 b3 bd
       -0.7376595 -0.3170923 -0.33430898 -0.08767974
0001b0 c9 01 76 3a a5 3d c5 be c8 37 85 3c e8 b2 93 3d
       0.0009384421 -0.38523594 0.01626195 0.07211858
0001c0 f1 f9 16 3c 22 fe 92 be 60 98 44 be db a2 69 be
       0.009214864 -0.28709513 -0.19198751 -0.2281603
0001d0 85 a0 5e 3d 36 28 88 be a7 0d fa 3b 20 e9 a3 be
       0.054352302 -0.2659318 0.007631022 -0.32013798
0001e0 6a 13 21 bf d7 91 11 3f cd f2 29 3c dc 2b 83 3e
       -0.6292025 0.5686316 0.01037283 0.256194
0001f0 79 df 57 3e b6 0d 02 be d5 77 3a 3e 9b 0d 49 3e
       0.21081342 -0.12700543 0.18209775 0.19634096
000200 22 08 66 be c2 69 f7 3d b4 bf 94 be a0 e4 0d be
       -0.2246404 0.120807186 -0.29052508 -0.13856745
000210 60 2b 3d be 9e 9f ed bd f4 bd 62 3e df bc 2e be
       -0.18473577 -0.1160271 0.22142774 -0.17064236
000220 c6 7a 56 be 55 da 65 3e a6 bb 98 3d 1c 20 ca 3d
       -0.20945272 0.22446568 0.07457666 0.098694056
000230 df 3e c3 3e 9c 73 1b 3e e7 f0 8f be 67 fb f6 bd
       0.38133904 0.1518082 -0.2811348 -0.1205967
000240 5d f7 5f bf 08 db 28 be a7 88 db 3e ef 8f 17 be
       -0.8748682 -0.16489804 0.42877695 -0.14801
000250 f8 f9 8d 3b 95 1c bf be 6e 8e ad bd bb 18 10 3e
       0.004332777 -0.37326494 -0.08474432 0.14071934
000260 85 6e 83 bd db de b7 bc a9 52 8f be 44 aa be bd
       -0.06417564 -0.022445133 -0.27992752 -0.09309819
000270 d4 12 31 3e 42 79 8b 3e a6 9e 9a 3e 53 e1 e9 3c
       0.17292339 0.2724095 0.30199164 0.028549826
000280 b4 85 64 3e 9f bf 69 be a3 ca 9b 3e 4d 79 b6 be
       0.22316629 -0.22827004 0.30428037 -0.3563942
000290 d7 be 43 3e c4 db dd 3e b0 08 9a be 50 cd 18 bd
       0.19115768 0.4333173 -0.30084753 -0.037305176
0002a0 e1 17 0f 3f 5b 5a f8 be a8 ba 45 3e 57 6f b2 bd
       0.5589581 -0.48506436 0.19309485 -0.08712643
0002b0 4c 97 25 3e 5f 47 ee 3e ca 0c d1 3c 9c 53 f5 3e
       0.16170996 0.46538827 0.025518794 0.4791535
0002c0 2f 0b 6f be 61 0f 53 be e7 9c 74 3f ee 6b 18 bc
       -0.2334411 -0.20611335 0.95551914 -0.009303076
0002d0 42 09 68 be 23 43 e1 be 09 d0 70 be 03 36 34 bf
       -0.22659782 -0.43996534 -0.23516859 -0.70394915
0002e0 1d 58 8c be c2 e5 3b 3e 5d 41 b4 3c 2e eb 3e bd
       -0.27410975 0.18349364 0.022003824 -0.046611004
0002f0 40 79 05 bf 7a 8d a2 be 66 e4 37 3e 9c 34 f0 3d
       -0.5213814 -0.31748563 0.17958221 0.117287844
000300 bb 62 a7 be 46 a8 62 3d 33 97 1a 3d c8 25 31 be
       -0.32692513 0.05533626 0.03774185 -0.17299569
000310 2d 23 cf 3d 05 33 b4 be 03 02 d9 3d af 62 eb bc
       0.10114131 -0.35195175 0.10596087 -0.02873358
000320 e1 7d 1c 3d e8 a1 fc be 33 d8 4d be 20 2f 6f bd
       0.038205985 -0.49342275 -0.20102005 -0.05839455
000330 cb b2 95 be d6 c7 9d be 30 2d 48 be 54 bd 70 3c
       -0.2923797 -0.30816525 -0.19548488 0.014693577
000340 8e fa 6b be c1 07 7b be 1e 06 68 3e 56 b4 9f 3d
       -0.23044798 -0.24514677 0.22658584 0.07798068
000350 3c 71 26 be 2a e1 dc bc 5c 7a 04 be ef c2 c9 3e
       -0.16254133 -0.026962835 -0.12937301 0.39406535
000360 50 88 5d be 45 1f 18 3e da cb fa bd 07 92 03 3d
       -0.2163403 0.14855678 -0.12245913 0.032121684
000370 32 02 16 3f 07 e6 4c bd 22 77 b5 be 05 9a bd 3e
       0.585971 -0.05002406 -0.35442454 0.3703157
000380 cd d3 1b be c6 b0 cc bd 5e 99 94 3d 26 eb 9d 3d
       -0.15217514 -0.09994654 0.07255815 0.07710867
000390 6d d2 49 3d 13 02 31 3e 03 9c 88 bd ce 89 08 3d
       0.049272943 0.17285948 -0.06670382 0.033334546
0003a0 5b 30 e4 3d 22 6f ba 3b 1b bf cc 3e 2f a5 0e be
       0.111420356 0.0056895176 0.39989552 -0.139302
0003b0 56 68 6c be 7e 5c 3c 3e 14 be e5 bd f5 f8 61 3e
       -0.23086676 0.18394658 -0.11217895 0.22067626
0003c0 cf 5e d5 be e4 a0 28 bf cc 10 81 be e9 a6 22 bf
       -0.41673896 -0.658705 -0.25208127 -0.63535935
0003d0 7b 00 0f be 57 e3 53 be 12 f1 8a b9 2e fa 13 be
       -0.13965027 -0.20692192 -0.00026501023 -0.14450905
0003e0 44 14 45 be 77 ce d0 be 09 07 b6 bd 13 95 56 3e
       -0.19246012 -0.4078252 -0.088880606 0.20955305
0003f0 26 3a d6 3c 5e 44 01 bb d4 46 2d be fc 64 9d 3d
       0.026150774 -0.0019724588 -0.1692155 0.07685277

bias f4 [60]
000000 31 5f c5 bc 31 a1 30 bd 01 ef 85 3e 06 0b 6f bd
       -0.024093242 -0.043122474 0.26158908 -0.058360122
000010 c7 af 94 3d 31 2f a3 3d 12 f0 af bd 05 f7 69 bb
       0.07260089 0.079679854 -0.08590712 -0.0035700214
000020 f2 da cc 3c 47 ed 93 3e 58 d4 9b 3e c6 ae 47 3e
       0.025006745 0.28891966 0.30435443 0.19500265
000030 00 6c 92 3e 14 42 e9 3c fd cd 87 bd 4d f1 07 3e
       0.28598022 0.028473891 -0.06631086 0.13275643
000040 46 08 20 3e b1 57 b1 3d f3 ca 4a 3e f0 46 89 3d
       0.15628156 0.08659304 0.19803981 0.067029834
000050 49 f4 3a bb 3a 87 29 3e 66 c7 d4 bd a8 40 1c bd
       -0.0028526953 0.16555491 -0.10389595 -0.0381476
000060 70 43 34 3d a9 99 89 3d 5c db f1 bc e6 83 d3 3c
       0.044009626 0.067187615 -0.029523544 0.02581973
000070 45 09 68 bc 7e 74 ee 3d f2 6b 6e 3d 0f c5 9c 3e
       -0.014162366 0.11643313 0.058208413 0.30619094
000080 b1 5d 2e 3e 5e 14 27 3e e8 47 60 bd 3e c6 fd 3d
       0.17027928 0.16316363 -0.054756075 0.12391327
000090 a3 52 a6 3d 98 79 c2 3c 8f c9 a9 bd 7d a1 10 3d
       0.081212305 0.023739621 -0.082903974 0.035310257
0000a0 45 a3 ee 3d e3 43 44 3d 7c da 36 be 76 9c 26 3e
       0.11652235 0.047916304 -0.17856783 0.16270623
0000b0 4c 00 2d bd ec 27 0f 3e f7 3c 07 3e 6b 46 71 3e
       -0.04223661 0.13980073 0.1320685 0.23562019
0000c0 1f 00 30 3e 21 5e 44 3d d8 91 3f 3e 8e 26 93 3e
       0.17187546 0.04794133 0.18707979 0.28740352
0000d0 24 ef cc bd a2 54 14 3e fb fc 9e bb 49 64 69 3c
       -0.1000655 0.1448541 -0.004851935 0.014245101
0000e0 b4 54 b7 3e b5 23 8e 3a 32 69 5a 3e 03 16 e7 3d
       0.3580681 0.0010844382 0.21329191 0.11283495

weight f4 [60, 60]
000000 af f8 86 3e 0b 2c eb bd ab 51 0b bd 97 f9 2e 3e
       0.26361606 -0.1148301 -0.03401343 0.17087398
000010 c1 02 45 be 3b 6d 09 be 3f 81 dd bd b5 0f 30 3f
       -0.19239332 -0.13420574 -0.10815667 0.6877397
000020 23 fe b2 be 3f f1 78 3c a5 86 86 3e df c0 c7 bc
       -0.34959516 0.015194236 0.262746 -0.02438396
000030 05 e2 2c 3d fe d7 eb 3d 39 2b 02 3d 0f 90 09 bd
       0.042207737 0.115158066 0.0317795 -0.03358465
000040 2d f5 ad bd 96 8c 11 3f 17 5a b4 3e 61 e7 53 3e
       -0.08494029 0.5685514 0.35224983 0.20693733
000050 93 53 32 3e 14 46 fc bd fe 4e 09 3e eb 68 84 be
       0.17414694 -0.12318054 0.1340904 -0.25861296
000060 31 04 14 bf 97 78 03 be c9 5e be 3e c1 ff 9e 3e
       -0.57818896 -0.1283897 0.3718169 0.310545
000070 41 c8 8e 3e 0f 2f 76 be f4 c6 f3 3e c7 2d 1d be
       0.27887157 -0.24041389 0.47612727 -0.15349494
000080 74 b4 62 be f2 a3 46 3e b8 0a 9a 3d 7e 93 29 be
       -0.2213915 0.19398478 0.07521576 -0.1656017
000090 c6 2f 4e bd 4b dd 2f be fe 92 a0 3e dd d6 ec be
       -0.05033853 -0.1717426 0.31362146 -0.46257678
0000a0 fc 78 16 3a 28 62 82 3e ef 33 ba 3e 99 48 2d be
       0.0005740074 0.25465512 0.36367747 -0.16922225
0000b0 b6 bc 09 3f 12 10 42 3c f3 94 8f 3e 93 df 45 3e
       0.53803575 0.011844652 0.28043327 0.19323568
0000c0 19 bc 21 bd 61 75 df 3d 3e f6 38 3d 95 e9 41 3e
       -0.039486025 0.1091106 0.04515671 0.1893676
0000d0 63 29 ad be 34 fe 2f 3e 8f 47 01 3f 6e c6 52 bb
       -0.33820638 0.17186815 0.50499815 -0.003216173
0000e0 88 c9 30 3e d4 71 b0 3b 91 f8 c0 3d da 84 d8 be
       0.17264378 0.005384663 0.0942241 -0.42288858
0000f0 19 e1 3a be cc 0f 21 3d 63 a9 9e 3e a3 5d 09 3f
       -0.1824993 0.039321706 0.30988607 0.53658503
000100 12 78 41 be d0 08 75 3d 08 b0 a1 bd 67 2f 4a 3f
       -0.1889346 0.059822857 -0.078949034 0.7897858
000110 92 eb a0 be cb 60 93 be 3b 9b 41 bd 3a 8b 6a 3e
       -0.31429726 -0.28784785 -0.04726718 0.22904673
000120 e1 b7 85 3d a0 48 00 3f ea 1d 49 3e a0 4f 3a bd
       0.06529213 0.50110817 0.19640318 -0.045486093
000130 ca 75 d6 3a 38 6f 16 3e 49 ed 4b 3e bf 0c 03 bf
       0.0016362008 0.14690864 0.19914736 -0.51191324
000140 d8 82 10 3e 13 7e 83 3d c8 84 4b 3d 45 67 74 bd
       0.14112413 0.06420531 0.049687177 -0.059668798
000150 ca 55 19 bf 28 13 86 bd 0c 6a c5 3e d0 67 0f 3f
       -0.5989653 -0.065466225 0.3855747 0.5601778
000160 16 92 18 3f b3 54 56 3d 0a a0 b4 3e 42 16 3f be
       0.5959791 0.05232687 0.3527835 -0.18660834
000170 3e 5c 3d 3e 82 bd c6 3e d5 d4 c8 3e ce bf 8f 3e
       0.18492219 0.38816458 0.39224878 0.28076023
000180 a6 f9 d6 bd c1 d1 bb 3d 80 6b 8a 3e b6 72 24 3e
       -0.104968354 0.09170867 0.2703514 0.16059384
000190 87 a3 c6 3e 2e 74 0d bc e8 6b c4 3d 6c ab a2 be
       0.38796636 -0.008633656 0.09590894 -0.3177141
0001a0 23 ff 8f 3e 16 ea 93 3e 1c 3a e8 3e 05 8b 17 3e
       0.2812434 0.2888953 0.45356834 0.14799125
0001b0 a2 89 80 bd 93 5b 3a 3e fd 0f 55 be 24 8f 0f 3e
       -0.062762514 0.18198995 -0.2080688 0.14019448
0001c0 e2 59 75 be 39 7f ae 3d ec b8 1b 3f 55 8b e7 3e
       -0.23960069 0.085203595 0.60829043 0.4522349
0001d0 87 b5 cb bd 93 ff d0 3d 48 70 7e 3d 70 01 2e bf
       -0.09946733 0.10204997 0.0621188 -0.67970943
0001e0 c1 1b 09 3f 8a 03 d0 3d e8 83 02 3e 28 e7 e0 3d
       0.53557974 0.10156925 0.1274563 0.109815896
0001f0 8a 6e 85 be bd 2b 37 be e3 07 70 bd 46 43 00 3f
       -0.26060897 -0.17887779 -0.05860127 0.5010265
000200 3a 35 2b be 91 8f b7 bd 08 3c 06 3e a8 14 12 3e
       -0.16719523 -0.0896293 0.13108838 0.14265692
000210 bd 1f 40 3d 80 a9 4b 3e 6f 44 bf bd f3 7d 91 bd
       0.046905268 0.19888878 -0.093392245 -0.07104101
000220 6b f9 d9 bd 94 f8 fa 3e 5d d5 93 3e 4b 05 89 bd
       -0.10643276 0.49017775 0.2887372 -0.06690463
000230 91 93 32 3e 60 09 24 be 76 73 5e 3d e2 d1 c6 bc
       0.17439105 -0.16019201 0.05430933 -0.024270002
000240 05 a5 1c bf e8 43 a3 bd 11 0e 4e 3e 41 6e 89 3e
       -0.611893 -0.079719365 0.20122553 0.2684193
000250 42 ed 6f 3d 10 ab 56 be fb d5 95 3e 9d 44 42 be
       0.058575876 -0.20963693 0.29264817 -0.18971486
000260 de c2 17 be d7 36 8c 3e 37 62 50 3e 08 d5 13 be
       -0.1482043 0.2738559 0.20349966 -0.14436734
000270 ab ba 60 be 3d a7 dc 3d f6 28 83 3e e0 50 78 be
       -0.21946208 0.10774086 0.25617188 -0.24249601
000280 c5 54 f0 bc 0e 42 01 3f f2 c8 ad 3e ea 29 31 be
       -0.029337296 0.50491416 0.33942372 -0.17301145
000290 db 6c 04 3f 21 59 23 3d 2b 52 bf 3e b0 2a b9 bb
       0.517286 0.03987992 0.37367377 -0.0056508407
0002a0 ad 6a 95 bd cc a3 db 3d 03 02 12 be 61 3f 92 3d
       -0.072957374 0.10724601 -0.1425858 0.07140995
0002b0 c8 9e c4 be fb 4b 93 3e bf 99 1d 3f c5 81 28 bd
       -0.3840239 0.28768906 0.6156272 -0.041139383
0002c0 34 91 e8 bb 4b d3 fe bd ce 8c 1b 3e ee 09 f0 be
       -0.0070973877 -0.12442645 0.15190431 -0.46882576
0002d0 f4 3a 2f be dd 66 88 be 89 08 3a 3e 5e 3c a0 3e
       -0.17112333 -0.26640978 0.18167318 0.31296057
0002e0 fc 0e 2b be df 08 03 be 2a 69 b4 bc 9b 00 0b 3f
       -0.16704935 -0.12796353 -0.022022802 0.542978
0002f0 9b 80 72 be 83 f1 db bd 2c 1e 3c bd b5 2f f4 3d
       -0.23681872 -0.10739424 -0.04592721 0.11923162
000300 02 ad 4e bb 20 1f 96 3e 17 46 58 3e ed 20 9d 3c
       -0.0031536226 0.29320621 0.21120487 0.01918074
000310 c4 e1 59 be 77 98 85 bc 57 24 99 3e 76 08 57 be
       -0.21277529 -0.016308052 0.29910538 -0.20999321
000320 93 df ec be 23 ca d1 bc bc 08 f1 3e 50 ae 23 bf
       -0.46264324 -0.025609082 0.47076976 -0.63937855
000330 c9 32 f0 be e5 d0 1d 3e 7f 7d 32 3e 0d ac 11 3f
       -0.46913746 0.15411718 0.17430685 0.56903154
000340 ff 97 4c bc 30 90 dd 3d 4e 7f 67 3e ab fd aa 3d
       -0.012487411 0.10818517 0.22607157 0.083491646
000350 3b 72 9f 3e 37 7c 74 3c e6 c5 38 3e 9b f4 98 3d
       0.31141838 0.014922193 0.18044242 0.0746853
000360 02 5e 69 be ba 50 74 be 25 55 69 3e 10 d4 fb 3d
       -0.22789767 -0.2385892 0.22786386 0.12296307
000370 84 c3 e8 3e 77 4c 4d bd ab 91 b0 3d a1 87 85 3c
       0.45461667 -0.05012175 0.08621534 0.016300024
000380 25 d3 90 3c 28 2c bd 3d 10 c8 ea 3d f8 68 3e 3e
       0.017678807 0.09236938 0.1146394 0.1859473
000390 2c 6d 46 3d f6 a7 b8 be bb 77 89 3c 86 bc 4c bd
       0.04844396 -0.36065644 0.016780725 -0.049984477
0003a0 a2 d0 a1 3d 4f 7b 88 3e b2 70 0e 3f 11 60 06 3c
       0.07901122 0.26656577 0.5564071 0.008201615
0003b0 44 a2 44 be 7a e6 24 3e ba 8d 12 be 5a 2c c5 be
       -0.19202524 0.16103545 -0.14311877 -0.385104
0003c0 2f 7e b3 bd c6 fc 1a be ca e4 16 bd 99 2a 4d 3e
       -0.08764302 -0.15135488 -0.036839284 0.20035781
0003d0 b0 e4 03 be 8e f1 4e 3c 01 61 83 3d 98 23 12 3f
       -0.12880206 0.012630833 0.064149864 0.5708556
0003e0 2a 2b 45 be 32 62 b3 bb cb 5f 7b 3e e0 aa a5 3d
       -0.19254747 -0.0054743523 0.24548261 0.080892324
0003f0 e8 f2 ff bc 1d 45 de bd 50 3e 3b be 51 de 20 3d
       -0.031243756 -0.10853026 -0.18285489 0.039274517

bias f4 [60]
000000 b7 d0 f0 bd d2 94 9f 3c a7 b6 90 3d 3c cb fd bc
       -0.11758559 0.019480143 0.07066088 -0.030980699
000010 ae 1a 13 3e 15 6c 15 3e c9 87 17 3e 9e d3 01 3e
       0.14365646 0.14592011 0.14797892 0.12678382
000020 20 f2 3d 3e 22 81 91 bd 40 20 0d 3e bd dc 45 be
       0.18549395 -0.07104708 0.13781834 -0.19322486
000030 0d 51 d0 bd f5 ee ee ba e9 82 7b bd 2a ab 1d bd
       -0.10171709 -0.0018229174 -0.061404143 -0.038493313
000040 43 e2 c3 3d 54 c9 6e 3d f4 d6 73 3c f3 ce 48 3d
       0.095646404 0.05829747 0.014882792 0.049025487
000050 8f 5a 1d 3e 9e 04 d1 bd 67 b1 9e bd 61 fe 21 be
       0.15366577 -0.10205959 -0.077486806 -0.15819694
000060 d4 5f d4 3d b8 cd 20 bd f8 9d fb bd df 7d 7a bd
       0.1036984 -0.03925869 -0.122859895 -0.061155196
000070 95 42 1c bd 74 9e fa 3c 16 64 45 3e c2 db 02 3e
       -0.038149435 0.030593134 0.19276461 0.12779143
000080 84 83 a6 bc c1 5a a2 bd 73 1c 38 3b 43 74 a4 3d
       -0.020326383 -0.07927466 0.002809313 0.08029988
000090 80 61 99 bb 2a 28 29 3e b2 e2 c7 bd 96 ba ac 3d
       -0.0046808124 0.16519228 -0.097600356 0.08434026
0000a0 19 12 ea 3d 23 e2 60 3d bc aa 01 be 33 aa 85 bd
       0.11429233 0.05490316 -0.12662786 -0.065266035
0000b0 3a bc 7b bc 76 2b 45 be 12 43 ef bd a8 c5 75 3c
       -0.015364701 -0.1925486 -0.116827145 0.015000738
0000c0 93 86 11 bd 4c df a6 3d c3 91 e7 3d f6 37 ce 3d
       -0.03552873 0.08148059 0.11307099 0.100692675
0000d0 87 37 10 bd 22 75 0d bd 17 29 3c be e5 5f 22 3e
       -0.035209205 -0.034535535 -0.1837505 0.15856893
0000e0 3d 68 4f 3e d7 85 fc bd 42 64 3d bd e0 c7 ea 3b
       0.20254607 -0.123302154 -0.04623819 0.0071649402

weight f4 [60, 60]
000000 a9 56 8b 3e e4 86 45 3d 1b 2e d5 3e 47 c6 04 bf
       0.27214554 0.048224345 0.41636738 -0.5186505
000010 8e 87 af bd f4 39 1c 3e 23 81 3f be 41 23 60 3d
       -0.08570777 0.15256482 -0.18701605 0.05472112
000020 2f 5c eb bd 5f b4 8e 3e 00 ac 23 3d da bd a8 be
       -0.11492192 0.27871987 0.039958954 -0.32957345
000030 f3 8a 79 3e d8 00 60 3e 98 d2 1c 3f 44 5c 13 3e
       0.24369411 0.21875322 0.6125884 0.14390665
000040 84 d6 80 3e 87 41 31 bf 6e aa 97 bd 35 35 6c 3f
       0.25163662 -0.6924061 -0.07405554 0.9226869
000050 33 24 20 3e f1 f5 31 be 38 83 84 bf 91 fa 45 be
       0.15638809 -0.17378975 -1.0352545 -0.19333865
000060 80 8a b9 3b 77 a1 ff 3d e8 83 a3 3c e0 74 44 be
       0.0056622624 0.12481969 0.019960359 -0.1918521
000070 f8 1f 1c bd d9 29 5c 3e 3b 94 4d be 38 43 47 be
       -0.038116425 0.21500339 -0.20076077 -0.19459236
000080 91 08 ba bd ca 32 af bd 67 44 82 3e 55 64 e4 3c
       -0.09083665 -0.08554609 0.25442812 0.027879873
000090 b5 e3 7c 3e 1e 71 0f 3e 59 ff 54 3e 9c 5d 4d 3e
       0.24696238 0.14007995 0.20800532 0.2005524
0000a0 bd b5 80 3e 8a 28 2b 3f d8 61 2d 3e fe f6 03 be
       0.25138655 0.6685873 0.16931856 -0.12887189
0000b0 b8 bd 41 be 0d 63 87 3d f8 5e a9 3e 2c 49 b5 3e
       -0.18920028 0.06610689 0.33080268 0.35407388
0000c0 a8 36 35 3e a7 e9 45 3e 0e 83 87 3d 37 12 87 bd
       0.17696631 0.19327413 0.066167936 -0.06595271
0000d0 d3 c1 4d 3e 73 02 af bd 08 07 f9 be 9e ad 28 3d
       0.2009347 -0.08545389 -0.48638177 0.0411812
0000e0 14 3b fa 3d 92 d1 ac 3e 59 46 95 3e fc ce 1e 3d
       0.122182995 0.3375364 0.29155234 0.038771614
0000f0 80 92 5c be 53 2d 80 3c 83 d1 cb bd a9 50 49 3e
       -0.2154026 0.015646612 -0.099520706 0.19659676
000100 49 44 ef 3d d7 3b a4 3e 67 ae db 3e 00 bf d7 bc
       0.11682946 0.32076904 0.42906496 -0.026336193
000110 e4 32 3a 3e 1d a6 a3 be 4d f9 89 3e 18 6e b4 3d
       0.18183476 -0.31962672 0.26948014 0.08810061
000120 67 9d 58 be a8 b6 1c 3e 39 a9 de be b5 fc ed be
       -0.21153794 0.15304053 -0.43488482 -0.46481863
000130 a7 0e 12 be c9 36 f8 3d 8a 3c 24 3d 95 cc f2 be
       -0.14263402 0.121198244 0.040096797 -0.4742171
000140 d3 2b 64 be 97 89 01 3e 0d 57 80 3e df 9f 44 3d
       -0.22282343 0.12650143 0.25066414 0.048004027
000150 0f fe a9 3c 4c 1b 08 3d b9 91 d8 bd dc 39 22 3d
       0.020751027 0.033229157 -0.105746694 0.03960596
000160 23 02 88 3e 2d 1b a1 bd ed 6a 21 3e 18 2f 9d 3e
       0.2656413 -0.078665115 0.15763445 0.30699992
000170 15 df a0 3e 06 64 f1 bd 34 9b 8b be 40 9c ab 3e
       0.31420198 -0.11786656 -0.27266848 0.33517647
000180 f1 14 92 3d 92 7c e2 bd a8 02 35 3d 56 b9 1c be
       0.071329005 -0.11058916 0.044191986 -0.15305075
000190 17 fd 9f be 7a e1 d2 be 51 4b 6a 3b 03 93 72 3e
       -0.3124778 -0.4118765 0.0035750458 0.23688893
0001a0 14 2c 12 3e cd 62 0c bf d5 ac 8a bb 38 9a 2c bf
       0.14274627 -0.5483826 -0.004232029 -0.6742282
0001b0 51 70 12 3e 8d b9 6d 3e 21 3b 16 3e 1f a8 31 3e
       0.14300658 0.23215313 0.14670993 0.1734929
0001c0 84 41 8d be 92 d1 98 3d 45 d8 90 3d 0b fb 80 3d
       -0.27589047 0.07461847 0.070725 0.06297883
0001d0 38 09 1f 3e 11 83 bd 3d 46 42 0d be 6a 82 fa 3d
       0.1553086 0.092535146 -0.13794813 0.12231906
0001e0 69 62 b6 3e 01 64 82 3d 06 72 ac 3e bf 05 48 be
       0.35621956 0.063667305 0.33680743 -0.19533442
0001f0 90 4e 19 3e 0c 00 4a 3c 93 1b 1f be 01 7a c1 bd
       0.14971375 0.012329113 -0.15537862 -0.094470985
000200 2a 39 ad 3c fa c4 86 3e 45 60 74 bc 34 82 84 3e
       0.021145422 0.26322156 -0.014915531 0.25880587
000210 58 9b ba be d2 fd 18 3e 06 53 8f be be 7f 4d 3e
       -0.36446643 0.14940575 -0.2799303 0.20068261
000220 47 b4 71 bf 35 e5 36 bf 03 0c 94 bd b9 94 fe 3c
       -0.94415706 -0.7144349 -0.072288536 0.031076776
000230 b3 b6 a7 bf 80 a1 98 bc f0 a3 b0 be bd 10 8f 3d
       -1.310263 -0.018631697 -0.34500074 0.069856144
000240 8d a9 71 3d 40 1d 29 3e a1 85 13 bd c5 27 b4 3e
       0.058999587 0.16515064 -0.03601611 0.35186592
000250 b2 a4 20 3d 7b 61 a6 3e 82 ee 83 bd 9b 69 a7 3c
       0.039219566 0.32496247 -0.06441976 0.020436099
000260 6e 90 6c 3e fd a0 4b 3e 09 fa d0 bd 71 17 33 bd
       0.2310197 0.19885631 -0.102039404 -0.043723527
000270 d0 bf a3 3c 3c 7c 3d be ea 95 5d 3d 27 f8 25 be
       0.019988924 -0.18504423 0.054098047 -0.16207944
000280 78 62 68 3e d8 fb 49 be ba c5 18 3e f6 71 0a 3e
       0.22693813 -0.19724977 0.14919177 0.13520035
000290 fc 92 98 3d 1d 88 2a be 4b 9f 0a 3f 41 b0 2d be
       0.0744991 -0.16653486 0.5414931 -0.16961767
0002a0 62 81 dc 3d 77 38 cc bd ef 8a ac be 77 9c 8d be
       0.10766865 -0.09971707 -0.33699748 -0.27658436
0002b0 eb 02 99 be 8f db ec be a3 5f 39 3e f2 17 24 3d
       -0.2988504 -0.4626126 0.18102889 0.0400619
0002c0 30 ca 4e 3d ac 72 39 3e 4c f9 71 3e d4 68 d5 bd
       0.05048579 0.1811015 0.23630255 -0.10420385
0002d0 8e ae 26 3e 39 7a 16 3e 7a a3 7b 3e 65 ef cf 3e
       0.16277525 0.14695062 0.2457408 0.4061233
0002e0 50 1e 92 3d 62 45 d6 be d9 f9 1c be f5 65 41 3e
       0.07134688 -0.4184981 -0.15329684 0.1888655
0002f0 c1 ca 86 be 69 e5 87 3d d0 c8 0a 3e 09 6b 78 3e
       -0.26326564 0.066355534 0.13553166 0.2425958
000300 00 37 bb 3d 3b 46 92 3d 04 09 53 be 66 d6 19 3c
       0.0914135 0.07142302 -0.20608908 0.0093894955
000310 e7 e9 b6 be b5 65 55 3e fa e9 ff 3e 5d 4c 76 be
       -0.35725328 0.2083958 0.49983197 -0.24052568
000320 58 60 07 bf f0 44 2b 3e 1c dc 85 3d 33 20 ec 3e
       -0.52881384 0.16725516 0.06536123 0.46118316
000330 0a f2 60 3e f4 b8 b7 3d 8d 6f 46 bd 0b a9 4e 3e
       0.2196733 0.08970824 -0.048446227 0.20181672
000340 a9 cc 70 bd be 66 53 bd 36 03 20 3e f0 f5 78 bd
       -0.05878893 -0.051611654 0.15626225 -0.06078142
000350 98 92 c5 3d 53 27 ee 3e 3c f4 75 3e b7 eb c8 bd
       0.09647101 0.46514377 0.2401895 -0.09810584
000360 b6 c1 d5 bd 06 c1 1e 3e cc ab a7 3d ac 22 c4 3e
       -0.10437338 0.1550332 0.081870645 0.38307703
000370 34 89 a1 3e 8e 0c 8b be 8f 36 a7 3e 67 51 16 3e
       0.3154999 -0.27158016 0.32658812 0.1467949
000380 6f fc 65 be f4 a0 06 3b ae c2 25 3e 05 78 16 3e
       -0.22459577 0.0020542713 0.16187546 0.14694221
000390 f0 7a 8e 3e bf 61 19 be 57 e3 87 3d 97 0a d1 3d
       0.2782817 -0.14978693 0.066351585 0.10207098
0003a0 ed c2 9b 3e e1 8e 15 3e e4 06 fd 3e 2a 7e f3 3e
       0.30422154 0.14605285 0.4941932 0.47557193
0003b0 11 70 57 bd fe 0d 2f bd 80 2a 81 3c f0 97 69 3c
       -0.05259711 -0.042737953 0.015767336 0.014257416
0003c0 a7 e1 1e 3e 6f 23 00 bd 83 00 48 3e d6 57 8d be
       0.15515767 -0.031283792 0.19531445 -0.27606076
0003d0 ec 84 73 3e 0d 2a 08 3c 20 40 98 3b 8a 8f cb ba
       0.23781174 0.008310807 0.004646316 -0.0015530449
0003e0 7b ee e8 3d db 2e 9e 3e 05 e1 a2 3d f3 7e a7 be
       0.113736115 0.30895123 0.07953075 -0.32714042
0003f0 01 d8 4f 3e 43 14 8d 3e fc 9e 0e 3f 6d ba af 3e
       0.20297243 0.2755452 0.5571134 0.3432192

bias f4 [60]
000000 a2 59 94 3d f1 0b 0e 3e 01 e4 68 be 0a 26 ba 3a
       0.072436586 0.13871743 -0.22743227 0.001420201
000010 88 eb b2 bd 0c 8b cb bd 19 a7 f3 bc 49 35 9c 3d
       -0.0873633 -0.099386305 -0.029742764 0.07627351
000020 95 53 47 bd c9 3a a9 bd 81 57 85 bd 2e cd 00 be
       -0.048663694 -0.082631655 -0.06510831 -0.1257827
000030 01 db b0 bc 71 1b ff bd 9c 33 6e bd d9 90 2d bc
       -0.021588804 -0.12456406 -0.058154687 -0.010593616
000040 0c c2 fa bc 66 7e eb 3c 4b f2 0b 3d 10 b0 c8 3d
       -0.030610107 0.028746795 0.034166615 0.09799206
000050 5d ef d0 bd 3b 08 9f 3b f1 cf 04 be d0 d2 6b bd
       -0.10201905 0.004853276 -0.12969948 -0.057574093
000060 59 f8 dc 3d bb 53 85 3e a1 39 13 3c 3b 00 18 be
       0.10789556 0.26040444 0.008985908 -0.14843838
000070 d8 62 7f 3d 16 e6 0c 3d 38 81 8c bd 80 72 22 3d
       0.062350124 0.034399115 -0.06860584 0.039659977
000080 7c 5e d6 3d 81 b4 02 be cd d6 e4 3d f5 47 6a be
       0.1046724 -0.1276417 0.111737825 -0.22879012
000090 48 10 27 bd e6 89 fd 3c ac c2 a7 3d a1 ba bc 3c
       -0.04078701 0.030949544 0.081914276 0.02303821
0000a0 61 bc 6a 3d 6e 4f e4 3c 6e 9b 3a 3d 25 49 63 be
       0.05730856 0.027869906 0.045558386 -0.22195871
0000b0 2d a5 ec bd a4 22 1e bd 19 9d b2 bc b5 39 89 bc
       -0.11554942 -0.038607255 -0.021803426 -0.01675115
0000c0 77 80 da bd bd a7 3d bd e6 e4 07 be 5a ab 1b bd
       -0.10669034 -0.046302546 -0.13270912 -0.03800521
0000d0 f3 d2 93 bc 92 79 c7 3d 78 20 f4 3c a2 32 49 3e
       -0.018044924 0.097399846 0.029800639 0.19648221
0000e0 e4 36 53 3d c1 37 11 bd 95 2e 05 3d 1f e1 d8 3d
       0.05156602 -0.03545356 0.032515127 0.105898134

weight f4 [60, 60]
000000 6f 1e f9 bc 00 92 a9 bd e3 db 43 be 23 cc e7 bd
       -0.03041002 -0.082798004 -0.19126849 -0.11318233
000010 e2 da 0c bf 6a c1 2f bd 07 41 29 be f0 04 f0 3d
       -0.5502149 -0.042909063 -0.16528712 0.11719692
000020 a6 82 06 bc 93 d7 82 3e 8b bb 98 be 52 48 8c bc
       -0.00820986 0.25555095 -0.29830584 -0.017124329
000030 02 b8 c6 bd 2c d3 48 3e 19 74 a8 be 58 04 c0 be
       -0.097030655 0.19611806 -0.32901075 -0.37503314
000040 35 ed d1 39 82 bc b0 3e 9b 2d ea be 06 51 be be
       0.0004004032 0.3451882 -0.4573792 -0.3717119
000050 cf 68 04 3e aa 5c be be 2a e0 87 3d 59 6e 38 be
       0.12930606 -0.37180072 0.06634553 -0.18010844
000060 8f 6a 8b bd 5b ff 2c be 03 c2 2b bc c3 c1 ee be
       -0.06807434 -0.16894285 -0.010483268 -0.46632203
000070 d9 4a 19 bc da 50 16 bd 1c 8d b5 3d 77 60 8d be
       -0.009356224 -0.0366982 0.08864805 -0.2761266
000080 26 d4 04 3d a6 ff 50 be dd 59 15 bd 8c d4 69 3e
       0.032428883 -0.20410022 -0.036462653 0.22834986
000090 a4 60 32 3e cb 45 04 3e 9a a4 00 3e 06 f7 97 be
       0.17419678 0.12917249 0.1256279 -0.2968065
0000a0 9d 10 54 3e 81 d0 af bd 81 33 ce be 32 49 da bd
       0.20709462 -0.08584691 -0.4027367 -0.10658492
0000b0 e3 bd 66 bd 19 fb 8f 3d c8 b3 dc bd 61 b7 4d bd
       -0.056333434 0.07030315 -0.10776478 -0.050223712
0000c0 b8 59 59 3d 69 2c 32 3e 78 5d 53 3e 18 52 83 bd
       0.053064078 0.17399754 0.20641124 -0.064121425
0000d0 a0 27 cf bc 67 7d 83 bd a2 95 31 3e 84 be 24 bc
       -0.02528745 -0.06420403 0.17342237 -0.010055188
0000e0 10 4f af 3b f7 0c 99 3d 22 d0 c6 bd 10 36 7c be
       0.005350001 0.07473176 -0.09707667 -0.24629998
0000f0 c6 78 d4 3c 82 78 1a 3e 3f 54 03 bd 29 a9 6a bd
       0.025936496 0.15085033 -0.032062765 -0.05729023
000100 2a bf ac 3d 28 05 c1 bd 77 26 90 bd 61 75 91 bd
       0.08434899 -0.094248116 -0.070385866 -0.071024664
000110 3c 08 2b be e0 ad 7c bd 0b 12 90 bd 4d 67 bc 3e
       -0.1670236 -0.061689258 -0.070346914 0.36797562
000120 c5 bf b0 3b 11 aa 1c be 88 af 55 3e 71 91 a4 3e
       0.0053939545 -0.1529925 0.20867741 0.32142213
000130 a0 0f 75 3e ac 18 43 be 74 1f 4c bd 6a 45 9c 3d
       0.23931742 -0.1905238 -0.049834684 0.07630427
000140 30 97 0d be ae e4 e0 3d 7f 54 20 3e 8e 46 b3 3d
       -0.13827205 0.10981117 0.15657233 0.087536916
000150 08 16 50 3d 17 1a ce 3e 1f f8 86 bd 62 78 28 3e
       0.05080226 0.4025428 -0.06590294 0.16452172
000160 ad 8c e2 3d 50 34 1b 3e 38 bd 03 3d 60 08 99 3e
       0.11061988 0.15156674 0.032162875 0.29889202
000170 2b 55 6f be 2a 67 39 3e 25 99 c5 3d 78 ab bf be
       -0.23372333 0.1810576 0.096483506 -0.37435508
000180 82 ff 22 3c 06 a1 41 be 8c e4 74 be 57 e3 a5 3e
       0.009948613 -0.18909082 -0.23915309 0.3240001
000190 70 5f 36 be 4e df c6 3d 73 e1 68 bf 82 75 05 3f
       -0.17809844 0.09710561 -0.9096901 0.5213243
0001a0 66 31 69 bd ef 03 14 3d d1 9f 32 3e ca 75 59 3e
       -0.056931876 0.036136564 0.17443778 0.21236339
0001b0 24 a7 70 3d fb 48 39 bd 15 a5 e0 bd 66 65 98 3e
       0.058753148 -0.045235615 -0.10968987 0.2976486
0001c0 71 2c 68 3b a5 dd 71 bf 61 5f de bd b1 68 7c be
       0.003542688 -0.9447883 -0.10858036 -0.24649312
0001d0 7b f1 2a 3e 65 b9 00 bf 01 d7 48 be 2e de a9 3e
       0.1669368 -0.5028289 -0.19613267 0.33177322
0001e0 8f 40 49 3e b3 8e 9a 3d 14 eb 27 3f 85 de 31 3e
       0.19653533 0.07546749 0.65593076 0.1737004
0001f0 fc 27 18 3e 78 b6 57 bc 3c 75 3e 3e c2 a3 85 be
       0.14859003 -0.0131660625 0.18599409 -0.261015
000200 22 eb 81 3e 48 7b d4 be 0e 4f 96 bd 08 87 80 3e
       0.25374705 -0.41500306 -0.07339297 0.2510302
000210 14 d1 ed bd 4c c2 34 3e 93 c7 99 3e bb 8f ed bd
       -0.11612144 0.17652243 0.30035076 -0.1159968
000220 a4 99 03 3e ce 96 42 bd 41 24 38 3c bf fd 4c 3e
       0.12851578 -0.0475071 0.011239112 0.20018671
000230 2b d2 36 3e e2 21 30 be fb 7a 98 be 3d 4a 03 3e
       0.1785361 -0.17200425 -0.29781327 0.12821288
000240 36 01 ba 3a f0 8c 48 3e ff fb e7 bc 24 88 88 3e
       0.0014191035 0.19585013 -0.028318403 0.26666367
000250 d2 a7 3e 3d ca ca 03 3e 6f 9d 65 3d 4b 5a 48 3e
       0.046546765 0.12870327 0.056058343 0.19565694
000260 2c e0 c2 bd eb a2 60 3d 5f e7 cc 3c a1 da 7f be
       -0.09515414 0.05484287 0.02501267 -0.24985744
000270 ed 60 79 3d 58 49 b1 3d 56 0d dc 3a 73 b6 de 3d
       0.06088345 0.08656567 0.0016788642 0.10874643
000280 1b 31 e1 3d 86 6d 2e 3e 39 67 b6 3e 68 e8 db 3d
       0.10995694 0.17033967 0.35625628 0.10737687
000290 b4 ad 9c bd 0d 9d dd 3c da f3 86 3d ce 0d 8a 3e
       -0.07650319 0.027052427 0.0658948 0.26963657
0002a0 ba 34 b8 bd 40 c4 8f be ae db cf be 6d 67 a8 3d
       -0.08994432 -0.28079414 -0.4059729 0.08222852
0002b0 36 f1 7d 3e 9e 52 00 3d 12 1a 3a be 8b d9 1e 3e
       0.24799046 0.03132879 -0.18174008 0.15512674
0002c0 fa df 03 3d 46 ab 23 be 1a be 14 3d ee 01 54 3d
       0.032196023 -0.15983304 0.036314107 0.051759653
0002d0 15 50 8e be 57 2a ef bc f2 a4 dc bd f4 50 5c 3e
       -0.27795473 -0.029194994 -0.10773648 0.21515256
0002e0 64 ef 46 be 38 be f9 3c f7 49 41 be df d4 d0 bd
       -0.19427258 0.030486211 -0.18875872 -0.10196852
0002f0 7a 48 b9 bd 06 cf 3f 3e 4f a1 05 bc 17 b1 cf ba
       -0.09047027 0.18731317 -0.008156135 -0.0015845624
000300 f3 d8 b7 bb a4 a1 83 be 56 5f 49 3b 61 c0 22 3e
       -0.005610579 -0.2570926 0.003072699 0.15893699
000310 2e 62 f6 bd 58 00 dd bc cd a2 9e be d4 cf cf bc
       -0.12030445 -0.026977703 -0.30983582 -0.025367655
000320 6b 31 32 3e e4 ba 9e bd 94 7d b9 be 05 c5 61 be
       0.17401664 -0.0775049 -0.3622862 -0.22047813
000330 de 08 48 be 0a 95 0b 3e ff 73 5a bd 6a be e2 3d
       -0.19534633 0.13631073 -0.05333328 0.11071475
000340 a2 9a 32 be 9b 5b 51 be 22 82 31 bd 27 79 0f 3d
       -0.174418 -0.20445101 -0.043336995 0.03502765
000350 c7 1f 97 bd bd 61 5d 3d 1e 35 4e 3d 5e b5 43 bd
       -0.07379108 0.05404829 0.050343625 -0.047780387
000360 60 c9 46 3e cd a6 13 3e 59 44 16 be 1f a5 64 3e
       0.19412756 0.14419098 -0.1467451 0.22328614
000370 fd da 1d be 8c 59 24 3c 7c 6a e9 3d 27 af 2f 3e
       -0.15415569 0.010031115 0.113972634 0.17156659
000380 14 ae c4 3e 74 27 39 bd 7a 70 53 3d b2 7a 0f 3d
       0.3841406 -0.04520364 0.051620938 0.03502912
000390 2f 27 81 bd ae b6 c5 3d c5 7c 3a be d0 3f 3f 3d
       -0.06306302 0.09653984 -0.18211658 0.046691716
0003a0 0d b5 71 be f3 bc 93 bd 36 42 e4 3d 3e 5a e2 bc
       -0.23604222 -0.072137736 0.11145441 -0.027630921
0003b0 b1 31 68 bd 72 fc 75 be 88 6e 5d be dc 65 90 3c
       -0.056688014 -0.24022081 -0.21624196 0.017626695
0003c0 2f ba 8d be af 51 fa ba 0c df 73 3b df 06 3f be
       -0.2768111 -0.001909783 0.0037211804 -0.18654965
0003d0 23 9a 22 3e 4b c6 ac bd 4c a7 9c b9 8e 08 3c be
       0.15879111 -0.08436259 -0.00029879285 -0.18362638
0003e0 66 e2 8c be 95 ff 0f 3f 2d a4 90 3e 79 87 c3 be
       -0.27516478 0.5624936 0.28250256 -0.38189295
0003f0 6f 49 f3 bd e7 55 a4 bd 23 69 cc be 15 13 24 be
       -0.11879241 -0.08024197 -0.39923963 -0.16022904

bias f4 [60]
000000 b6 4b ce bd c9 d0 82 3d fd a8 69 bd 79 a1 5e be
       -0.100730345 0.06387479 -0.057045925 -0.21741284
000010 5a 93 44 3e ba 1d 01 be 42 e2 11 3e 0b 58 9f bd
       0.19196835 -0.12608996 0.14246467 -0.07780465
000020 05 bb 2c be 82 bc 8f bd 8d ab 9b bd a8 a3 9f be
       -0.16868217 -0.07018377 -0.0760108 -0.31179547
000030 2b 4b d9 be aa 84 1c be e3 f5 2f 3e 9f 0e d8 bd
       -0.4244016 -0.15284982 0.17183642 -0.10549664
000040 45 c5 77 bd 70 f1 ed bd b1 e1 4b be 22 b5 41 3e
       -0.060490865 -0.11618316 -0.19910313 0.18916753
000050 c8 b5 62 3e 3d 07 02 be 83 68 90 be e4 73 25 be
       0.22139657 -0.12698074 -0.28204736 -0.1615749
000060 8e c9 8c be 97 a0 36 3d 82 92 90 3e 69 9f e7 be
       -0.27497524 0.044586744 0.28236777 -0.45238808
000070 c0 80 28 bc b3 35 4c be c1 9f 2c bd 68 3d 1a 3e
       -0.010284603 -0.1994236 -0.04214454 0.15062487
000080 a5 07 cb bd 11 ef 2f bd 94 2f 46 3d 1d 4f a1 bd
       -0.099135675 -0.0429526 0.048385218 -0.07876418
000090 d6 cd 59 be 6b 83 56 be 16 05 02 3c c7 9e 09 bd
       -0.21269926 -0.2094857 0.007935783 -0.033598687
0000a0 cd 18 1d 3e 64 7d 98 bd 25 85 fa 3d 3a 12 32 bc
       0.15341492 -0.07445791 0.122324266 -0.010868603
0000b0 3c da 25 be 03 2d 8a bd 16 24 31 3e 5c 60 a3 3d
       -0.16196531 -0.067468666 0.17298922 0.079773635
0000c0 94 bb 4c be 45 21 25 3d 77 d4 a3 bd de e8 e7 3d
       -0.1999343 0.04031493 -0.07999509 0.11323713
0000d0 90 a0 1e bd d0 34 b3 3d 4e ce 8e 3e 82 2a 5e 3e
       -0.038727343 0.087503076 0.27891773 0.21695903
0000e0 ff d0 9e bd 1d f2 32 be 8c f6 25 3e 2d 2e ff bd
       -0.077547066 -0.17475171 0.16207331 -0.12459979

weight f4 [10, 60]
000000 18 45 93 bd 17 f5 9c 3d e3 56 36 be 1a 39 18 3e
       -0.07190913 0.07663935 -0.17806582 0.14865533
000010 1c 5f cb bb 7d 93 d9 3d 5c 5d 20 be af 8e 0a be
       -0.0062064063 0.10623834 -0.15660614 -0.13530992
000020 b7 2e 43 bf 7e b7 95 bb c2 c4 22 bf 9d 14 32 3e
       -0.76243156 -0.004568993 -0.6358148 0.17390676
000030 e7 2a c9 3d 89 c9 98 bd 31 49 23 bc 88 c2 96 be
       0.09822636 -0.07460315 -0.009966181 -0.2944529
000040 c7 c4 2b 3d 46 15 99 bd fb a6 3f be df ed 82 be
       0.04193571 -0.07474761 -0.18716042 -0.25572106
000050 c9 e0 ab be e0 88 d1 3d 79 59 ec bd d1 69 a7 3c
       -0.33569935 0.10231185 -0.11540503 0.0204362
000060 c5 a4 32 3e a8 27 eb bd 7a 7f ef be ec 2a bf bd
       0.17445667 -0.11482173 -0.46776944 -0.093343586
000070 70 41 0e 3e ee e6 83 be 5f 45 ab be 58 eb 4f 3b
       0.1389215 -0.25762123 -0.33451363 0.003172597
000080 ab 2c d1 3d a1 a7 62 3e 40 39 45 3e 8c b0 30 be
       0.10213598 0.22134258 0.1926012 -0.17254847
000090 0e a5 a4 3e cc 72 42 3e 3e 87 ab be 30 fe bc be
       0.32157177 0.18989104 -0.3350162 -0.3691268
0000a0 fc 1b 45 3d 21 f9 d4 be 38 a7 18 3c 64 83 16 be
       0.04812239 -0.4159632 0.009317212 -0.14698559
0000b0 8c b0 b3 bd fc e3 85 3e 70 e1 69 be bd 78 02 bd
       -0.08773908 0.261505 -0.22839904 -0.031853426
0000c0 e5 36 12 be d3 1f aa 3e 83 e7 05 be be ec 85 bd
       -0.14278753 0.33227405 -0.13076596 -0.065392956
0000d0 e1 14 26 3e e0 63 6f be 5f 06 e3 bd 03 86 d5 bd
       0.16218902 -0.23377943 -0.110851996 -0.10425951
0000e0 5d e0 a2 3d ce 6a b8 3e 89 c9 4a be 00 29 93 3c
       0.0795295 0.36018986 -0.19803442 0.017963886
0000f0 4f d9 3d 3e 98 a2 09 be ba 2d f6 bd 45 7b 84 bf
       0.18539928 -0.13440931 -0.120204404 -1.0350119
000100 b3 ae 35 3e d3 0b a2 bf 19 21 33 bf 75 49 83 3e
       0.17742424 -1.2659858 -0.6997238 0.2564198
000110 01 18 97 bf ac 91 1a 3b 8a 4a ae be d1 44 6e be
       -1.18042 0.0023585362 -0.34041244 -0.23268439
000120 68 88 94 bf 0d 02 00 c0 91 a2 e7 be 44 e4 21 be
       -1.1604128 -2.0001252 -0.45241216 -0.15809733
000130 65 f7 f4 be a3 d8 2c bf c4 8e c3 be 81 c0 03 bd
       -0.47844997 -0.6751806 -0.3819486 -0.032166008
000140 ec ed 54 bf 4a 72 be bf 3c 82 9d bf 9c 16 b2 bc
       -0.8317554 -1.4878628 -1.2305369 -0.021739297
000150 67 f2 c9 be 40 1e 97 3d 78 da 2d bf 31 3a 01 3e
       -0.3944275 0.073788166 -0.6791148 0.12619855
000160 2a b4 33 be 50 fe a1 bc cb 4d 34 bc 8f d0 81 bd
       -0.17549196 -0.019774586 -0.011004875 -0.063386075
000170 0b b9 52 3b aa 19 4d 3e e8 d2 e5 3d f7 37 4d 3e
       0.0032153751 0.20029321 0.11221868 0.2004088
000180 da 72 4c 3e 1a 4c ec bd 5d a5 13 be 38 fa 01 bf
       0.19965687 -0.11537953 -0.1441855 -0.5077243
000190 90 b0 af 3e ee 35 8d 3e 6b 31 9d be da 75 0f 3e
       0.34314394 0.27580208 -0.30701765 0.140098
0001a0 43 31 64 3e ef d0 8a bf b0 8b fd 3c 48 44 0a c0
       0.22284417 -1.0845011 0.030950397 -2.1604176
0001b0 26 9e 0b be d3 17 b2 bf 53 66 61 c0 50 a5 06 c0
       -0.13634548 -1.391352 -3.5218704 -2.1038399
0001c0 60 85 a4 3d 8b 91 52 be 99 19 34 3e db 4a 8a c0
       0.08033252 -0.20563333 0.1758789 -4.3216376
0001d0 62 bd da bc 50 51 2b bd f5 e1 72 be 60 55 74 bc
       -0.026701633 -0.041825593 -0.23719008 -0.014912933
0001e0 f5 f8 7f be 01 54 2f bd d9 c0 65 be de a3 2e bf
       -0.24997313 -0.04280472 -0.22436847 -0.6821879
0001f0 d1 52 9f 3e 9b 74 34 be 06 33 83 3e b3 a0 a9 3e
       0.3111787 -0.17622606 0.25624865 0.33130416
000200 cb ed d8 ba be 60 82 bd 7b 42 c0 bf d4 f3 08 c0
       -0.001655036 -0.06366108 -1.5020288 -2.139882
000210 88 73 fe bf 41 bc 05 bd 49 a1 84 bf 77 cf ca bd
       -1.9879007 -0.032650236 -1.036172 -0.09902852
000220 9e 7e 68 3e 18 5d 5e 3e 8b 94 33 bf 83 47 17 bd
       0.2270455 0.217152 -0.70148534 -0.036933433
000230 a9 40 b6 3e 94 95 50 3c 9d 97 1b bc 01 d5 99 bf
       0.35596207 0.012730975 -0.009496597 -1.2018129
000240 e1 fd 15 bf 01 9d db bd 3d 88 a5 3e e7 9b d6 3d
       -0.58590513 -0.107233055 0.32330504 0.10478955
000250 1a 9f ea bc 3a 3a 8a bf ae 46 13 3f a0 85 14 3e
       -0.028640319 -1.0799019 0.57529724 0.14504099
000260 d5 79 5f bd ef 50 93 be d5 8f c3 3c eb 66 de bd
       -0.054559547 -0.28772685 0.023872295 -0.10859474
000270 f9 04 cd bf 71 04 1d c0 fa 80 66 be 06 f4 0c c0
       -1.6017143 -2.453396 -0.22510138 -2.202394
000280 bd 5e 30 bf c1 7f c2 bf 2e 19 60 bd cb 12 a9 bf
       -0.6889456 -1.5195237 -0.054711513 -1.320886
000290 3d 03 d7 3e e6 2d 2b c0 09 8b cc be 26 ec f4 bd
       0.41994658 -2.6746764 -0.39949825 -0.11959104
0002a0 29 84 1e 3e 62 59 0c c0 77 08 bf be 32 a1 1d be
       0.15480103 -2.1929555 -0.37311146 -0.15393522
0002b0 c4 8a f2 bf 3b ae 1f bd ca de 64 3d 85 54 97 3d
       -1.8948598 -0.03898452 0.05587653 0.07389168
0002c0 c8 60 42 bf ae 27 17 bf 73 d8 0c be 98 33 39 bd
       -0.75928926 -0.5904492 -0.13754444 -0.04521522
0002d0 99 1b e1 bc 19 12 ad 3d 3d 42 29 3e 89 af d2 be
       -0.02747898 0.084507175 0.16529174 -0.41149548
0002e0 ab 74 82 3d ce fa 60 be 8d 01 40 c0 d3 7c f8 3d
       0.06369909 -0.21970674 -3.0000947 0.12133183
0002f0 88 85 97 bd bc e4 cf bd f9 e3 14 c0 9f 8a d8 be
       -0.07398516 -0.101510495 -2.3264143 -0.4229326
000300 89 10 83 3d 23 25 56 3e 54 4c b6 bf 9d f8 77 be
       0.06399638 0.20912604 -1.4242043 -0.24215932
000310 15 ac ac bd a3 9b 0e 3e ec 5d 09 c0 27 f3 bb be
       -0.084312595 0.13926558 -2.1463575 -0.36708948
000320 c1 7b 8c bf 69 ee a9 bc 0b 86 39 3e bc b1 2b 3e
       -1.0975267 -0.020743566 0.1811754 0.16767019
000330 0a ae 56 3d 52 0c 0a 3e 71 42 1c c0 cc 54 00 3e
       0.05241207 0.13481262 -2.4415553 0.12532347
000340 0c 27 40 3d 0f 25 39 bf eb 46 20 be d3 12 c0 bd
       0.046912238 -0.7232217 -0.15652053 -0.093785904
000350 d3 8e 3b 3d a9 12 c1 bd 54 58 0d 3d eb f5 02 be
       0.045790505 -0.09427387 0.034508064 -0.12789123
000360 62 94 96 bf 6b 42 4f bf 7d d5 d1 3e 89 6c 4d be
       -1.1764033 -0.8096072 0.4098319 -0.20060934
000370 49 22 d7 bd 15 29 bd bf 36 d9 88 bf 4d d9 2c bf
       -0.10504586 -1.4778162 -1.0691288 -0.67519075
000380 ec 25 46 3e 12 4c 97 bf 1e 3b 83 be 7e 89 2c 3e
       0.19350404 -1.182009 -0.2563104 0.16849324
000390 73 8f c7 3d bd 6a 93 bf 2f 98 a6 3e d1 88 b1 3d
       0.09744158 -1.1516949 0.32537982 0.08668674
0003a0 e6 9a 0b bf 47 35 40 be aa ed 91 3d 68 6c aa bf
       -0.5453323 -0.18770324 0.07125409 -1.3314333
0003b0 7f 05 18 3c 7b 25 17 c0 50 0f 5a c0 62 ff b6 3d
       0.009278654 -2.3616626 -3.4071846 0.08935429
0003c0 0f e6 b7 be 2f 1d 1c be 00 3d a2 3d 9b 0c cc be
       -0.35917708 -0.15245508 0.07921791 -0.39853367
0003d0 b9 4b 98 bd 34 4c fe be 98 90 cc bf 07 7c 6f 3d
       -0.07436318 -0.49667513 -1.5981627 0.05846789
0003e0 f6 64 83 bf 7b f7 77 3c f1 34 0e 3e f7 51 1c c0
       -1.0265186 0.015134688 0.13887383 -2.4425027
0003f0 2b 7e 40 c0 36 73 91 3e c7 3f 5c be 3c 6f bc 3e
       -3.0077007 0.2840821 -0.21508704 0.36803615

bias f4 [10]
000000 9a 93 c3 bd ad c1 84 3d b3 9b 05 3d 2f 5e 32 be
       -0.09549637 0.06482253 0.03261919 -0.1741874
000010 a0 33 de bd 0d 08 a1 3d b1 e0 9d 3e c5 dc 92 3e
       -0.108496904 0.07862864 0.30835488 0.2868406
000020 80 b8 26 3e 2e e1 98 be
       0.16281319 -0.29859298
